output/ODE_PINN/weight.pth (torch, 45185 bytes, 11 tensors)

nn.layers.0.weight f4 [50, 1]
000000 7d 1e 88 3e 0b 13 5c bd 91 14 70 bc 05 5b 7d 3e
       0.2658576 -0.0537291 -0.014653341 0.24741752
000010 ba 29 a2 3e 71 6b c1 3d 42 5f 77 bd 19 e0 65 bd
       0.3167246 0.09444321 -0.06039358 -0.05612192
000020 77 de 0c 3e c1 0f 91 be e6 cf 3d be 91 81 a9 3e
       0.13756739 -0.28332332 -0.18536338 0.33106664
000030 52 2c aa be af 1c 9d 3d 6e 39 9c bd 2b a4 96 be
       -0.3323694 0.076714866 -0.07628141 -0.29422125
000040 92 fb 84 3d c3 5d 28 3e 7c b3 3c be aa c4 e1 bd
       0.06493296 0.16442017 -0.18427843 -0.11023839
000050 ae 58 01 3e ee d4 c3 3d 61 67 d6 3e 0e 0d 23 3e
       0.12631485 0.095620975 0.41875747 0.15922949
000060 07 c8 90 be 4a 45 3c bd fb a8 1a be 97 68 a2 3e
       -0.2827761 -0.045964517 -0.15103523 0.3172042
000070 13 cf fb bd d3 d9 f4 3d 59 aa 0c be 49 d0 1c be
       -0.12295356 0.11955609 -0.13736857 -0.1531383
000080 8e f8 01 be 5e 72 cf bc 00 01 0e be 36 be 42 3e
       -0.12692472 -0.02532309 -0.13867569 0.19017872
000090 c8 16 d4 3e e5 31 44 3e 07 ff 3c be 62 e0 c6 3d
       0.4142363 0.19159658 -0.1845666 0.097107664
0000a0 82 83 36 3b 79 b9 1a 3e eb 82 83 bd 7f af 88 3e
       0.002784938 0.15109815 -0.06421455 0.26696393
0000b0 33 99 57 3e fa b7 39 3e d2 66 d4 3e 8d 88 4a bd
       0.21054535 0.18136588 0.41484696 -0.04944663
0000c0 dc c9 94 bd a1 3a c7 3e
       -0.07265064 0.38911918

nn.layers.0.bias f4 [50]
000000 92 3b b5 3b 51 8b d3 bb 00 9a 8d bb 83 4f 07 bb
       0.005530783 -0.006455817 -0.0043213367 -0.0020646758
000010 f0 d4 5a 3b ae f1 69 3c 69 ae 18 bb 49 c1 ef 3a
       0.003339108 0.014278812 -0.0023297316 0.0018291856
000020 e7 57 54 bc 75 46 cd bb 3e 8d 81 3c 21 f0 a2 3a
       -0.012960411 -0.0062645026 0.01581442 0.0012431183
000030 d5 32 2b bb b2 5d 82 ba 8f ca bb bc 90 39 2b ba
       -0.0026122828 -0.0009946136 -0.022923736 -0.000653171
000040 52 7d 20 3c 36 0c e1 bb 3c 02 02 bc 9b 68 9d 3c
       0.009795504 -0.0068679107 -0.007935103 0.019214919
000050 9b de 1c 3b a6 9f af 3b af 00 9a 3a 63 39 1f bb
       0.0023936394 0.0053596077 0.0011749471 -0.002429568
000060 4b 71 0d 3c f9 6d 28 3c f7 f2 d2 bb c7 de 2b ba
       0.008632968 0.010280126 -0.006437655 -0.0006556329
000070 cb 53 66 bc eb 3a 0c 3d fe a8 65 3c d9 d2 42 3c
       -0.014058064 0.034235876 0.014017342 0.01189109
000080 2d 95 cf bb a0 0e b2 bb f1 80 7e bb 2f df 24 3c
       -0.006334922 -0.0054338723 -0.003883418 0.010062977
000090 f1 21 ec bb 99 9b c5 3b b4 92 42 3c 7e 2d a1 3a
       -0.0072061946 0.0060305116 0.011875797 0.0012296883
0000a0 6b 22 55 bc 15 e3 51 3c 57 91 31 bb 97 b1 53 bb
       -0.013008694 0.012810488 -0.0027094686 -0.0032301897
0000b0 69 9f ae 3a d8 3b 0e 3c 6c b7 ad bb e5 d7 6c 3b
       0.0013322654 0.00868126 -0.0053014066 0.0036139425
0000c0 aa 9e 12 3c fa 5f 88 bc
       0.008948961 -0.016647328

nn.layers.1.weight f4 [50, 50]
000000 c7 97 8d be 56 7c 33 bc 8e 81 24 be d1 0c 3f 3d
       -0.2765486 -0.010954937 -0.16065046 0.046643082
000010 21 5d 8e 3d da 3c 18 3e df 0d c7 bd 76 7e fc bc
       0.06951357 0.14866963 -0.097194426 -0.03082202
000020 f3 4e f9 bd 11 86 4f 3e 5a c2 f5 bd 31 2a 8c bb
       -0.121732615 0.20265986 -0.1199996 -0.0042774905
000030 78 f4 3a 3e 60 46 12 bc 04 9e 74 3d 61 36 01 3e
       0.1825732 -0.0089279115 0.059721008 0.126184
000040 60 c5 a3 3d 06 61 47 3d 51 98 34 be f6 84 a8 bc
       0.07996631 0.048676513 -0.17636229 -0.020571213
000050 f8 6c da bd 27 2f 7a 3e 37 f2 24 be 51 bc 06 3e
       -0.106653154 0.2443205 -0.16108023 0.13157775
000060 17 3a 96 3e 29 61 e6 3d 62 fe 9a 3c b8 70 8e 3c
       0.29341194 0.112490006 0.018920127 0.017387733
000070 7d 51 ab 3d 26 1c 38 3d 43 11 90 bd 9f 11 53 bd
       0.08365152 0.04494872 -0.070345424 -0.051530477
000080 f4 de 8a be 36 6c d2 3d 5a 9c 99 be ac 81 d5 bd
       -0.27123225 0.10274546 -0.300021 -0.104251236
000090 6a b7 4e bd 98 a0 0f be 55 f0 50 be 0e d4 39 3d
       -0.050467886 -0.14026105 -0.2040418 0.045368247
0000a0 6e b5 03 bc 9f b8 7e bd 1b e4 b6 3d 98 2f 6a bd
       -0.008038862 -0.062187787 0.089302264 -0.057174295
0000b0 70 d2 73 bd da d4 b1 bd 28 cc 57 be 1f 2f 9c bc
       -0.05952686 -0.08683176 -0.21073973 -0.019065438
0000c0 8d c0 6a 3e 9b ab 8e bc 6e 76 92 3d 49 9f b2 bb
       0.22925015 -0.017415812 0.07151495 -0.005451117
0000d0 70 af 09 3d 77 d8 1f 3d bc 88 55 3e f1 17 ee bd
       0.033614576 0.039024796 0.20852941 -0.1162566
0000e0 bd 16 a4 bc b3 a8 07 3d 03 c8 44 bd 06 60 2f be
       -0.020030374 0.03311987 -0.04804231 -0.17126474
0000f0 ad 94 41 3e b9 f0 0d 3e 1b 28 98 bd 2c 21 7f 3e
       0.18904372 0.1386136 -0.074295245 0.24914998
000100 63 c5 bb bd 20 cc 76 3d e7 ef c9 3d 71 1d 06 be
       -0.09168508 0.060253263 0.09860211 -0.13097169
000110 c2 ef 4b bd 8d 02 ea 3b f9 fe dc 3d 5b 27 98 bc
       -0.049789198 0.0071414174 0.1079082 -0.018573454
000120 f2 c6 a5 3d fb 8a fb 3d e5 92 07 3c 49 8b 48 3d
       0.080945864 0.12282368 0.0082747685 0.048960958
000130 54 37 cc 3d 37 b5 01 3e fd 1e 76 bd 52 df 9b bd
       0.099714905 0.12666784 -0.060088146 -0.07610954
000140 53 4b 0a 3d c6 31 62 bd 76 c4 24 3d f8 ff f5 3c
       0.03376324 -0.05522325 0.040226422 0.030029282
000150 de b9 99 3c 3f a4 62 bd ec 25 db 3d 06 26 fc 3c
       0.018765386 -0.05533242 0.107005924 0.03077985
000160 a3 a6 ae bd ad ef b8 bd f2 f5 00 3d cf 1c 96 3c
       -0.08527877 -0.090300895 0.03148455 0.018324284
000170 02 ed a1 bd 11 a0 70 bd fb d2 07 be c9 71 2d 3e
       -0.07906534 -0.0587464 -0.13264076 0.16937937
000180 22 61 51 be 50 db f6 bc 20 df 2d be 3e 57 7b bd
       -0.2044721 -0.030133873 -0.16979647 -0.061362498
000190 be 5b 58 be 34 15 1d be c0 a0 f5 3c 65 72 b0 3c
       -0.21128747 -0.1534012 0.029983878 0.021538923
0001a0 24 a6 b2 bd fc 39 68 bc 9f a2 e3 3c ec ec b9 bd
       -0.08723095 -0.014173981 0.027787505 -0.090783924
0001b0 f7 9c 28 3e 24 7f 5a 3c 1e d6 19 3b 39 97 f4 bb
       0.16466127 0.013335977 0.002347357 -0.007464316
0001c0 39 5d 9c bd 72 1e 35 be 00 f2 23 be ba a9 79 3d
       -0.07634968 -0.17687395 -0.16010284 0.06095288
0001d0 59 fc 54 3e f1 b5 66 3e f4 09 46 3d 16 32 81 3e
       0.20799388 0.22530343 0.048349336 0.25233525
0001e0 3a 34 a7 bd 58 27 7a 3d 09 95 44 be b5 8f 20 3e
       -0.08164258 0.061072677 -0.19197477 0.1567982
0001f0 45 94 e4 bd d6 4d 74 3c c2 71 c2 3d 24 81 7f 3d
       -0.11161093 0.014911136 0.09494354 0.062379017
000200 52 c4 00 bd 82 6c 80 3e 9f 22 fd bc 4c da 95 3d
       -0.031437226 0.25082785 -0.030900298 0.073170274
000210 93 aa 09 bd 9d d9 23 3d a2 5f 5a 3e 86 c3 e9 3d
       -0.033609938 0.040002454 0.21325544 0.11414246
000220 a2 f2 c5 bd bd 66 f0 3b eb 47 48 bd ea f4 9c bd
       -0.09665419 0.007336466 -0.04889671 -0.07663901
000230 44 82 8b 3d f7 5e e0 bd 1a 85 30 be 86 47 4a bd
       0.068119556 -0.10955613 -0.17238274 -0.049384616
000240 fd 79 78 3c 88 10 82 be 67 47 e6 3d a0 70 ab bd
       0.015165803 -0.25403237 0.11244088 -0.08371091
000250 f8 a6 fa bc 97 27 88 be 4b 62 9a bd 00 40 12 be
       -0.030597195 -0.26592705 -0.07538279 -0.14282227
000260 e2 d9 1f 3d 9b 0d a9 be 26 a6 06 be 71 4a 1a 3d
       0.03902615 -0.33018193 -0.13149318 0.03766865
000270 e0 27 8c bd 3f c2 55 3e b8 84 96 bd 63 19 0f 3e
       -0.06843543 0.2087488 -0.07349533 0.13974528
000280 06 56 97 3d 7d 37 9c bd d2 16 f7 3d 78 bf 02 be
       0.073894545 -0.07627771 0.120648995 -0.12768352
000290 f7 eb 83 3d 84 15 3b 3d 7f b3 76 3d 97 07 2b 3d
       0.06441491 0.045674816 0.060229775 0.041755285
0002a0 ea be 54 3d fb 67 bb bc 47 f0 02 3e 7c 8b 03 3c
       0.051939882 -0.02287673 0.12786971 0.008028861
0002b0 8c 52 14 3e d0 92 7f bc 07 e6 c0 3d 09 6f 2f 3e
       0.14484614 -0.015598968 0.09418874 0.171322
0002c0 2d f5 a4 bc 61 69 a3 3e 3c 74 a8 3c b1 e8 53 3e
       -0.02013644 0.31916335 0.020563237 0.20694233
0002d0 be 7a 28 bb 96 67 90 3d a8 cb aa bd 4c 4e e0 bc
       -0.0025707926 0.070510074 -0.083396256 -0.027381085
0002e0 64 9d 48 3e e1 57 ab bd 9c 05 8d bd 72 fc df bd
       0.1959129 -0.08366371 -0.068858355 -0.10936822
0002f0 e8 c7 30 be d7 b3 c6 bc 23 02 82 3d e3 74 ee bd
       -0.17263758 -0.024255676 0.06348064 -0.11643388
000300 3e 07 c7 3d 9e 9a 76 3e 0f 7c e3 bd e5 84 63 bd
       0.09718178 0.2408242 -0.11107647 -0.05554666
000310 9d 1a 18 3e f9 a2 86 bd ac 7d 0b be 74 9a a8 3c
       0.14853902 -0.06574053 -0.13622159 0.020581461
000320 b6 c8 41 3e 6c b6 ca bc ec 11 81 3d 6c 4b 5a 3c
       0.18924221 -0.024745189 0.063022465 0.013323646
000330 bd 1a d0 bc 32 3e d1 3d b6 bd 7b bd 6c 07 1a ba
       -0.025403375 0.10216941 -0.06146022 -0.000587574
000340 56 b3 9f be 8c 58 42 be e2 59 62 bd 78 fb a3 be
       -0.3119151 -0.1897909 -0.0552615 -0.32027793
000350 a1 ad 58 be f3 20 73 be fc 47 3a 3e 59 0f 16 3e
       -0.21159984 -0.23743038 0.18191522 0.14654292
000360 e1 c0 9a ba 25 f6 9d 3d ff 7a 77 3e 68 b8 36 bd
       -0.001180675 0.07712964 0.24168013 -0.044609457
000370 a8 ef 03 3e 95 66 6e be 5d b0 1b be 16 3f b5 bd
       0.1288439 -0.2328132 -0.15203996 -0.08849923
000380 ae 07 96 3c 1f 3f 14 3e b0 8d 16 bd 77 1f b6 bc
       0.018314209 0.14477204 -0.036756217 -0.0222318
000390 5b 15 0a be ef 74 55 bc 6b c1 8f 3e 63 31 19 3e
       -0.13484709 -0.013028367 0.28077254 0.14960246
0003a0 11 2e 21 be e4 7f 84 bd 35 ac d2 3d c9 6e ea bd
       -0.15740229 -0.06469706 0.10286752 -0.11446912
0003b0 0a f0 c7 bd f3 6f 72 bd 7f 6c 0e bb a2 01 bc bd
       -0.09762581 -0.059188794 -0.002173215 -0.09179999
0003c0 7d 8e 47 bd 46 ac f8 bd a5 39 c5 3e eb c2 ca bd
       -0.04871987 -0.121422336 0.38520542 -0.09900459
0003d0 90 fa 46 3d b6 6c 20 3b f7 79 ff 3d 7c 1c 06 3e
       0.0485788 0.002447886 0.12474435 0.13096803
0003e0 aa 02 bb bd 63 6c 0d 3e d2 27 9e be 31 f7 80 3c
       -0.091313675 0.13810878 -0.30889755 0.01574287
0003f0 d7 9f 37 3e e0 be 9e bc d3 69 bd 3d 82 63 a3 be
       0.17932068 -0.019378126 0.092487 -0.31911856

nn.layers.1.bias f4 [50]
000000 6e 41 3c 3a be c7 0e ba b6 cf 5d 3c 7a 1c c8 bb
       0.00071813806 -0.0005446634 0.013538292 -0.0061069103
000010 66 44 92 3c 8b 17 bd bc 69 96 81 ba a2 66 17 bc
       0.01785488 -0.023082515 -0.0009886745 -0.009240778
000020 77 ba ac b9 c8 6d 0e bc 23 da 5b bb 13 c3 d8 3b
       -0.00032945324 -0.008693166 -0.0033546768 0.0066150515
000030 d4 c1 55 bb 7b 1a 5b bc 60 3e 8c ba e8 b9 82 3b
       -0.0032616751 -0.013373013 -0.0010699742 0.003989447
000040 4b 71 87 bc 66 25 41 bc 23 78 b2 3b ad 3a 4b bc
       -0.016533514 -0.011788702 0.0054464503 -0.012404126
000050 a1 37 57 3b e1 67 72 3c 81 2e 0a 3a a2 bb 86 3b
       0.0032839554 0.0147952745 0.0005271212 0.004111723
000060 29 ac f4 bb d6 25 35 3c dc 2f 5a b9 f9 c8 92 3b
       -0.007466812 0.011056384 -0.00020807929 0.004479524
000070 2a 22 b6 3b 69 8d 94 3a 24 a1 32 3b e0 1e 49 3b
       0.005558272 0.0011333647 0.0027256692 0.003068857
000080 c8 3c 80 3b fc 32 05 3d a5 b2 eb 3a 97 85 47 3d
       0.0039134957 0.032519326 0.0017982317 0.048711386
000090 2d 1b 3b 3b 25 d0 3b bc 76 59 b0 3b 7c 63 07 ba
       0.0028550134 -0.0114632 0.0053817583 -0.00051646656
0000a0 78 5d b4 b9 a2 36 02 3c ed be 8a bc 4a c4 2e 3b
       -0.00034401915 0.007947596 -0.016936744 0.002666729
0000b0 e0 51 6e bc e6 5b b4 bb 63 cb 83 3c 83 34 5e 3c
       -0.014545888 -0.005504119 0.016088193 0.013562324
0000c0 28 45 82 bc b7 d9 ca 3b
       -0.015902117 0.0061905044

nn.layers.2.weight f4 [50, 50]
000000 f8 6c 0c bd 1d 73 87 3b 91 3a 47 be fb 30 3e bd
       -0.03428361 0.0041335956 -0.19455935 -0.04643343
000010 bf 71 f8 3c 33 20 b2 3d ab d7 51 3e 6c c5 ce bd
       0.030327676 0.08697548 0.20492427 -0.10096249
000020 fb 08 70 bd 5a 10 92 3d 05 52 88 be 91 06 ca bc
       -0.058602314 0.07132025 -0.26625076 -0.024661334
000030 fc 59 00 3d 62 02 79 3d ae dc a1 3d 98 9c a6 3d
       0.031335816 0.060793288 0.079034194 0.08135337
000040 aa 50 17 3e 65 bf 2c 3e c2 f3 23 3e 01 52 10 be
       0.14776865 0.16869886 0.16010955 -0.14093782
000050 00 5f 0a be f5 30 b3 3d 89 a5 73 3e a2 63 13 3d
       -0.13512802 0.08749572 0.23793615 0.03598369
000060 70 69 1e 3e 05 07 af bc e5 8e b1 bc 76 25 89 3b
       0.15469909 -0.021365652 -0.021674583 0.004185374
000070 7e 5a fe ba 09 da c1 bd ec eb 41 be 2a 9e 46 3e
       -0.0019405631 -0.09465415 -0.18937653 0.19396272
000080 06 13 b9 3d 6e d5 6d be f1 7f 2f 3e e2 e2 47 be
       0.090368316 -0.23225948 0.1713865 -0.19520143
000090 06 b8 31 3e 16 88 c5 3e 88 06 89 3e c6 66 11 be
       0.17355356 0.38580388 0.26762795 -0.14199361
0000a0 be 58 90 be 2e 68 09 3e 1e d8 bf bd 73 74 29 3e
       -0.28192705 0.13418648 -0.09367393 0.16548328
0000b0 a0 76 2d bd 95 33 73 3e 35 eb fe bc fe ce 67 bc
       -0.042349458 0.23750146 -0.031118015 -0.014148472
0000c0 86 8c dd 3d 2f 34 86 3c 86 da c1 3d 4a 02 07 bd
       0.10817818 0.016382305 0.09465508 -0.032961167
0000d0 3b a4 bb bd ef 40 99 bc a4 84 3d bd 10 ed a0 3c
       -0.09162184 -0.01870772 -0.046269074 0.01964429
0000e0 13 01 b6 bd c2 0e 02 be df 1c 11 be 32 66 32 bd
       -0.08886924 -0.12700942 -0.1417117 -0.043554492
0000f0 d8 fc 0e 3e cf ff 1e 3e ef 50 df 3c ec 26 8d bd
       0.1396364 0.1552727 0.027260272 -0.068921894
000100 7d 0a 82 bd 52 a7 e2 3c 5e 29 bb 3b 54 35 bc 3d
       -0.06349657 0.027667675 0.0057117185 0.09189859
000110 c9 3b ce bc 03 95 9e bc 40 97 66 bd c8 7c 59 be
       -0.025174992 -0.019358164 -0.056296587 -0.21239007
000120 98 e8 0a 3e ac 72 b8 3d b4 bc 1a 3e 36 8a 30 3e
       0.1356529 0.09006247 0.15111047 0.17240223
000130 49 e8 b5 bd 05 78 a0 bc d9 61 20 3e 2e 29 3e 3c
       -0.088821955 -0.01958848 0.15662326 0.011606498
000140 65 bb 1d be 81 16 24 3e 4a e5 23 3e a3 67 89 bd
       -0.15403517 0.1602421 0.16005436 -0.0670922
000150 fd dd 03 be 2a b4 23 be 1a 26 b8 bd fa 8e 17 3d
       -0.1287765 -0.15986696 -0.08991642 0.037001587
000160 85 f4 60 bd 02 de ee 3d d3 04 2e 3e 4a 8f 68 3e
       -0.054920692 0.116634384 0.16994028 0.2271091
000170 91 1a 39 be 10 ef f0 bc 8f 43 10 3c 2b b5 04 bd
       -0.1807654 -0.029410869 0.00880517 -0.032399338
000180 d4 fe 09 be 2c 41 95 3d 84 a6 22 3e b6 e6 4c be
       -0.13476115 0.07287821 0.15883833 -0.20009884
000190 1d 46 8f bc 19 37 42 bb 11 f7 6b 3d 11 de 69 3e
       -0.017489487 -0.0029634892 0.057608668 0.22838618
0001a0 a4 23 75 3e 55 8f cd bd 48 bb 14 b9 8d 21 30 3e
       0.23939377 -0.10037104 -0.00014184148 0.17200299
0001b0 67 bc 5f 3e 50 20 a5 3d 1f e7 73 be a3 15 08 3e
       0.21849214 0.08062804 -0.23818634 0.13289504
0001c0 15 89 3d 3e 46 e5 a6 3d 8e 8f 49 bc 1c c8 6d 3e
       0.18509324 0.08149199 -0.0123022925 0.23220867
0001d0 7c 81 12 3e 98 1d 59 be 9a e0 19 be a7 5b 50 bc
       0.14307207 -0.21202695 -0.15027085 -0.012717164
0001e0 01 b0 9b 3d ff 7f 17 3e 35 44 83 3e 96 27 4a 3e
       0.076019295 0.1479492 0.25637975 0.19741663
0001f0 c4 36 e3 3e e9 af fb be cd 43 d8 be 02 8a 89 be
       0.4437772 -0.49157646 -0.42239228 -0.26863104
000200 65 bf 14 3d 97 8e ae bd 06 1f 1d be 63 05 1d 3e
       0.03631534 -0.085232906 -0.15343866 0.15334086
000210 37 0b 12 3d 63 f6 8c bc fa f2 1e 3e 84 f5 dd 3c
       0.035655227 -0.01720733 0.15522376 0.02709461
000220 1d 4a 3c 3e 09 0e de 3d b4 54 91 3e 9e 2a d2 bd
       0.18387647 0.10842521 0.28384936 -0.10262035
000230 e1 97 54 3d 7c 85 7b 3b 10 02 a5 bd 69 ab 61 3c
       0.051902656 0.0038379123 -0.08057034 0.0137737775
000240 b0 f6 4c be 5e 94 6d 3d fe e9 b9 3e 4d 5e 3a 3d
       -0.20015979 0.058002822 0.36311334 0.04550009
000250 d2 80 e5 3d 51 7a db bd d5 7a 1d 3e fe 50 46 bb
       0.11206211 -0.107166894 0.15378888 -0.0030260677
000260 25 0e 64 be 3f 58 17 3d d5 01 7d bd 7e de 73 bd
       -0.2227102 0.036949392 -0.061769325 -0.059538357
000270 0d 63 02 be 82 29 c3 bc 8e 01 77 be 34 03 21 be
       -0.12733097 -0.023823503 -0.24121687 -0.15723878
000280 46 e0 d3 bd 87 31 de 3c 40 74 1d be fe a8 7b 3c
       -0.10345511 0.027123226 -0.15376377 0.015360115
000290 73 9a 7b 3d e8 a4 bf 3d 67 31 e5 3c 4d f4 de bd
       0.06142659 0.09357625 0.027977658 -0.108864404
0002a0 a4 f8 3c bd ae 62 24 3d 20 06 cd bc 22 3c 73 3d
       -0.04613556 0.04013317 -0.025027335 0.05938352
0002b0 3e 0e be bd fa e8 b0 bd b4 34 51 3e bc 81 f4 3d
       -0.0928006 -0.08638187 0.20430261 0.11938807
0002c0 77 18 80 3d d6 76 06 be 3e e0 fb 3c 57 2f e8 3c
       0.06254666 -0.1313127 0.030746575 0.028342886
0002d0 0f 4c 8c 3c 35 b2 d5 bd 07 4b 00 be 77 13 3c 3d
       0.017126111 -0.10434381 -0.1252862 0.045917
0002e0 7f 0c c3 bc 63 3b 74 3c e6 f7 97 bd 6e db a3 3d
       -0.02380967 0.014906737 -0.0742033 0.08000837
0002f0 48 a1 b3 3d 2b c3 9f 3d 67 c7 02 3d 9a 64 a4 3e
       0.08770996 0.07800897 0.031928446 0.32108003
000300 f1 db 3c 3d 8b 40 90 be 93 5e be bd c7 a9 6c be
       0.04610819 -0.28174242 -0.09295382 -0.2311164
000310 c5 5d 04 3e 96 c5 1d be c4 75 26 bd 89 54 94 bd
       0.12926395 -0.15407404 -0.040639654 -0.07242686
000320 2c 63 ad 3d 05 d3 17 3e 87 82 88 3e da e5 86 bd
       0.08466181 0.14826591 0.26662084 -0.065868095
000330 09 5e bf 3c 31 aa 7b 3d 0c 4e b8 3d da 51 c1 3d
       0.02336027 0.061441604 0.08999261 0.0943944
000340 a3 d5 a8 bd 08 10 e0 bd 4f b3 42 be 37 d3 62 3c
       -0.08243873 -0.10940558 -0.19013713 0.013844303
000350 d2 a7 4c be 29 0a e9 bd d3 d8 89 3e 83 97 93 3d
       -0.19985893 -0.11378891 0.26923236 0.07206633
000360 7c 94 31 be 1e ec b9 bd df 0d ef bc 01 16 85 3d
       -0.17341799 -0.09078239 -0.029181419 0.064983375
000370 2e 0e 68 3e 62 80 23 3e 6f c9 92 bc f8 d9 69 3e
       0.22661659 0.15966943 -0.017918317 0.22837055
000380 ec 9f 72 3e 16 32 61 3d cc fd 12 3d d2 63 fe bc
       0.23693818 0.054979406 0.03588657 -0.031053457
000390 37 05 61 3e 63 6e 61 be 93 6c 3d be 64 6d d1 3c
       0.21974646 -0.22014765 -0.18498449 0.025564857
0003a0 e0 ec ae 3e d3 c3 5c 3e d1 12 c9 bd 08 5e fb 3d
       0.34165096 0.21559076 -0.09818042 0.122737944
0003b0 31 a0 3a bc 3b 24 a9 3c 9f 91 5b 3d 12 3d ed bc
       -0.011390732 0.020647159 0.053605672 -0.028959785
0003c0 6d cd af bd 64 1b a3 bd 85 59 60 bd da 6a b0 3d
       -0.08584104 -0.07964209 -0.054772872 0.0861413
0003d0 70 6a 29 bd 70 a6 11 3e ec 98 6b be 7d c1 a5 3d
       -0.041361272 0.14223647 -0.23007554 0.080935456
0003e0 cf 13 c5 be 3f c7 cf bc da 57 9c 3c 06 51 40 be
       -0.38491675 -0.025363563 0.01908486 -0.18780908
0003f0 4c 69 d7 3d 2b 31 f4 bd 75 cb 11 3d 65 74 85 3e
       0.10518131 -0.119234405 0.035594422 0.26065364

nn.layers.2.bias f4 [50]
000000 aa 69 a9 3b 2c c2 8c 3a e6 05 a4 bc 1d 5c 07 3c
       0.005170067 0.001073902 -0.020022344 0.008261708
000010 68 bc d2 3c 74 44 c7 bb 95 25 be 3b 83 7c 2d 3c
       0.025724605 -0.0060811583 0.00580282 0.010588768
000020 db 60 6e bc 2a 8e 04 3c e8 e6 35 3c 26 d8 42 3b
       -0.014549459 0.008090535 0.011102416 0.0029730885
000030 b5 32 16 3c 4d 74 26 3c 4c be 4a bc 08 a7 19 bc
       0.009167363 0.010159564 -0.012374472 -0.009378202
000040 68 81 ba 3b 72 43 08 39 0f ef 82 3b 41 a5 16 bc
       0.005691696 0.00012995096 0.003995783 -0.009194673
000050 7f 68 a5 3c b7 08 42 bb c6 2c d9 3c a6 2d f6 bb
       0.02019143 -0.0029607245 0.026510607 -0.007512766
000060 43 ca ca 3c 42 41 2a bb f4 f3 d8 3b 5f da 87 3a
       0.024754649 -0.0025978838 0.0066208784 0.0010364762
000070 8f 89 4b bc 3b 73 7b ba ab 6c a2 bc b9 3c 60 bc
       -0.012422933 -0.0009592061 -0.019827208 -0.013686352
000080 21 9a 24 bb 43 98 c0 bb b0 6b 7b bb 97 12 a4 3b
       -0.0025116282 -0.005877526 -0.0038363747 0.005007099
000090 b4 c4 16 bb 69 2f a1 b9 3e 88 a8 bc b7 76 82 bb
       -0.0023005428 -0.00030743636 -0.020572778 -0.003981437
0000a0 a2 28 63 bb ee 72 8c bc 56 ef 82 3c 75 fd db 3a
       -0.003466167 -0.017144646 0.015983265 0.001678391
0000b0 fc 45 00 bc 33 a1 b9 3b f8 91 bf 3b 11 56 9f 3a
       -0.007829186 0.0056649684 0.0058462583 0.0012156387
0000c0 35 34 ec bc 58 27 54 3c
       -0.028833488 0.012948833

nn.layers.3.weight f4 [50, 50]
000000 f5 81 81 be 3e c5 7b 3d 3b e9 a2 3d 06 4e cd 3d
       -0.25294462 0.0614674 0.079546414 0.100246474
000010 31 e6 cc 3d 9e b2 7f 3d 9b 3a c6 3d 4d 06 08 be
       0.10004843 0.062426202 0.09679147 -0.13283654
000020 69 43 b3 be fb c0 5a be 77 d7 6f bd 24 6c b6 3d
       -0.35012367 -0.21362679 -0.058555093 0.08907345
000030 51 34 ac 3c 25 4b e1 bd 6a cc 1a be 0e bd f7 3c
       0.02102104 -0.11000661 -0.1511704 0.030241515
000040 9a 75 40 bd df 8f 90 3e 3f 8b 80 be 12 07 4d 3e
       -0.046987154 0.28234765 -0.25106236 0.20022228
000050 60 25 82 bd af a6 93 bd 3f 4d 04 3e a7 00 1e 3e
       -0.06354785 -0.07209527 0.12920092 0.15429936
000060 7f e6 95 3c 3b d2 3e 3e 9b 0a 3f be e8 68 83 bd
       0.018298386 0.18634884 -0.1865639 -0.06416494
000070 c0 1f 8e 3c 3d 95 5d 3e 4b b6 b3 bd 31 14 13 3e
       0.017349124 0.21638961 -0.08775004 0.14363171
000080 e4 d8 a5 3d 13 8d de 3d 20 9c b7 3c 57 fb 8a bc
       0.08098009 0.108667515 0.022413313 -0.016965551
000090 8d a9 93 bb 37 3f 9d 3e ff 9e 37 3e c8 19 bc 3d
       -0.004506296 0.30712292 0.17931746 0.09184605
0000a0 2a ca 43 be a9 f3 ea 3d 7b df 85 be b1 2f 46 be
       -0.19120088 0.11472256 -0.26147065 -0.1935413
0000b0 0a b5 12 bd e0 c4 cb bd ab 94 48 be 86 27 84 3c
       -0.035817184 -0.0994966 -0.19587962 0.016132127
0000c0 91 4c 4b 3e db 61 19 be 09 b4 d7 3d a1 a6 07 3e
       0.19853427 -0.14978735 0.10532386 0.13247158
0000d0 42 3e 85 ba b0 ac 01 bd c0 8f 8a 3e 41 91 31 3d
       -0.0010165649 -0.03165883 0.27062798 0.043351416
0000e0 e0 a3 74 be 56 fe cf 3d 84 10 e7 3d 1c de 5c 3e
       -0.23890638 0.101559326 0.11282447 0.21569103
0000f0 fc c9 72 3d 4d 57 00 bd d2 38 84 3c 50 5b 9a bd
       0.05927466 -0.031333257 0.016140375 -0.07536948
000100 ac ac 5b be 81 1b d5 3c e0 d2 c2 3e aa 4e 97 3b
       -0.21452588 0.026014091 0.3805151 0.004617532
000110 5b 48 2a 3d e9 f5 3a be a8 2a 57 3d 26 1d bf bd
       0.04157291 -0.1825787 0.052530915 -0.093317315
000120 75 8a f4 bd e9 9c 9c bd 96 bb b6 3d 1c a1 86 bd
       -0.11940471 -0.07647116 0.08922498 -0.06573698
000130 87 fa e3 bd 34 7e 1e bd 55 9e a2 be eb 09 1d 3e
       -0.11131769 -0.038694575 -0.31761423 0.15335815
000140 eb 58 6c be a1 5f 62 be d6 90 96 bd 57 7d b9 3d
       -0.23080795 -0.22106792 -0.07351844 0.0905711
000150 ee a2 82 3e 2c 38 e6 3d d0 53 d6 3d 74 92 57 bd
       0.2551493 0.11241183 0.10465205 -0.052629903
000160 05 b5 6b be 27 30 d4 3e 7b 84 27 be c1 f2 6c 3c
       -0.23018272 0.41442987 -0.16359131 0.014462174
000170 1d fc 2d be dd d9 90 bd 8f 48 bb bd 2b bf 6d 3e
       -0.16990705 -0.07072804 -0.09144699 0.23217456
000180 c1 7b 6a bd c9 22 43 3e 38 52 67 3d eb ed 4d 3b
       -0.057246927 0.19056238 0.056474894 0.0031422328
000190 08 e2 0e be 2a 59 d4 3c 9c 50 6c 3e 91 1b 09 3a
       -0.13953412 0.025921423 0.23077625 0.0005230243
0001a0 e0 b0 dd 3d b7 c7 8a be 4c a1 23 3e 80 9a 0f 3c
       0.10824752 -0.27105495 0.15979499 0.008764863
0001b0 6a 1b 84 bd be 2f 23 bd 91 ab 12 be 22 5a fd 3b
       -0.06450541 -0.039840452 -0.1432326 0.007731692
0001c0 1c de 31 bc d1 77 ed 3d 35 47 2c 3e fe 8e 94 3d
       -0.010856178 0.11595119 0.16824038 0.07253836
0001d0 4a 56 bc bd ff 58 88 3d 18 34 75 bc d3 aa 77 3d
       -0.09196146 0.066576 -0.014966033 0.060465645
0001e0 ff 3c 0b be 33 7f 29 be 83 9f 2a 3e 39 41 09 be
       -0.13597487 -0.16552429 0.16662411 -0.13403787
0001f0 9a fd 96 be 7e e2 6f 3d fa ad 98 bd 48 c1 da bd
       -0.29490358 0.05856561 -0.074550584 -0.10681397
000200 23 c7 35 3e 1f ac 55 be 0d ba 2e 3e 0e 6e b3 3c
       0.17751746 -0.2086644 0.1706316 0.021903064
000210 d3 20 3e be 96 78 84 be d5 9a 0b 3e c2 e1 50 3e
       -0.18567209 -0.2587325 0.13633282 0.2039862
000220 96 10 0f be 90 7c e7 3b ea f4 5d bd c7 a0 d7 bd
       -0.13971171 0.0070644096 -0.054188646 -0.10528713
000230 44 1e c9 3d 73 86 cd 3d 41 06 fa bc 61 92 16 be
       0.09820226 0.1003541 -0.03052056 -0.14704277
000240 92 9a 0b bd 5d ed 11 3e 25 93 fc 3b 5c d1 07 bd
       -0.034082957 0.14250703 0.0077079707 -0.033158645
000250 b6 a1 41 3e a9 a7 47 3e 4f 20 2f be 7b 82 c6 3c
       0.18909344 0.19497551 -0.17102169 0.02423214
000260 3e b3 c0 bd 5e d3 c6 3d e1 28 8d 3e ad 8d 1f 3e
       -0.09409188 0.09708284 0.2757025 0.15581389
000270 e5 92 96 bc 3e d8 7d 3c c1 f5 e0 bd db 3a d2 3c
       -0.018380592 0.015493451 -0.10984374 0.02566283
000280 f4 a6 cc 3d 21 17 81 3e 39 64 cc bb b4 44 f9 3e
       0.09992781 0.25212958 -0.0062375334 0.4868523
000290 61 a7 c3 be 88 84 00 3e d2 88 c6 bd 4c 63 15 be
       -0.38213637 0.12550557 -0.09694065 -0.1458866
0002a0 db 2a a2 3e a4 db 43 bd e6 c9 8e bd 97 b5 d5 bd
       0.3167332 -0.047816887 -0.06972103 -0.10435026
0002b0 5e 83 7d 3d 19 a7 46 3e a5 0f 0a 3e 62 81 a2 bd
       0.06189286 0.1939968 0.1348253 -0.07934834
0002c0 8e e8 9b 3b 87 24 43 3d c1 8c 85 3d bd 94 ef bc
       0.0047579473 0.047642257 0.06520987 -0.029245729
0002d0 d4 eb 8c 3d c2 e9 08 be c3 6c 68 bd ce b4 51 3d
       0.06880918 -0.13370422 -0.05674435 0.05119782
0002e0 0b 31 ab 3d 15 68 00 bd 16 3e cf 3b 43 bf 96 bd
       0.083589636 -0.03134926 0.00632454 -0.07360699
0002f0 57 fc c0 bd 50 3e 35 be c1 b6 0c bd 87 12 5f bd
       -0.0942313 -0.17699552 -0.034353975 -0.05446103
000300 94 af 1b 3e c9 9a b5 bd 41 1f a6 3d 8f 97 8b be
       0.15203696 -0.088674136 0.0811143 -0.27264068
000310 e4 cc 03 3e 65 2b d9 3d 07 c1 0f bc c7 fc 21 be
       0.12871128 0.1060398 -0.008774049 -0.15819083
000320 0f 33 97 3d 36 ff 49 3e 40 33 7b 3e d7 18 ed bd
       0.073827855 0.19726261 0.24531269 -0.115770034
000330 6a c3 5f 3d 48 75 88 bd f5 42 20 be a3 bf 67 bd
       0.05462972 -0.066629946 -0.15650542 -0.056579243
000340 16 6a 41 bd 4e 62 f4 bd e8 fc 20 3e d8 28 89 bd
       -0.047220312 -0.11932813 0.15721476 -0.066972435
000350 82 8c 08 3e 2a f4 18 bd ca fb 35 3e 00 84 c9 bd
       0.1333485 -0.037342228 0.17771831 -0.0983963
000360 63 08 3c bd 52 2d 8b bd 34 cd 4a be a8 5a 03 bd
       -0.045906436 -0.067957535 -0.19804841 -0.03206888
000370 1a ac 85 be 31 15 30 3e 02 2f 9a bd 95 93 4a 3d
       -0.26107866 0.17195584 -0.07528497 0.04945715
000380 7c 6f 79 3d 8a 35 2a 3d 4d cf 8b 3e 43 1b 18 be
       0.060897335 0.041554965 0.27306595 -0.1485415
000390 30 2a 43 bd 97 39 bf 3d 42 46 59 3d 4b ba 54 bd
       -0.047647655 0.09337156 0.05304552 -0.051935475
0003a0 bb 5b 50 be a4 42 be 3d 39 3a c5 3d bd c0 15 3c
       -0.20347492 0.092900544 0.09630246 0.009140191
0003b0 a4 30 1a be 7a 34 b0 bd 39 6a 54 3e 3d 19 9a bc
       -0.15057617 -0.08603759 0.20743646 -0.018810863
0003c0 cc 33 2a bb 2e ea c1 3d 5d 28 1d be 51 99 0a 3d
       -0.0025970815 0.09468494 -0.15347429 0.03383762
0003d0 b1 22 5c be 57 5c 9e bc a0 74 96 3d 23 ec 03 3d
       -0.21497609 -0.01933114 0.07346463 0.03220762
0003e0 e6 89 b8 3d 44 7b 57 bd 45 0f 24 3d 61 81 a3 bd
       0.09010677 -0.05260779 0.040053625 -0.079836614
0003f0 5c a2 fc bc 75 96 d1 3b 45 8c 66 bd 8d 7d f9 bd
       -0.030839138 0.0063961097 -0.056286115 -0.1218215

nn.layers.3.bias f4 [50]
000000 9a 7d f2 bc af 05 15 3c 0b 13 e4 ba 16 8f 62 3a
       -0.029600907 0.009095593 -0.0017400695 0.0008642537
000010 6b d1 00 bc 6a 04 0e bc 06 5b af 3b c3 4b 9c 3c
       -0.007862429 -0.008668045 0.005351427 0.019079095
000020 50 90 2f bc 2a c3 86 3b 38 f5 69 bc 4c 02 96 3b
       -0.010715559 0.004112621 -0.014279656 0.0045779105
000030 88 95 88 ba c5 5a 28 bc af 65 c7 ba a6 a2 45 3c
       -0.001042054 -0.010275547 -0.0015212799 0.012062704
000040 b9 ab 88 3c 84 0b c7 3c 67 f6 69 3a 74 dd d1 3c
       0.016683446 0.024297483 0.00089249614 0.025618292
000050 32 77 78 bb 38 70 65 3c 38 c4 02 3c 77 8d 86 bc
       -0.0037912843 0.014003806 0.0079813525 -0.016424878
000060 5f ae 01 3c b2 58 75 bc c1 ca fe 39 30 9b c2 3b
       0.007915108 -0.01497476 0.0004859772 0.00593891
000070 40 30 71 3b de 85 21 3a b1 f8 4c bc fe d9 2e 39
       0.003680244 0.00061616104 -0.0125104645 0.00016675142
000080 07 c2 c6 3b ea 6c 51 bc a7 7b 85 bb 51 04 58 3c
       0.0060656103 -0.012782315 -0.0040735784 0.013184623
000090 35 7b 09 bc fd 29 d0 bb f6 86 8f ba d9 68 2c 3c
       -0.008391191 -0.0063526616 -0.0010950256 0.0105230445
0000a0 30 1b e9 bc 76 30 f1 bb 8d 3c 58 bc 34 f7 ef bb
       -0.028455347 -0.0073605133 -0.01319803 -0.00732317
0000b0 eb b4 88 bb bc a5 38 3c 67 77 68 bc 8c 0f 2b bc
       -0.0041719577 0.011269983 -0.014188624 -0.010440718
0000c0 9c 94 25 3c 06 e6 53 3b
       0.010106232 0.003233315

nn.layers.4.weight f4 [50, 50]
000000 3e ba 15 3e 0d 35 ea 3c f3 4d 00 bd e5 e9 58 bd
       0.14621827 0.02858975 -0.03132434 -0.052957434
000010 07 3a 36 be 6b 62 9e bd f6 c0 58 be ad 6e 86 be
       -0.17795573 -0.077336155 -0.21167359 -0.26256314
000020 ec 8d f7 3d f5 41 38 3c 55 f3 13 3d fc 2b 69 3d
       0.12087616 0.011246194 0.03612073 0.056926712
000030 a6 f6 46 bc 11 5d 19 3d e9 53 ac bd ca 42 74 bd
       -0.0121437665 0.03744227 -0.08414442 -0.059634008
000040 1c 19 62 be 69 3f 28 3e 60 e0 86 3d 94 d2 b5 bd
       -0.22079891 0.16430439 0.06585765 -0.08878055
000050 f1 86 23 3e ea d1 2c 3d 7a 55 51 3e 20 d0 88 bd
       0.15969445 0.042192377 0.20442763 -0.06680322
000060 c2 59 7e bd e0 80 8b 3e 54 b5 74 be 0e 3f 6e 3c
       -0.06209732 0.2724676 -0.23897296 0.014541401
000070 9c c4 39 3e 3b 61 9c bd 1c aa 10 3e 76 5c fa 3d
       0.18141407 -0.07635733 0.14127392 0.12224667
000080 4a 3e d4 bd c1 2f 1f be 19 73 99 3e db 50 13 3e
       -0.10363443 -0.1554556 0.29970625 0.14386313
000090 87 90 49 3e 99 0c 37 3e 9b 93 a1 3d 98 bf b6 3d
       0.19684039 0.178759 0.07889482 0.08923262
0000a0 bd 50 76 be f3 9d f8 bd 19 f8 a4 3e 6d 58 59 3e
       -0.24054237 -0.121395014 0.32220533 0.21225138
0000b0 cc 78 3b 3a 8c 0c d7 bb 69 20 90 bd 31 0e c1 3d
       0.0007151484 -0.006562775 -0.07037432 0.09426535
0000c0 00 16 20 bd dc e5 49 3d 24 b9 1a bd e1 ae a0 bd
       -0.03908348 0.049291477 -0.03777422 -0.078458555
0000d0 1f 93 6a 3d 56 ae de bd 69 b9 91 bc 39 e3 b1 3c
       0.05726921 -0.10873096 -0.017788606 0.021714794
0000e0 fd 05 6f be a5 90 93 3e f8 e6 6e bd 62 6b 58 be
       -0.23342128 0.28821293 -0.058325738 -0.21134713
0000f0 94 a0 f3 bc 11 c2 5d 3d bd 3a 66 be 91 86 a8 3d
       -0.029739656 0.054140154 -0.22483344 0.082287915
000100 33 06 7a 3e 80 83 da be 3d 47 b1 bc 73 f9 85 3d
       0.24416427 -0.42678452 -0.021640414 0.06541719
000110 ec f3 f5 3d 25 44 23 3d 6d a1 ae bc ac 10 fb bd
       0.12009415 0.03985991 -0.021317208 -0.12259039
000120 e0 7b 0b be d9 5a 10 3e b0 ef 03 3e d4 66 6c be
       -0.13621473 0.14097156 0.12884402 -0.23086101
000130 5a cd 46 3b 9b 14 8b bd 95 1d 24 bc 6d 0e 82 bd
       0.0030334801 -0.067910396 -0.0100168185 -0.06350408
000140 16 3e 54 bd f3 92 cd 3d d7 62 95 3d b4 29 29 3c
       -0.051817022 0.10037794 0.07294243 0.010324884
000150 ca 06 c5 3d 7c d8 ae bd 7f 66 7b 3d 9c 3e 5b be
       0.096204355 -0.08537385 0.061377045 -0.21410602
000160 d6 1a 12 be c8 1e 7b bd 52 20 8d 3e f6 c3 bf bd
       -0.1426805 -0.061308652 0.2756372 -0.093635485
000170 a1 80 d6 3d cd a9 94 bc 0d ae 8a be 36 10 9c 3e
       0.10473753 -0.018147374 -0.27085915 0.30481118
000180 28 a8 22 be 63 d0 7d be 9e 68 2d bd 1a 54 59 3e
       -0.15884459 -0.24786524 -0.0423361 0.21223488
000190 f0 2f 1d 3d 64 0a 05 be 6f 7d 16 3d 72 f9 31 3e
       0.038375795 -0.12992245 0.036740717 0.17380312
0001a0 13 c8 23 be 94 64 aa 3d 62 be f7 bd 49 88 36 3d
       -0.15994291 0.08319965 -0.120968595 0.044563565
0001b0 c0 f4 fd 3d c0 2b 3f bd fb 75 47 bd d0 fd 84 3e
       0.12400198 -0.046672583 -0.0486965 0.25974894
0001c0 06 3d 24 3e 65 c9 1b 3e f2 f0 b4 bd d7 3c f5 bc
       0.16038904 0.15213545 -0.08835019 -0.029936237
0001d0 6f d3 ab 3d 19 34 68 bd 81 bf 17 3e 19 d2 21 3e
       0.08389937 -0.05669031 0.14819147 0.15802802
0001e0 c2 12 58 3d bd 88 b0 bd ac cb 53 3e d4 61 09 be
       0.052752264 -0.08619831 0.20683163 -0.13416225
0001f0 38 cb be bd 50 75 da 3d 00 f8 ac 3e e1 61 22 bd
       -0.09316105 0.10666907 0.3378296 -0.039644126
000200 82 5f 1a be 7e 15 e4 3c bc 73 02 be bb 9e 5d 3e
       -0.15075496 0.02784228 -0.12739462 0.21642582
000210 0e 17 d3 3d e1 0d dd 3d 28 f4 96 3d 8b 1a 38 3e
       0.10307132 0.10793663 0.07370788 0.17978875
000220 dd e2 98 bc c8 9d 24 bd d3 50 f9 3d 76 0d 36 be
       -0.018662864 -0.040189534 0.12173619 -0.17778572
000230 93 08 38 be 5c 1c d9 bd fe 41 d7 bd 6a b0 ca bd
       -0.17972021 -0.10601112 -0.10510634 -0.098969296
000240 82 c1 bb bd c3 db 28 3e a3 c1 6c bd 67 c3 57 3d
       -0.09167768 0.16490082 -0.057801854 0.052676585
000250 21 b8 77 bd 89 6f 99 be a6 45 35 3e ae 2d 0e be
       -0.060478333 -0.29967907 0.1770235 -0.13884613
000260 38 3e fb bd 15 7e 0c 3d b2 be 02 bc 2c 10 84 bd
       -0.12267727 0.03429993 -0.007980036 -0.06448397
000270 db f4 34 bd 92 bf fa bd fe d7 4d 3d c9 71 f4 bb
       -0.044178825 -0.122435704 0.050254814 -0.0074598533
000280 76 75 54 bd 4f 50 11 bd 67 e6 54 3c cf 7e aa 3c
       -0.051869832 -0.03547698 0.012994385 0.02081242
000290 1a 88 b3 bd 92 3f 36 3e ea e7 f9 bd 0d 13 1b 3d
       -0.08766194 0.17797688 -0.12202437 0.037859965
0002a0 b3 ae e3 3c 8a c7 b3 bd f2 a6 d6 bd bf 76 0f 3e
       0.027793264 -0.087782934 -0.10481061 0.14010142
0002b0 54 4a f7 3c f6 95 65 be 9c 07 26 3e 31 4d c5 bd
       0.03018681 -0.22420487 0.1621384 -0.09633864
0002c0 a2 82 9f bd ed 08 03 be 20 c9 c1 3c b5 88 a5 bd
       -0.07788588 -0.12796374 0.023655474 -0.080827154
0002d0 79 c2 e9 bc 2e 8e cd bc ec 21 05 be cb f5 64 3e
       -0.028535115 -0.02509221 -0.13001221 0.22359388
0002e0 99 23 75 bd bb e1 32 3e 83 6d f8 3c 7a 86 c7 bc
       -0.0598484 0.17468922 0.030325657 -0.024356116
0002f0 16 99 1d 3d a2 db 29 3d cf 95 0c be 6b b1 6d 3d
       0.038476072 0.041469224 -0.13729022 0.058030527
000300 a9 1f f4 bd fe 29 0e be ee 6d 84 3d 09 7d 92 bd
       -0.11920101 -0.13883206 0.0646628 -0.07152755
000310 8f 5e 42 be 50 10 13 be ca 92 ac 3d e6 f0 f6 3d
       -0.18981384 -0.14361691 0.08426435 0.120576665
000320 e8 c2 76 3d ec c6 8e 3c 8f 73 37 3e 9b f2 df bd
       0.06024447 0.017428838 0.17915176 -0.10934945
000330 0a 1e 01 3e 57 fb 48 bd 48 2b 91 3d d3 90 d3 bd
       0.12609115 -0.04906782 0.07088333 -0.103303574
000340 d5 fd 05 3e c3 ef f7 bd b2 1a c3 bb 44 bc a6 3d
       0.1308511 -0.12106278 -0.00595411 0.081413776
000350 b8 0e 87 be 49 1f e2 3c ec 7d 98 bd 8f 61 20 3e
       -0.26378417 0.027602809 -0.07445893 0.15662216
000360 51 62 42 bc 26 df c7 bd 03 51 fe 3d d3 00 11 3c
       -0.011864261 -0.09759359 0.124177955 0.008850294
000370 37 bc fc bd ce 93 87 3e 62 61 af bb 45 ab 00 be
       -0.12340587 0.26479954 -0.005352185 -0.12565334
000380 47 43 b8 3d 83 6c 4b be 41 82 01 3e 76 f6 36 3e
       0.08997207 -0.19865613 0.12647344 0.17867455
000390 c2 8e 10 3e 5f 9a 03 3d 83 a9 4b be 8e 34 69 bd
       0.14116958 0.03212964 -0.19888882 -0.056934886
0003a0 9f 14 c1 3d 35 a3 6f 3e 9d 9d 4b 3e 2c 18 da 3d
       0.09427761 0.23402102 0.19884343 0.10649142
0003b0 2a b3 f5 bd 2a de 71 3b fa 81 84 be 17 81 63 3d
       -0.119970635 0.0036906102 -0.25880414 0.05554303
0003c0 dd a0 31 bd 0e 09 34 3e f7 97 e9 3d 96 1d c4 3d
       -0.0433663 0.17581579 0.11405938 0.095759556
0003d0 2d f6 8e bd 94 79 40 be 42 c1 db bd 9f 50 47 be
       -0.06980548 -0.18796378 -0.107302204 -0.19464348
0003e0 a1 f3 99 bd 06 24 f8 3c a0 df 29 be 6a e1 4a 3d
       -0.07517172 0.030290615 -0.16589212 0.049531378
0003f0 14 81 55 3c 0c 8e ec bd 78 3d 88 3d 78 ea 37 3e
       0.013031263 -0.11550531 0.06652349 0.17960536

nn.layers.4.bias f4 [50]
000000 0a 3f af bb 1e 59 ef bb ee eb a0 bb 87 3b f1 bb
       -0.005348091 -0.007304325 -0.0049109375 -0.0073618325
000010 4f eb 0a 3c 6f 5e 5e bc 70 fc 95 3b cf 1b 3c bb
       0.0084789535 -0.013572319 0.004577212 -0.0028703099
000020 05 5d 32 3c db 05 4f bc c2 c2 62 3b 12 5d 02 bd
       0.010886435 -0.012635673 0.0034600948 -0.03182704
000030 0a 84 ae 3b e6 d6 11 3b ed 8f ff bb 9b 05 42 3c
       0.005325799 0.0022253334 -0.0077991397 0.011842157
000040 f1 cb 28 3c 76 cc 9d bb 3f 9c 05 bc a7 ab d1 bb
       0.01030253 -0.0048156334 -0.008154928 -0.0063986364
000050 eb 83 14 3a 26 8d a0 3b a8 be 17 3c 3d 0d f1 bb
       0.0005665409 0.0048996387 0.009261765 -0.0073563145
000060 b5 88 2d 3c 36 ad e0 3a 17 ac 18 3c b1 8a 0f 3c
       0.0105916755 0.0017141465 0.009318373 0.008761094
000070 d4 fd 62 3b 4b 10 e9 bb 1d be f4 3b df ef af bb
       0.0034636157 -0.007112538 0.0074689523 -0.005369171
000080 f9 01 4d bc 3b 05 86 bb 32 ad f8 3b 16 4f 36 3c
       -0.012512677 -0.004089979 0.007589006 0.011127254
000090 48 01 5f bc cc 45 ae bb 7d 92 2e 3b a8 c1 d7 bb
       -0.013611145 -0.005318379 0.0026637607 -0.006584365
0000a0 63 80 0f bc 27 f9 c5 b9 8b a4 4a bc 63 e5 a8 3a
       -0.008758637 -0.000377604 -0.012368332 0.0012885745
0000b0 f4 76 b8 3a f7 86 aa bc bb 07 10 bc 98 f7 c6 3b
       0.0014073537 -0.02081631 -0.008790906 0.006071996
0000c0 d4 e0 04 3c ff 4b 0c bc
       0.008110244 -0.008563041

nn.layers.5.weight f4 [1, 50]
000000 0a ea e2 bd ee 3f bd bd 6a ca 1d be b3 5d 4b bd
       -0.11079796 -0.09240709 -0.15409246 -0.049649905
000010 a6 99 6d 3e e7 70 67 bc 04 c3 15 be d5 b1 e3 be
       0.23203143 -0.014126039 -0.14625174 -0.44471613
000020 67 ac 8c 3e 65 ee a1 be f6 e8 96 3d dc 9f 3b 3d
       0.27475283 -0.31627193 0.073686525 0.04580675
000030 23 29 9f 3b ba ef 08 bd d8 8e 38 be 5d ad e8 b9
       0.004857199 -0.033431746 -0.1802324 -0.00044379654
000040 b0 b1 d1 3e 6c 86 12 3d 62 72 5d be 96 ba 0e be
       0.40955877 0.035772726 -0.21625665 -0.13938364
000050 34 aa 91 3e 8e 3d af 3d 91 a9 0c 3e cd a2 17 3e
       0.28450167 0.085566625 0.1373656 0.14808197
000060 74 56 4c 3e 0d d9 51 bd 02 5d 5c 3e 77 c3 c0 3e
       0.19954854 -0.051232386 0.21519855 0.37649128
000070 85 43 61 3d 1a 5c 1b bd 1a a0 80 3e de 39 2a bd
       0.054996032 -0.03792963 0.25122148 -0.041559093
000080 8f de b0 be ee fc 41 be 5d 4e 34 3e 72 fc 2d 3e
       -0.345448 -0.18944141 0.17608018 0.16990831
000090 3f ac c5 be cc 7a 8a bd 68 48 6b 3d c0 18 51 be
       -0.38607976 -0.06761703 0.0574421 -0.20419598
0000a0 57 87 44 be a7 01 1c be 8a a4 56 be cc 65 ba 3e
       -0.19192253 -0.15235005 -0.20961204 0.3640579
0000b0 9c 18 03 3d 82 72 bc 3c 49 3c 84 be 47 dd 59 bd
       0.03200589 0.02300382 -0.25827244 -0.053189542
0000c0 46 02 77 3e cd da 0e bf
       0.24121961 -0.55802613
