output/Darcy_UQPINN_test/weight.pth (torch, 160545 bytes, 40 tensors)

P.mlps.0.layers.0.weight f4 [50, 3]
0.051951244 0.23691535 -0.22107652 -0.11281897 -0.21434814 0.2630321 -0.18735589 0.032160044
0.02204549 0.08726064 -0.30416882 -0.18562138 0.08503407 -0.15576321 0.2079849 0.15126012
0.30415368 0.029396126 0.20161343 0.23057804 -0.1352643 0.0826472 0.07317897 0.08335919
-0.0028503723 -0.2859853 0.29742563 -0.044990946 0.15182427 0.2038311 0.18065514 0.32784232
0.20509608 0.5394626 -0.13854755 -0.08344938 0.12793277 -0.38112116 -0.16386892 0.109741725
-0.20552453 0.0485459 -0.11648704 -0.031256143 0.09077293 0.06527011 -0.20289004 0.51448745
0.019610312 -0.21692285 0.04149786 0.12005267 0.07293212 -0.24206774 0.04097968 0.15283121
-0.21235433 0.14386384 -0.28321236 -0.049699042 -0.06724043 0.057830907 0.11569661 -0.20016804
0.08050406 -0.0023106076 0.15218633 -0.19531131 0.075763494 -0.01993203 -0.25541347 -0.05945344
-0.0065750885 0.2713538 -0.23468263 0.0997071 -0.20851597 -0.002572594 -0.14207049 -0.33027992
-0.27262688 -0.03097359 -0.17969976 0.12581247 0.12958398 -0.2878892 -0.17108555 -0.058446724
-0.12476366 0.24927443 -0.022495901 0.27681726 0.03259739 -0.08899521 -0.028025726 -0.03497297
0.19543186 0.11637313 0.10581133 0.35478982 -0.34523508 -0.14616509 0.08250057 -0.31087193
0.033511363 0.09762865 -0.055681657 0.25189117 0.04392454 -0.18188152 -0.39049977 0.00041304732
0.035266057 -0.3344996 0.1154608 0.0656382 -0.26242176 -0.0120029235 0.00243149 -0.08006302
-0.07057254 -0.11355747 -0.100744545 -0.03906057 0.021612547 0.18597591 0.10796613 -0.10282883
0.10915146 -0.13302799 -0.15692782 -0.1480011 -0.18269506 -0.002927387 -0.18813416 0.029672163
-0.028902382 -0.14734162 -0.3159696 0.6522559 0.07171632 0.58911574 0.09457146 -0.0031872096
-0.05244104 0.22375467 0.02142664 -0.06950553 -0.50531065 0.1123202
00000000: d4ca 543d f099 723e e261 62be a20d e7bd
00000010: 147e 5bbe 25ac 863e 39da 3fbe 40ba 033d
00000020: be98 b43c b5b5 b23d 04bc 9bbe 8813 3ebe
00000030: 5826 ae3d 6480 1fbe fef9 543e efe3 1a3e
00000040: 08ba 9b3e 25d0 f03c c073 4e3e a61c 6c3e
00000050: ba82 0abe ef42 a93d dbde 953d 39b8 aa3d
00000060: 50cd 3abb aa6c 92be 2c48 983e 6d48 38bd
00000070: d277 1b3e 1ab9 503e a9fd 383e f3da a73e
00000080: b504 523e 391a 0a3f 69df 0dbe 82e7 aabd
00000090: cf00 033e 5022 c3be 41cd 27be 45c0 e03d
000000a0: 0675 52be 11d8 463d c290 eebd 7106 00bd
000000b0: 28e7 b93d 56ac 853d 68c2 4fbe 73b5 033f
000000c0: cea5 a03c 0621 5ebe a9f9 293d 2dde f53d
000000d0: 6f5d 953d 9be0 77be 4fda 273d c97f 1c3e
000000e0: 6a73 59be 0b51 133e 3601 91be 3991 4bbd
000000f0: 5ab5 89bd 1ae0 6c3d 58f2 ec3d daf8 4cbe
00000100: 50df a43d 906d 17bb bcd6 1b3e b0ff 47be
00000110: e429 9b3d 7f48 a3bc 8ec5 82be 7385 73bd
00000120: d773 d7bb e3ee 8a3e a550 70be 3c33 cc3d
00000130: 3685 55be f798 28bb ed7a 11be 731a a9be
00000140: c095 8bbe 54bc fdbc 3703 38be fcd4 003e
00000150: aab1 043e 3766 93be 0d31 2fbe d565 6fbd
00000160: 1784 ffbd cc41 7f3e 5349 b8bc feba 8d3e
00000170: d784 053d 1f43 b6bd 3596 e5bc d13f 0fbd
00000180: 4a1f 483e 0955 ee3d 9cb3 d83d 03a7 b53e
00000190: a7c2 b0be 4dac 15be 0ff6 a83d 9b2a 9fbe
000001a0: 3643 093d 88f1 c73d 7312 64bd e1f7 803e
000001b0: 38ea 333d 263f 3abe 96ef c7be 468e d839
000001c0: 2473 103d 8843 abbe b676 ec3d 526d 863d
000001d0: 255c 86be e9a7 44bc a259 1f3b 15f8 a3bd
000001e0: 5688 90bd d290 e8bd 2853 cebd fafd 1fbd
000001f0: cc0c b13c 7870 3e3e 591d dd3d ec97 d2bd
00000200: cd8a df3d 7d38 08be b0b1 20be 9a8d 17be
00000210: 6a14 3bbe 67d9 3fbb 3ea6 40be 0913 f33c
00000220: b0c4 ecbc b9e0 16be c4c6 a1be 3efa 263f
00000230: 02e0 923d 4ad0 163f aeae c13d 81e0 50bb
00000240: 6acc 56bd f21f 653e ec86 af3c ea58 8ebd
00000250: 0a5c 01bf 2208 e63d

P.mlps.0.layers.0.bias f4 [50]
0.05053683 -0.018559113 -0.04638301 0.031205436 -0.009947234 0.038175263 0.04187951 -0.055747826
-0.051129233 -0.025040084 0.01044929 0.0059926496 -0.07008531 0.049072497 -0.07755614 0.0666888
0.034650836 -0.010269223 0.01289948 -0.020835912 0.06842822 -0.03380242 -0.06250782 0.029299779
-0.041000962 -0.012894156 0.00818215 0.04950866 0.013015133 0.0241223 0.04300498 -0.025553405
-0.053301036 -0.045878317 0.04690277 0.020230139 -0.01974237 -0.062048446 0.047245342 -0.045745652
-0.030134793 -0.0041647907 0.04846109 -0.043688517 -0.053002402 0.06496557 -0.05030214 0.012194557
0.07360863 0.025789224
00000000: b5ff 4e3d 4809 98bc 1cfc 3dbd 8ba2 ff3c
00000010: b9f9 22bc aa5d 1c3d d989 2b3d d557 64bd
00000020: e36c 51bd dd20 cdbc 8033 2b3c fd5d c43b
00000030: e388 8fbd 3e00 493d c1d5 9ebd 2394 883d
00000040: 09ee 0d3d 3e40 28bc 5758 533c 13b0 aabc
00000050: 1824 8c3d 6874 0abd 1a04 80bd 1706 f03c
00000060: a0f0 27bd 0342 53bc 6d0e 063c 98c9 4a3d
00000070: 6d3d 553c 219c c53c fd25 303d 6055 d1bc
00000080: 3052 5abd e7ea 3bbd 1e1d 403d adb9 a53c
00000090: c0ba a1bc 8326 7ebd 5584 413d cb5f 3bbd
000000a0: 3edd f6bc cc78 88bb 237f 463d bbf2 32bd
000000b0: 0c19 59bd ab0c 853d 9e09 4ebd aecb 473c
000000c0: 1fc0 963d ec43 d33c

P.mlps.0.layers.1.weight f4 [50, 50]
0.06422828 0.13143505 0.10547637 -0.0915274 -0.018631872 0.105631344 0.10592135 0.1354991
-0.2429141 -0.1580706 0.2157217 0.18666725 0.28215694 0.32843536 0.066597626 0.06019149
0.07219184 -0.040074226 0.12907557 0.16439182 0.04771019 0.20909823 -0.18298271 -0.13264698
0.10414263 0.031020708 0.108620405 -0.30063322 -0.024940275 -0.03515528 -0.2345835 0.18467535
0.082499616 -0.06501466 0.13176315 0.13878651 0.11325977 -0.0715925 0.029249728 -0.14241998
0.00065282016 -0.033925354 0.022546174 -0.29781866 -0.10319656 -0.055501312 0.22127749 -0.14473115
-0.049362753 0.010420753 0.13210726 0.019371778 0.0074829105 0.022478925 -0.10673226 -0.016933074
0.29275072 -0.082101494 -0.067586206 -0.17142187 0.31133726 -0.08948658 0.079395846 -0.11545092
0.11559931 0.02432365 0.21451357 -0.061299097 0.07954868 0.057860702 0.014727133 -0.103319295
-0.011284097 0.22475232 -0.024642324 0.24321611 -0.032542072 -0.036171254 0.15947615 0.35189196
0.21851254 0.055207495 0.2803256 0.019061746 -0.13711375 0.0071323016 -0.39242843 -0.08245735
0.24319144 -0.021813719 -0.22399563 0.008331419 0.19942023 0.30413812 -0.032616206 0.10235303
-0.12413499 0.0931618 -0.21476856 -0.046369538 0.11534764 0.027406303 -0.32685697 0.039207455
0.07329357 -0.0011904855 0.17401682 -0.2898564 0.060059052 0.2244719 0.052771594 -0.00044894416
-0.012154472 -0.04749201 -0.124941394 0.017204784 0.26654235 0.08304735 0.09509221 -0.2084871
-0.039736297 -0.13670185 0.02385134 0.21562336 -0.08635349 0.044865537 -0.048105527 -0.044692926
0.22954592 0.046521753 -0.16133535 0.053839356 0.07441278 -0.047538824 0.2545092 0.13555427
-0.08332781 -0.094775364 0.29904357 -0.13882872 0.11113791 0.017452262 -0.1444887 -0.3527553
0.09819917 -0.13671216 0.09789452 0.060101442 -0.0180146 -0.047058236 -0.16099386 0.018478626
0.09032446 0.00036365335 0.1696472 -0.19190964 -0.098180085 0.37367156 0.32103094 -0.16764526
0.048212316 0.08042695 -0.018380903 0.23300272 0.26275486 -0.11485413 0.01822829 -0.16663687
0.090679914 -0.23735544 0.09247618 0.06454168 -0.13941725 -0.0013255401 0.36771494 -0.18075286
0.051433574 0.14321993 0.045773856 0.0676246 -0.14675707 0.091663755 0.1566966 0.11896553
-0.24325775 0.049744647 0.061390787 0.1799209 0.043074302 -0.101155065 0.12576434 0.058050577
0.004594033 -0.19623679 0.095987044 -0.34216344 0.051362205 0.05126205 0.015519892 -0.04989635
-0.027220491 0.08465439 0.08328099 0.2097293 -0.16944084 -0.088449575 0.16465108 -0.10643772
-0.13759321 0.19703086 0.11137308 0.02678502 0.13281272 -0.11481787 0.1038433 -0.095295124
0.043195717 0.11682404 -0.015754351 -0.030217847 -0.07105152 0.0685514 0.28418392 0.024782782
0.28800437 0.18710761 -0.11641581 -0.10901089 -0.22947548 0.055260282 -0.11183403 0.13087298
0.14881958 0.030389922 -0.003393644 -0.22672215 -0.12838465 0.11678225 -0.3677014 0.24371527
0.076118365 -0.052624673 -0.27594557 -0.07426261 0.10750783 0.020893205 -0.38099355 0.16995609
-0.18842836 -0.22467856 -0.022772703 -0.05825438 0.06557917 0.15067917 -0.08526411 0.2166263
00000000: 1e8a 833d e996 063e ff03 d83d b872 bbbd
00000010: dea1 98bc 3f55 d83d 4bed d83d 47c0 0a3e
00000020: 79be 78be 42dd 21be 26e6 5c3e b325 3f3e
00000030: e076 903e ae28 a83e 5664 883d 5a8b 763d
00000040: 51d9 933d df24 24bd 632c 043e 5456 283e
00000050: c36b 433d d91d 563e d25f 3bbe 9cd4 07be
00000060: bb48 d53d 241f fe3c 6074 de3d 99ec 99be
00000070: 8c4f ccbc fcfe 0fbd a836 70be 891b 3d3e
00000080: 8ff5 a83d 6826 85bd ebec 063e 0d1e 0e3e
00000090: bdf4 e73d 179f 92bd 209d ef3c 8bd6 11be
000000a0: 0522 2b3a 50f5 0abd c1b2 b83c b07b 98be
000000b0: b858 d3bd 5855 63bd 9196 623e 6734 14be
000000c0: 9930 4abd cebb 2a3c 2047 073e 90b1 9e3c
000000d0: 3433 f53b b925 b83c 7196 dabd 3bb7 8abc
000000e0: 6ce3 953e d424 a8bd a36a 8abd 3789 2fbe
000000f0: 9967 9f3e bd44 b7bd 4a9a a23d 8871 ecbd
00000100: 55bf ec3d 6442 c73c 72a9 5b3e c314 7bbd
00000110: 6bea a23d 58ff 6c3d 134a 713c 1199 d3bd
00000120: efe0 38bc 7925 663e b3de c9bc a50d 793e
00000130: d64a 05bd 4f28 14bd b74d 233e 2f2b b43e
00000140: c0c1 5f3e 4121 623d d686 8f3e 6127 9c3c
00000150: 8c67 0cbe 15b6 e93b 61ec c8be 66df a8bd
00000160: 2d07 793e afb2 b2bc 1c5f 65be 8180 083c
00000170: d134 4c3e feb7 9b3e 9298 05bd 779e d13d
00000180: 7c3a febd 9dcb be3d 4aec 5bbe fced 3dbd
00000190: 623b ec3d 2f83 e03c cc59 a7be ff97 203d
000001a0: f01a 963d 110a 9cba 7731 323e 0f68 94be
000001b0: 7b00 763d f6db 653e 0727 583d 4460 ebb9
000001c0: 8d23 47bc fb86 42bd 46e1 ffbd 0cf1 8c3c
000001d0: 3d78 883e bb14 aa3d b4bf c23d a47d 55be
000001e0: 87c2 22bd 92fb 0bbe e363 c33c 5fcc 5c3e
000001f0: 19da b0bd edc4 373d 4d0a 45bd ee0f 37bd
00000200: 160e 6b3e 988d 3e3d 1835 25be a886 5c3d
00000210: ba65 983d 12b8 42bd 084f 823e bdce 0a3e
00000220: c5a7 aabd 9619 c2bd 3d1c 993e 1e29 0ebe
00000230: 469c e33d 0cf8 8e3c d9f4 13be 589c b4be
00000240: a51c c93d 46fe 0bbe ec7c c83d ee2c 763d
00000250: 5b93 93bc 23c0 40bd 93db 24be 7d60 973c
00000260: 08fc b83d baa8 be39 ffb7 2d3e f683 44be
00000270: a412 c9bd e151 bf3e 2b5e a43e 33ab 2bbe
00000280: 477a 453d e2b6 a43d 8c93 96bc 4498 6e3e
00000290: ce87 863e a438 ebbd 7f53 953c dba2 2abe
000002a0: 64b6 b93d 4e0d 73be 2764 bd3d 6e2e 843d
000002b0: 65c3 0ebe bfbd adba 2245 bc3e 4717 39be
000002c0: 03ac 523d 3fa8 123e 5e7d 3b3d c47e 8a3d
000002d0: 7c47 16be 35ba bb3d 1375 203e 33a4 f33d
000002e0: 8f18 79be 0bc1 4b3d e874 7b3d 2f3d 383e
000002f0: ae6e 303d 632a cfbd 5ec8 003e 71c6 6d3d
00000300: 8b89 963b 4cf2 48be db94 c43d 0c30 afbe
00000310: 2d61 523d 28f8 513d 2547 7e3c 1d60 4cbd
00000320: 82fd debc 485f ad3d 398f aa3d 47c3 563e
00000330: e681 2dbe 0d25 b5bd 4b9a 283e 05fc d9bd
00000340: 3ce5 0cbe 75c2 493e 9217 e43d 426c db3c
00000350: 0f00 083e a225 ebbd ccab d43d 172a c3bd
00000360: feed 303d 7141 ef3d 450f 81bc 6b8b f7bc
00000370: 7683 91bd ad64 8c3d 8e80 913e 4305 cb3c
00000380: 4f75 933e 2399 3f3e 6a6b eebd 1a41 dfbd
00000390: 9ffb 6abe 9b58 623d 3d09 e5bd 9103 063e
000003a0: 2964 183e 49f4 f83c e667 5ebb da29 68be
000003b0: 4477 03be 882b ef3d 5c43 bcbe 7f90 793e
000003c0: f2e3 9b3d f88c 57bd bd48 8dbe ff16 98bd
000003d0: 112d dc3d 3a28 ab3c 9611 c3be f808 2e3e
000003e0: 5df3 40be 2312 66be d28d babc 259c 6ebd
000003f0: 5f4e 863d a44b 1a3e f39e aebd 49d3 5d3e

P.mlps.0.layers.1.bias f4 [50]
0.052571416 0.039367314 0.030962745 -0.07068193 -0.05694905 0.047589038 -0.017799983 -0.08916123
0.0072848285 -0.039304912 0.028643124 0.04900428 0.03591394 0.000256736 -0.057145428 0.016938776
0.016081538 0.040646914 -0.03033373 -0.029836794 0.040027346 -0.031367194 -0.045392573 -0.01026495
-0.04185996 0.114045195 0.01800613 -0.040834714 -0.010793317 -0.028860945 0.04168985 0.048049055
-0.045726985 -0.020669252 -0.059370913 -0.049921945 -0.046415463 0.051833663 0.073705494 0.039590776
-0.029059766 -0.060862094 0.017026683 0.040930863 0.04597077 0.05529325 0.004881555 0.054197982
0.023899183 0.08461141
00000000: 2055 573d 9f3f 213d 95a5 fd3c b0c1 90bd
00000010: 6843 69bd b9ec 423d 45d1 91bc 2a9a b6bd
00000020: 92b5 ee3b 30fe 20bd fca4 ea3c b6b8 483d
00000030: 7f1a 133d 869a 8639 5311 6abd 30c3 8a3c
00000040: 6ebd 833c 617d 263d 717e f8bc 4b6c f4bc
00000050: b7f3 233d e37a 00bd 90ed 39bd 522e 28bc
00000060: 5975 2bbd 8790 e93d 9781 933c 4d42 27bd
00000070: 74d6 30bc ca6d ecbc fac2 2a3d 16cf 443d
00000080: 384c 3bbd 9052 a9bc ea2e 73bd f47a 4cbd
00000090: 241e 3ebd 894f 543d e8f2 963d f029 223d
000000a0: bf0e eebc 884a 79bd 8b7b 8b3c 1fa7 273d
000000b0: d94b 3c3d 2d7b 623d 74f5 9f3b b4fe 5d3d
000000c0: 38c8 c33c bf48 ad3d

P.mlps.0.layers.2.weight f4 [50, 50]
0.023080977 -0.110532865 0.066191 -0.41054043 -0.128917 0.3625452 -0.09323924 0.123994604
0.0384683 0.07324705 0.030748418 -0.3361436 0.064074814 0.0043167174 0.10405535 0.068720445
-0.060420968 0.10918347 -0.27118313 0.1586246 -0.078096785 -0.206016 -0.008741604 0.19082317
-0.15709747 0.18540421 -0.10555908 0.017660014 -0.13425307 0.10535946 -0.053387143 0.18011564
-0.02800078 0.07475181 0.0801678 0.02455803 0.06955252 -0.039162833 0.1644237 -0.1141459
-0.07786661 -0.13236488 -0.02317609 0.22241433 0.0064348555 0.03589074 0.016694503 0.16398785
-0.09926998 -0.08314229 -0.054883998 -0.07281362 0.029694956 -0.33889815 0.04885301 -0.08771123
0.036351394 -0.13181846 -0.28070956 -0.22395395 0.092713855 0.1601316 -0.07958464 0.03799918
-0.10452872 0.108396105 -0.01423358 -0.017315704 -0.25152248 0.04214216 -0.012486175 0.022775212
0.018263476 -0.12754034 0.17998104 -0.05316179 0.1621238 0.10812565 -0.05648876 0.015336768
0.18359832 0.30612147 -0.16499028 0.24070026 0.054144103 0.22987232 -0.017025914 0.14119814
0.023379467 0.14410852 0.057636496 0.02753398 0.0042727417 0.04308534 0.11191796 -0.09094981
0.10144154 0.06926512 -0.08446781 0.150492 -0.08467844 -0.1087878 0.15567075 -0.024022039
0.04510091 0.07793457 -0.2540806 0.30882448 0.10800489 -0.17975345 -0.059836432 0.30066383
-0.02199546 -0.22493473 -0.25210527 -0.13666126 0.121078044 0.03152051 0.09116886 -0.35246855
-0.06715549 -0.024673283 0.12193956 0.09280613 0.15225972 0.27989265 0.122853614 -0.250471
0.15837398 0.012401741 -0.011970338 -0.091308646 0.07305083 0.18834099 0.11560346 0.21018685
0.131334 -0.13429885 -0.12263172 -0.014045457 0.0029181011 0.046944454 -0.26121083 0.09346596
0.06364414 0.06402368 0.10225447 0.060752716 0.24462417 0.26055652 -0.08156659 0.062015474
-0.27560008 0.07830505 0.104941584 -0.21704389 -0.06764705 -0.27696174 -0.0192221 -0.05405632
0.07140714 0.096854776 -0.10569623 -0.13591613 0.022179898 -0.01099108 0.034861717 -0.25063375
0.045794267 0.18261358 -0.07532235 -0.031783186 -0.07608806 0.060226977 -0.0383524 -0.00069866487
-0.09260607 -0.059764788 -0.34034184 0.006664842 0.0371517 -0.14951113 -0.14899261 0.09609313
0.11460135 0.026988998 0.16736977 -0.110287 -0.2383053 -0.091271296 -0.14211127 -0.019617243
0.008280612 0.20091145 -0.08240394 -0.035457373 0.24932045 -0.08348055 -0.027224911 0.16843301
-0.05503465 0.028432654 -0.1265768 -0.18496372 0.12942763 0.1131251 0.09026091 -0.06117547
0.18426743 -0.09729648 0.14873537 0.14397614 0.11836409 0.14785898 0.014680038 -0.35178247
0.07770911 0.184897 0.01027992 -0.114096686 0.019957853 -0.0016420516 0.053385474 0.03989037
-0.04201971 -0.20622234 0.03783102 -0.13356166 0.1738211 -0.3461761 0.28837672 -0.06613251
-0.048892323 -0.24114072 -0.0917069 -0.12766637 0.08219629 -0.23834184 -0.13859683 0.13771337
-0.023984805 -0.07859529 0.09667092 0.008646418 0.047778904 0.04940631 -0.18850376 -0.12888545
-0.09201841 0.15309718 -0.26071265 0.020617142 0.013188778 -0.07464062 -0.019097656 0.27860475
00000000: 5114 bd3c 0e5f e2bd 268f 873d 5b32 d2be
00000010: d102 04be 869f b93e 37f4 bebd e2f0 fd3d
00000020: f090 1d3d 8d02 963d 1be4 fb3c 041b acbe
00000030: a839 833d 4073 8d3b f91a d53d 4ebd 8c3d
00000040: fa7b 77bd 959b df3d 84d8 8abe 7d6e 223e
00000050: 35f1 9fbd dcf5 52be f238 0fbc 2667 433e
00000060: 29de 20be 9ada 3d3e 5c2f d8bd bcab 903c
00000070: a379 09be b3c6 d73d 7aac 5abd 3c70 383e
00000080: e461 e5bc 7a17 993d 042f a43d ec2d c93c
00000090: 8d71 8e3d 3569 20bd b05e 283e 53c5 e9bd
000000a0: 8778 9fbd a98a 07be c9db bdbc 95c0 633e
000000b0: 7bdb d23b 2b02 133d e9c2 883c 6eec 273e
000000c0: 0f4e cbbd 8146 aabd 0bce 60bd 4f1f 95bd
000000d0: d642 f33c 0f84 adbe 181a 483d f2a1 b3bd
000000e0: 33e5 143d 6bfb 06be 2ab9 8fbe 2f54 65be
000000f0: c3e0 bd3d 8af9 233e 46fd a2bd 07a5 1b3d
00000100: 2713 d6bd c7fe dd3d f633 69bc aad9 8dbc
00000110: 8ec7 80be 429d 2c3d d092 4cbc 1593 ba3c
00000120: 499d 953c ef99 02be f34c 383e 2dc0 59bd
00000130: c803 263e fb70 dd3d c260 67bd 1147 7b3c
00000140: 3301 3c3e f4bb 9c3e 36f3 28be 217a 763e
00000150: 35c6 5d3d a663 6b3e ee79 8bbc 3f96 103e
00000160: 4c86 bf3c 2f91 133e 3f14 6c3d f18e e13c
00000170: 5b02 8c3b 417a 303d 3e35 e53d e543 babd
00000180: 95c0 cf3d dfda 8d3d 76fd acbd 931a 1a3e
00000190: e46b adbd 23cc debd 2768 1f3e dec9 c4bc
000001a0: bbbb 383d 299c 9f3d da16 82be 3e1e 9e3e
000001b0: ab31 dd3d 4a11 38be 0c17 75bd 9cf0 993e
000001c0: d32f b4bc 4a55 66be f113 81be eef0 0bbe
000001d0: c4f7 f73d a61b 013d bdb6 ba3d c276 b4be
000001e0: d188 89bd a01f cabc 73bb f93d 2411 be3d
000001f0: f9e9 1b3e 174e 8f3e ad9a fb3d bc3d 80be
00000200: ca2c 223e ac30 4b3c 3d1f 44bc 0700 bbbd
00000210: ac9b 953d 76dc 403e 82c1 ec3d 393b 573e
00000220: 6c7c 063e a385 09be 5726 fbbd eb1e 66bc
00000230: 9d3d 3f3b d448 403d 6dbd 85be 156b bf3d
00000240: dc57 823d d91e 833d cb6a d13d d7d7 783d
00000250: c27e 7a3e aa67 853e 620c a7bd f003 7e3d
00000260: 741b 8dbe 665e a03d 9deb d63d c140 5ebe
00000270: 898a 8abd eecd 8dbe aa77 9dbc 296a 5dbd
00000280: e83d 923d cc5b c63d 4477 d8bd 992d 0bbe
00000290: 9eb2 b53c ee13 34bc 29cb 0e3d 1153 80be
000002a0: c592 3b3d 0eff 3a3e 9b42 9abd 162f 02bd
000002b0: 0fd4 9bbd 90b0 763d 6817 1dbd 9b26 37ba
000002c0: 40a8 bdbd eccb 74bd 4941 aebe bf64 da3b
000002d0: 622c 183d 7219 19be 8591 18be 7acc c43d
000002e0: 1db4 ea3d 0818 dd3c fb62 2b3e 27de e1bd
000002f0: 4e06 74be 72ec babd 9e85 11be 57b4 a0bc
00000300: 67ab 073c bbbb 4d3e 66c3 a8bd c03b 11bd
00000310: dc4d 7f3e daf7 aabd c706 dfbc b479 2c3e
00000320: 036c 61bd 99eb e83c 599d 01be 2167 3dbe
00000330: ad88 043e 22ae e73d b6da b83d 2193 7abd
00000340: 9ab0 3c3e 6043 c7bd 164e 183e 7b6e 133e
00000350: df68 f23d 5868 173e 8b84 703c d51c b4be
00000360: f425 9f3d a455 3d3e 1c6d 283c 86ab e9bd
00000370: a77e a33c 1c3a d7ba baaa 5a3d 1664 233d
00000380: dc1c 2cbd f32b 53be b3f4 1a3d 63c4 08be
00000390: 29fe 313e fe3d b1be 1da6 933e 7b70 87bd
000003a0: 5143 48bd 98ed 76be d4d0 bbbd f9ba 02be
000003b0: 8756 a83d e20f 74be 54ec 0dbe bc04 0d3e
000003c0: c87b c4bc 91f6 a0bd 67fb c53d b5a9 0d3c
000003d0: d0b3 433d 455e 4a3d 2107 41be 8cfa 03be
000003e0: 2674 bcbd 82c5 1c3e 217c 85be 48e5 a83c
000003f0: bf15 583c 2edd 98bd b072 9cbc 48a5 8e3e

P.mlps.0.layers.2.bias f4 [50]
0.10098791 0.066587284 0.043591633 -0.05169736 0.015324037 0.04902961 -0.10756194 0.03258109
-0.056412637 0.047426865 0.037025973 -0.036922526 0.02881072 -0.024985291 0.053628806 0.040517323
-0.041794386 -0.035165012 -0.050026476 0.03462581 -0.028588124 0.00424291 -0.046884414 -0.016778229
-0.041482233 -0.04526872 0.05904165 0.06264245 -0.07831388 0.043942653 -0.008990729 -0.03711247
-0.04461273 0.04943844 -0.030439196 0.049800567 -0.032387912 0.031660505 -0.05490411 -0.03448045
-0.05654809 -0.05310814 0.017543567 0.05015193 0.048384387 -0.035394985 0.048778284 -0.039973635
-0.044661246 0.047835037
00000000: c0d2 ce3d ea5e 883d 248d 323d 9cc0 53bd
00000010: ab11 7b3c 46d3 483d 6f49 dcbd c073 053d
00000020: f010 67bd ac42 423d 8ca8 173d 133c 17bd
00000030: 7604 ec3c f4ad ccbc e1a9 5b3d 7ef5 253d
00000040: 9730 2bbd 3009 10bd 90e8 4cbd cbd3 0d3d
00000050: a431 eabc 1c08 8b3b df09 40bd 7f72 89bc
00000060: 46e9 29bd b16b 39bd a8d5 713d af4a 803d
00000070: 0763 a0bd 36fd 333d da4d 13bc 3f03 18bd
00000080: d7bb 36bd f67f 4a3d 9f5b f9bc aefb 4b3d
00000090: 30a9 04bd 72ae 013d 22e3 60bd 5f3b 0dbd
000000a0: f89e 67bd ec87 59bd 87b7 8f3c 1c6c 4d3d
000000b0: b52e 463d 55fa 10bd bdcb 473d 65bb 23bd
000000c0: b6ee 36bd acee 433d

P.mlps.0.layers.3.weight f4 [50, 50]
-0.13406755 -0.16659701 0.13677496 -0.102960005 0.19390373 0.02833319 -0.049860094 0.052812077
0.009849751 -0.16183817 0.09128642 -0.17385803 0.09102806 -0.285138 0.06967705 0.052085705
0.2700722 0.007005783 -0.060697712 -0.18494442 -0.14513427 -0.0052003926 -0.11618229 -0.290761
0.055804282 0.0010148392 -0.18076664 -0.109393 0.117899224 -0.02224052 -0.08345303 -0.079645805
0.013676339 -0.13834585 -0.029252077 0.037978705 -0.12920524 -0.24436477 -0.03256441 0.090903014
-0.18840148 0.16675064 0.2258683 -0.1309348 0.2362383 -0.04138776 -0.30694884 -0.39604908
0.20892468 0.09212878 -0.2276832 -0.016165858 0.02990236 0.09181871 -0.1511205 0.25424016
0.20224206 0.022145722 -0.1650331 0.09865937 -0.10318367 -0.01152151 0.32149214 0.047833357
-0.12223486 -0.090199634 0.15676163 -0.086719066 0.09729079 0.0584005 -0.08304174 0.029150737
0.10640345 -0.0023461117 -0.051539484 0.10616048 -0.08092662 0.03180634 0.07657486 0.016277485
-0.02224414 -0.07528176 0.15537007 0.13420652 0.10500151 0.0009229957 0.014749729 0.016543118
-0.2047859 -0.16863923 0.23246774 0.10825265 0.20428489 -0.06409966 -0.056583237 -0.052102245
-0.006793321 -0.2610365 0.15872082 0.02571874 -0.32185492 -0.19963858 0.15442145 0.07070107
0.11878817 -0.077988215 0.019975735 0.142577 0.2310321 -0.19427964 -0.049455695 -0.028913127
0.0028248257 -0.22734235 -0.13872531 -0.057756104 0.19801441 -0.19961125 -0.20602797 0.07489273
-0.09894093 -0.07554365 -0.011853406 0.10000188 0.15272489 -0.03357225 0.0044285813 -0.026638368
0.18147963 -0.1051163 -0.1298671 0.26046824 -0.010693148 0.029291715 -0.04411152 -0.11728562
-0.010266168 -0.077323966 0.16173387 0.10264189 -0.15076126 0.020444902 0.14725986 0.06758988
-0.07892197 -0.0964183 0.11439498 -0.23415156 -0.26948434 -0.00020734305 -0.030898124 0.095304124
-0.06201023 0.032216422 -0.2547162 0.04860602 -0.09081254 -0.02525614 0.034467604 0.1015062
0.1584401 0.040576342 0.0983913 0.015732344 0.16629796 0.4213296 -0.27032736 0.1637447
-0.14619324 -0.020227073 0.054959014 -0.09488486 -0.13812892 0.06349863 -0.14248706 -0.1692302
-0.105709285 -0.14022654 0.13496126 0.19493926 -0.21376497 -0.057729416 0.08300579 0.08267856
0.011915716 -0.15301092 0.26556575 -0.15762042 -0.11332175 -0.08015412 -0.21494621 0.1044209
0.0076997783 0.20347008 -0.10779027 -0.041333877 0.0046230396 0.07914109 -0.15874757 -0.17579629
-0.016525807 -0.15090579 0.17576396 -0.04894096 0.2733006 -0.21114801 0.16731922 0.23496586
0.02979815 -0.0696559 -0.13187745 0.10592506 0.009408462 -0.025402086 -0.114136584 -0.13196939
-0.002898789 0.042470705 0.063694626 0.08663105 0.30425525 -0.04340839 -0.0113364635 0.00021523396
-0.05101297 -0.14834881 0.14471759 0.15324986 0.31051403 -0.10441506 -0.21331213 -0.14620417
-0.0300687 0.09880709 0.13368917 -0.33067763 -0.06053731 -0.075191796 0.11525183 0.121658884
0.17757453 0.056745306 -0.014536896 -0.27902868 -0.22565053 -0.15181097 0.08322109 -0.15761466
0.11724133 0.06329805 0.19033028 -0.023132183 0.2292303 -0.11809372 0.16326196 0.11043122
00000000: 0149 09be 6898 2abe bc0e 0c3e b2dc d2bd
00000010: b38e 463e 021b e83c 193a 4cbd 7a51 583d
00000020: da60 213c e8b8 25be 60f4 ba3d d707 32be
00000030: eb6c ba3d 9cfd 91be d7b2 8e3d d257 553d
00000040: e746 8a3e c490 e53b 2a9e 78bd 1262 3dbe
00000050: 149e 14be 0e68 aabb fbf0 edbd a0de 94be
00000060: 0893 643d 5a04 853a e41a 39be 7009 e0bd
00000070: 2675 f13d c031 b6bc 6ce9 aabd 571d a3bd
00000080: b912 603c 89aa 0dbe 0da2 efbc 8f8f 1b3d
00000090: 614e 04be c23a 7abe 4262 05bd 5c2b ba3d
000000a0: 51ec 40be aec0 2a3e 054a 673e c613 06be
000000b0: 74e8 713e 3686 29bd 6628 9dbe f2c6 cabe
000000c0: 5af0 553e 04ae bc3d c925 69be 436e 84bc
000000d0: cbf5 f43c 730b bc3d 55bf 1abe c42b 823e
000000e0: 8b18 4f3e f26a b53c 70fe 28be ec0d ca3d
000000f0: f651 d3bd b7c4 3cbc 9e9a a43e e9ec 433d
00000100: 4556 fabd 96ba b8bd 1f86 203e c499 b1bd
00000110: 6540 c73d 5d35 6f3d ca11 aabd 87cd ee3c
00000120: 0dea d93d 39c1 19bb 111b 53bd aa6a d93d
00000130: dbbc a5bd 5d47 023d 48d3 9c3d 5c58 853c
00000140: 5839 b6bc 532d 9abd 5519 1f3e 6f6d 093e
00000150: 080b d73d 31f5 713a d9a8 713c 6f85 873c
00000160: 65b3 51be c3af 2cbe 060c 6e3e 91b3 dd3d
00000170: 0f30 513e af46 83bd d3c3 67bd 2a69 55bd
00000180: 829a debb 93a6 85be b687 223e 1bb0 d23c
00000190: 2bca a4be 0e6e 4cbe a820 1e3e b9cb 903d
000001a0: 3647 f33d 49b8 9fbd 27a4 a33c b5ff 113e
000001b0: ae93 6c3e 3ef1 46be 0e92 4abd 39db ecbc
000001c0: b620 393b 6fcc 68be 020e 0ebe aa91 6cbd
000001d0: 4ac4 4a3e e466 4cbe fff8 52be 5c61 993d
000001e0: 8ba1 cabd a1b6 9abd ca34 42bc c9cd cc3d
000001f0: ea63 1c3e 0e83 09bd a21d 913b b538 dabc
00000200: ccd5 393e 3747 d7bd e2fb 04be 185c 853e
00000210: 5032 2fbc 2ef5 ef3c 48ae 34bd 7133 f0bd
00000220: 6e33 28bc 075c 9ebd 909d 253e e935 d23d
00000230: 2961 1abe 117c a73c 4acb 163e 906c 8a3d
00000240: d8a1 a1bd f576 c5bd ea47 ea3d 6dc5 6fbe
00000250: daf9 89be 3a6a 59b9 101e fdbc cf2e c33d
00000260: 70fe 7dbd 5ef5 033d 296a 82be 1b17 473d
00000270: edfb b9bd f7e5 cebc e72d 0d3d 7ce2 cf3d
00000280: 1f3e 223e 6133 263d 6181 c93d 1ee1 803c
00000290: 034a 2a3e 83b8 d73e 5968 8abe b1ac 273e
000002a0: aeb3 15be 3fb3 a5bc b41c 613d fe52 c2bd
000002b0: ab71 0dbe 920b 823d 21e8 11be ae4a 2dbe
000002c0: 1c7e d8bd 8c97 0fbe 4933 0a3e 289e 473e
000002d0: 34e5 5abe ae75 6cbd f1fe a93d 6053 a93d
000002e0: 233a 433c e5ae 1cbe 3cf8 873e 3f67 21be
000002f0: 3c15 e8bd d827 a4bd dc1a 5cbe a0da d53d
00000300: 6c4e fc3b 765a 503e 25c1 dcbd b64d 29bd
00000310: de7c 973b b914 a23d b98e 22be f103 34be
00000320: 2161 87bc 0c87 1abe 78fb 333e 5176 48bd
00000330: 0eee 8b3e 2f37 58be bb55 2b3e e49a 703e
00000340: 401b f43c c1a7 8ebd e20a 07be 3def d83d
00000350: f325 1a3c 0918 d0bc 71c0 e9bd fc22 07be
00000360: 9cf9 3dbb c3f5 2d3d 5472 823d 9f6b b13d
00000370: 58c7 9b3e ffcc 31bd 93bc 39bc 6db0 6139
00000380: faf2 50bd c0e8 17be d930 143e 88ed 1c3e
00000390: b2fb 9e3e 90d7 d5bd 7f6e 5abe 8cb6 15be
000003a0: a252 f6bc 5f5b ca3d d0e5 083e 944e a9be
000003b0: f8f5 77bd 28fe 99bd 2709 ec3d 4b28 f93d
000003c0: 19d6 353e c46d 683d 292c 6ebc d9dc 8ebe
000003d0: ef10 67be 5674 1bbe d26f aa3d bd65 21be
000003e0: 391c f03d 68a2 813d f1e5 423e b47f bdbc
000003f0: 59bb 6a3e 1fdb f1bd 252e 273e c329 e23d

P.mlps.0.layers.3.bias f4 [50]
-0.037879437 -0.0493093 -0.050186604 0.059093904 -0.028055059 0.029732086 -0.04318504 0.033661984
-0.03639344 -0.030306155 -0.009175782 0.0528556 0.046997134 0.06234583 0.04408031 0.033891007
-0.0513039 -0.038353674 0.050164208 -0.053163998 -0.047981955 0.030167453 0.05016831 0.011087589
-0.044478606 -0.055756815 0.047991324 -0.027399654 0.04294541 0.043110695 0.0560796 -0.05585701
0.043967523 -0.07308275 0.0017405523 0.02835167 0.05203352 -0.078686826 -0.05239761 -0.03662583
-0.025866073 -0.053945232 0.03739321 0.055387933 0.040124297 0.04731055 -0.043959003 0.0058208317
-0.04591634 -0.044007562
00000000: 7827 1bbd 8cf8 49bd 7890 4dbd 730c 723d
00000010: b9d3 e5bc b490 f33c cce2 30bd 26e1 093d
00000020: 4a11 15bd 9d44 f8bc 0556 16bc 1d7f 583d
00000030: 1180 403d 575e 7f3d 8e8d 343d 4cd1 0a3d
00000040: 0a24 52bd be18 1dbd fc78 4d3d 7ec2 59bd
00000050: ba88 44bd bc21 f73c 497d 4d3d b8a8 353c
00000060: 332f 36bd 4261 64bd 8d92 443d 3d75 e0bc
00000070: 87e7 2f3d d794 303d b9b3 653d 52ca 64bd
00000080: 4a17 343d 69ac 95bd 3e23 e43a c341 e83c
00000090: 1a21 553d 8f26 a1bd e09e 56bd f704 16bd
000000a0: 16e5 d3bc adf5 5cbd 9f29 193d 75de 623d
000000b0: 6059 243d b5c8 413d 5b0e 34bd adbc be3b
000000c0: c612 3cbd 4641 34bd

P.mlps.0.layers.4.weight f4 [50, 50]
-0.18548279 0.037402373 0.064948075 -0.31381148 0.0620337 -0.17040949 -0.079260245 -0.08136789
0.24900158 0.09167031 -0.062858425 0.10796607 0.058806792 -0.20901047 -0.1443148 0.032823335
0.21944743 -0.03042198 0.1251774 0.07052034 -0.40860075 -0.28364983 -0.1867499 -0.04202499
-0.058952298 0.14394733 0.10874196 -0.1339704 -0.18739045 -0.24519281 0.10088875 0.13936006
-0.1365565 0.14423297 -0.25752646 0.14565532 0.18146801 -0.22101296 -0.038141485 0.33101204
-0.23407245 0.09520023 0.024970256 0.08108831 -0.028243177 -0.004986844 -0.11917831 -0.1354741
0.06057833 0.032378066 0.25232643 -0.0734877 -0.029044542 -0.08409233 0.0048422595 -0.16455224
0.12259343 0.19934861 0.16555387 0.03342635 0.15385133 0.21681124 0.014232759 0.45762235
-0.18965939 -0.0031800629 0.06880598 0.005587067 0.040430102 -0.077661924 -0.17909846 -0.114013255
-0.05683838 -0.04024379 0.15504467 -0.07223214 0.33015272 0.17034979 -0.09632058 0.10268413
0.0117740175 0.048595738 -0.184794 -0.27982143 0.118311256 -0.039343406 0.18216217 0.11760329
-0.22268091 -0.09519236 -0.006583802 -0.09785614 -0.075659655 -0.14634849 -0.07557613 -0.06701078
0.06713712 0.11733885 0.13966337 -0.16496119 0.15351956 0.18409134 0.2249679 0.054784976
-0.019756183 0.09865273 0.00056949706 0.07248439 0.13852008 0.13315855 -0.17541829 0.07861245
-0.088763446 -0.13998258 -0.063134395 0.08753243 0.01757703 0.13897038 0.20681319 -0.255587
0.29550216 -0.010219781 -0.17246561 -0.07328481 0.02117869 0.14736702 -0.0016526912 -0.08890504
-0.06595603 -0.028491506 -0.35207477 0.10147465 0.06355557 -0.08793074 -0.19033962 0.1214393
-0.049792264 0.08345362 0.19515117 -0.014161475 0.018062133 0.09101985 -0.11165028 -0.15467796
0.11710151 0.009542935 0.08202157 -0.10203604 -0.16089855 -0.1251864 -0.014394146 -0.023678273
-0.010864218 0.01627386 0.17556596 -0.22679707 -0.08870513 0.009887372 -0.11902897 0.21896406
0.12933947 0.009132304 -0.09847838 -0.2520795 0.18873453 0.27025625 0.054314982 -0.21849689
-0.1145498 0.125265 -0.11836821 0.17962657 -0.10978179 -0.041465163 0.14956501 0.063955314
-0.29266474 -0.23119068 0.033443153 0.0894009 -0.17503165 0.111591786 -0.121967904 -0.061090745
-0.03867814 0.14763923 -0.15071127 -0.06692834 -0.050449662 0.08978346 0.048459195 0.15711647
0.015221032 -0.17458692 0.03507429 0.0077093323 -0.08127264 0.1506629 -0.18217032 0.050834656
-0.039499007 0.074640095 0.28222093 -0.14538403 -0.24563901 -0.036227237 0.12632667 -0.0264016
0.009725682 0.17364088 0.13445646 0.14636637 0.113916285 -0.28779235 -0.22793384 -0.02221242
0.03852331 -0.36234614 0.031074623 0.21634284 -0.13488394 0.18221307 -0.017481273 -0.0752583
0.44801974 -0.09360425 0.004388723 -0.056469254 0.0022485112 -0.010024597 -0.24067459 0.024006477
-0.1101758 0.06308177 0.08699717 -0.1116768 0.15741634 0.19499406 0.071281396 0.09715194
0.105110735 0.03357881 0.028991146 -0.04645722 0.22317483 -0.23049511 -0.19940598 -0.020204427
-0.16284378 6.251849e-05 0.041375212 -0.36487636 0.04528121 0.0063492246 0.26186132 0.09358618
00000000: 33ef 3dbe 3b33 193d 7f03 853d e6ab a0be
00000010: 0d17 7e3d d37f 2ebe 3253 a2bd 35a4 a6bd
00000020: 45fa 7e3e a5bd bb3d ebbb 80bd 511d dd3d
00000030: 64df 703d d706 56be 42c7 13be c371 063d
00000040: d4b6 603e 8437 f9bc 812e 003e f86c 903d
00000050: 1e34 d1be 8d3a 91be 5e3b 3fbe 6522 2cbd
00000060: f777 71bd ee66 133e 1bb4 de3d 892f 09be
00000070: 48e3 3fbe d313 7bbe c39e ce3d 67b4 0e3e
00000080: 78d5 0bbe cfb1 133e 82da 83be ab26 153e
00000090: c0d2 393e 3951 62be 3f3a 1cbd 697a a93e
000000a0: b0b0 6fbe 57f8 c23d 6c8e cc3c a111 a63d
000000b0: 3c5e e7bc ae68 a3bb c213 f4bd b9b9 0abe
000000c0: fc20 783d dd9e 043d ee30 813e b880 96bd
000000d0: d2ee edbc 9938 acbd d1ab 9e3b 6280 28be
000000e0: 4412 fb3d 0b22 4c3e f486 293e 12ea 083d
000000f0: 348b 1d3e c403 5e3e 8530 693c 7a4d ea3e
00000100: 1236 42be 9a68 50bb 26ea 8c3d b713 b73b
00000110: 099a 253d 370d 9fbd 9665 37be c87f e9bd
00000120: 5ccf 68bd acd6 24bd 08c4 1e3e 72ee 93bd
00000130: c709 a93e 2d70 2e3e b943 c5bd 0f4c d23d
00000140: cfe7 403c 530c 473d a33a 3dbe c144 8fbe
00000150: 2c4d f23d 8d26 21bd b888 3a3e fed9 f03d
00000160: 7706 64be 36f4 c2bd efbc d7bb cd68 c8bd
00000170: 73f3 9abd 61dc 15be a8c7 9abd f33c 89bd
00000180: 307f 893d 5a4f f03d ea03 0f3e 96eb 28be
00000190: 3b34 1d3e 7182 3c3e fc5d 663e 3666 603d
000001a0: b8d7 a1bc 710a ca3d 4d4a 153a b272 943d
000001b0: 35d8 0d3e b75a 083e daa0 33be 90ff a03d
000001c0: 9cc9 b5bd 9857 0fbe 9b4c 81bd 3444 b33d
000001d0: b4fd 8f3c 404e 0e3e d6c6 533e 4ddc 82be
000001e0: 0f4c 973e de70 27bc d39a 30be 5916 96bd
000001f0: ef7e ad3c 61e7 163e 1d9f d8ba d813 b6bd
00000200: f413 87bd 0567 e9bc 2543 b4be f1d1 cf3d
00000210: 6c29 823d 0815 b4bd 64e8 42be 2bb5 f83d
00000220: f9f2 4bbd bbe9 aa3d b5d5 473e 8805 68bc
00000230: 0af7 933c 9d68 ba3d e7a8 e4bd e663 1ebe
00000240: ebd2 ef3d f859 1c3c edfa a73d 45f8 d0bd
00000250: 97c2 24be dd30 00be 6dd5 6bbc f0f8 c1bc
00000260: d5ff 31bc c250 853c 90c7 333e 7e3d 68be
00000270: 09ab b5bd a5fe 213c 76c5 f3bd 1d38 603e
00000280: 9171 043e a99f 153c 08af c9bd 9010 81be
00000290: a043 413e 075f 8a3e 6379 5e3d a6bd 5fbe
000002a0: 1699 eabd 7845 003e 086b f2bd 07f0 373e
000002b0: 46d5 e0bd 60d7 29bd 9227 193e 01fb 823d
000002c0: 27d8 95be 40bd 6cbe b0fb 083d d217 b73d
000002d0: 7f3b 33be 3c8a e43d 4fca f9bd 4a3a 7abd
000002e0: f86c 1ebd bd2e 173e 0e54 1abe ba11 89bd
000002f0: 4ea4 4ebd 64e0 b73d 267d 463d 24e3 203e
00000300: a361 793c eac6 32be 0faa 0f3d 919e fc3b
00000310: 4572 a6bd 6047 1a3e db8a 3abe 0038 503d
00000320: b6c9 21bd e8dc 983d 437f 903e 8ddf 14be
00000330: cb88 7bbe 0363 14bd c75b 013e 2b48 d8bc
00000340: 7858 1f3c eace 313e f4ae 093e 11e1 153e
00000350: f14c e93d 8559 93be 7d67 69be d2f6 b5bc
00000360: 9eca 1d3d 6f85 b9be 3590 fe3c fa88 5d3e
00000370: 041f 0abe 1096 3a3e e334 8fbc 0621 9abd
00000380: d862 e53e 96b3 bfbd 47cf 8f3b 4e4c 67bd
00000390: c25b 133b 353e 24bc 6673 76be 3ba9 c43c
000003a0: daa3 e1bd 0431 813d 922b b23d ceb6 e4bd
000003b0: c031 213e 86ac 473e fbfb 913d 99f7 c63d
000003c0: 4c44 d73d ef89 093d d77e ed3c ed49 3ebd
000003d0: f187 643e e906 6cbe 1531 4cbe c183 a5bc
000003e0: 85c0 26be 5c1c 8338 0e79 293d 13d1 babe
000003f0: ca78 393d 280d d03b b012 863e 1caa bf3d

P.mlps.0.layers.4.bias f4 [50]
-0.054665748 0.045995302 -0.0496175 -0.054416858 -0.045535177 0.027812263 -0.045642424 0.041182104
0.044724647 0.0357264 -0.06392364 -0.058041815 -0.04594562 -0.03754761 0.039067652 -0.043286927
-0.041325495 -0.042681504 -0.039817046 -0.061414156 0.03269795 0.04568564 0.040719833 -0.052189115
0.03741723 0.05203132 0.042487558 -0.059823092 0.05707206 -0.052545913 0.041255027 -0.038795967
0.052969996 0.059673153 -0.04927937 -0.0500188 0.04278212 -0.03800325 0.042938393 0.030830555
0.035195224 -0.044136923 -0.048804726 0.04687839 -0.040451422 -0.058781177 0.030197252 0.03503635
0.042958263 -0.05054701
00000000: 31e9 5fbd 9265 3c3d b83b 4bbd 36e4 5ebd
00000010: 1883 3abd 8bd6 e33c 8df3 3abd 91ae 283d
00000020: 3131 373d d855 123d 66ea 82bd 41bd 6dbd
00000030: 7931 3cbd 86cb 19bd 6705 203d a24d 31bd
00000040: ec44 29bd cdd2 2ebd 3317 23bd 698d 7bbd
00000050: 49ee 053d de20 3b3d d7c9 263d 41c4 55bd
00000060: cf42 193d cb1e 553d 6f07 2e3d 0f09 75bd
00000070: 64c4 693d 623a 57bd 08fb 283d 85e8 1ebd
00000080: 11f7 583d d66b 743d 2ad9 49bd 83e0 4cbd
00000090: 4e3c 2f3d 4ca9 1bbd 2be0 2f3d 5c90 fc3c
000000a0: de28 103d ebc8 34bd 77e7 47bd 8e03 403d
000000b0: 64b0 25bd 88c4 70bd 3a60 f73c 4782 0f3d
000000c0: 01f5 2f3d 620a 4fbd

P.mlps.0.layers.5.weight f4 [1, 50]
0.088613324 -0.2564813 0.3393858 0.11301639 0.11169763 -0.101259276 0.15347426 -0.3721073
-0.27871323 -0.0660899 0.055607688 0.15560666 0.1268292 0.44022995 -0.2508174 0.28817928
0.4258097 0.3947356 0.26661018 0.07903152 -0.42595583 -0.21605298 -0.46986595 0.1302677
-0.62163574 -0.17288621 -0.23420078 0.08071143 -0.071018614 0.11478955 -0.3974184 0.49253294
-0.12980151 -0.1053044 0.1132614 0.113941744 -0.3258896 0.3909224 -0.4917104 -0.62928647
-0.373439 0.14399214 0.14519353 -0.35207513 0.4526158 0.0769868 -0.01890403 -0.37446415
-0.13070184 0.1419603
00000000: e77a b53d 8451 83be fac3 ad3e 2375 e73d
00000010: bac1 e43d 0661 cfbd 5b28 1d3e d984 bebe
00000020: 80b3 8ebe 245a 87bd e3c4 633d 5a57 1f3e
00000030: 84df 013e d265 e13e 236b 80be 3c8c 933e
00000040: bb03 da3e c91a ca3e 2181 883e 47db a13d
00000050: e216 dabe fe3c 5dbe 4592 f0be e564 053e
00000060: 8523 1fbf 1509 31be 54d2 6fbe 094c a53d
00000070: 3572 91bd c916 eb3d 6d7a cbbe 472d fc3e
00000080: b0ea 04be d5a9 d7bd 98f5 e73d 4a5a e93d
00000090: 00db a6be fb26 c83e 77c1 fbbe eb18 21bf
000000a0: 6633 bfbe ad72 133e 9dad 143e 3143 b4be
000000b0: 42bd e73e 41ab 9d3d a0dc 9abc c4b9 bfbe
000000c0: b4d6 05be 0a5e 113e

P.mlps.1.layers.0.weight f4 [50, 1]
0.28667507 0.20916663 0.04329805 -0.049711104 0.1269921 -0.0044409195 0.22302966 -0.13395782
0.09215813 -0.2682174 -0.2769916 0.043128733 0.07977628 0.11204083 0.1937456 -0.23752445
-0.11718434 0.35559222 0.39127162 0.37518385 0.011592584 0.04955215 0.056619447 -0.1320361
0.15224662 -0.14217988 0.08261661 -0.04723503 -0.054782137 -0.15837252 -0.049179178 0.055583205
-0.06345185 -0.24250929 0.040650938 -0.003485364 -0.29525122 -0.05343025 -0.32918808 -0.1655494
0.23486249 -0.17837468 0.06369691 -0.2268251 0.008626995 -0.043421123 0.03320263 0.05227111
-0.06702508 0.00861835
00000000: 13c7 923e c72f 563e 4c59 313d df9d 4bbd
00000010: 380a 023e 2285 91bb e361 643e 3d2c 09be
00000020: 67bd bc3d cb53 89be d8d1 8dbe c1a7 303d
00000030: bf61 a33d aa75 e53d 3f65 463e 9c39 73be
00000040: 58fe efbd 2f10 b63e c154 c83e 1918 c03e
00000050: d2ee 3d3c 32f7 4a3d cbe9 673d 7934 07be
00000060: 8ae6 1b3e 9a97 11be e632 a93d 8579 41bd
00000070: 3c63 60bd 682c 22be 1b70 49bd 37ab 633d
00000080: 0bf3 81bd 5b54 78be 9981 263d b46a 64bb
00000090: 2b2b 97be aed9 5abd 578b a8be c885 29be
000000a0: cb7f 703e daa7 36be 8773 823d d744 68be
000000b0: 3d58 0d3c 59da 31bd 7bff 073d 3b1a 563d
000000c0: 7244 89bd fb33 0d3c

P.mlps.1.layers.0.bias f4 [50]
0.029343223 0.029334981 -0.042873394 0.03224604 0.0109692775 -0.03755121 0.027783502 -0.027247658
-0.023899544 -0.033480167 -0.021820597 0.04803473 -0.033619665 -0.018093454 -0.018043235 -0.026880845
-0.013730228 0.033368874 -0.013303435 0.021895021 0.03931827 -0.03725019 0.004169167 0.05393935
0.035557564 0.028820142 -0.025370302 -0.028660228 0.03661889 -0.039820325 -0.041185055 0.04297845
0.006669598 -0.030274924 0.042565033 -0.040348805 0.00830709 0.043349586 -0.02801347 -0.029446395
-0.023532426 0.029519603 -0.035130408 0.016681125 -0.041079216 0.03111664 -0.030117927 0.027309237
-0.013850094 0.05550548
00000000: 3361 f03c ea4f f03c 039c 2fbd 6c14 043d
00000010: 7cb8 333c 4ccf 19bd 3a9a e33c 7b36 dfbc
00000020: fac8 c3bc 8022 09bd 1cc1 b2bc 11c0 443d
00000030: c6b4 09bd b938 94bc 68cf 93bc 3835 dcbc
00000040: c0f4 60bc cdad 083d a7f6 59bc 305d b33c
00000050: 320c 213d a893 18bd 829d 883b 82ef 5c3d
00000060: cfa4 113d 3818 ec3c 61d5 cfbc dbc8 eabc
00000070: b0fd 153d a31a 23bd a9b1 28bd 2c0a 303d
00000080: a58c da3b 1e03 f8bc ac58 2e3d ca44 25bd
00000090: 761a 083c 568f 313d 817c e5bc 9139 f1bc
000000a0: 13c7 c0bc 18d3 f13c e7e4 0fbd dba6 883c
000000b0: ae42 28bd 53e8 fe3c dfb9 f6bc 9fb7 df3c
000000c0: 81eb 62bc b759 633d

P.mlps.1.layers.1.weight f4 [50, 50]
-0.17350008 -0.31891102 0.22990024 0.08039128 0.013826894 0.0012996476 -0.14519842 -0.1076297
0.023557173 0.026682332 0.0128533365 0.040692817 -0.10911995 0.19185571 -0.09428928 0.022305412
-0.058817964 -0.02212273 -0.18746948 0.23363173 -0.061892867 -0.020302897 -0.11163177 -0.1728768
0.07761367 -0.0736549 0.09187396 -0.08409278 0.03230206 0.086434916 -0.23740844 -0.111766815
0.027906371 0.12317341 0.16837892 0.046322677 -0.10290113 0.10413393 -0.055983555 0.21878307
-0.10469017 0.027893169 -0.09447071 0.1611564 -0.10295502 0.0531861 -0.04158746 -0.018192207
0.11013168 -0.17652799 -0.13903688 -0.11333563 -0.13894317 0.07776361 -0.17701948 -0.09520779
-0.1574523 0.19160768 -0.079757735 -0.047959078 -0.12747915 0.14226711 0.2839466 0.026440974
0.07961258 0.11657579 -0.0051986496 -0.118469484 0.09886325 -0.008879501 -0.28915015 -0.09631584
0.16695008 0.14433709 0.1370047 0.20207387 0.039670546 0.19949253 -0.12531006 -0.14441565
-0.040309984 -0.101458944 0.06841077 0.38367248 -0.011316357 0.10879198 0.017401995 -0.051853873
0.071491905 -0.09323587 0.340862 0.13086331 0.06885173 0.06319587 -0.069587275 -0.020272404
0.28305373 -0.09753082 -0.09359778 0.15793191 0.03742167 0.03946956 -0.15446946 0.0077702804
0.010796314 -0.19821472 0.07059419 0.2806671 0.29512617 0.16099876 -0.0062492834 0.031479187
0.06755153 0.1340822 0.056387067 -0.044939395 0.09019664 -0.26171592 -0.19703639 0.1752438
-0.08529166 -0.23411816 -0.14382643 0.046738695 0.22232789 0.038091585 0.122337736 -0.05942272
0.032240495 0.04705135 0.18360357 -0.10419157 0.26353058 -0.1683201 -0.3121618 0.17884602
-0.1990119 0.0649368 0.07289138 0.054272156 0.0706072 0.0053386274 0.15447001 -0.32462308
-0.13487698 0.10083528 0.20213096 0.08368503 -0.04789174 -0.17892422 0.19567193 0.03687478
-0.0643163 0.027746882 -0.23633185 0.20271508 0.018124426 -0.22787072 -0.16372508 0.20887217
-0.057963286 -0.13031709 0.23114814 0.07564748 -0.00015036855 0.05391876 -0.10684336 0.1157516
0.18928297 -0.33328515 -0.15585162 -0.0562986 0.037620783 0.09245811 0.037877914 -0.025320873
-0.14300324 -0.2862894 0.10250518 0.08420459 0.2735999 -0.007117881 -0.088113725 0.018509226
0.08978673 -0.19194318 0.017366199 0.30387864 -0.037737478 0.15400012 -0.025575873 0.092002764
-0.09172692 0.025926193 0.0588405 0.04460597 0.26249734 0.11936037 -0.25150824 0.03917927
-0.15644264 0.30186182 0.1217827 -0.096713565 0.33095628 -0.061916962 -0.16499068 -0.24493702
0.25271818 -0.32200804 0.10496408 0.069021404 -0.12317482 -0.014269915 0.24462649 0.075654775
-0.101256005 0.21471664 -0.029980356 -0.10401533 -0.04572432 -0.25856295 -0.024925075 -0.09897917
-0.0067048203 0.111981586 -0.14319056 0.009194749 -0.05014978 0.06140985 -0.17303218 0.004600477
-0.21342015 0.098045506 0.2921105 -0.16418102 -0.030026644 0.008007544 0.13668582 0.24446304
0.098982394 0.085804455 0.028347732 0.16311501 -0.2298311 0.06567689 -0.07333917 0.26658496
-0.004880466 -0.07583518 -0.016938288 -0.2624865 0.15200552 0.053117722 0.21854754 -0.091247655
00000000: 01aa 31be 4e48 a3be f86a 6b3e 2fa4 a43d
00000010: 328a 623c f058 aa3a e5ae 14be f66c dcbd
00000020: f9fa c03c e894 da3c cd96 523c 83ad 263d
00000030: 487a dfbd d375 443e bd1a c1bd d7b9 b63c
00000040: 1beb 70bd ba3a b5bc 00f8 3fbe 283d 6f3e
00000050: 6083 7dbd 4352 a6bc 339f e4bd 9e06 31be
00000060: eaf3 9e3d 61d8 96bd 6a28 bc3d d638 acbd
00000070: 2a4f 043d ca04 b13d 331b 73be 00e6 e4bd
00000080: e79b e43c 5742 fc3d 866b 2c3e d9bc 3d3d
00000090: d4bd d2bd 2b44 d53d 034f 65bd ab08 603e
000000a0: cd67 d6bd 3780 e43c dc79 c1bd 2f06 253e
000000b0: 15da d2bd abd9 593d 9d57 2abd d307 95bc
000000c0: b88c e13d c1c3 34be af5f 0ebe 831c e8bd
000000d0: 1e47 0ebe 8742 9f3d 9844 35be 4dfc c2bd
000000e0: 2d3b 21be ce34 443e 0658 a3bd bd70 44bd
000000f0: e589 02be 78ae 113e 7361 913e be9a d83c
00000100: ec0b a33d 4abf ee3d 6f59 aabb 21a0 f2bd
00000110: d178 ca3d 547b 11bc 7d0b 94be 3d41 c5bd
00000120: f6f4 2a3e 1acd 133e f64a 0c3e 74ec 4e3e
00000130: 957d 223d c547 4c3e 4851 00be b2e1 13be
00000140: 151c 25bd b5c9 cfbd f21a 8c3d b870 c43e
00000150: 3e68 39bc 54ce de3d a18e 8e3c ba64 54bd
00000160: 596a 923d 73f2 bebd 7785 ae3e 0801 063e
00000170: 2302 8d3d d66c 813d c683 8ebd 5012 a6bc
00000180: 6bec 903e 3dbe c7bd 31b0 bfbd e7b8 213e
00000190: 7747 193d d5aa 213d 3e2d 1ebe d69d fe3b
000001a0: 06e3 303c cdf8 4abe b093 903d 99b3 8f3e
000001b0: c71a 973e dcdc 243e cac6 ccbb 52f0 003d
000001c0: 7558 8a3d d84c 093e 20f6 663d 5f12 38bd
000001d0: 04b9 b83d a1ff 85be e8c3 49be 1c73 333e
000001e0: 65ad aebd acbc 6fbe 3c47 13be 1371 3f3d
000001f0: eca9 633e ec05 1c3d 358c fa3d 3d65 73bd
00000200: 9c0e 043d ebb8 403d 9302 3c3e 6462 d5bd
00000210: 7bed 863e 1b5c 2cbe acd3 9fbe 6923 373e
00000220: c7c9 4bbe 96fd 843d 1348 953d 7b4c 5e3d
00000230: 829a 903d a7ef ae3b 632d 1e3e ff34 a6be
00000240: 311d 0abe ba82 ce3d 6bfb 4e3e 0f63 ab3d
00000250: 212a 44bd e937 37be 395e 483e 020a 173d
00000260: 44b8 83bd 6e4d e33c fa00 72be 8b94 4f3e
00000270: ad79 943c f156 69be 8ca7 27be 96e2 553e
00000280: e96a 6dbd d871 05be 19b2 6c3e 11ed 9a3d
00000290: 40ac 1db9 ebd9 5c3d b1d0 dabd 2d0f ed3d
000002a0: 65d3 413e 5aa4 aabe 9197 1fbe 5c99 66bd
000002b0: 4018 1a3d ad5a bd3d df25 1b3d b86d cfbc
000002c0: 716f 12be 8694 92be 3cee d13d 7573 ac3d
000002d0: 4915 8c3e 1d3d e9bb f874 b4bd a9a0 973c
000002e0: 1be2 b73d c18c 44be 8f43 8e3c fb95 9b3e
000002f0: 9d92 1abd 35b2 1d3e 7e84 d1bc f26b bc3d
00000300: 53db bbbd 2b63 d43c bc02 713d c0b4 363d
00000310: 0d66 863e 3673 f43d b0c5 80be 717a 203d
00000320: 8032 20be a28d 9a3e 3569 f93d c311 c6bd
00000330: 1a73 a93e a49c 7dbd 51f3 28be c5d0 7abe
00000340: 4764 813e 3dde a4be 68f7 d63d 185b 8d3d
00000350: 1443 fcbd 5dcc 69bc 5e7f 7a3e e4f0 9a3d
00000360: 4f5f cfbd aede 5b3e 5d99 f5bc fd05 d5bd
00000370: 6d49 3bbd 5d62 84be ac2f ccbc 97b5 cabd
00000380: 1cb4 dbbb 9a56 e53d 8ca0 12be 93a5 163c
00000390: db69 4dbd e588 7b3d 592f 31be 99bf 963b
000003a0: d08a 5abe 15cc c83d 828f 953e 121f 28be
000003b0: 70fa f5bc 1332 033c 5ef7 0b3e 8554 7a3e
000003c0: 48b7 ca3d 3fba af3d 8139 e83c 9f07 273e
000003d0: d858 6bbe 9b81 863d d932 96bd d37d 883e
000003e0: 51ec 9fbb 7a4f 9bbd 2ac2 8abc a164 86be
000003f0: 56a7 1b3e f891 593d edca 5f3e 0de0 babd

P.mlps.1.layers.1.bias f4 [50]
-0.0030012855 -0.033079147 -0.017172325 -0.03815776 0.0322364 -0.030985268 0.03459295 0.040738083
-0.03229858 -0.036379352 0.036664866 -0.035795715 0.029896237 0.027593238 -0.029713377 0.024084784
-0.0465635 0.038764328 0.032139998 -0.035667077 0.03298086 0.0356592 0.037158515 -0.038321666
-0.03216935 0.04554949 -0.033428356 -0.015010339 0.039102763 -0.029104607 -0.02720644 0.032334507
-0.031179354 -0.02950386 0.028935099 0.028798928 0.015941454 0.005566923 -0.028862404 0.035657108
0.03581547 -0.03619667 0.04050787 0.025800385 0.045407135 0.022876382 -0.02256427 -0.031508986
-0.03831377 0.029731615
00000000: 37b1 44bb 007e 07bd faac 8cbc 504b 1cbd
00000010: 510a 043d d1d4 fdbc 56b1 0d3d fadc 263d
00000020: 844b 04bd 8402 15bd e62d 163d 879e 12bd
00000030: f4e8 f43c 370b e23c 7869 f3bc 744d c53c
00000040: 5eb9 3ebd 58c7 1e3d 3ba5 033d a417 12bd
00000050: f016 073d 620f 123d 8733 183d 2ef7 1cbd
00000060: 02c4 03bd 1a92 3a3d 2cec 08bd eded 75bc
00000070: 382a 203d c96c eebc 0ae0 debc 3071 043d
00000080: d86b ffbc 14b2 f1bc 4d09 ed3c bbeb eb3c
00000090: a797 823c bc6a b63b d970 ecbc 300d 123d
000000a0: 3eb3 123d f642 14bd 95eb 253d 545b d33c
000000b0: d5fc 393d 4067 bb3c b4d8 b8bc 910f 01bd
000000c0: e6ee 1cbd b78f f33c
