output/Darcy_UQPINN_test/weight.pth (torch, 160353 bytes, 40 tensors)

P.mlps.0.layers.0.weight f4 [50, 3]
000000 fb 17 fc 3d 51 b9 72 3e 9b 52 49 be 55 76 2d be
       0.123092614 0.23703505 -0.19660418 -0.16939671
000010 85 f5 53 be 9f 1f 6c 3e 8f 80 67 be 51 e0 19 3d
       -0.20699127 0.23058937 -0.22607635 0.03756744
000020 14 fe e0 3c e0 95 0b 3e db 07 a0 be ed 46 3f be
       0.027464904 0.13631392 -0.31255993 -0.186794
000030 39 ae 8b 3d 16 e3 10 be f2 11 4f 3e b8 41 59 3e
       0.0682034 -0.14149126 0.2022169 0.21216476
000040 c9 8e a1 3e 0a e0 e6 3c 3e 44 83 3e 35 08 63 3e
       0.3155425 0.028183002 0.25638002 0.221711
000050 8a 65 04 be 59 b4 85 3d 85 ce 7d 3d 16 51 c7 3d
       -0.12929359 0.06528539 0.06196453 0.09732263
000060 8c a8 57 bd 28 d1 93 be a6 22 8f 3e 24 1f 78 bd
       -0.052650973 -0.2887051 0.27956122 -0.060576573
000070 63 f8 26 3e ee 78 55 3e fd 9b 5e 3e 1f e3 ab 3e
       0.1630569 0.20846912 0.21739192 0.33571717
000080 dd d7 42 3e 76 fa 0e 3f ba 14 30 be dc 3f b7 bd
       0.19027658 0.55850923 -0.17195407 -0.08947727
000090 e9 84 d5 3d 25 36 b4 be ab 62 3a be 0d 36 15 3e
       0.10425741 -0.3519756 -0.18201701 0.145714
0000a0 fe 7a 57 be d5 53 63 3d fb f7 00 be e5 5a 1e bd
       -0.21043012 0.05549987 -0.12594597 -0.038660903
0000b0 1f 1e e2 3d 94 8b f3 3d 44 84 5a be e9 03 0c 3f
       0.110409014 0.11891857 -0.21339518 0.54693466
0000c0 0c 51 56 3d e6 57 72 be 76 45 18 3d 2d 95 eb 3d
       0.052323386 -0.23666343 0.037175618 0.115030624
0000d0 d4 41 8a 3d 09 bd 7a be 5d 7e 37 3d c3 1d 22 3e
       0.06750837 -0.24486174 0.044798244 0.15831666
0000e0 69 4f 4c be c7 12 02 3e a6 ac 92 be 99 0f 3b bd
       -0.19952168 0.12702475 -0.28647345 -0.045669172
0000f0 e2 e7 45 bd ee c8 65 3d 31 dc e3 3d 8f 6e 61 be
       -0.048316844 0.056099825 0.111259826 -0.22014831
000100 82 5a bb 3d 83 50 cd 3b bd e3 12 3e ef 6b 70 be
       0.09148122 0.0062657013 0.14344688 -0.23478673
000110 a6 ed 50 3d 3c e8 2f 3c 1b d7 8d be 0d 05 9f bd
       0.05100789 0.010736521 -0.27703175 -0.07764635
000120 e7 4d 58 bd 7c 9a 8d 3e 67 2f 78 be 97 4b 93 3d
       -0.05280867 0.27656925 -0.24236833 0.07192152
000130 77 00 6e be 4e 4f 5d 3c 01 37 3e be 1f 71 a8 be
       -0.23242365 0.013507677 -0.1857567 -0.32898805
000140 b8 98 80 be 79 de 27 bc e1 56 44 be 86 79 ff 3d
       -0.25116515 -0.010245913 -0.19173767 0.12474351
000150 fd 3d 37 3e 23 3c a0 be f4 4e 35 be 33 b1 5b bd
       0.1789474 -0.3129588 -0.177059 -0.053635787
000160 d1 35 0c be 8d 7d 7d 3e c6 ec 0a 3d 15 15 8e 3e
       -0.13692404 0.24754925 0.03391721 0.2775046
000170 41 91 ef 3c 9d f7 c0 bd 5a 80 fc ba ca 0a 0e bd
       0.029244067 -0.094222285 -0.0019264326 -0.034678258
000180 b7 c1 33 3e aa a4 0b 3e 2a 5d c3 3d 27 f3 8e 3e
       0.17554365 0.13637033 0.09539254 0.27919886
000190 4f 39 be be 79 81 1f be 9b e6 fc 3d 58 3f a6 be
       -0.37153098 -0.15576734 0.12348672 -0.32470202
0001a0 f2 52 25 3d 00 5d eb 3d 02 0c 84 bd 4d 4c 90 3e
       0.040362306 0.11492348 -0.06447603 0.28183213
0001b0 c6 8b 99 3c 69 95 47 be e0 af c0 be 41 07 0e bd
       0.018743407 -0.19490589 -0.37634182 -0.034674887
0001c0 aa 35 07 3d cb fd b2 be ff 6a 20 3e 46 82 80 3d
       0.033010162 -0.34959254 0.15665816 0.06274848
0001d0 20 88 84 be ba 8b 58 bd cc 52 d8 b9 a2 a6 9e bd
       -0.25885105 -0.05286763 -0.0004126042 -0.077466264
0001e0 ed 7b c0 bd 92 93 00 be f8 4d c5 bd 62 b3 5b bd
       -0.09398637 -0.12556294 -0.09634012 -0.05363787
0001f0 ca 5b 3b 3d 7b f7 3a 3e a1 2d 10 3e fc 68 d5 bd
       0.045741834 0.18258469 0.14079906 -0.10420415
000200 79 b7 d6 3d c9 e3 22 be 31 06 1b be ff 24 0a be
       0.104842134 -0.15907206 -0.1513908 -0.13490675
000210 73 b2 5e be 7e 59 f3 bb 0b 4b 3a be 4d 46 41 3d
       -0.2174776 -0.00742644 -0.18192689 0.047186185
000220 b3 6b e6 bc 68 ab 22 be 3e 54 80 be 56 2b 25 3f
       -0.028127527 -0.15885699 -0.25064272 0.6451925
000230 86 cf da 3d eb 1e 19 3f be 07 b4 3d 25 9d 4a bc
       0.10684113 0.598128 0.08790539 -0.012366568
000240 ed 47 d8 bc f8 0c 58 3e 6f b0 1f 3d f4 9a b9 ba
       -0.026401484 0.21098697 0.03898662 -0.001416056
000250 1a f4 01 bf 9b 19 fa 3d
       -0.50763094 0.12211915

P.mlps.0.layers.0.bias f4 [50]
000000 95 86 2b 3d 16 3d e7 bc e3 ff 13 bd d6 95 0c 3d
       0.041876394 -0.02822737 -0.036132704 0.034322582
000010 d4 99 1c bd 7b d4 27 3d 91 e4 17 3d 99 ca d4 bc
       -0.03823264 0.04097412 0.037083212 -0.025975512
000020 4e 77 01 bd 53 1e f6 bc 4b 26 1d bc bb f7 32 3d
       -0.03160792 -0.030043757 -0.009591649 0.043693285
000030 6a ea cd bc ad 17 06 3d 18 3f b7 bb 45 1a 04 3d
       -0.025136191 0.032737423 -0.005592238 0.032251615
000040 ce cc 1e 3d 19 c3 a5 bc 8c e5 29 3d 64 92 90 bc
       0.038769536 -0.020234631 0.04147868 -0.01764793
000050 d9 c2 e6 3c 0c b8 fc bc 94 de b2 bc d6 b0 0a bd
       0.028169082 -0.03084948 -0.02183465 -0.03386005
000060 fe 89 eb bc 61 f7 ee bc 2a 7f 29 bc a0 d5 ac 3b
       -0.028752323 -0.029170694 -0.01034526 0.0052744895
000070 44 00 61 3c 5d 2d da 3c 4e 16 26 3d ce 47 00 bd
       0.0137329735 0.026632959 0.040548615 -0.03131848
000080 e2 14 9c bc 71 99 ea bc 6e 32 71 bc e0 d9 b1 bc
       -0.019052926 -0.02863762 -0.014721496 -0.021710336
000090 36 6b 11 bd f3 64 fb bc c2 6e 0d 3d aa ad 14 bd
       -0.035502635 -0.030687785 0.034529455 -0.03629843
0000a0 cf a4 b5 bb 5c 98 25 bd ee ae 0e 3d 3e 40 0d bd
       -0.0055433284 -0.040428504 0.034834795 -0.034485094
0000b0 b3 bc 2a bd 23 6f da 3c 49 a6 04 3d a8 22 0d 3d
       -0.041683864 0.026664322 0.032385144 0.03445688
0000c0 e9 2e e6 3c 40 8e ec 3c
       0.02809854 0.028876424

P.mlps.0.layers.1.weight f4 [50, 50]
000000 a1 fb ac 3d 5a b3 eb 3d be 72 dc 3d 24 ac bc bd
       0.08446432 0.11508818 0.10764073 -0.09212521
000010 d8 c9 04 bd cd 3e f7 3d 8a 4a f5 3d ef 44 09 3e
       -0.032419056 0.12072525 0.11977108 0.13405202
000020 c6 6f 87 be 5f 3a 22 be fc 5f 68 3e 74 61 48 3e
       -0.26452464 -0.1584258 0.22692865 0.19568425
000030 20 9b 8c 3e 6e e9 a5 3e e8 e2 91 3d 27 9b 7f 3d
       0.274621 0.32404655 0.07123357 0.062403824
000040 7d 70 85 3d d0 9d 02 bd 43 fd 24 3e 60 4f 23 3e
       0.06515596 -0.031888783 0.16112237 0.15948248
000050 52 26 4c 3d 09 5d 5d 3e d9 62 41 be 7a 08 25 be
       0.049841233 0.21617521 -0.18885364 -0.16116515
000060 aa 58 e4 3d f5 da a8 3c f2 43 c5 3d 9a 36 a6 be
       0.11149724 0.02061222 0.096321 -0.32463533
000070 18 29 e3 bc ee 7e 4a bd 94 fb 51 be 51 5a 43 3e
       -0.027729556 -0.049437456 -0.20506126 0.19077422
000080 f8 aa af 3d 3c 60 86 bd 51 5b 00 3e 85 f3 ff 3d
       0.085775316 -0.06561324 0.12534834 0.124976195
000090 25 46 ca 3d 7b 0a 82 bd 4d b5 16 3d a3 db 02 be
       0.0987666 -0.06349655 0.036793996 -0.12779097
0000a0 ec 7a 46 bb 84 43 48 bd 13 46 20 3c ce 9e 9a be
       -0.003028567 -0.048892513 0.009782332 -0.30199283
0000b0 e6 a9 bf bd 8a fb 5f bd 8d dd 61 3e c8 d0 09 be
       -0.093585774 -0.054683246 0.22057171 -0.1345855
0000c0 df 74 f0 bc 33 e6 10 bb 88 8f 1d 3e 9e 39 04 3b
       -0.029352603 -0.0022109866 0.15386784 0.0020175944
0000d0 01 b1 18 3c e7 54 0d 3d 4c 31 df bd cf 41 b0 3a
       0.009319545 0.034504797 -0.108980745 0.0013447347
0000e0 17 49 9e 3e 9c eb a4 bd f5 2d a9 bd 2f 64 39 be
       0.30915138 -0.080527514 -0.08260719 -0.18104623
0000f0 66 bd a5 3e d3 b0 ad bd 6b c1 b1 3d 8c d4 dc bd
       0.32371062 -0.08480992 0.0867947 -0.107827276
000100 47 40 f6 3d 35 a0 0f 3d cc 6f 67 3e 84 fb 56 bd
       0.12023979 0.035064895 0.22601241 -0.052485958
000110 9e fb d4 3d 52 ba 85 3d 23 88 3a 3c 00 85 ce bd
       0.10399555 0.065296784 0.011384997 -0.100839615
000120 7b 8e bf bb 6b b5 5d 3e 6c 71 09 bd 57 cb 7c 3e
       -0.0058458424 0.21651237 -0.033555433 0.24686943
000130 67 62 38 bd 7f 98 2b bd 7e 23 2d 3e f8 5c ae 3e
       -0.04501572 -0.04189348 0.1690807 0.34055305
000140 35 62 73 3e c0 91 60 3d 49 cf 93 3e 97 4c e3 3c
       0.23767932 0.054826498 0.28869084 0.027746482
000150 ed 5c 05 be af 7f 41 37 7c 65 ca be 4f 04 a1 bd
       -0.1302373 1.1533425e-05 -0.3953055 -0.0786215
000160 88 1d 81 3e 06 5b 48 bc 89 ec 6d be b4 10 24 bc
       0.25217843 -0.012228733 -0.23234762 -0.010013748
000170 8a d8 4b 3e db 4c 96 3e d6 10 c3 bc 56 d9 e1 3d
       0.19906822 0.2935551 -0.023811739 0.11027782
000180 72 c6 0b be 8d ac c7 3d 71 92 5b be 88 fe 2a bd
       -0.1364992 0.09749708 -0.21442582 -0.041746646
000190 c0 f3 e1 3d 5e a9 01 3d d9 61 a1 be ed 50 46 3d
       0.1103282 0.03165566 -0.31519964 0.04841702
0001a0 8b 19 9d 3d e8 9d 6b bb d9 56 2f 3e b2 e9 99 be
       0.076708876 -0.0035952274 0.17122974 -0.30061108
0001b0 f6 e8 8b 3d 64 84 5a 3e 1c 98 48 3d 97 03 94 ba
       0.06831543 0.21339566 0.048973188 -0.0011292574
0001c0 f3 56 83 bb aa 91 2b bd a6 85 d2 bd a0 66 1b 3d
       -0.004008168 -0.041886963 -0.10279398 0.037939668
0001d0 cd 56 90 3e fe b7 9c 3d 8b bd bc 3d 39 40 4e be
       0.28191224 0.07652281 0.0921584 -0.20141686
0001e0 91 1a 31 bd d5 f0 03 be 64 07 f2 3c b7 2e 65 3e
       -0.043238226 -0.12884839 0.02954454 0.22381102
0001f0 49 48 d1 bd 87 50 57 3d 55 8b 30 bd e8 a1 1d bd
       -0.102188654 0.05256703 -0.043101627 -0.038484484
000200 02 f6 71 3e f6 02 54 3d 94 5f 2f be 17 cc 92 3d
       0.23629001 0.051760636 -0.17126304 0.07167833
000210 2f 87 8a 3d 42 c6 2c bd 72 b3 86 3e b3 37 ff 3d
       0.067640655 -0.04218126 0.2630878 0.12461796
000220 79 72 97 bd 44 c5 bc bd 1e c9 93 3e 3f 19 e4 bd
       -0.07394881 -0.09217313 0.28864378 -0.11137628
000230 f7 0c f6 3d e7 e6 20 3c 37 3e 18 be b5 26 b0 be
       0.120141916 0.009820676 -0.14867483 -0.3440453
000240 17 a8 01 3e a6 21 0e be 08 90 b8 3d 90 95 4d 3d
       0.12661777 -0.13880023 0.09011847 0.050191462
000250 6c c9 eb bc e0 22 13 bd 50 ce 3b be 86 69 20 3d
       -0.028782569 -0.03592193 -0.1834042 0.039163135
000260 4b 43 c7 3d 20 25 37 bc 95 5c 2f 3e a4 52 5c be
       0.09729632 -0.011178285 0.17125161 -0.215159
000270 d1 99 f4 bd 55 ff b9 3e 0b 3e af 3e c4 a0 1e be
       -0.11943401 0.36327615 0.34227023 -0.15491015
000280 bb c6 e6 3c f5 be 66 3d 7d 9e bd bc c7 ac 65 3e
       0.028170934 0.056334455 -0.023146862 0.2242919
000290 f0 89 84 3e f7 70 01 be 86 14 90 3c 4d 39 38 be
       0.25886488 -0.12640749 0.017587911 -0.17990609
0002a0 1c 6a 69 3d 4e 7e 7b be 41 6a d5 3d a2 27 89 3d
       0.05698596 -0.245599 0.10420657 0.066970125
0002b0 24 62 18 be 3f db cf 3c 5b 20 ba 3e d1 3e 3a be
       -0.14881188 0.0253731 0.3635281 -0.18188025
0002c0 7d 37 95 3d 67 cc 2a 3e 32 dc 10 3d b9 8f a7 3d
       0.07285974 0.16679536 0.035366245 0.0818171
0002d0 ac 7a 38 be 65 c3 c2 3d 44 96 10 3e 73 c1 d8 3d
       -0.18015546 0.09509925 0.14119822 0.105837725
0002e0 1d 31 7e be 84 38 55 3d dd 48 93 3d 73 f3 32 3e
       -0.24823423 0.05205585 0.07191632 0.17475681
0002f0 1b b8 fe 3c 81 4a e5 bd bf 65 0e 3e 3d 2f ad 3d
       0.031093648 -0.11195851 0.13906 0.084562756
000300 36 d7 9d 3b b9 2a 3a be 96 e4 c2 3d 8d c5 b2 be
       0.004816915 -0.1818036 0.095162556 -0.34916344
000310 4a 91 81 3d 59 3f ed 3c 80 fa 5a 3b be 0a 1e bd
       0.0632654 0.02896087 0.003341347 -0.038584463
000320 f7 6e 03 bd a4 f9 b3 3d f1 db bc 3d c2 54 51 3e
       -0.032088246 0.087878495 0.09221638 0.20442489
000330 e7 89 2e be 08 94 c4 bd 9f f6 22 3e 4c c9 dc bd
       -0.17044793 -0.09598547 0.15914391 -0.10780582
000340 00 f7 06 be 4c 94 4d 3e 1c a1 d7 3d c8 23 5c 3b
       -0.1318016 0.20076102 0.10528776 0.0033590663
000350 12 c1 06 3e 82 9b f4 bd 22 e5 c1 3d 35 39 e1 bd
       0.13159588 -0.11943723 0.09467532 -0.109972395
000360 4c ad 2b 3d ae bc ed 3d 67 bc f6 bc ee 29 09 bd
       0.041913316 0.116082534 -0.030119134 -0.033487253
000370 6d 19 81 bd 10 e9 95 3d 28 b3 8e 3e a6 e3 1e 3d
       -0.06303678 0.07319844 0.2787106 0.03879132
000380 ae 7d 95 3e 8b c9 3f 3e ee 10 e2 bd 58 01 cb bd
       0.29197448 0.18729226 -0.11038385 -0.09912366
000390 7e 9c 6f be 53 ba 66 3d f4 58 01 be 0d e8 05 3e
       -0.23399541 0.056330036 -0.12631589 0.13076802
0003a0 5e df 12 3e ba 21 b4 3c c0 bc a8 bb 21 47 68 be
       0.1434302 0.021988738 -0.005149454 -0.22683384
0003b0 6d 01 fc bd ca 70 ee 3d f5 4b bc be 9f e9 6e 3e
       -0.123049594 0.116426066 -0.367767 0.23331307
0003c0 bd 3a 9e 3d ee 83 25 bd d4 0d 8e be 0f 28 93 bd
       0.07726047 -0.04040902 -0.27744925 -0.07185375
0003d0 1e 5e e3 3d be 07 c0 3c 5c ac bf be f9 47 1d 3e
       0.11101936 0.023441192 -0.37436187 0.15359487
0003e0 d5 e0 46 be 17 ea 61 be 99 d7 fc bb fb 53 93 bd
       -0.19421704 -0.22061954 -0.007716131 -0.071937524
0003f0 43 18 5e 3d a1 58 1c 3e 49 1c b8 bd 48 ca 6c 3e
       0.054222357 0.15268184 -0.0898977 0.23124039

P.mlps.0.layers.1.bias f4 [50]
000000 75 f8 04 3d 70 cc 14 3d 8b 11 cc 3a d4 c4 1d bd
       0.03246351 0.03632778 0.0015569193 -0.038517788
000010 8a c9 d9 bc b5 0c e8 3c e2 81 03 bd 20 79 8a bc
       -0.02658536 0.028326372 -0.032106288 -0.01690346
000020 e7 f8 01 3d 8b 01 2b bd 18 8e 81 3c 34 70 fe 3c
       0.031731512 -0.04174952 0.015814826 0.031059362
000030 c3 93 14 3d f4 a2 e7 bb 78 24 12 bd 94 50 6f 3c
       0.03627373 -0.007068986 -0.03567931 0.014606614
000040 a8 6e f2 3c 9e 3b 24 3d d8 48 50 bb aa da 4f 3b
       0.02959378 0.040095918 -0.00317817 0.0031716027
000050 ac a4 36 3d d2 67 a2 bc 73 bb 14 bd 15 90 0a bc
       0.044590637 -0.019824896 -0.036311578 -0.008457203
000060 ff d3 fb bc f7 c5 74 bc 24 4a be 3c d2 24 26 bd
       -0.030740736 -0.014939777 0.023228712 -0.04056246
000070 e1 dd eb 3c 71 58 e7 bc 57 e4 eb 3c a8 4e f2 3c
       0.028792324 -0.028240414 0.028795404 0.029578522
000080 e2 0b e1 bc 89 16 06 bd a2 b0 57 bb 87 8f 14 bd
       -0.027471486 -0.032736335 -0.0032911678 -0.03626969
000090 b1 55 b8 bc cf c6 af 3c 41 b9 c9 3c 5a 09 2d 3d
       -0.022501798 0.021457104 0.024624469 0.042245246
0000a0 71 30 e2 3c e1 17 02 bd f4 77 bf bc 51 b9 75 bb
       0.02761099 -0.031761054 -0.023372628 -0.003749449
0000b0 57 a6 e5 3c 65 b8 b3 3c 4c 42 a9 bc 7b ad 21 3d
       0.028033419 0.021938512 -0.020661496 0.039472084
0000c0 05 a2 10 3c 53 39 17 3d
       0.008827691 0.036919903

P.mlps.0.layers.2.weight f4 [50, 50]
000000 ec d5 ea bc 8a 1e 15 be 82 e2 1d 3c 45 5a 9c be
       -0.028666459 -0.14562431 0.009636523 -0.3053762
000010 61 3b a0 bd 19 b9 a7 3e 88 31 cf bd 50 f1 1f 3e
       -0.07823826 0.32758406 -0.10116869 0.15619397
000020 3e c4 05 3c 05 44 f9 3d 69 4a a3 bb 51 6e d2 be
       0.008164464 0.12171177 -0.0049832356 -0.4109979
000030 f5 c4 a4 3b c4 36 9c 3c c6 8f 27 3e 56 ad bb 3d
       0.005028362 0.019069083 0.16363439 0.091639206
000040 52 10 7b 3c 96 6d a3 3d ff 60 70 be cf 57 52 3e
       0.015323715 0.07979886 -0.23474501 0.20541309
000050 be 70 e9 bd 56 ad 33 be 37 dc 3a 3d 3b 68 46 3e
       -0.11398457 -0.17546591 0.04562017 0.19375698
000060 76 89 09 be b8 37 4c 3e f1 3d d1 bd 90 d3 85 3d
       -0.13431343 0.1994313 -0.102168925 0.06534493
000070 f1 90 07 be 92 90 0d 3e 52 01 c6 bd 58 85 1a 3e
       -0.13238885 0.1382468 -0.096682206 0.15089929
000080 ee 9f 9c bc fc 9c a9 3d d4 8d b7 3d 39 44 a9 3d
       -0.01911923 0.082818955 0.089625984 0.082649656
000090 20 28 92 3d 7f 16 93 bd 24 c9 f6 3d 37 92 0c be
       0.071365595 -0.07182025 0.12050083 -0.13727652
0000a0 04 bf 89 bd 7e 7b 8f bd 31 cf eb bc b5 1e 5a 3e
       -0.067258865 -0.07005976 -0.02878532 0.21300776
0000b0 60 0b 63 bd ed 7c b0 3c 43 50 c9 bc e2 38 f7 3d
       -0.05543077 0.021543944 -0.024574405 0.120713964
0000c0 bb df 05 be e5 8b f5 bd 0d 30 80 bd 87 35 97 bd
       -0.13073628 -0.119895734 -0.06259165 -0.073832564
0000d0 da 39 ad 3c 60 e9 a3 be ad a3 5d 3d 1b 7e bf bd
       0.02114575 -0.32013988 0.05411117 -0.093502246
0000e0 66 c5 0b 3d 3f 49 fd bd 60 5a 8d be bd f0 57 be
       0.0341238 -0.12367486 -0.27608013 -0.21087928
0000f0 de 6b ca 3d b6 27 0a 3e b6 e4 c0 bd f3 da 43 3d
       0.09883855 0.13491711 -0.09418623 0.047816228
000100 be bd ad bd 31 a6 cb 3d a6 9f ed 3c af 8e 30 bc
       -0.08483456 0.09943808 0.02900679 -0.010776206
000110 c1 cf 83 be 39 98 70 3d 18 f0 5d bc c6 65 9b 3c
       -0.2574444 0.05873892 -0.013546012 0.018969428
000120 72 04 cb 3c 98 b0 fe bd 0b fb 2d 3e 72 9c 53 bd
       0.024782393 -0.12436026 0.16990297 -0.05166287
000130 6b 57 3b 3e 6f f0 eb 3d 8d 55 4a bd aa 6d 1b 3c
       0.18295066 0.115204684 -0.049397994 0.009486595
000140 28 4e 41 3e 64 c2 98 3e 76 82 27 be f3 a5 6b 3e
       0.1887747 0.29835808 -0.1635836 0.23012523
000150 b0 e4 c3 3d a1 dc 76 3e be 06 21 bc a6 84 1b 3e
       0.09565103 0.24107601 -0.009828268 0.1518732
000160 e2 0e f9 3c be d7 19 3e e1 dc 8d 3d 19 68 31 3d
       0.030402604 0.15023705 0.06926895 0.043312166
000170 a4 b6 8a bb 23 91 3d 3d 64 1f ca 3d c4 06 ac bd
       -0.0042331982 0.04628099 0.098692685 -0.08399728
000180 49 b6 c1 3d dd c1 64 3d f3 b6 bb bd ee 33 16 3e
       0.09458596 0.055848945 -0.09165754 0.14668247
000190 e3 19 7a bd 02 f7 a9 bd 2a 64 35 3e d2 8f 27 bd
       -0.061059844 -0.08299066 0.17713991 -0.040908642
0001a0 e5 36 4a 3d 16 d5 cb 3d 8f fb 69 be 59 85 9e 3e
       0.049368758 0.09952752 -0.22849868 0.3096111
0001b0 c7 ee 14 3e ac d3 4b be 6d 61 41 bd aa e0 a2 3e
       0.14544211 -0.19904965 -0.047212053 0.3181203
0001c0 79 d0 3b bc 7b 83 75 be bd 5a 7e be f6 c5 1d be
       -0.011463278 -0.23975937 -0.24839301 -0.15407547
0001d0 b3 28 23 3e df 2a 3e 3d c6 1c a3 3d 7b 5b bc be
       0.15933494 0.046427604 0.079644725 -0.36788544
0001e0 8e ea 29 bd a7 c9 18 bd 5d 5b c2 3d af 7a ab 3d
       -0.041483454 -0.037301686 0.094900824 0.083730094
0001f0 f3 37 ec 3d dd 9d 83 3e 88 8b 03 3e 55 5e 8b be
       0.11534109 0.25706378 0.12846196 -0.27220407
000200 0a 7d 48 3e 31 15 c6 bc 8a 45 6a 3b 33 11 a0 bd
       0.19578949 -0.024180027 0.0035747015 -0.078157805
000210 d5 17 51 3d 6e 99 28 3e ff 92 13 3e de 70 47 3e
       0.05104812 0.16464779 0.14411543 0.19476649
000220 c8 e5 0f 3e 5e d6 06 be 0a d6 e7 bd de cd db 3b
       0.14052498 -0.13167712 -0.113201216 0.006707891
000230 25 1f 09 3d ca 4b 09 3d 6c 2d 98 be fd e8 b6 3d
       0.033476967 0.033519544 -0.29722154 0.08931158
000240 4e 12 9b 3d fa 68 82 3d 4c 70 f2 3d 11 eb b3 3d
       0.07571851 0.06367679 0.11837825 0.0878507
000250 ac 1a 84 3e d0 2f 91 3e 42 ea c5 bd 2a 30 28 3d
       0.258016 0.2835679 -0.09663822 0.041061558
000260 02 de 94 be 32 5f b6 3d 7e fc ba 3d da 6c 6c be
       -0.2907563 0.08904876 0.0913019 -0.23088399
000270 18 51 b1 bd 23 c5 91 be a6 81 4d bd aa d6 36 bd
       -0.086580455 -0.28470716 -0.05017247 -0.044638313
000280 05 67 83 3d 2a a6 af 3d 9f d6 e3 bd 5a 6f 02 be
       0.06416134 0.08576615 -0.1112492 -0.1273779
000290 0a 57 40 3c cd 98 5e 3a bb aa 07 3b dc 11 88 be
       0.011739502 0.0008491397 0.0020701129 -0.26576126
0002a0 e9 03 4f 3d 04 b6 43 3e a3 c0 bc bd 20 87 b4 bc
       0.05054084 0.19112402 -0.0921643 -0.022037089
0002b0 c8 38 6c bd c9 c4 86 3d 86 d9 00 bc b1 6c 81 3c
       -0.05767134 0.065805025 -0.007864362 0.015798898
0002c0 2e bb d2 bd 33 12 39 bd b4 f8 be be ea d3 f9 3c
       -0.10289608 -0.04518337 -0.3729912 0.030496556
0002d0 7e e3 d9 3c 30 a0 1f be ed de 06 be 79 9e fe 3d
       0.026597735 -0.1558845 -0.13170977 0.1243257
0002e0 04 b4 97 3d d8 cc 1f 3d 5c 78 25 3e 89 5d ee bd
       0.07407382 0.039013714 0.16159195 -0.11638934
0002f0 e1 3b 7b be a3 52 ea bd 0b 37 27 be e2 d4 62 bc
       -0.2453456 -0.11441543 -0.16329591 -0.0138447005
000300 2d d8 22 3d 45 8c 4c 3e 5d 22 b9 bd 08 cd e9 bc
       0.039756943 0.19975384 -0.090397574 -0.02854015
000310 df c4 72 3e ab 98 bc bd bd 9c 16 bd cb 57 1d 3e
       0.23707913 -0.092088066 -0.03677057 0.15365522
000320 c0 c7 25 bd d0 41 bb 3c ab 22 24 be 3e 0e 46 be
       -0.0404737 0.02285853 -0.1602885 -0.1934137
000330 df c1 f6 3d 5f 5c 04 3e 93 62 af 3d 61 e3 81 bd
       0.12048697 0.12925862 0.085637234 -0.06342197
000340 77 f1 50 3e fc 81 db bd 5d 76 16 3e d5 76 0a 3e
       0.20404612 -0.10718152 0.1469359 0.13521893
000350 57 c1 e6 3d e8 e7 12 3e a5 31 2d 3b e0 f2 b4 be
       0.112673454 0.14346278 0.0026427296 -0.3534155
000360 fc bb bf 3d 89 fa 31 3e 80 2f 5b 3c 20 2b e2 bd
       0.09362027 0.17380728 0.013378024 -0.11043382
000370 97 2f 26 3d de 88 2d 3c 7c f0 07 3d 8b 3d 1c 3d
       0.04057273 0.010591714 0.03318833 0.03814463
000380 12 26 7c bd 55 61 5b be d9 05 3a 3d 74 8a 12 be
       -0.061559744 -0.21423848 0.045415733 -0.14310628
000390 c2 0d 36 3e 84 27 c0 be 1d 79 94 3e 78 f4 83 bd
       0.17778686 -0.37530148 0.28998652 -0.06443113
0003a0 0e 28 63 bd 64 a5 64 be 6c 50 91 bd 9d d1 f3 bd
       -0.05545812 -0.22328717 -0.070954174 -0.11905215
0003b0 a9 9e a3 3d 52 aa 6e be 68 37 02 be 0a 36 da 3d
       0.079892464 -0.2330716 -0.12716448 0.106548384
0003c0 e3 64 b1 bb de 08 9b bd 8a eb b0 3d 72 f0 90 3b
       -0.005413638 -0.07570051 0.086386755 0.0044231946
0003d0 83 b8 19 3d 31 f7 71 3d 79 66 4d be 11 8b dc bd
       0.03752948 0.05907363 -0.20058621 -0.10768712
0003e0 0d 83 cd bd e2 ed 2a 3e 39 34 82 be e6 27 d6 3c
       -0.100347616 0.16692308 -0.25430468 0.026142072
0003f0 a7 84 3d 3c 93 ba 8e bd 3e da 80 bb 98 e2 91 3e
       0.011567271 -0.0696918 -0.0039322665 0.2849319

P.mlps.0.layers.2.bias f4 [50]
000000 67 9e ec bc 12 3d b6 3c de 5a 08 3d 1c 5f e6 bc
       -0.028884126 0.022245917 0.033289783 -0.028121524
000010 ec ac 02 3d 98 c0 b7 3c b0 a1 1e bd d6 78 a3 3c
       0.031903192 0.022430703 -0.038728416 0.01995508
000020 fa 25 09 bd fc c0 df 3c 2f f3 df 3c 91 b7 0b bd
       -0.033483483 0.027313702 0.027337639 -0.03411061
000030 59 bd a2 3c 65 2e 8e bc 14 7f de 3c be b7 d0 3c
       0.019865679 -0.017356107 0.027160205 0.02547824
000040 ba dd cb bc 73 c7 bb bc 7f 08 6b bc 0a ba f0 3c
       -0.024886 -0.022922253 -0.014345287 0.029385585
000050 55 77 ea 3c 14 0e 9c 3c 1d af 6b bc 49 07 c2 3c
       0.028621355 0.019049682 -0.014385012 0.023685114
000060 8c c2 f9 bc 62 84 f8 bc d7 fd f0 3c 8c ca e0 3c
       -0.030488275 -0.030336563 0.029417915 0.027440332
000070 de 2a 1b bd fe cd c9 3c 2c 96 01 bd e6 3c be bc
       -0.03788268 0.024634358 -0.031637356 -0.023222398
000080 b7 58 13 bd f8 31 fa 3c 09 4e e7 ba 82 11 ff 3c
       -0.035973277 0.030541405 -0.0017647158 0.031136278
000090 6b 8f ff bc 66 73 c2 3c 8f 02 dd bc dd 22 dd bc
       -0.031196317 0.023736667 -0.02697876 -0.026994163
0000a0 fd 74 66 bc 94 6e 04 bd 36 54 cd bc 43 09 84 3c
       -0.014065978 -0.032332018 -0.025064569 0.016117698
0000b0 2c 9c be 3c a6 a6 d3 bc 14 2e ce 3c ef be b2 bc
       0.023267828 -0.0258363 0.025168456 -0.02181956
0000c0 9a 31 32 3d 6f 2c a4 3c
       0.043504335 0.020040719

P.mlps.0.layers.3.weight f4 [50, 50]
000000 f1 2d e5 bd 74 66 15 be a3 65 02 3e 85 15 d5 bd
       -0.11190403 -0.14589864 0.12734084 -0.10404495
000010 cd 65 3e 3e 65 f8 2b 3d fa 01 30 bd b5 4f 6a 3d
       0.18593521 0.041984934 -0.042970635 0.05720492
000020 ce da 82 bb cb d5 26 be d2 ac bd 3d fb ce 2c be
       -0.0039933687 -0.16292493 0.092614785 -0.16875832
000030 57 a3 dc 3d 5d 49 91 be 75 19 97 3d 10 d8 41 3d
       0.10773342 -0.28376284 0.073779024 0.047325194
000040 e4 8d 89 3e 2e 26 1a 3b fc af 91 bd d1 de 42 be
       0.26866066 0.0023521292 -0.071136445 -0.1903031
000050 39 7d 21 be e4 61 0c bc 94 cd 02 be dc c2 97 be
       -0.15770425 -0.008568261 -0.12773734 -0.29640853
000060 9f 4f 9f 3d f8 f7 c5 3b c5 2f 36 be 74 a8 cf bd
       0.077788584 0.006041523 -0.1779166 -0.10139552
000070 57 c5 aa 3d 64 94 a5 bc cd b4 8a bd 84 74 ab bd
       0.08338421 -0.02021236 -0.06772766 -0.08371833
000080 86 b1 be 3c 30 dd 1a be 7e 20 41 bd a1 bf 1d 3d
       0.02327801 -0.15123439 -0.047150128 0.03851283
000090 78 ae 03 be 74 f9 80 be 6f 1b b8 bc 31 3e d0 3d
       -0.12859523 -0.25190318 -0.022474019 0.10168112
0000a0 72 50 4b be 94 88 29 3e 4b 2e 6d 3e 47 1a fd bd
       -0.19854906 0.16556007 0.2316219 -0.12358528
0000b0 cd 8f 77 3e 5e ca 21 bd df 50 9e be 77 fb ca be
       0.2417595 -0.039499633 -0.30921075 -0.39644977
0000c0 47 63 33 3e 25 02 c4 3d 7f 39 54 be 74 81 71 bc
       0.1751834 0.095707215 -0.20725058 -0.014740337
0000d0 72 a4 62 3c 9a 91 b5 3d 7b ac 32 be af 80 88 3e
       0.013833152 0.08865662 -0.17448609 0.26660678
0000e0 fe 9c 5a 3e 45 b0 b4 3c 0d 56 2b be 3c b3 b9 3d
       0.2134895 0.022056708 -0.16732045 0.09067389
0000f0 db 99 d6 bd f9 6e 5e 3a 71 c6 aa 3e a1 e6 60 3d
       -0.10478564 0.0008485164 0.33354524 0.054907445
000100 05 13 00 be 96 2b c5 bd d3 14 25 3e 05 2e c6 bd
       -0.12507255 -0.09627454 0.16121225 -0.09676746
000110 b9 7a ce 3d 0e 81 3c 3d 8e 11 c0 bd a4 21 37 3c
       0.10082001 0.046021514 -0.09378348 0.011177454
000120 33 9c c4 3d 66 30 15 bc a6 96 da bc 40 dc e1 3d
       0.09600105 -0.009105777 -0.026683163 0.110283375
000130 33 c8 b2 bd 0b 2d 00 3d 9e 59 3f 3d db 07 b1 3c
       -0.08729591 0.031292956 0.046716325 0.021610191
000140 27 60 56 bb ba 64 93 bd 44 bc 2c 3e c6 8f f2 3d
       -0.003271112 -0.071969464 0.16868693 0.11843829
000150 7b 99 89 3d 2f c5 01 bc 7b 0e 8b 3c 7f 34 5e 3c
       0.06718727 -0.007920547 0.016974678 0.013562321
000160 0b a0 40 be dd 3f 0c be 76 c0 75 3e af 4b e9 3d
       -0.18811052 -0.13696237 0.239992 0.113913886
000170 3a 6e 58 3e 4f 8d 80 bd c2 ff 64 bd 42 a0 39 bd
       0.21135798 -0.062769525 -0.055907972 -0.04531885
000180 57 fc d2 bc b5 5d 8c be 33 fb f8 3d 2a 8e a8 3c
       -0.02575509 -0.27415243 0.121572874 0.020575602
000190 6c ef 94 be c1 db 3d be 32 02 0e 3e ba 9f 90 3d
       -0.29088914 -0.1854086 0.13868025 0.070617154
0001a0 83 63 cd 3d be 15 8c bd 08 45 12 3d d1 b5 19 3e
       0.10028746 -0.068400845 0.035710365 0.15010764
0001b0 79 6d 5e 3e 51 39 45 be 03 7c 5d bd f5 59 85 bc
       0.21721448 -0.19260146 -0.054073345 -0.016278246
0001c0 95 a9 f1 3c 9e ae 61 be f9 2a 05 be f7 41 75 bd
       0.029499808 -0.22039267 -0.13004674 -0.059877362
0001d0 80 c6 4d 3e e7 46 56 be 36 bb 5d be 10 24 8e 3d
       0.20095253 -0.20925485 -0.21653447 0.06940472
0001e0 95 94 f5 bd d4 75 b3 bd c2 16 fb bc 22 0d be 3d
       -0.119912304 -0.08762708 -0.0306505 0.09279849
0001f0 a5 ee 38 3e 23 97 c6 bc d4 06 2f 3b 75 d0 88 bc
       0.18059786 -0.02424199 0.002670695 -0.016700963
000200 59 1a 1c 3e 23 9c d4 bd 1d d5 e1 bd d6 20 82 3e
       0.15244426 -0.10381343 -0.11026976 0.25415677
000210 5a b8 f3 3b a5 84 6c 3a 89 b6 a7 bd ab ab fa bd
       0.007437748 0.0009022451 -0.08189113 -0.12239774
000220 5e 0d 96 bb 49 a2 b8 bd 4f a4 3f 3e 88 3e fe 3d
       -0.00457923 -0.090153284 0.18715023 0.12414271
000230 b7 0b 21 be a5 a0 9f 3c c5 b6 22 3e 1c 45 9a 3d
       -0.15727125 0.019485781 0.15890034 0.07532713
000240 73 eb a6 bd 47 47 ba bd 1b 5e d2 3d 10 49 74 be
       -0.08150377 -0.09095626 0.102718554 -0.23855996
000250 7e e6 9f be c6 ba 8f 3b ea a4 dd bb b0 7d e7 3c
       -0.3123054 0.004386279 -0.006764044 0.028258175
000260 6f 02 ed bd 99 28 eb 3d ea 7a 91 be 40 d5 aa 3d
       -0.1157273 0.11482353 -0.28414088 0.083414555
000270 32 26 65 bd 79 03 99 bc 7f 07 24 3e 2c 8f e6 3a
       -0.05594463 -0.018678414 0.16018485 0.0017590276
000280 47 bf c6 3d 00 2f d0 3d 42 23 c8 3d cf 79 6c 3d
       0.09704452 0.101652145 0.0977235 0.057733353
000290 a5 28 8b 3d be 8f b9 3e 05 65 4f be ac 45 08 3e
       0.06794862 0.3624248 -0.2025338 0.13307828
0002a0 be 9d f2 bd 6a 50 ab bd a6 23 c4 3d c9 ac fe bd
       -0.11846493 -0.08364947 0.09577112 -0.124353
0002b0 05 ca 16 be 6c c4 d1 3d 84 29 df bd a5 ab d6 bd
       -0.14725502 0.102425426 -0.1089659 -0.10481957
0002c0 9e 20 40 be e7 90 2b be 1e 41 5b 3e 17 94 e9 3d
       -0.18762442 -0.16754495 0.21411559 0.11405199
0002d0 53 c3 3b be b4 ff f6 bc c9 7c 10 3e a5 d3 0e 3d
       -0.18336229 -0.030151226 0.14110102 0.03486981
0002e0 34 e4 8c bc cd 61 7c be 39 c4 a5 3e 34 b4 18 be
       -0.01719866 -0.24646683 0.32376269 -0.14912492
0002f0 37 d9 92 bd 0b f3 ba bb ce 50 25 be 32 1f 4b 3e
       -0.07170337 -0.0057052425 -0.16144106 0.19836119
000300 be 18 5d bd 15 4a 38 3e d4 76 d9 bd 56 ed 2d 3c
       -0.053978674 0.1799701 -0.10618368 0.010615667
000310 a3 90 68 bd b7 9d 24 3d 03 81 51 be af 72 74 be
       -0.05677856 0.04018947 -0.2045937 -0.23871873
000320 00 7b 04 bd 50 36 e2 bd 6a 28 66 3e 72 3a b2 bd
       -0.032343864 -0.110455155 0.22476354 -0.08702554
000330 c7 4d 91 3e 86 01 74 be d9 1b 01 3e 12 3f 6d 3e
       0.28379652 -0.23828706 0.1260828 0.2316859
000340 66 f0 44 bd c5 57 3c 3c cc bc ef bd 13 17 89 3d
       -0.048080824 0.011495535 -0.11705932 0.06693854
000350 3d d9 cd 3c 89 ca db bc 4a 83 49 bd ec a7 d2 bd
       0.025128001 -0.026829975 -0.049197473 -0.10285935
000360 ed 0a fe bc 58 6f 3f 3d f8 0b 2f 3d f1 7e fb 3d
       -0.03101107 0.046737045 0.042736024 0.122800715
000370 40 4d 91 3e ea ba 0d bd 2f 91 b2 bb b9 71 9d bb
       0.2837925 -0.034602083 -0.005449436 -0.0048048166
000380 28 12 bc bd c5 44 38 be db e9 55 3e 86 81 2c 3e
       -0.091831505 -0.17994983 0.2088999 0.16846284
000390 b1 e7 80 3e 04 5c 89 bd e8 66 78 be 8b be 23 be
       0.25176767 -0.06707004 -0.24258006 -0.15990655
0003a0 83 ac 7d bd 2d a0 0b 3e 63 ea 2e 3e 83 ec 83 be
       -0.061932098 0.13635321 0.17081599 -0.25766382
0003b0 7d e9 a8 bd d2 d5 99 bd b1 1d a7 3d de 34 75 3d
       -0.08247659 -0.07511486 0.0815996 0.05986487
0003c0 32 05 12 3e 5d f1 6a 3b 41 13 21 3b 72 fc 8c be
       0.14259794 0.003584943 0.0024578127 -0.2753635
0003d0 ec af 58 be 02 74 2e be 13 c0 e8 3d 53 89 15 be
       -0.21160859 -0.17036441 0.1136476 -0.14603166
0003e0 22 23 27 3e 76 30 cc 3d d9 a5 53 3e 8e 82 0a bd
       0.16321996 0.09970181 0.20668735 -0.033815913
0003f0 5d d7 4b 3e 3e 4c bb bd 12 49 3e 3e 2f 41 f5 3d
       0.19906373 -0.091454014 0.18582562 0.119753234

P.mlps.0.layers.3.bias f4 [50]
000000 be 7b bf bc 74 99 e3 bc 2f ed dd bc 5c 5f 1e bd
       -0.023374435 -0.027783133 -0.027090637 -0.03866516
000010 99 ed fe 3c ba 39 c6 bc 54 82 e3 bc 94 fc b1 3c
       0.031119155 -0.024197448 -0.027772106 0.021726884
000020 b0 3a b9 bc b9 32 c6 bc 04 a0 4c 3c 85 81 e7 3c
       -0.022610992 -0.024194108 0.012489323 0.028260002
000030 2b 9d e2 3c 48 1d 1f 3d cd 41 e4 3c b8 99 cc 3c
       0.027662834 0.038846284 0.027863408 0.024975643
000040 91 e8 d4 bc b4 ab b8 bc b7 50 f1 3c 6e 09 e9 bc
       -0.025989803 -0.022542812 0.029457433 -0.02844688
000050 25 d3 c2 bc 7e ba c6 3c d4 87 08 3d c6 f3 ce 3c
       -0.023782322 0.024258848 0.03333266 0.025262725
000060 ae 30 c4 bc dd 68 cf bc 13 54 cd 3c 7d 78 8e bc
       -0.023948994 -0.025318557 0.025064504 -0.017391438
000070 35 1a 09 bd 4c 2d c0 3c 00 b9 e3 3c 05 c6 38 bd
       -0.03347226 0.0234591 0.027798176 -0.04511072
000080 74 3c b7 3c 73 be 20 bd 52 ba db bc fe 02 c7 3c
       0.022367693 -0.039244127 -0.026822243 0.024293419
000090 f4 e2 8e 3c 99 dd c6 bc 31 79 d5 bc 27 b8 1d bd
       0.017442204 -0.024275588 -0.026058765 -0.0385057
0000a0 34 a6 d9 bc 43 90 e0 bc d4 cd bb 3c 51 f3 d7 3c
       -0.02656851 -0.02741254 0.022925295 0.02636114
0000b0 39 e8 ba 3c 97 3f 97 bb e3 96 e9 bc 9a 51 ca 3c
       0.02281581 -0.004615735 -0.028514331 0.024697114
0000c0 ef 79 8d bc e5 be c1 bc
       -0.017270057 -0.023650596

P.mlps.0.layers.4.weight f4 [50, 50]
000000 99 a6 33 be 76 b5 30 3d c5 04 c0 3d 78 53 6b be
       -0.1754402 0.043141805 0.0937591 -0.2298106
000010 b0 ac f6 bc 07 0a 0c be d5 ec 96 bd ed e6 c3 bd
       -0.03011164 -0.136757 -0.07369391 -0.0956553
000020 8d 79 77 3e 56 c6 c9 3d 04 be 8f bd ca b4 ee 3d
       0.24167462 0.09852283 -0.070186645 0.116555765
000030 8c 47 32 3d f2 00 7c be 73 59 26 be e2 91 7a 3c
       0.043525264 -0.24609736 -0.1624506 0.01529357
000040 23 8c 6e 3e 75 12 2d bc 3d 25 ef 3d ca 20 9b 3d
       0.23295645 -0.0105634825 0.116770245 0.075746134
000050 51 b8 d1 be a3 7b 99 be f4 c6 4f be 61 84 2f bd
       -0.40960935 -0.2997714 -0.20290738 -0.042850856
000060 51 0f 48 bd d7 0b 05 3e 2b 72 b1 3d b5 8d 13 be
       -0.048842732 0.12992798 0.08664354 -0.14409526
000070 18 a7 12 be 6c 40 82 be f7 78 c4 3d 8a 14 10 3e
       -0.14321554 -0.25439775 0.09593385 0.14070335
000080 57 db 11 be 81 f9 1d 3e ca c5 5a be 95 61 df 3d
       -0.14243828 0.1542721 -0.21364513 0.10907284
000090 21 3d 43 3e 6b 07 81 be cd 35 39 bd fe 65 b6 3e
       0.19066288 -0.25200972 -0.045217324 0.3562469
0000a0 6d d2 73 be 64 dc e6 3d c4 a5 4e 3c af 15 a4 3d
       -0.2381074 0.11272505 0.012612764 0.08011948
0000b0 7c 74 09 bd 1c 51 a7 3d 00 dc eb bd 33 e4 08 be
       -0.033558354 0.08169767 -0.11516571 -0.13368301
0000c0 e4 c3 91 3c 4b 7b 1c 3d dd 8f 73 3e 93 f3 66 bd
       0.017793603 0.03820352 0.23785348 -0.056384634
0000d0 e2 0b 15 bd a0 b6 2b be 96 3f e0 3d ab a8 5a be
       -0.036388285 -0.16768885 0.10949628 -0.21353404
0000e0 6a 4f 08 3e 87 bc 45 3e 5f 23 34 3e 12 15 2f 3d
       0.13311544 0.19310199 0.17591618 0.042744704
0000f0 26 f1 34 3e 04 8d 3e 3e c9 8e 09 3c 87 3a ed 3e
       0.17670116 0.1860848 0.008395859 0.46333715
000100 cd 42 44 be 7e 96 51 bc 47 94 90 3d b5 59 28 3c
       -0.19166107 -0.012792228 0.07059532 0.010275294
000110 66 28 02 3d 8f 93 7a bd 3e 3c 23 be ec f7 c5 bd
       0.03177681 -0.06117588 -0.1594095 -0.09666428
000120 5c 50 7c bd f9 71 50 bd c6 e3 2b 3e a8 14 11 bd
       -0.061600074 -0.050889943 0.16786107 -0.03542009
000130 0b 97 ab 3e 0e 62 34 3e 8d 33 fa bd bf 07 b8 3d
       0.33513674 0.1761553 -0.12216864 0.089858525
000140 d6 8a a2 bb e9 83 9a 3d 7f c4 45 be 30 d4 8a be
       -0.004960398 0.07544691 -0.19313239 -0.2711501
000150 be 50 9b 3d c0 42 1b bc 41 78 15 3e cf d6 1d 3e
       0.0758376 -0.009476364 0.14596654 0.15413974
000160 cb a8 41 be 02 2a c1 bd ba 58 63 bc 0d 75 b8 bd
       -0.18912046 -0.094318405 -0.0138761345 -0.09006701
000170 e2 ce ab bd 1a 63 2d be 2a 5e b3 bd 3b 68 20 be
       -0.08389069 -0.16932335 -0.08758195 -0.15664761
000180 e4 86 a3 3d 61 b1 f2 3d a8 9d 3c 3e eb 2c 19 be
       0.07984713 0.118502386 0.18419516 -0.14958541
000190 6b f6 28 3e 6e 82 2a 3e fa a9 68 3e 08 b3 09 3e
       0.16500251 0.16651317 0.22721091 0.13447201
0001a0 23 b1 01 be 1d 8b 15 3e f5 b8 39 bc 46 41 a5 3d
       -0.12665229 0.14603849 -0.011335601 0.080690905
0001b0 88 90 fe 3d d3 27 00 3e b7 4e 4a be fa ad df 3d
       0.12429911 0.12515192 -0.1975659 0.10921855
0001c0 89 87 a2 bd 72 e3 17 be 19 10 7f bd 20 ab cb 3d
       -0.079360075 -0.14832857 -0.06227121 0.09944749
0001d0 b9 ab 67 3c 04 6b 07 3e 98 cd 5b 3e 50 2f 8b be
       0.014140063 0.13224417 0.21465147 -0.27184534
0001e0 35 05 8c 3e 3f 93 dd bc e5 8b 2c be aa 5d 82 bd
       0.27347723 -0.027047751 -0.1685024 -0.06365521
0001f0 61 b0 04 3c 68 dd d9 3d 81 29 9f bb 69 c8 c1 bd
       0.008098693 0.10637933 -0.0048572426 -0.09462053
000200 66 b3 15 bd 24 4e 70 bc 42 f8 aa be 4e 76 9d 3d
       -0.03654804 -0.014667068 -0.3339253 0.076885805
000210 16 87 98 3d c6 7e d0 bd 19 18 18 be 99 1b c5 3d
       0.074476406 -0.1018043 -0.14852943 0.096244045
000220 70 d6 69 bc 23 53 26 3d 1c 5d 25 3e ae d2 83 bc
       -0.014272317 0.04060663 0.161488 -0.01609167
000230 27 06 d3 3c cc 69 a8 3d fe 3f d0 bd 65 a9 01 be
       0.02575977 0.08223304 -0.101684555 -0.12662275
000240 d9 ca 03 3e 62 76 bc 3d 3a ca 8b 3d e3 7e ce bd
       0.12870349 0.09202267 0.06825681 -0.100827955
000250 01 28 51 be 4d 09 11 be 9d 99 ad bb bc 78 9f bc
       -0.20425417 -0.14163704 -0.005297853 -0.01946675
000260 14 07 9a 3b 44 ed c1 3d 76 d2 95 3d ed 53 41 be
       0.004700551 0.09469083 0.07315533 -0.18879671
000270 5d 2a ac bd 36 93 3f bb 3a 42 0c be 76 c8 6b 3e
       -0.08406518 -0.0029232032 -0.13697138 0.23025689
000280 04 78 f9 3d de 7b d2 3c c1 a2 dc bd 9f 62 8e be
       0.12181094 0.02569383 -0.1077323 -0.27809617
000290 19 a3 3a 3e 88 a1 83 3e 8c 44 8c 3d 13 0b 52 be
       0.1822628 0.25709176 0.06849012 -0.20512037
0002a0 d8 32 e8 bd 1c 0a f6 3d 46 ff 00 be fe 88 2a 3e
       -0.11337823 0.12013647 -0.12597379 0.16653821
0002b0 d6 60 f6 bd 83 1f 32 bd 8c a6 1d 3e 36 77 25 3d
       -0.12030189 -0.043487083 0.15395564 0.04039689
0002c0 36 37 9b be 66 48 6d be 87 6b 9a 3d 1a 1e b5 3d
       -0.3031556 -0.23172149 0.075400405 0.08843632
0002d0 e5 0b 32 be d6 b9 dc 3d df ca f8 bd 45 15 61 bd
       -0.1738735 0.10777633 -0.121480696 -0.054951925
0002e0 8a 4e 5b 3b be 7c ec 3d 38 ed 06 be a6 39 d2 bd
       0.003346356 0.1154723 -0.1317643 -0.10264902
0002f0 32 d1 85 bd c3 e8 e6 3d 3a 3d 3e 3d 64 0b 2a 3e
       -0.065340415 0.112748645 0.04644511 0.16605908
000300 d8 2a 80 3b c3 5e 29 be 09 0d 0b 3d e2 21 b1 3d
       0.0039113574 -0.16540055 0.03394798 0.08649041
000310 ca 38 b2 bd 2a ea 21 3e 95 be 64 be c8 4c 4e 3d
       -0.08702238 0.15811983 -0.22338326 0.050366193
000320 d1 3a cf bc b0 3c 7e 3d e0 67 94 3e 42 6d 7e bd
       -0.0252966 0.062069595 0.289855 -0.062115915
000330 df db b4 be 4c 78 3b 3c 35 1f f5 3d 9d 71 cf bc
       -0.35323998 0.011442255 0.11968843 -0.02532273
000340 e2 1a 8b bb 88 90 2d 3e 79 ba ec 3d c1 92 34 3e
       -0.004245148 0.16949666 0.11559004 0.17634107
000350 63 4a ed 3d 30 1e 95 be 92 fa 64 be 88 f5 99 bc
       0.11586454 -0.29124594 -0.2236121 -0.018793836
000360 b4 2e 26 3d 97 c2 b9 be 79 ec 26 3d 1a 45 4e 3e
       0.040571883 -0.36281273 0.04075286 0.20143548
000370 fc 71 1d be 17 69 2a 3e 31 90 7a bc ca ea 8c bd
       -0.15375513 0.16641651 -0.015293167 -0.0688072
000380 58 44 e0 3e cf 53 07 be bd 76 f3 3a 70 ea 5a bd
       0.43802142 -0.13215564 0.0018574815 -0.053446233
000390 42 cc d9 3c b7 34 36 3b a1 bc 65 be 88 ce 3f bb
       0.026586656 0.0027802417 -0.22435237 -0.002926739
0003a0 67 9d da bd da 21 6b 3d 96 3f 05 3e 16 b0 11 be
       -0.10674553 0.05740533 0.13012537 -0.14227328
0003b0 b3 9b 43 3e 56 b6 25 3e 2d 1a 2b 3d 09 e5 d1 3d
       0.19102363 0.16182837 0.04177301 0.10248763
0003c0 f2 be e4 3d 3a 68 dc 3c 72 ad 01 3d ab 22 b7 bc
       0.111692324 0.026905168 0.03165955 -0.022355398
0003d0 93 69 71 3e 4d a1 12 be b0 85 5d be 45 7c ab bc
       0.2357543 -0.14319344 -0.21633029 -0.02093328
0003e0 88 b5 52 be b8 ed 62 bc 7d 1d af 3c cf 9a b7 be
       -0.20577061 -0.013850622 0.021376366 -0.35860297
0003f0 51 9c 74 3c f4 83 72 bd 86 0d a3 3e 49 31 95 3d
       0.014929847 -0.05920787 0.31846255 0.07284791

P.mlps.0.layers.4.bias f4 [50]
000000 7d 84 0e bd 87 1a e4 3c e2 35 e4 bc b3 95 fb bc
       -0.03479432 0.02784468 -0.027857725 -0.03071103
000010 08 50 e5 bc 32 55 f4 3c 07 43 e0 bc dd 69 d2 3c
       -0.027992263 0.02982578 -0.027375711 0.025685245
000020 19 84 d1 3c fc ec ad 3c 92 03 bf bb e3 ac e9 bc
       0.025575684 0.021231167 -0.005829283 -0.028524822
000030 be 33 e0 bc 50 10 c4 bc b0 fc df 3c f6 a9 e1 bc
       -0.027368423 -0.02393356 0.02734217 -0.027546864
000040 0d 3b c2 bc a3 5a bf bc d8 81 bb bc 48 72 0c bd
       -0.023709798 -0.023358649 -0.022889063 -0.034288675
000050 bf 2c d5 3c a0 de dc 3c cb e5 cc 3c 4d bf dc bc
       0.026022313 0.026961625 0.025011918 -0.026946688
000060 92 47 b1 3c 7b 4e f6 3c e2 b1 d8 3c 5f 56 f0 bc
       0.021640573 0.03006672 0.026452009 -0.02933806
000070 78 15 f8 3c 8f 93 06 bd 47 ab cc 3c a0 f5 bd bc
       0.030283675 -0.032855567 0.024984015 -0.023188412
000080 33 4e f0 3c fc 89 0b 3d 76 16 d2 bc 5d ed d3 bc
       0.029334163 0.03406714 -0.025645476 -0.02587002
000090 ee 1c c0 3c 1b 7b ae bc b3 5e e0 3c 80 6f ba 3c
       0.023451295 -0.021298936 0.027388906 0.022758245
0000a0 74 d4 bd 3c 3d 15 db bc 12 7a ec bc 60 95 ef 3c
       0.023172595 -0.026743526 -0.028866801 0.029246032
0000b0 f1 82 b9 bc ab 9a d6 bc 00 bd e2 3c ac 31 c6 3c
       -0.022645446 -0.026196798 0.027678013 0.024193607
0000c0 4c fe cf 3c d5 b4 d6 bc
       0.025389813 -0.026209274

P.mlps.0.layers.5.weight f4 [1, 50]
000000 4b 56 4b 3d 77 12 87 be 55 65 9b 3e 7a 0a 99 3d
       0.049642842 -0.26381275 0.30350748 0.07472701
000010 b9 85 b4 3d b1 14 a5 bd 37 e4 e2 3d 83 eb ad be
       0.08814568 -0.08060587 0.11078685 -0.33968744
000020 f6 63 77 be 77 a6 7c bd ba d8 cf 3c 34 18 d5 3d
       -0.24159226 -0.06168219 0.025371898 0.10405007
000030 94 a4 a5 3d 6a b7 d6 3e 9f f5 66 be 7c f0 8c 3e
       0.080880314 0.4193681 -0.22554635 0.27527225
000040 bd d8 d1 3e 69 7f c0 3e 69 62 81 3e 1e 3d 69 3d
       0.4098567 0.37597206 0.25270393 0.05694305
000050 19 0d d4 be fc 8c 3e be bd 41 e6 be 8a 1a cf 3d
       -0.41416243 -0.18608469 -0.4497203 0.10112484
000060 16 74 17 bf b6 8a 02 be e0 9e 46 be b9 30 78 3d
       -0.5916151 -0.12748227 -0.19396544 0.06059334
000070 43 80 41 bd 83 b0 a7 3d ef f0 c0 be fc 0b eb 3e
       -0.04724146 0.08187964 -0.37683818 0.4590758
000080 a6 2d b3 bd 0c 67 89 bd 11 a4 b7 3d bb 7b d3 3d
       -0.08748941 -0.06709108 0.0896684 0.10326334
000090 9e a3 95 be 9c a9 c0 3e f4 44 e6 be 22 fb 1c bf
       -0.29226393 0.37629402 -0.44974482 -0.613207
0000a0 ed 58 b7 be c7 05 f8 3d af 58 03 3e 4b e8 9c be
       -0.35810032 0.12110477 0.12826799 -0.30645975
0000b0 37 97 e0 3e bb f6 7a 3d c0 11 47 bd 0b 73 b5 be
       0.43865368 0.061270457 -0.048600912 -0.35439333
0000c0 11 33 f1 bd ac 89 ca 3d
       -0.11777318 0.0988954

P.mlps.1.layers.0.weight f4 [50, 1]
000000 72 90 95 3e 27 03 50 3e 39 66 04 3d a1 c0 30 bd
       0.29211766 0.20313703 0.03232405 -0.043152455
000010 72 cb 25 3e 31 72 2c bc b1 33 5e 3e 55 e1 f5 bd
       0.1619089 -0.010525272 0.21699406 -0.12005869
000020 2e 20 aa 3d 5f c5 8d be 97 d8 8d be 05 c8 4a 3d
       0.08306919 -0.27689645 -0.27704307 0.04950716
000030 e1 90 c4 3d 08 3f 0a 3e 00 3c 77 3e 7c e3 6e be
       0.09597946 0.13500607 0.24143982 -0.23328966
000040 72 81 11 be 48 9a b5 3e c5 ab c5 3e 6a 5c c2 3e
       -0.14209536 0.3546927 0.38607612 0.3796113
000050 81 3c d9 3c 29 9a 1a 3d 91 a3 2c 3d a8 9e 13 be
       0.026518108 0.037744675 0.042148177 -0.14415991
000060 ba 3f 14 3e 6f 94 27 be 0d 07 8b 3d ab 31 9b bd
       0.14477435 -0.16365217 0.06788454 -0.07577833
000070 d2 c2 3a bd d6 51 07 be 68 53 76 bd 4e 65 7f 3d
       -0.04559595 -0.13214812 -0.060138136 0.06235247
000080 31 da b2 bd 4b dd 71 be 2a 3e 4e 3d 30 38 d3 bc
       -0.08733023 -0.23619573 0.050352253 -0.025783628
000090 70 f8 99 be 4b 75 26 bd b4 25 a7 be 47 dc 17 be
       -0.30072355 -0.040639203 -0.32645953 -0.14830123
0000a0 e6 88 6f 3e f5 7b 4e be f3 6e 6c 3d 5c 1e 79 be
       0.23392066 -0.20164473 0.057722997 -0.24327987
0000b0 9d 07 c2 bb 40 50 28 bd 71 cb 2b 3c 38 5e 15 3d
       -0.0059213177 -0.041092157 0.010485516 0.036466807
0000c0 c8 6a 49 bd 09 98 cc 3c
       -0.0491741 0.02497484

P.mlps.1.layers.0.bias f4 [50]
000000 d1 63 92 3c 5e 8f 86 3c 1d 17 a7 bc c5 7d 89 3c
       0.017869862 0.016425785 -0.020396763 0.016783604
000010 b5 ea 98 bc c5 f9 9c bc a0 31 8c 3c 69 7a 84 bc
       -0.018666605 -0.019162068 0.017113507 -0.016171651
000020 f4 f9 8d bc ee a2 77 bc b9 bf 81 bc 43 bd bf 3c
       -0.017331101 -0.015114529 -0.01583849 0.023405677
000030 7e 40 92 bc b2 d1 7f bc 90 90 9c bc 7b ec 8d bc
       -0.017853018 -0.01561396 -0.019111902 -0.017324677
000040 31 28 8f 3c 17 d1 88 3c e8 92 8b bc a5 68 6e 3c
       0.01747522 0.016701264 -0.017037824 0.014551316
000050 10 6a 9b 3c 73 fe 8f bc d9 bb de bc 4b c8 a0 3c
       0.018971473 -0.017577386 -0.027189182 0.019626757
000060 cc c2 9a 3c 25 26 84 3c fc 5c 84 bc d4 d1 8f bc
       0.018891715 0.01613147 -0.01615762 -0.017556109
000070 72 2d 93 3c 73 bd 38 3b 89 fc ad bc 32 66 94 3c
       0.017966006 0.0028189092 -0.021238582 0.018115137
000080 1e 08 83 3c ef 61 83 bc 68 30 a9 3c 78 f4 aa bc
       0.015995082 -0.01603791 0.020652965 -0.020868525
000090 97 28 94 3c 53 45 a0 3c 71 9c 8d bc 2c 5a 90 bc
       0.018085761 0.019564306 -0.017286511 -0.017621122
0000a0 4e a0 a7 bc ea bd 95 3c b7 6a 8a bc 01 ad 80 3c
       -0.020462181 0.018279035 -0.016896589 0.015707495
0000b0 ed 39 b6 bc 1a 76 96 3c 92 58 8b bc 1f 6e 91 3c
       -0.022244418 0.018366862 -0.017010007 0.017752705
0000c0 a2 4d ac bc 61 68 ad 3c
       -0.021033112 0.021167936

P.mlps.1.layers.1.weight f4 [50, 50]
000000 4a 3c 56 be e5 d3 b5 be 82 70 36 3e 20 30 07 3e
       -0.20921436 -0.35513225 0.17816356 0.13201952
000010 51 fd e7 bc 18 d7 f7 bb f3 ab 39 be 68 d3 8e bd
       -0.028319033 -0.007563483 -0.18132 -0.06973916
000020 b7 35 bc bc ea 4f 80 3d 16 64 47 3d ca 9f 44 3c
       -0.022974832 0.062652424 0.048679434 0.012000987
000030 84 6e 20 be 96 92 16 3e ba 63 09 be 42 70 6e 3d
       -0.15667158 0.14704356 -0.13416949 0.058212526
000040 58 66 76 bc 50 aa 6e bd 10 2b 67 be c9 5f 4a 3e
       -0.015039049 -0.05826789 -0.22575021 0.19763102
000050 24 0b 8f bd fd ac 92 bd 6f 81 24 be 8d 85 06 be
       -0.06984547 -0.07161901 -0.16065 -0.13136883
000060 91 2b 26 3d 70 ce fb bc 6f cb 31 3d ac e0 3f bd
       0.040568892 -0.030738086 0.0434069 -0.046845123
000070 ce f6 a9 3d 55 40 02 3e 55 a0 4f be 53 ec 16 be
       0.082990274 0.12719853 -0.20276006 -0.14738588
000080 24 9e 9f 3d d7 1e 23 3e 2c 67 0a 3e ef 09 35 3d
       0.07793835 0.15929733 0.1351592 0.044198927
000090 9b ce 82 bd 6a 7b 1e 3e 8e 6a a3 bc 55 21 83 3e
       -0.06387063 0.15476766 -0.01994827 0.25611368
0000a0 bf b5 14 be d9 30 8d 3d c6 5d 13 be 42 e7 4d 3e
       -0.14522456 0.068940826 -0.1439124 0.20107749
0000b0 fd e1 16 be 1f 40 da 3d 36 82 c6 bd bc e5 4d bd
       -0.14734645 0.106567614 -0.096928045 -0.05026792
0000c0 fb b9 15 3e eb ae 31 be 00 d7 0e be c1 72 ee bd
       0.14621727 -0.17351882 -0.13949203 -0.11642981
0000d0 97 a0 13 be 65 fe ac 3d 85 da 34 be 57 92 bc bd
       -0.14416729 0.084469594 -0.17661484 -0.092075996
0000e0 c9 f6 23 be ea 16 4d 3e ed 88 b0 bd 4f 55 41 bd
       -0.1601211 0.20028272 -0.086198665 -0.047200497
0000f0 bd 83 01 be 19 65 00 3e a2 45 8e 3e 58 53 b9 3c
       -0.1264791 0.12538566 0.277875 0.02262275
000100 ff 46 a6 3d fb 3e f3 3d 62 6b 9d bb ff 2e f2 bd
       0.0811901 0.11877247 -0.004804061 -0.1182537
000110 73 01 cf 3d 42 d2 02 bc 16 8d 99 be 7d e7 d2 bd
       0.10107698 -0.0079847 -0.29990453 -0.10298059
000120 27 e0 29 3e c5 96 18 3e c0 2c 05 3e 39 7e 51 3e
       0.16589414 0.14901264 0.13005352 0.20458306
000130 b0 3e 04 3d 1c b1 59 3e 61 c5 f2 bd f8 57 11 be
       0.032286346 0.21258968 -0.11854053 -0.14193714
000140 9e 5d c8 bc 88 88 ef bd e4 aa 94 3d 5c 7d c5 3e
       -0.024458703 -0.11695963 0.07259157 0.38572204
000150 2d e4 e8 bc 57 38 e1 3d 56 45 7d 3c 74 f3 3a bd
       -0.028429115 0.10997074 0.0154584255 -0.04564233
000160 60 c7 92 3d 95 d4 b1 bd 09 df ae 3e e9 92 06 3e
       0.07166934 -0.08683125 0.34154537 0.1314198
000170 2a ac 7c 3d c6 c7 7f 3d bc 77 b4 bd 4a b5 7a bc
       0.061687626 0.06244638 -0.088119 -0.015302012
000180 52 ca 8d 3e 37 92 ee bd bc 13 96 bd ec c0 1b 3e
       0.2769342 -0.11648982 -0.07327983 0.15210313
000190 a9 47 e6 3c bf 83 c0 3c 60 39 2e be d1 68 da 3c
       0.028110342 0.023500321 -0.17014074 0.026661308
0001a0 90 6c ae bb 24 f2 31 be ba d6 63 3d 0a 29 9b 3e
       -0.0053230003 -0.17377526 0.0556247 0.30304748
0001b0 25 25 8d 3e 16 82 2f 3e 96 2e 8a 3b 87 a9 64 3b
       0.27567402 0.17139468 0.0042169793 0.0034891085
0001c0 8a b3 45 3d 01 a0 ec 3d f1 7b 34 3d 98 88 ff bc
       0.048266925 0.11553956 0.044063512 -0.031193063
0001d0 5a 84 dc 3d 29 23 88 be 74 94 4b be 33 eb 30 3e
       0.107674316 -0.26589325 -0.19880849 0.17277221
0001e0 d3 21 e7 bd ac 2f 81 be 6a b8 21 be 04 49 85 3d
       -0.11285748 -0.25231683 -0.15793005 0.06508067
0001f0 5d 95 4e 3e bb fe 62 3d d0 41 d1 3d db f4 0d bd
       0.20174165 0.05541871 0.10217631 -0.03465734
000200 08 af 50 3d 14 36 85 3d 48 a3 57 3e 78 6a 05 be
       0.050948173 0.06504455 0.2105838 -0.13028896
000210 10 d7 90 3e e2 8a 1e be e7 2b ae be d0 dd 51 3e
       0.2828908 -0.15482667 -0.3401787 0.20494771
000220 bc 56 43 be a8 47 a8 3d a9 3b a2 3d 89 1d 99 3d
       -0.19076055 0.08216792 0.079215355 0.074763365
000230 03 fe 69 3d 6a 13 a8 3c bd 45 0a 3e 33 96 9f be
       0.05712701 0.02051707 0.13503166 -0.3116928
000240 27 25 0c be 4f 6e f2 3d ae 6e 43 3e 9a 95 69 3d
       -0.13686047 0.11837446 0.1908519 0.057027437
000250 d3 e9 9b bc 05 b0 53 be 12 62 4d 3e f9 af 17 3d
       -0.019032395 -0.20672615 0.20056942 0.037033055
000260 be 00 85 bd 1c 16 fd 3c 8b 54 6f be 0b bb 60 3e
       -0.06494282 0.030894332 -0.23372094 0.21946351
000270 3c 1c 9c 3c 44 29 61 be d3 0d 2b be 1f 81 51 3e
       0.019056432 -0.21988398 -0.16704492 0.20459412
000280 76 40 7e bd d5 0b 1b be 72 00 69 3e bc 85 98 3d
       -0.062073193 -0.15141232 0.22754076 0.07447383
000290 45 b9 d2 3b 35 4c 55 3d da 47 dc bd 47 d9 f9 3d
       0.0064307773 0.05207463 -0.10755892 0.121996455
0002a0 db fe 4b 3e da 25 a7 be 47 c3 35 be 2a 91 71 bd
       0.19921438 -0.32646066 -0.17750274 -0.05897633
0002b0 8e 52 23 3d 25 00 c0 3d f5 aa 04 3d ad 62 d6 bc
       0.039873652 0.093750276 0.0323896 -0.0261701
0002c0 6c ad 16 be 7e 26 8b be 94 75 d8 3d fd cf ae 3d
       -0.14714593 -0.27177805 0.10569301 0.08535764
0002d0 de 8a 95 3e 44 4f c9 bc 70 79 ae bd fe 70 86 3c
       0.2920751 -0.02457393 -0.08519256 0.0164113
0002e0 5c cf 8e 3d a5 ec 32 be 0f 0d 0b 3c 2e a8 9c 3e
       0.069731444 -0.17473085 0.008487 0.3059706
0002f0 27 cd 31 bd 57 d0 22 3e 72 52 a0 bc dd 84 b4 3d
       -0.04340854 0.15899788 -0.019570563 0.08814404
000300 6a 1a c4 bd 17 a9 a1 3c 2c c3 3f 3d 0a c4 3b 3d
       -0.095753506 0.019733949 0.04681699 0.045841254
000310 5b cc 86 3e 0b bb cb 3d 87 ca 6c be b5 91 a0 3c
       0.26327786 0.09947785 -0.23124133 0.019600729
000320 69 c1 07 be 51 d7 a2 3e 45 82 12 3e 40 44 e9 bd
       -0.13257374 0.31804898 0.14307506 -0.11389971
000330 01 18 b0 3e e1 77 83 3b f7 e8 16 be d4 6f 80 be
       0.34393314 0.0040120934 -0.14737307 -0.25085318
000340 a1 0a 89 3e 84 58 b0 be d4 d6 a7 3d b4 78 41 3d
       0.26765922 -0.34442532 0.08195272 0.047234252
000350 9f 9c db bd cb e7 84 3a 4a 6c 88 3e 6e 3d 67 3d
       -0.107232325 0.001013988 0.26645118 0.05645507
000360 9f f4 e4 bd dd b2 79 3e 8c ad 3a 3b 07 20 96 bd
       -0.1117947 0.24384637 0.002848479 -0.073303275
000370 70 40 c8 bd 53 63 76 be ed 55 81 bc 52 0c f0 bd
       -0.097779155 -0.24061327 -0.015788043 -0.117211
000380 bd 3a 1b 3b 0f fe bf 3d 57 0a 03 be 9b e1 78 3c
       0.0023686134 0.0937463 -0.12796913 0.015190507
000390 f6 02 8a bd 98 45 4b 3d a0 52 22 be 40 ed dd bb
       -0.06738846 0.049626917 -0.15851831 -0.006772667
0003a0 5f 95 66 be 88 23 a1 3d 7b f1 8b 3e 41 82 d7 bd
       -0.22517918 0.07868105 0.27332672 -0.10522891
0003b0 fd 77 68 bd 50 04 3a bc f4 6f e0 3d e0 2b 70 3e
       -0.056755055 -0.011353567 0.10958853 0.23454237
0003c0 8d 7f f9 3d 31 4e 85 3d 81 76 35 3d 18 ab 0f 3e
       0.121825315 0.065090545 0.044302467 0.14030111
0003d0 89 9f 27 be 2e d9 3e 3d 87 91 4f bd 09 f2 80 3e
       -0.16369452 0.046593837 -0.050675895 0.25184658
0003e0 ed 2b 4d 3b 1f 30 11 be 52 21 f3 bb 2d c5 81 be
       0.00313067 -0.14178513 -0.0074197436 -0.25345746
0003f0 c6 7a 26 3e a9 3a 32 3d 6c 24 6e 3e ce 7d b7 bd
       0.16257772 0.043512974 0.23256081 -0.08959542
