output/Darcy_UQPINN_test/weight.pth (torch, 160353 bytes, 40 tensors)

P.mlps.0.layers.0.weight f4 [50, 3]
0.11833507 0.246556 -0.19545898 -0.16072161 -0.22084512 0.23521051 -0.22080082 0.025780821
0.029217493 0.13640714 -0.30055004 -0.18768653 0.06884647 -0.15126258 0.20681415 0.20809521
0.3280239 0.033536077 0.25364885 0.23378393 -0.121966295 0.06426036 0.054032058 0.08866155
-0.05017274 -0.28889135 0.27981275 -0.059138574 0.15055753 0.20867166 0.21537076 0.3381288
0.18487322 0.5430496 -0.14865601 -0.08816524 0.10654162 -0.35538685 -0.18359771 0.14522378
-0.20477328 0.054096237 -0.13323227 -0.04624559 0.106852226 0.117769085 -0.22141248 0.5248173
0.04907484 -0.21835545 0.043375548 0.11622303 0.070054896 -0.24254978 0.040860288 0.17143147
-0.19436567 0.12380334 -0.28762248 -0.04501499 -0.049321715 0.057748366 0.11527208 -0.2181277
0.078029916 0.0051133675 0.14395349 -0.22747593 0.05515906 0.0085183 -0.27314556 -0.086297594
-0.051103275 0.2702191 -0.2326081 0.077747054 -0.2312715 0.0019199841 -0.17791118 -0.3338594
-0.24725981 -0.010408926 -0.17576563 0.12257308 0.17081717 -0.28678674 -0.17756297 -0.050567243
-0.11453702 0.24361032 0.029794507 0.29217923 0.031635683 -0.08773661 -0.02411614 -0.030532993
0.17722437 0.13698386 0.10327781 0.28056347 -0.363262 -0.15342687 0.13050368 -0.3164775
0.039243426 0.11524275 -0.06700323 0.27470562 0.016287925 -0.20021686 -0.3647453 -0.034261424
0.029589154 -0.34250325 0.15278262 0.07382748 -0.2595302 -0.05017131 -0.012927206 -0.07421123
-0.0983418 -0.13024834 -0.10101595 -0.046168573 0.026850685 0.19121125 0.13685267 -0.09499153
0.10854004 -0.16118374 -0.16188544 -0.12659113 -0.21388699 -0.020026162 -0.17923357 0.04879739
-0.020264618 -0.15325798 -0.25014877 0.6590699 0.09756679 0.5919711 0.09852845 -0.002943651
-0.02644186 0.21090363 0.04431142 -0.004042203 -0.5055805 0.12676786
00000000: a859 f23d 2d79 7c3e 6626 48be 3594 24be
00000010: 3925 62be 06db 703e 9c19 62be 4d32 d33c
00000020: 8659 ef3c 50ae 0b3e b2e1 99be e630 40be
00000030: 61ff 8c3d 94e4 1abe 17c7 533e e916 553e
00000040: c0f2 a73e 205d 093d 43de 813e 0e65 6f3e
00000050: 77c9 f9bd f09a 833d b850 5d3d 3094 b53d
00000060: ee81 4dbd 91e9 93be 9e43 8f3e 4a3b 72bd
00000070: c12b 1a3e 06ae 553e 278a 5c3e 381f ad3e
00000080: 684f 3d3e 4c05 0b3f 4839 18be fa8f b4bd
00000090: 7e32 da3d 44f5 b5be 0a01 3cbe 8bb5 143e
000000a0: 16b0 51be 0494 5d3d 0a6e 08be 046c 3dbd
000000b0: 57d5 da3d eb30 f13d f4b9 62be 6d5a 063f
000000c0: b302 493d 9298 5fbe 8faa 313d 5706 ee3d
000000d0: f178 8f3d f85e 78be 1e5d 273d bb8b 2f3e
000000e0: cb07 47be 9b8c fd3d 4143 93be a361 38bd
000000f0: 9105 4abd 8d89 6c3d c513 ec3d de5c 5fbe
00000100: 26ce 9f3d 098e a73b 8b68 133e 73ef 68be
00000110: 77ee 613d 5790 0b3c bcd9 8bbe cbbc b0bd
00000120: ab51 51bd 285a 8a3e d130 6ebe d939 9f3d
00000130: 70d2 6cbe faa7 fb3a 592e 36be 9fef aabe
00000140: ad31 7dbe 338a 2abc e8fb 33be 9807 fb3d
00000150: b2ea 2e3e b6d5 92be 11d3 35be 991f 4fbd
00000160: 6392 eabd fc74 793e 9c13 f43c 8498 953e
00000170: 6b94 013d 40af b3bd 368f c5bc 5420 fabc
00000180: 4e7a 353e 7f45 0c3e 5183 d33d 04a6 8f3e
00000190: 7afd b9be ef1b 1dbe c2a2 053e 5709 a2be
000001a0: b7bd 203d 6404 ec3d fd38 89bd 37a6 8c3e
000001b0: 416e 853c a605 4dbe e5bf babe b555 0cbd
000001c0: f464 f23c 965c afbe 0c73 1c3e dd32 973d
000001d0: 24e1 84be 6e80 4dbd a2cc 53bc 0ffc 97bd
000001e0: 6d67 c9bd d25f 05be 73e1 cebd 421b 3dbd
000001f0: f8f5 db3c e2cc 433e 1b23 0c3e eb8a c2bd
00000200: 3e4a de3d 5a0d 25be 4cc5 25be 1ba1 01be
00000210: 3105 5bbe e80d a4bc 0189 37be c6df 473d
00000220: fc01 a6bc a9ef 1cbe 8013 80be ceb8 283f
00000230: 19d1 c73d 6b8b 173f 49c9 c93d 45ea 40bb
00000240: 999c d8bc 1ff7 573e e47f 353d 7574 84bb
00000250: b96d 01bf 6fcf 013e

P.mlps.0.layers.0.bias f4 [50]
0.03918685 -0.026144331 -0.031619385 0.03295234 -0.037092727 0.037207477 0.037934706 -0.028578797
-0.026287852 -0.026497344 -0.0012192253 0.041774426 -0.014682763 0.03470348 -0.033581723 0.014129852
0.040296886 -0.014920086 0.04045796 -0.011975689 0.02465418 -0.02993466 -0.014832437 -0.0335083
-0.026806796 -0.023880044 -0.0007953123 0.0055673583 0.03088882 0.032140993 0.03932 -0.037423916
-0.0097424 -0.020283086 0.008606549 -0.018353684 -0.025314966 -0.02356549 0.028190013 -0.034044355
-0.022300648 -0.043260776 0.032197304 -0.03413535 -0.038584612 0.026335508 0.018968092 0.03545447
0.025328657 0.023655636
00000000: 6482 203d a32c d6bc 5483 01bd 08f9 063d
00000010: 8bee 17bd de66 183d 6c61 1b3d 151e eabc
00000020: 9f59 d7bc f510 d9bc 6ace 9fba a91b 2b3d
00000030: f98f 70bc 3c25 0e3d fd8c 09bd e580 673c
00000040: 590e 253d 6073 74bc 3fb7 253d ae35 44bc
00000050: 90f7 c93c 8839 f5bc c003 73bc 0040 09bd
00000060: ed99 dbbc 15a0 c3bc 817c 50ba 636e b63b
00000070: 8d0a fd3c 46a6 033d 020e 213d d249 19bd
00000080: 969e 1fbc b728 a6bc 7c02 0d3c 775a 96bc
00000090: 5561 cfbc 6a0c c1bc beee e63c 1872 0bbd
000000a0: d9af b6bc 3632 31bd 52e1 033d 82d1 0bbd
000000b0: e60a 1ebd 90bd d73c f962 9b3c b538 113d
000000c0: 0b7e cf3c 77c9 c13c

P.mlps.0.layers.1.weight f4 [50, 50]
0.08002522 0.119012706 0.11008963 -0.08282269 -0.029591221 0.11899428 0.114927955 0.13541457
-0.26179862 -0.16314475 0.22683558 0.19312891 0.27792728 0.33284968 0.07053474 0.06467527
0.088528216 -0.03331451 0.15850364 0.16217871 0.05091008 0.21667887 -0.1734843 -0.1700291
0.098551705 0.025709067 0.09712165 -0.32007706 -0.022540452 -0.045812827 -0.2055611 0.18891576
0.08639927 -0.064176865 0.13869222 0.12617047 0.08691923 -0.06522656 0.034640685 -0.12747122
-0.0042294734 -0.055266034 0.012388986 -0.30191407 -0.09386897 -0.05141044 0.2084753 -0.13661627
-0.016488414 0.0057473998 0.15674974 7.255572e-05 0.011178816 0.037835147 -0.10842273 0.005347991
0.3088947 -0.07554881 -0.094181366 -0.18147978 0.32905266 -0.08692277 0.08676032 -0.10263078
0.11658051 0.034442585 0.231831 -0.048761286 0.11706703 0.06477736 0.010648816 -0.09927383
0.004145162 0.19428189 -0.035581946 0.24642229 -0.049635135 -0.05194066 0.17170188 0.33555487
0.25150883 0.050432984 0.2927325 0.027955927 -0.12518251 0.0017622006 -0.40549222 -0.08008008
0.25479987 -0.013938727 -0.2381804 -0.018264696 0.20179944 0.290002 -0.025844943 0.118909
-0.1443526 0.09746718 -0.19820853 -0.04843285 0.11850393 0.025841776 -0.3190897 0.05230754
0.07579527 0.008054019 0.17642996 -0.2906655 0.059156567 0.20800696 0.06002494 0.0017733945
-0.0038080872 -0.036029965 -0.109516576 0.032911643 0.28706267 0.08100156 0.102648586 -0.2026666
-0.04308769 -0.1315767 0.034282867 0.21398026 -0.10136721 0.049570143 -0.05424199 -0.044384446
0.23875923 0.047647998 -0.15278095 0.060602438 0.077710114 -0.04058654 0.26378617 0.12984799
-0.07424444 -0.08856859 0.29468173 -0.12502173 0.10765996 -0.00079582346 -0.14061356 -0.3565907
0.11684209 -0.13189936 0.08449901 0.055232655 -0.021773683 -0.04229806 -0.18092422 0.03646325
0.09445707 -0.014655477 0.16508122 -0.2161429 -0.11584083 0.35872427 0.3425658 -0.15450564
0.02509539 0.05897511 -0.024871057 0.21655348 0.26042306 -0.13762258 -0.0049408423 -0.17897096
0.0579234 -0.24720328 0.102229185 0.06507142 -0.16336122 0.039416995 0.37601918 -0.1878061
0.07536902 0.16575721 0.03291348 0.079023175 -0.18783349 0.098128974 0.13829872 0.10539144
-0.26066843 0.048239812 0.080060795 0.18469244 0.03357597 -0.1095346 0.14388384 0.08247311
0.0010551517 -0.17918241 0.09718991 -0.3467427 0.0727888 0.031393915 -0.006380354 -0.042009767
-0.027548518 0.084159665 0.088675424 0.2023402 -0.17149939 -0.0942455 0.16362381 -0.1092494
-0.13451532 0.20402485 0.10505264 0.006949504 0.13123398 -0.121365346 0.09311138 -0.10902584
0.036184035 0.1178608 -0.026966708 -0.03260277 -0.06400762 0.070524305 0.27563184 0.046900027
0.29248318 0.18687421 -0.11039477 -0.100817166 -0.23403831 0.054262627 -0.1266745 0.13075863
0.14304726 0.023232253 -0.009274686 -0.2273913 -0.1167567 0.11595021 -0.36471906 0.23153074
0.07806672 -0.032914225 -0.2775271 -0.072211996 0.11037883 0.02316223 -0.36847487 0.15596507
-0.20133916 -0.22599007 -0.010641448 -0.06985016 0.056140933 0.16218798 -0.083367676 0.2328508
00000000: 43e4 a33d efbc f33d ac76 e13d f19e a9bd
00000010: 4a69 f2bc 46b3 f33d 595f eb3d 1eaa 0a3e
00000020: 780a 86be 6b0f 27be 9647 683e 96c3 453e
00000030: 7c4c 8e3e 466b aa3e 8574 903d 7874 843d
00000040: 484e b53d cc74 08bd c74e 223e 2d12 263e
00000050: 1787 503d 11e1 5d3e dea5 31be 1c1c 2ebe
00000060: 7ad5 c93d d29b d23c b7e7 c63d 24e1 a3be
00000070: c1a6 b8bc 3ba6 3bbd 9c7e 52be 2273 413e
00000080: 1af2 b03d 296f 83bd 5505 0e3e d532 013e
00000090: b602 b23d 8195 85bd 64e3 0d3d d187 02be
000000a0: 6597 8abb a35e 62bd 2cfb 4a3c 7b94 9abe
000000b0: 603e c0bd c193 52bd 8d7a 553e 23e5 0bbe
000000c0: b612 87bc af54 bc3b 0183 203e 0e29 9838
000000d0: 5a27 373c 07f9 1a3d bc0c debd 333e af3b
000000e0: 7227 9e3e 56b9 9abd 29e2 c0bd d6d5 39be
000000f0: 9779 a83e 9104 b2bd 65af b13d 1630 d2bd
00000100: c3c1 ee3d ab13 0d3d 1b65 6d3e eab9 47bd
00000110: d7c0 ef3d fea9 843d 5f78 2e3c 1450 cbbd
00000120: 24d4 873b d5f1 463e 60be 11bd 2056 7c3e
00000130: 364e 4bbd bbbf 54bd 9ed2 2f3e d9cd ab3e
00000140: c4c5 803e d192 4e3d 09e1 953e d403 e53c
00000150: d82f 00be a4f9 e63a ad9c cfbe 0601 a4bd
00000160: 2175 823e 425f 64bc 90e5 73be d89f 95bc
00000170: 83a4 4e3e 247b 943e c6b8 d3bc 9086 f33d
00000180: 2bd1 13be df9c c73d 2df7 4abe 8661 46bd
00000190: 30b2 f23d 22b2 d33c ba5f a3be 6e40 563d
000001a0: 8d3a 9b3d 01f5 033c 0eaa 343e 1cd2 94be
000001b0: 284e 723d c7ff 543e b6dc 753d 3f71 e83a
000001c0: 1a91 79bb 2894 13bd 3a4a e0bd 5cce 063d
000001d0: e1f9 923e 25e4 a53d 6c39 d23d d587 4fbe
000001e0: b87c 30bd 0bbc 06be 316c 0c3d a41d 5b3e
000001f0: 9d99 cfbd 100a 4b3d d92c 5ebd 77cc 35bd
00000200: 4d7d 743e 8c2a 433d 9c72 1cbe 433a 783d
00000210: 7b26 9f3d 123e 26bd fb0e 873e dff6 043e
00000220: 780d 98bd 7363 b5bd 86e0 963e b205 00be
00000230: d37c dc3d cf9e 50ba 00fd 0fbe 0e93 b6be
00000240: e84a ef3d a010 07be d10d ad3d a33b 623d
00000250: b95e b2bc bb40 2dbd 3344 39be 7d5a 153d
00000260: b572 c13d 871d 70bc 0d0b 293e 9054 5dbe
00000270: f53d edbd b5aa b73e c964 af3e ba36 1ebe
00000280: d994 cd3c e38f 713d 63be cbbc 32c0 5d3e
00000290: 2c56 853e efec 0cbe cae6 a1bb 2a44 37be
000002a0: 1641 6d3d db22 7dbe 895d d13d 2a44 853d
000002b0: 2a48 27be b773 213d 9685 c03e 3e50 40be
000002c0: 135b 9a3d 42bc 293e 49d0 063d e7d6 a13d
000002d0: 6c57 40be d8f7 c83d 2e9e 0d3e 78d7 d73d
000002e0: 5576 85be 1c97 453d eaf6 a33d 0420 3d3e
000002f0: f586 093d ad53 e0bd 4956 133e a9e7 a83d
00000300: 044d 8a3a 987b 37be 810b c73d 4288 b1be
00000310: 4b12 953d e896 003d 4a12 d1bb 6f12 2cbd
00000320: 6ead e1bc e75b ac3d 769b b53d 4532 4f3e
00000330: 899d 2fbe c903 c1bd 008d 273e 26be dfbd
00000340: 62be 09be e4eb 503e d725 d73d aab8 e33b
00000350: 3362 063e 658e f8bd 2eb1 be3d f148 dfbd
00000360: b635 143d 0161 f13d 49e9 dcbc 7b8a 05bd
00000370: 6d16 83bd 0c6f 903d 9e1f 8d3e 3e1a 403d
00000380: 5bc0 953e f45b 3f3e a716 e2bd 3b79 cebd
00000390: bda7 6fbe 7d42 5e3d f6b6 01be 97e5 053e
000003a0: fb7a 123e 9151 be3c daf4 17bc 44d9 68be
000003b0: 231e efbd 4e77 ed3d 75bc babe 6516 6d3e
000003c0: 72e1 9f3d 11d1 06bd 0818 8ebe e2e3 93bd
000003d0: 4c0e e23d b8be bd3c bda8 bcbe 4fb5 1f3e
000003e0: da2b 4ebe f169 67be 7859 2ebc 9a0d 8fbd
000003f0: 09f4 653d 9b14 263e acbc aabd 7170 6e3e

P.mlps.0.layers.1.bias f4 [50]
0.03018953 0.035218555 0.018162696 -0.03650343 -0.021555923 0.025756903 -0.026155725 -0.021434613
0.028643273 -0.03267191 0.024737619 0.029497465 0.031040361 0.00023929829 -0.03147701 0.0069428547
0.040833972 0.038357962 0.002114655 -0.019248791 0.036234234 -0.036735307 -0.033041503 0.0039535663
-0.026414562 0.0027361899 0.01804549 -0.03871429 0.026398782 -0.024687026 0.02713284 0.027517062
-0.024114288 -0.029779471 -0.029279815 -0.033486847 -0.021208672 0.022338321 0.02266323 0.04322743
0.023970475 -0.03772679 -0.013482986 0.016066592 0.026353367 0.020433769 -0.015768312 0.03992963
0.0211584 0.034828924
00000000: 0950 f73c 5541 103d efc9 943c 9f84 15bd
00000010: 0c96 b0bc 2400 d33c 8844 d6bc a497 afbc
00000020: 4ca5 ea3c fbd2 05bd 8ca6 ca3c aba4 f13c
00000030: 5b48 fe3c 25ec 7a39 0aee 00bd e380 e33b
00000040: 8641 273d 3d1d 1d3d 0696 0a3b a4af 9dbc
00000050: 596a 143d c377 16bd 8756 07bd eb8c 813b
00000060: 5a63 d8bc a651 333b 23d4 933c e092 1ebd
00000070: 4242 d83c 723c cabc b145 de3c 766b e13c
00000080: 548b c5bc 14f4 f3bc 39dc efbc 8129 09bd
00000090: cfbd adbc dbfe b63c 3da8 b93c 3f0f 313d
000000a0: bb5d c43c 6887 1abd bee7 5cbc 169e 833c
000000b0: 04e3 d73c b864 a73c 8c2c 81bc 408d 233d
000000c0: 6254 ad3c c6a8 0e3d

P.mlps.0.layers.2.weight f4 [50, 50]
-0.006491116 -0.1203992 0.033312477 -0.36547408 -0.074391924 0.34613338 -0.08630234 0.13557011
0.027120752 0.10411984 0.034932278 -0.37627354 0.04520144 0.013585585 0.16399668 0.065863155
0.0654093 0.10450384 -0.25971973 0.18240926 -0.09069257 -0.20705064 0.010540728 0.19993599
-0.15242663 0.18095122 -0.09595044 0.037264723 -0.11176653 0.12023077 -0.04560314 0.16721527
-0.034173764 0.057264917 0.09271202 0.03770867 0.08855855 -0.05630449 0.15028337 -0.11207441
-0.059352316 -0.12870942 -0.04742925 0.22437721 -0.026200645 0.013120677 -0.009353107 0.14138415
-0.08938728 -0.10288566 -0.07155424 -0.072210915 0.023414094 -0.3211915 0.053794287 -0.08984498
0.036661886 -0.13736199 -0.27612925 -0.22337958 0.10593049 0.13843255 -0.09248122 0.045333833
-0.080423646 0.09755119 0.06389063 -0.002233373 -0.25761393 0.056327045 -0.015092397 0.014611001
0.028056348 -0.122666284 0.16450748 -0.05064387 0.18459004 0.111546144 -0.048642937 -0.012849311
0.19286732 0.30712724 -0.16667913 0.22867213 0.064334065 0.2405513 -0.0065574255 0.16078894
0.033894666 0.15558363 0.085455 0.036168903 -0.011129533 0.06332799 0.09861777 -0.082049824
0.101013914 0.07998693 -0.08785967 0.14921322 -0.07856961 -0.090896375 0.1742932 -0.04029671
0.053678956 0.10066899 -0.22535716 0.29127926 0.14372341 -0.19768055 -0.044669546 0.31893653
-0.010497886 -0.2377646 -0.24144523 -0.15503757 0.1954602 0.049622487 0.08198426 -0.3700117
-0.04578817 -0.03467701 0.10166147 0.08650119 0.11299198 0.26009527 0.12447629 -0.27243486
0.19233018 -0.025280695 0.0067843366 -0.074288175 0.04921943 0.16429065 0.09829166 0.19493094
0.14475663 -0.1254771 -0.10835499 0.008109217 0.034557384 0.02685059 -0.3035263 0.10969349
0.073951855 0.06236659 0.12261602 0.09167316 0.2631792 0.28608626 -0.079891294 0.046387978
-0.28769413 0.085176386 0.09003733 -0.2294964 -0.086719014 -0.2728981 -0.048310164 -0.048384827
0.062244445 0.08743489 -0.10895866 -0.13067082 0.007618694 -0.0007011633 -0.029197114 -0.26701736
0.04658366 0.19014153 -0.08536198 -0.023468778 -0.066850476 0.065848425 -0.007753887 0.010828637
-0.100351654 -0.047583096 -0.3686341 0.037850894 0.026850732 -0.15755339 -0.13278429 0.121768296
0.11945524 0.035174724 0.16052166 -0.122856 -0.24460855 -0.11397211 -0.17137969 -0.01043819
0.043140654 0.18278319 -0.08603843 -0.030026149 0.23504798 -0.10222419 -0.037827924 0.15500477
-0.052758913 0.0067743915 -0.16654325 -0.1982755 0.12468315 0.12587465 0.08771454 -0.07651649
0.19573425 -0.103366934 0.13956459 0.14205597 0.12253648 0.14376648 0.007832957 -0.35369644
0.12876523 0.17470227 0.018043296 -0.11411611 0.031296555 0.02057679 0.035391495 0.041031834
-0.078270085 -0.21042237 0.03806817 -0.14168584 0.17385304 -0.37373978 0.3017798 -0.06557945
-0.05680687 -0.22520186 -0.08836264 -0.12963752 0.08377745 -0.23913115 -0.12558341 0.10573039
-0.0016810811 -0.08815221 0.0780251 0.012924827 0.039343867 0.057375092 -0.19851276 -0.11069891
-0.085597105 0.16642846 -0.25961414 0.027086366 0.013002037 -0.06758468 -0.002675404 0.28435794
00000000: 6db3 d4bb db93 f6bd aa72 083d 6b1f bbbe
00000010: cb5a 98bd 6538 b13e 48bf b0bd e4d2 0a3e
00000020: 572c de3c c83c d53d 2615 0f3d eda6 c0be
00000030: 2525 393d 1396 5e3c bfee 273e 43e3 863d
00000040: 50f5 853d 1c06 d63d fcf9 84be 7ec9 3a3e
00000050: 07bd b9bd 1505 54be 05b3 2c3c 05bc 4c3e
00000060: ba15 1cbe 474b 393e aa81 c4bd e5a2 183d
00000070: dae5 e4bd 8d3b f63d 5cca 3abd 7b3a 2b3e
00000080: caf9 0bbd 9e8e 6a3d cddf bd3d 6874 1a3d
00000090: 2f5e b53d 899f 66bd e2e3 193e 4587 e5bd
000000a0: 6a1b 73bd 67cc 03be 2c45 42bd 24c3 653e
000000b0: bca2 d6bc 1cf8 563c c63d 19bc 02c7 103e
000000c0: ae10 b7bd b8b5 d2bd 088b 92bd 51e3 93bd
000000d0: eace bf3c 3673 a4be 6657 5c3d a500 b8bd
000000e0: c62a 163d 9fa8 0cbe d060 8dbe 9ebd 64be
000000f0: 16f2 d83d 43c1 0d3e cb66 bdbd f8af 393d
00000100: 27b5 a4bd ebc8 c73d 17d9 823d c85d 12bb
00000110: f9e5 83be 30b7 663d 1a46 77bc fb62 6f3c
00000120: 6dd6 e53c 7638 fbbd a674 283e f26f 4fbd
00000130: 2c05 3d3e 4e72 e43d d13d 47bd eb85 52bc
00000140: 037f 453e c83f 9d3e efad 2abe 0729 6a3e
00000150: 94c1 833d 1453 763e acdf d6bb dba5 243e
00000160: 22d5 0a3d 5151 1f3e 0803 af3d d825 143d
00000170: a558 36bc 1bb2 813d 1df8 c93d bd09 a8bd
00000180: 62e0 ce3d 30d0 a33d c5ef b3bd 5acb 183e
00000190: 1be9 a0bd e127 babd eb79 323e 2a0e 25bd
000001a0: 77de 5b3d 8b2b ce3d 07c4 66be 8e22 953e
000001b0: 3b2c 133e c56c 4abe 6af7 36bd a64b a33e
000001c0: 53ff 2bbc 9078 73be 6b3d 77be 2bc2 1ebe
000001d0: b826 483e f340 4b3d 5de7 a73d 2c72 bdbe
000001e0: 608c 3bbd 7b09 0ebd e433 d03d 8927 b13d
000001f0: 5768 e73d 352b 853e 6ded fe3d 957c 8bbe
00000200: 34f2 443e 7619 cfbc 244f de3b 6624 98bd
00000210: 509a 493d cf3b 283e 234d c93d fa9b 473e
00000220: 153b 143e 127d 00be 39e9 ddbd 85dc 043c
00000230: 0b8c 0d3d c5f5 db3c cd67 9bbe fba6 e03d
00000240: 1274 973d 1c74 7f3d 1c1e fb3d 23bf bb3d
00000250: 6dbf 863e e679 923e 0c9e a3bd 5201 3e3d
00000260: a54c 93be f570 ae3d 7e65 b83d 1b01 6bbe
00000270: bd99 b1bd 4db9 8bbe e1e0 45bd 2b2f 46bd
00000280: 08f4 7e3d 1011 b33d b825 dfbd 92ce 05be
00000290: 3da6 f93b 46ce 37ba c92e efbc 80b6 88be
000002a0: 82ce 3e3d 76b4 423e 43d2 aebd 9841 c0bc
000002b0: e7e8 88bd 8adb 863d 5214 febb 986a 313c
000002c0: 2b85 cdbd 7ee6 42bd 9cbd bcbe 8a09 1b3d
000002d0: 11f6 db3c ad55 21be 9bf8 07be a861 f93d
000002e0: f3a4 f43d 5f13 103d ca5f 243e ed9b fbbd
000002f0: aa7a 7abe 366a e9bd 287e 2fbe f104 2bbc
00000300: 41b4 303d 842b 3b3e eb34 b0bd 66f9 f5bc
00000310: 6bb0 703e eb5a d1bd 74f1 1abd 92b9 1e3e
00000320: bb19 58bd b7fb dd3b 508a 2abe bc08 4bbe
00000330: e159 ff3d 49e5 003e aea3 b33d adb4 9cbd
00000340: 8f6e 483e 0bb2 d3bd 05ea 0e3e 1f77 113e
00000350: 68f4 fa3d 8537 133e ce55 003c b317 b5be
00000360: 08db 033e 27e5 323e 89cf 933c b5b5 e9bd
00000370: d130 003d a890 a83c acf6 103d ff10 283d
00000380: 114c a0bd f678 57be 5fed 1b3d 1816 11be
00000390: 8806 323e d25a bfbe e282 9a3e 854e 86bd
000003a0: 52ae 68bd 519b 66be 79f7 b4bd b3bf 04be
000003b0: 8393 ab3d ccde 74be f098 00be 2d89 d83d
000003c0: b957 dcba 2589 b4bd a0cb 9f3d a7c2 533c
000003d0: 0927 213d 2502 6b3d ee46 4bbe 1cb6 e2bd
000003e0: 894d afbd 396c 2a3e 25ec 84be 3ae4 dd3c
000003f0: 7f06 553c d669 8abd d555 2fbb 5d97 913e

P.mlps.0.layers.2.bias f4 [50]
-0.0018944094 0.025894366 0.030920932 -0.026174923 0.022411488 0.021074513 -0.0441455 0.01926551
-0.035169717 0.027705828 0.024522698 -0.029978886 0.020556105 -0.014193033 0.024820732 0.023688365
-0.023855716 -0.021481909 -0.017150577 0.026209392 0.024025476 0.011077147 -0.012523247 0.0101202885
-0.026127253 -0.027606495 0.026641745 0.02352369 -0.046271756 0.023347728 -0.028191574 -0.019742366
-0.037341766 0.028095808 -0.021719323 0.033697598 -0.022311416 0.01964338 -0.024179721 -0.023816608
-0.024778146 -0.028874788 -0.009598747 0.020505015 0.021854306 -0.024474956 0.02585146 -0.019380992
0.04515298 0.024651486
00000000: d54d f8ba 6c20 d43c e54d fd3c cb6c d6bc
00000010: 4c98 b73c 75a4 ac3c e9d1 34bd b4d2 9d3c
00000020: 1f0e 10bd 55f7 e23c d3e3 c83c 4896 f5bc
00000030: 4765 a83c e589 68bc d954 cb3c 1a0e c23c
00000040: 106d c3bc d4fa afbc 5e7f 8cbc 14b5 d63c
00000050: 13d1 c43c ec7c 353c 4e2e 4dbc 91cf 253c
00000060: d208 d6bc 0427 e2bc ca3f da3c c1b4 c03c
00000070: 7487 3dbd bc43 bf3c 04f2 e6bc beba a1bc
00000080: aef3 18bd 2e29 e63c b9ec b1bc 7e06 0a3d
00000090: 6ec6 b6bc 27eb a03c 8d14 c6bc 0c1b c3bc
000000a0: 8afb cabc d28a ecbc 1044 1dbc 22fa a73c
000000b0: cd07 b33c b47f c8bc 71c6 d33c e3c4 9ebc
000000c0: 55f2 383d eaf1 c93c

P.mlps.0.layers.3.weight f4 [50, 50]
-0.11773879 -0.15770097 0.12834086 -0.108688645 0.18873307 0.037713587 -0.027736314 0.05630864
-0.008225855 -0.15696916 0.09407629 -0.17424178 0.098072045 -0.2828498 0.07791255 0.0487328
0.26673988 0.0029668084 -0.066690885 -0.18860672 -0.15262716 -0.006624662 -0.12355604 -0.29142442
0.073313296 0.00475585 -0.16961248 -0.10104618 0.09463733 -0.020289546 -0.06410962 -0.08545243
0.0186948 -0.1439317 -0.03090297 0.045628283 -0.12717101 -0.24771741 -0.020785863 0.09867859
-0.18726444 0.16341956 0.22944748 -0.1242036 0.24506749 -0.041771427 -0.31615055 -0.39639485
0.18026307 0.09534847 -0.21134214 -0.024920879 0.0116917845 0.084222585 -0.1725982 0.26471058
0.23510422 0.024534574 -0.17818032 0.094931245 -0.105391726 -0.003707042 0.32187906 0.05735272
-0.12319727 -0.09511493 0.15926787 -0.097531766 0.10492302 0.04536844 -0.08421009 0.0148535855
0.09770544 -0.00032630388 -0.028018907 0.112534784 -0.080547124 0.03441085 0.06177422 0.019362032
0.008868406 -0.076970026 0.16673185 0.12734412 0.088271 0.0030591746 0.02209844 0.02052565
-0.18168405 -0.13892753 0.24742483 0.11505236 0.20483515 -0.06714885 -0.050042022 -0.045382988
-0.028493602 -0.27614927 0.12868495 0.016966648 -0.3007748 -0.20113699 0.13914098 0.06552899
0.102896184 -0.07291549 0.05953598 0.1482632 0.20950778 -0.18950783 -0.054574702 -0.022678852
0.0107376445 -0.21700583 -0.12765859 -0.06034115 0.19898209 -0.20981948 -0.20994487 0.07001872
-0.110409275 -0.08630742 -0.024329282 0.103801936 0.17480755 -0.022892041 0.011347556 -0.016764117
0.16691767 -0.10660758 -0.10469783 0.25163308 0.003658808 0.017776292 -0.057975825 -0.11292506
-0.00028816157 -0.08163173 0.1915909 0.12181115 -0.14160079 0.020165902 0.15252393 0.07166947
-0.0694566 -0.09206366 0.09261479 -0.24026994 -0.30451906 0.0006836079 -0.029525535 0.027352886
-0.116400756 0.10212416 -0.26844513 0.071286224 -0.050985143 -0.025034057 0.13245295 0.012547784
0.11309134 0.091653876 0.042112708 0.038280625 0.07258013 0.3727496 -0.22790015 0.1491687
-0.116124965 -0.076005936 0.10018286 -0.10210423 -0.13452582 0.10009218 -0.12062242 -0.11350762
-0.18562852 -0.16541204 0.21794003 0.1201726 -0.17632611 -0.040059496 0.13505702 0.063369565
0.011796813 -0.2183036 0.31493017 -0.14339474 -0.077482514 -0.012397605 -0.16465014 0.19242617
-0.04764613 0.17635903 -0.09586963 -0.002360408 -0.04788235 0.053289272 -0.19324091 -0.22965842
-0.021643579 -0.09313071 0.22669406 -0.08131278 0.28005186 -0.2345406 0.10474704 0.23247671
-0.03943674 0.011624183 -0.11854735 0.07272108 0.051746234 -0.02805282 -0.049443405 -0.10212083
-0.027745463 0.04729682 0.033670865 0.123085335 0.26990238 -0.038607378 -0.010744058 -0.017271366
-0.0879804 -0.18067633 0.20243439 0.16799706 0.2394616 -0.064711094 -0.25980398 -0.15281546
-0.058294896 0.12432268 0.1408565 -0.2672608 -0.08594139 -0.08726618 0.077093124 0.06176675
0.12552682 0.0023372932 0.010433588 -0.26434818 -0.22256044 -0.16907136 0.12424177 -0.14375022
0.15867928 0.10505195 0.18900165 -0.029503636 0.2087822 -0.100685254 0.1913589 0.11320887
00000000: 0921 f1bd 5d7c 21be c96b 033e 2798 debd
00000010: 3e43 413e 9079 1a3d 4437 e3bc e3a3 663d
00000020: bdc5 06bc 86bc 20be 12ab c03d 706c 32be
00000030: ffd9 c83d b0d1 90be 9d90 9f3d 0b9c 473d
00000040: 2192 883e c96e 423b 3b95 88bd 1f22 41be
00000050: 4b4a 1cbe b113 d9bb f30a fdbd 9535 95be
00000060: 4825 963d f6d6 9b3b e5ae 2dbe 4df1 cebd
00000070: 37d1 c13d 4336 a6bc e84b 83bd af01 afbd
00000080: d625 993c d562 13be 3a28 fdbc b9e4 3a3d
00000090: 1e39 02be a2a9 7dbe 1d47 aabc 0018 ca3d
000000a0: 40c2 3fbe 7557 273e 48f4 6a3e 755e febd
000000b0: f9f2 7a3e 8418 2bbd 7cde a1be 44f4 cabe
000000c0: e296 383e 0f46 c33d 136a 58be df26 ccbc
000000d0: e68e 3f3c e47c ac3d 95bd 30be 2588 873e
000000e0: 29bf 703e bbfc c83c e774 36be 506b c23d
000000f0: 9ed7 d7bd d8f1 72bb 55cd a43e b0ea 6a3d
00000100: da4e fcbd 9ecb c2bd 1e17 233e bcbe c7bd
00000110: e1e1 d63d 42d4 393d 5776 acbd 745c 733c
00000120: ca19 c83d c413 abb9 e887 e5bc a378 e63d
00000130: e4f5 a4bd 64f2 0c3d f706 7d3d 209d 9e3c
00000140: ca4c 113c 76a2 9dbd c1bb 2a3e 7f66 023e
00000150: 6dc7 b43d 6f7c 483b ca07 b53c 6825 a83c
00000160: 620b 3abe 0543 0ebe ef5c 7d3e 92a0 eb3d
00000170: 4ec0 513e 5685 89bd ddf8 4cbd 83e3 39bd
00000180: 6a6b e9bc 7063 8dbe fdc5 033e a4fd 8a3c
00000190: 28ff 99be dbf6 4dbe f97a 0e3e 1034 863d
000001a0: 3cbb d23d b754 95bd 00dc 733d 4fd2 173e
000001b0: 3589 563e 570e 42be b989 5fbd 00c9 b9bc
000001c0: f2ec 2f3c c736 5ebe efb8 02be 4828 77bd
000001d0: f6c1 4b3e ebda 56be cafb 56be fa65 8f3d
000001e0: 421e e2bd f2c1 b0bd 344e c7bc 1c96 d43d
000001f0: c000 333e 1788 bbbc 19eb 393c e754 89bc
00000200: 77ec 2a3e 1355 dabd d16b d6bd 0dd6 803e
00000210: 9dc8 6f3b 969f 913c 0f78 6dbd 4145 e7bd
00000220: 6414 97b9 892e a7bd 6830 443e 2078 f93d
00000230: ccff 10be f632 a53c 3c2f 1c3e 71c7 923d
00000240: 433f 8ebd df8b bcbd d3ac bd3d 5309 76be
00000250: ece9 9bbe 2634 333a 89df f1bc 2913 e03c
00000260: 8563 eebd 7926 d13d a471 89be 83fe 913d
00000270: ccd5 50bd 3914 cdbc bfa1 073e 3895 4d3c
00000280: 6f9c e73d 07b5 bb3d 607e 2c3d 25cc 1c3d
00000290: e4a4 943d 09d9 be3e a85e 69be aebf 183e
000002a0: edd2 edbd 00a9 9bbd ac2c cd3d 061c d1bd
000002b0: 23c1 09be 21fd cc3d e308 f7bd af76 e8bd
000002c0: 6715 3ebe c661 29be ac2b 5f3e 0d1d f63d
000002d0: d58e 34be 6d15 24bd 634c 0a3e e7c7 813d
000002e0: 6c47 413c fb8a 5fbe 873e a13e 12d6 12be
000002f0: 27af 9ebd 531f 4bbc 0c9a 28be 5e0b 453e
00000300: 9728 43bd 7697 343e 4c57 c4bd 13b1 1abb
00000310: 4820 44bd da45 5a3d f2e0 45be 942b 6bbe
00000320: e04d b1bc 50bb bebd 7d22 683e 5187 a6bd
00000330: f562 8f3e 692b 70be 9e85 d63d 600e 6e3e
00000340: 6b88 21bd 5b73 3e3c f4c8 f2bd caee 943d
00000350: dcf3 533d 07cf e5bc 2b85 4abd ba24 d1bd
00000360: 744a e3bc 4fba 413d 76ea 093d 2a14 fc3d
00000370: a530 8a3e c522 1ebd d807 30bc ae7c 8dbc
00000380: 112f b4bd 3703 39be f64a 4f3e 6c07 2c3e
00000390: 6c35 753e 4087 84bd 0705 85be a87b 1cbe
000003a0: a1c6 6ebd e49c fe3d b03c 103e 68d6 88be
000003b0: 0a02 b0bd 9cb8 b2bd 00e3 9d3d 22ff 7c3d
000003c0: 1a8a 003e 462d 193b a4f1 2a3c a558 87be
000003d0: e2e6 63be 0b21 2dbe 7872 fe3d 4233 13be
000003e0: d27c 223e 7a25 d73d a689 413e 9cb1 f1bc
000003f0: 00cb 553e 1234 cebd 96f3 433e 0dda e73d

P.mlps.0.layers.3.bias f4 [50]
-0.021247076 -0.027327538 -0.026131084 -0.025583064 0.028537424 -0.014863576 -0.024760963 0.020640684
-0.019389438 -0.022495294 0.002048167 0.028291002 0.024281131 0.030884286 0.026221368 0.022851463
-0.024729492 -0.020803835 0.027296532 -0.026309697 -0.021969354 0.02234574 0.031377126 0.023634683
-0.022320028 -0.023555186 0.024343852 -0.017225329 0.0017874044 0.021439716 0.025419112 -0.03456984
0.019695524 -0.035794996 -0.021662425 0.01641164 0.02841221 -0.025854671 -0.026730029 -0.03205269
-0.02260653 -0.025923558 0.021071605 0.025567101 0.021120632 0.024517192 -0.027597547 0.024649436
-0.01886563 -0.021803744
00000000: 590e aebc 00de dfbc db10 d6bc 9393 d1bc
00000010: 51c7 e93c 5b86 73bc 81d7 cabc a716 a93c
00000020: 99d6 9ebc 0d48 b8bc 8a3a 063b 88c2 e73c
00000030: 39e9 c63c 0b01 fd3c 32ce d63c fe32 bb3c
00000040: 8195 cabc ce6c aabc fa9c df3c 6f87 d7bc
00000050: 13f9 b3bc 6a0e b73c 4d85 003d 869d c13c
00000060: 7ed8 b6bc cef6 c0bc c26c c73c 221c 8dbc
00000070: 5747 ea3a 58a2 af3c be3b d03c 1b99 0dbd
00000080: 8258 a13c c69d 12bd 6675 b1bc b471 863c
00000090: b9c0 e83c 2dcd d3bc eff8 dabc ae49 03bd
000000a0: 5431 b9bc a45d d4bc 5c9e ac3c 1972 d13c
000000b0: 2d05 ad3c 47d8 c83c 4014 e2bc 9ded c93c
000000c0: 188c 9abc c49d b2bc

P.mlps.0.layers.4.weight f4 [50, 50]
-0.19021583 0.053163204 0.10693635 -0.23397735 -0.036240805 -0.1806818 -0.06890716 -0.09697279
0.24165924 0.10930199 -0.044152692 0.10631105 0.04483166 -0.23701322 -0.16348028 0.014447213
0.24140799 -0.0128822895 0.10620905 0.086932644 -0.40661013 -0.28499624 -0.20165524 -0.058935486
-0.041785438 0.13476229 0.08620265 -0.15972431 -0.18602073 -0.25796118 0.09416133 0.14740607
-0.14562768 0.1590565 -0.20923549 0.16280909 0.16273145 -0.24136943 -0.023481773 0.35642698
-0.24035305 0.11240178 0.010367467 0.07392395 -0.03829487 -0.019275786 -0.11606852 -0.1307058
0.0353328 0.0449816 0.24675143 -0.06473123 -0.050281085 -0.16063422 0.110720806 -0.18137896
0.1288787 0.19606642 0.17649278 0.03263969 0.15881991 0.19377899 0.008480672 0.45053568
-0.19219197 -0.011228132 0.061370086 0.011353575 0.041776218 -0.07091233 -0.16321023 -0.10687765
-0.062282104 -0.03770901 0.16177826 -0.039781656 0.3342622 0.18183635 -0.09014586 0.09264186
-0.0033807203 0.07070007 -0.19023211 -0.27602887 0.07478145 -0.053980544 0.17852151 0.14797111
-0.21367133 -0.094843954 -0.012417703 -0.09052324 -0.0813177 -0.16136104 -0.083557025 -0.078345776
0.083400756 0.116013035 0.17337058 -0.15652278 0.15798949 0.17295533 0.24087106 0.1261383
-0.12619023 0.11800015 -0.008114632 0.07796513 0.124430686 0.13346381 -0.1830161 0.1034543
-0.07916198 -0.13245872 -0.060430672 0.09823055 0.02170296 0.13096863 0.20441335 -0.26364002
0.27634084 -0.01913775 -0.16741574 -0.07447776 0.012957111 0.110581346 -0.0045947605 -0.098053664
-0.06496022 -0.01664142 -0.33437067 0.07941972 0.07223526 -0.09712886 -0.14899452 0.13490328
-0.044631135 0.04641326 0.1853616 -0.015975973 0.02514585 0.08194849 -0.10359853 -0.13466908
0.1256246 0.021808783 0.065752216 -0.09937792 -0.19529937 -0.13572682 -0.014791163 -0.018153504
0.0121519575 0.064129874 0.07582053 -0.22006345 -0.08479093 0.0044796704 -0.13829964 0.23353039
0.13159205 0.030871041 -0.09785352 -0.25774768 0.18704753 0.2662301 0.07069412 -0.2171241
-0.11761237 0.12490324 -0.13252991 0.17654048 -0.10750531 -0.046119593 0.15169089 0.03479027
-0.29616448 -0.24164616 0.03404451 0.09263818 -0.16577396 0.099607676 -0.114817575 -0.05772299
0.0028119117 0.16471535 -0.15205719 -0.103491925 -0.065675355 0.105150945 0.048274178 0.1581952
0.0075348066 -0.15425576 0.03709867 0.0045187986 -0.092429355 0.15930316 -0.20570296 0.045318156
-0.033284634 0.064228274 0.2973966 -0.09000714 -0.34985653 -0.014270606 0.118798345 -0.020485565
-0.006045074 0.17352808 0.12683523 0.17820688 0.12233889 -0.27220345 -0.2178699 -0.013301573
0.043338504 -0.37221232 0.036593925 0.20548682 -0.15865387 0.17550953 -0.005227294 -0.07509242
0.43674845 -0.13676056 0.009827543 -0.059010066 -0.008369093 0.006349025 -0.2176233 -0.009538403
-0.101986706 0.055004016 0.12781693 -0.099404626 0.16827989 0.16212644 0.049488667 0.096142866
0.11246503 0.020205874 0.034596972 -0.015624924 0.23796609 -0.21669887 -0.22316018 -0.01991352
-0.19252609 -0.015663847 0.027829649 -0.36053544 0.0036518842 -0.030273698 0.3289542 0.0896309
00000000: f0c7 42be a9c1 593d 7201 db3d c297 6fbe
00000010: 3d71 14bd a604 39be 321f 8dbd ac99 c6bd
00000020: 8575 773e b9d9 df3d 74d9 34bd 9cb9 d93d
00000030: 67a1 373d 98b3 72be 6067 27be 01b4 6c3c
00000040: a833 773e 3d10 53bc 2184 d93d be09 b23d
00000050: 342f d0be 07eb 91be b67e 4ebe 5666 71bd
00000060: 3527 2bbd 20ff 093e 048b b03d c58e 23be
00000070: 387c 3ebe 7d13 84be a8d7 c03d 9ef1 163e
00000080: 6c1f 15be b5df 223e d441 56be 6db7 263e
00000090: 13a3 263e 8c29 77be d95c c0bc 997d b63e
000000a0: 1c1f 76be e832 e63d 4fdc 293c 7165 973d
000000b0: 15db 1cbd 41e8 9dbc 55b5 edbd bed7 05be
000000c0: 20b9 103d a03e 383d 68ac 7c3e cf91 84bd
000000d0: 8af3 4dbd 4c7d 24be 97c1 e23d 68bb 39be
000000e0: c7f8 033e a3c5 483e 86ba 343e 32b1 053d
000000f0: b0a1 223e 006e 463e 84f2 0a3c 9dac e63e
00000100: f9cd 44be 33f6 37bc 335f 7b3d 5804 3a3c
00000110: 8a1d 2b3d 7c3a 91bd 9520 27be abe2 dabd
00000120: 851b 7fbd c374 1abd 33a9 253e 17f2 22bd
00000130: 6a24 ab3e 4f33 3a3e 659e b8bd 04bb bd3d
00000140: 138f 5dbb 33cb 903d 35cc 42be a853 8dbe
00000150: 0427 993d b41a 5dbd 58ce 363e bd85 173e
00000160: a8cc 5abe 8c3d c2bd 9f73 4bbc 4064 b9bd
00000170: e589 a6bd d43b 25be f21f abbd c073 a0bd
00000180: 04ce aa3d 3e98 ed3d 0f88 313e 8247 20be
00000190: ffc7 213e 341b 313e e7a6 763e 662a 013e
000001a0: 0338 01be 10aa f13d 3cf3 04bc 2fac 9f3d
000001b0: 84d5 fe3d bdaa 083e 9368 3bbe d9df d33d
000001c0: ad1f a2bd 42a3 07be 2786 77bd 192d c93d
000001d0: 68ca b13c a41c 063e bc51 513e d3fb 86be
000001e0: 8c7c 8d3e c5c6 9cbc 086f 2bbe cc87 98bd
000001f0: 104a 543c 7978 e23d a58f 96bb 5cd0 c8bd
00000200: dd09 85bd 9653 88bc a232 abbe cea6 a23d
00000210: 14f0 933d 7feb c6bd 0592 18be 1624 0a3e
00000220: 23cf 36bd d51b 3e3d 6ecf 3d3e 0be0 82bc
00000230: abfe cd3c 9cd4 a73d 772b d4bd b1e6 09be
00000240: bca3 003e 55a8 b23c 19a9 863d a786 cbbd
00000250: 8ffc 47be f9fb 0abe a256 72bc a8b6 94bc
00000260: 0119 473c 8656 833d cb47 9b3d 5058 61be
00000270: dea6 adbd 33ca 923b 6c9e 0dbe 9722 6f3e
00000280: 11c0 063e 44e5 fc3c 6d67 c8bd 81f7 83be
00000290: 6389 3f3e 504f 883e 14c8 903d c855 5ebe
000002a0: c1de f0bd 45cd ff3d ecb5 07be 07c7 343e
000002b0: be2b dcbd e6e7 3cbd db54 1b3e 3e80 0e3d
000002c0: dfa2 97be 1772 77be 4272 0b3d 16b9 bd3d
000002d0: a6c0 29be 1cff cb3d 7a25 ebbd f16e 6cbd
000002e0: 0d48 383b 24ab 283e e1b4 1bbe 93f3 d3bd
000002f0: cd80 86bd 6159 d73d 25bb 453d ecfd 213e
00000300: 8ae6 f63b 39f5 1dbe c6f4 173d 6e12 943b
00000310: 9a4b bdbd 5e20 233e cca3 52be 889f 393d
00000320: 7855 08bd 1d8a 833d 5e44 983e aa55 b8bd
00000330: 6520 b3be 43cf 69bc 8c4c f33d 58d1 a7bc
00000340: c215 c6bb 58b1 313e 18e1 013e dd7b 363e
00000350: d08c fa3d 405e 8bbe 4919 5fbe d7ee 59bc
00000360: b783 313d 9d92 bebe 83e3 153d 236b 523e
00000370: 2976 22be c5b8 333e b849 abbb 0eca 99bd
00000380: 7e9d df3e f60a 0cbe b403 213c 8ab4 71bd
00000390: 851e 09bc 7b0b d03b a4d8 5ebe f646 1cbc
000003a0: 68de d0bd e44b 613d 71e2 023e a794 cbbd
000003b0: 9051 2c3e 7904 263e a1b4 4a3d 8de6 c43d
000003c0: 1154 e63d ca86 a53c 8eb5 0d3d aeff 7fbc
000003d0: 62ad 733e 4fe6 5dbe 1a84 64be ae21 a3bc
000003e0: 8f25 45be 7851 80bc 01fb e33c 1a98 b8be
000003f0: 7354 6f3b 8c00 f8bc af6c a83e 6890 b73d

P.mlps.0.layers.4.bias f4 [50]
-0.034677543 0.027852919 -0.027756589 -0.02863205 -0.025054159 0.026569428 -0.028264448 0.023236066
0.024547238 0.021993771 -0.016271582 -0.028303195 -0.028539369 -0.02182512 0.025416123 -0.026502369
-0.021835268 -0.021186627 -0.023404375 -0.03559775 0.02492684 0.026889242 0.024628745 -0.025729567
0.020127198 0.028301897 0.023577385 -0.029430658 0.030875267 -0.032897603 0.023608 -0.022571674
0.03087158 0.032743778 -0.025199942 -0.026025163 0.023744687 -0.018883998 0.02594242 0.021365376
0.020897029 -0.024943829 -0.02796903 0.030240592 -0.021006465 -0.026627654 0.02703594 0.021949919
0.023748456 -0.024664002
00000000: 0a0a 0ebd ce2b e43c c961 e3bc c38d eabc
00000010: 613e cdbc 21a8 d93c d88a e7bc 9059 be3c
00000020: 4a17 c93c 482c b43c fb4b 85bc 1adc e7bc
00000030: 65cb e9bc 98ca b2bc 7935 d03c 7f1b d9bc
00000040: e0df b2bc 948f adbc 88ba bfbc f2ce 11bd
00000050: 5f33 cc3c d446 dc3c 39c2 c93c d0c6 d2bc
00000060: cbe1 a43c 61d9 e73c 5c25 c13c 9018 f1bc
00000070: 21ee fc3c a3bf 06bd 9065 c13c 3be8 b8bc
00000080: 65e6 fc3c 571e 063d 1c70 cebc b932 d5bc
00000090: 3884 c23c 9db2 9abc 3385 d43c 7106 af3c
000000a0: 3f30 ab3c 0057 ccbc 4f1f e5bc 1ebb f73c
000000b0: c015 acbc 3d22 dabc 7a7a dd3c 51d0 b33c
000000c0: 1f8c c23c 290c cabc

P.mlps.0.layers.5.weight f4 [1, 50]
0.06076379 -0.27036825 0.3090546 0.102340795 0.10734871 -0.0890894 0.10856794 -0.35350522
-0.25772023 -0.05916412 0.038919657 0.117528446 0.08007465 0.42765674 -0.24694721 0.2997828
0.41560924 0.38401523 0.25895447 0.0792236 -0.4208551 -0.19311973 -0.4630137 0.11278819
-0.59829915 -0.1380391 -0.20218791 0.070778035 -0.06506155 0.10238023 -0.39664608 0.46728745
-0.12969364 -0.08957547 0.0993078 0.11788854 -0.29728165 0.38513172 -0.45746532 -0.62444323
-0.36349 0.13386652 0.13803436 -0.3204967 0.44417602 0.07120911 -0.03716555 -0.36204183
-0.12280189 0.10864269
00000000: 74e3 783d b56d 8abe 683c 9e3e 0d98 d13d
00000010: a4d9 db3d 8174 b6bd de58 de3d a3fe b4be
00000020: e8f3 83be 1456 72bd 386a 1f3d c1b2 f03d
00000030: 2efe a33d d3f5 da3e bbdf 7cbe 227d 993e
00000040: bcca d43e a59d c43e ae95 843e fc3f a23d
00000050: 527a d7be 2ec1 45be 2210 edbe 7ffd e63d
00000060: 222a 19bf 1f5a 0dbe 590a 4fbe 13f4 903d
00000070: fd3e 85bd baac d13d 3215 cbbe 4d40 ef3e
00000080: 69ce 04be 5873 b7bd e361 cb3d 8c6f f13d
00000090: 4d35 98be fc2f c53e e538 eabe 83db 1fbf
000000a0: 5c1b babe 4e14 093e e158 0d3e 2518 a4be
000000b0: 0a6b e33e 15d6 913d e73a 18bd 8c5d b9be
000000c0: 8f7f fbbd 0f80 de3d

P.mlps.1.layers.0.weight f4 [50, 1]
0.3275232 0.21195762 0.048465353 -0.052820098 0.17961827 0.051197752 0.23976232 -0.06563984
0.095791094 -0.31804287 -0.2887724 0.055057213 0.057909586 0.13364136 0.26516858 -0.26154605
-0.13571277 0.37222385 0.3852617 0.41464984 0.005109991 0.051935308 0.053333737 -0.063417494
0.12827939 -0.16170655 -0.005900513 -0.054778114 -0.05081304 -0.21537705 -0.052904055 0.05737301
-0.056780297 -0.27378494 0.05309405 -0.05144615 -0.30216175 -0.050090257 -0.35116267 -0.18150844
0.24137014 -0.20982826 0.0739866 -0.2516087 0.04805611 -0.05170444 -0.019336544 0.053737488
-0.051521473 0.036926977
00000000: 1fb1 a73e 6b0b 593e 9b83 463d e359 58bd
00000010: daed 373e bcb4 513d 4184 753e 2e6e 86bd
00000020: 1f2e c43d 84d6 a2be fad9 93be ac83 613d
00000030: 9a32 6d3d 48d9 083e 2dc4 873e 5de9 85be
00000040: 4af8 0abe 2094 be3e 0641 c53e fc4c d43e
00000050: b671 a73b 1eba 543d 7a74 5a3d 08e1 81bd
00000060: ac5b 033e 6796 25be 1759 c1bb 045f 60bd
00000070: 5621 50bd cd8b 5cbe ecb1 58bd f6ff 6a3d
00000080: 7592 68bd 8a2d 8cbe 2679 593d 33b9 52bd
00000090: f2b4 9abe 712b 4dbd 98cb b3be 59dd 39be
000000a0: bc29 773e 38dd 56be 4986 973d dbd2 80be
000000b0: 7cd6 443d 09c8 53bd ac67 9ebc d71b 5c3d
000000c0: 2e08 53bd be40 173d

P.mlps.1.layers.0.bias f4 [50]
-0.0046678605 3.68014e-05 -0.010410004 0.00810827 -0.014559773 0.00045927506 0.000675834 -0.010674804
-0.012096166 0.011435073 -0.0040370277 0.0117495665 -0.0017097438 -0.010456809 -0.012114601 -0.003003372
0.014745652 0.00039803 -0.009924503 -0.008634923 0.009887593 -0.0031887689 -0.0014919246 0.0006358706
0.008794968 0.00911203 -0.015155753 -0.010748033 0.009582727 0.0045849904 -0.0078100436 0.013697179
-0.0039094375 0.004317373 0.013277622 0.006341042 0.012158425 0.010419471 0.001471522 -0.0038959405
-0.012155738 0.011215048 -0.009657637 0.009749717 -0.0006582348 0.0064993054 0.0036802865 0.011154378
-0.014661344 0.01338324
00000000: daf4 98bb 345b 1a38 b98e 2abc 8dd8 043c
00000010: 1d8c 6ebc dbca f039 742a 313a 60e5 2ebc
00000020: ff2e 46bc 2c5a 3b3c 0b49 84bb 4181 403c
00000030: 7b19 e0ba 0953 2bbc 527c 46bc 39d4 44bb
00000040: bf97 713c afae d039 629a 22bc 7e79 0dbc
00000050: 92ff 213c aafa 50bb af8c c3ba 8eb0 263a
00000060: c518 103c a04a 153c d64f 78bc 8518 30bc
00000070: df00 1d3c b03d 963b 65eb ffbb 226a 603c
00000080: bd1a 80bb c078 8d3b 628a 593c 84c8 cf3b
00000090: 2134 473c 6eb6 2a3c 16e0 c03a 0953 7fbb
000000a0: dc28 47bc 52bf 373c 113b 1ebc 47bd 1f3c
000000b0: 648d 2cba 20f8 d43b f630 713b dac0 363c
000000c0: 2236 70bc 6145 5b3c

P.mlps.1.layers.1.weight f4 [50, 50]
-0.21236625 -0.3596834 0.18002497 0.13006486 -0.02931941 -0.009023657 -0.18556769 -0.06366756
-0.023715148 0.065916486 0.05195355 -0.009703459 -0.15611693 0.14635456 -0.13517185 0.06216539
-0.0143972635 -0.060694464 -0.2262988 0.19537345 -0.063241884 -0.06994602 -0.15940471 -0.12881064
0.034612063 -0.029629612 0.045424357 -0.03721155 0.08154324 0.12927926 -0.19302586 -0.15897337
0.07597175 0.16324602 0.115098424 0.081242666 -0.06308742 0.15352099 -0.017207138 0.2621297
-0.14615516 0.07011571 -0.14327878 0.20211855 -0.14381288 0.10358823 -0.08211691 -0.065391675
0.15403017 -0.17052598 -0.151907 -0.12345753 -0.16939116 0.10715523 -0.18967754 -0.13714272
-0.16795659 0.20580873 -0.100747496 -0.035190944 -0.115343414 0.11978091 0.26105377 0.009347928
0.06659869 0.12735523 0.008894263 -0.13336754 0.08193414 -0.024460915 -0.26555339 -0.1260142
0.1428381 0.16163772 0.12607272 0.21702628 0.014846624 0.21770419 -0.09681455 -0.13371885
-0.028316837 -0.1214429 0.09263465 0.3950959 -0.03411124 0.11214366 0.03211923 -0.023172168
0.08567033 -0.082914434 0.32697576 0.14457893 0.042863186 0.07673649 -0.12966253 0.010403679
0.26009715 -0.117861256 -0.07260287 0.19097143 0.09743592 0.09850097 -0.23078622 0.08891966
0.053190675 -0.3011059 0.13329352 0.3191331 0.28405556 0.10329955 -0.07096818 -0.07317274
0.029269714 0.15229835 0.11307813 -0.10951754 0.06609792 -0.20202236 -0.14387858 0.22932646
-0.09601127 -0.31760833 -0.20620605 0.041543175 0.24300006 -0.0012638017 0.06473727 0.013194348
0.10651516 0.0045073247 0.3302293 -0.19168518 0.3223468 -0.2301592 -0.44321102 0.27572712
-0.25503516 0.13410684 0.012826064 0.018000033 0.1255473 -0.04677884 0.09858378 -0.38130644
-0.26779643 0.1875697 0.24379915 -0.05741148 0.08643814 -0.19601662 0.1633583 0.0071785925
-0.0011132667 -0.03969982 -0.2521342 0.2986508 -0.015072436 -0.28254548 -0.14128491 0.23884314
-0.02148897 -0.022163391 0.27400985 0.07702454 -0.030324152 0.089356415 -0.10591453 0.0825189
0.15951785 -0.36211488 -0.16732998 0.01325599 0.09647845 0.07911754 0.041834682 -0.009858956
-0.09947053 -0.3688951 0.039132632 0.10036605 0.13346323 0.08180713 -0.14456467 0.05125138
0.21821238 -0.30439353 0.04814672 0.24380648 -0.004644211 0.16391426 -0.054852005 0.118428886
-0.0400143 0.056764923 0.1213851 -0.025034586 0.20167236 0.25432867 -0.37545803 0.044981096
-0.12230243 0.33166376 0.14498201 -0.11596054 0.35231397 0.010748995 -0.1346005 -0.26539013
0.27452487 -0.35447845 0.070878245 0.08164601 -0.102639206 0.008965785 0.2746551 0.04415179
-0.11945077 0.25298122 0.009536377 -0.06495631 -0.10768918 -0.23827724 -0.013256479 -0.12596451
0.018099878 0.08497786 -0.12936935 -0.0023312976 -0.06996963 0.039465662 -0.17994389 0.011487212
-0.22784127 0.06700356 0.3104408 -0.15104562 -0.06427108 -0.0141041 0.09997343 0.21820179
0.13009797 0.05637015 0.04875754 0.13193722 -0.16208649 0.04577386 -0.06982103 0.28037933
-0.010015882 -0.14525098 -0.022214035 -0.2666855 0.2109184 -0.009432859 0.22236888 -0.028095832
00000000: 8a76 59be 6c28 b8be 7758 383e b92f 053e
00000010: 422f f0bc f6d7 13bc 7505 3ebe 2364 82bd
00000020: 4546 c2bc 39ff 863d 3fcd 543d 42fb 1ebc
00000030: 1edd 1fbe f8dd 153e 7d6a 0abe 23a1 7e3d
00000040: 80e2 6bbc c29a 78bd dfba 67be fa0f 483e
00000050: f684 81bd dc3f 8fbd fd3a 23be f0e6 03be
00000060: 61c5 0d3d cdb9 f2bc e40e 3a3d 236b 18bd
00000070: 2400 a73d c861 043e 92a8 45be eac9 22be
00000080: 1497 9b3d f729 273e b9b8 eb3d 8e62 a63d
00000090: fa33 81bd 9b34 1d3e fcf5 8cbc dd35 863e
000000a0: b3a9 15be d398 8f3d acb7 12be 2af8 4e3e
000000b0: af43 13be 1126 d43d e92c a8bd 12ec 85bd
000000c0: 16ba 1d3e 5d9e 2ebe 828d 1bbe 4dd7 fcbd
000000d0: e074 2dbe 3474 db3d d43a 42be 246f 0cbe
000000e0: d0fc 2bbe 86bf 523e b454 cebd 6124 10bd
000000f0: 2b39 ecbd b24f f53d d7a8 853e 0d28 193c
00000100: e564 883d 6969 023e 3eb9 113c 8091 08be
00000110: 16cd a73d 4262 c8bc 9df6 87be de09 01be
00000120: 2744 123e 5c84 253e 3519 013e 233c 5e3e
00000130: 413f 733c d9ed 5e3e b546 c6bd 98ed 08be
00000140: b6f8 e7bc 0eb7 f8bd 3cb7 bd3d 034a ca3e
00000150: 3ab8 0bbd 93ab e53d 748f 033d 8fd3 bdbc
00000160: ed73 af3d 0bcf a9bd 5e69 a73e 800c 143e
00000170: 4f91 2f3d 0528 9d3d 41c6 04be 3174 2a3c
00000180: 742b 853e 3e61 f1bd d0b0 94bd 048e 433e
00000190: 7c8c c73d e0ba c93d 3953 6cbe 831b b63d
000001a0: 77de 593d 8d2a 9abe 197e 083e 6a65 a33e
000001b0: bb6f 913e b78e d33d c457 91bd 97db 95bd
000001c0: 0ac7 ef3c 19f4 1b3e 8295 e73d bb4a e0bd
000001d0: 595e 873d f3de 4ebe e854 13be 8ed4 6a3e
000001e0: 8fa1 c4bd 8f9d a2be ae27 53be 2d29 2a3d
000001f0: 02d5 783e 26a6 a5ba f994 843d 1b2d 583c
00000200: 9f24 da3d 2eb2 933b d113 a93e 1f49 44be
00000210: a40a a53e daae 6bbe 8eec e2be 1b2c 8d3e
00000220: f893 82be 4e53 093e 6924 523c ce74 933c
00000230: 798f 003e 2b9b 3fbd 4be6 c93d 993a c3be
00000240: 9d1c 89be 4512 403e 7ca6 793e 4d28 6bbd
00000250: 7b06 b13d 95b8 48be 6647 273e 663a eb3b
00000260: 08eb 91ba 479c 22bd bc17 81be c2e8 983e
00000270: 61f2 76bc cda9 90be feac 10be 4c93 743e
00000280: a309 b0bc 0090 b5bc 054b 8c3e 0bbf 9d3d
00000290: 5b6a f8bc 7f00 b73d b8e9 d8bd abff a83d
000002a0: a658 233e 1f67 b9be 8d58 2bbe a72f 593c
000002b0: 7e96 c53d 6008 a23d d85a 2b3d 7587 21bc
000002c0: 35b7 cbbd d2df bcbe 8a49 203d b78c cd3d
000002d0: 96aa 083e 7f8a a73d c308 14be f8ec 513d
000002e0: 1173 5f3e 78d9 9bbe 7f35 453d 68a8 793e
000002f0: 772e 98bb 24d9 273e 7fac 60bd d88a f23d
00000300: 09e6 23bd 5682 683d c098 f83d 5515 cdbc
00000310: 3383 4e3e 5e37 823e 093c c0be 193e 383d
00000320: b279 fabd d5cf a93e 2a76 143e b87c edbd
00000330: 7f62 b43e 8d1c 303c b7d4 09be 37e1 87be
00000340: 868e 8c3e 337e b5be 9d28 913d 0636 a73d
00000350: 8134 d2bd 3ae5 123c 989f 8c3e 82d8 343d
00000360: 9ba2 f4bd c186 813e 773e 1c3c d007 85bd
00000370: 258c dcbd f3fe 73be b431 59bc d7fc 00be
00000380: 3246 943c df08 ae3d 6679 04be afc8 18bb
00000390: 3d4c 8fbd bfa6 213d 3643 38be dc34 3c3c
000003a0: 394f 69be 2a39 893d 19f2 9e3e b4ab 1abe
000003b0: 8ea0 83bd e214 67bc dfbe cc3d 4a70 5f3e
000003c0: 6738 053e 63e4 663d fcb5 473d 8d1a 073e
000003d0: 00fa 25be 5f7d 3b3d 54fe 8ebd e18d 8f3e
000003e0: a719 24bc acbc 14be 35fa b5bc 008b 88be
000003f0: fefa 573e 478c 1abc abb4 633e 3b29 e6bc

P.mlps.1.layers.1.bias f4 [50]
0.011681547 0.00091284036 -0.007654348 -0.000383767 -0.014633144 -0.0066473647 0.0016824404 0.012211296
-0.0040945243 -0.007569153 0.007886021 -0.009835599 -0.007837126 0.010990877 0.0014002373 0.010567924
-0.010424005 0.015402964 0.009314107 -0.0032818245 0.008469434 0.009822478 0.013053012 -0.009381838
-0.010288102 0.01278442 -0.007852862 0.01351862 0.011986127 0.0026197531 -0.009220027 0.0076842955
-0.00847038 -0.008958159 0.0104004955 0.007203101 0.010065825 -0.015557617 0.013158977 0.0022574198
0.010917262 -0.007579264 0.010054326 0.0093344925 -0.0144037455 -0.004939388 0.007116213 0.007045832
-0.0028840024 0.007879735
00000000: f663 3f3c ae4b 6f3a 53d1 fabb 5634 c9b9
00000010: dbbf 6fbc 23d2 d9bb 5585 dc3a e311 483c
00000020: 5c2b 86bb a806 f8bb 5f34 013c 7e25 21bc
00000030: 4a67 00bc 1413 343c 2b88 b73a 1625 2d3c
00000040: 72c9 2abc b75c 7c3c 329a 183c e113 57bb
00000050: 62c3 0a3c 75ee 203c 4ddc 553c 48b6 19bc
00000060: 6d8f 28bc be75 513c 4aa9 00bc 347d 5d3c
00000070: 7661 443c 2ab0 2b3b 990f 17bc 8bcc fb3b
00000080: 59c7 0abc 3ec5 12bc d766 2a3c fe07 ec3b
00000090: 21eb 243c 60e5 7ebc c098 573c 38f1 133b
000000a0: 51de 323c 7a5b f8bb e6ba 243c b3ef 183c
000000b0: b0fd 6bbc 97da a1bb 1f2f e93b b9e0 e63b
000000c0: 8801 3dbb 011a 013c
