output/Burgers_PINN/weight.pth (torch, 45505 bytes, 11 tensors)

nn.layers.0.weight f4 [50, 2]
000000 2a 28 3c 3d ab 07 b2 3e ce 4d 26 be 87 d3 67 be
       0.04593674 0.34771475 -0.16240618 -0.22639285
000010 b0 07 fc bc fd 79 5b bd e9 e4 a7 be b7 49 47 3e
       -0.030765384 -0.053583134 -0.32791832 0.19461714
000020 ea 8b 0d 3e 30 75 3b 3e 9f 11 e7 bd df 94 f9 3e
       0.13822904 0.18306422 -0.11282658 0.48746392
000030 14 c4 9c 3d 43 fe 48 be 30 39 8f 3d 67 bd c4 3e
       0.076545864 -0.19628243 0.069933295 0.38425753
000040 e6 61 1b 3e 3a 24 af 3e 90 99 15 be 15 83 01 3f
       0.15174064 0.34207326 -0.1460936 0.5059064
000050 24 7a 8d 3e b9 8d 91 be 8f 99 96 3e d3 87 f8 bc
       0.27632248 -0.28428438 0.2941403 -0.030338204
000060 9b 61 6a 3e 97 7b 6e bc 5d 8d 88 3d f6 29 b0 3e
       0.22888796 -0.014555833 0.06667588 0.34407014
000070 cb 83 8f bd ea aa 8b be 98 32 ad be b9 71 e1 3e
       -0.070075594 -0.27278835 -0.33827662 0.44032076
000080 3c df 42 3e 03 31 cd be 3b 62 df 3d 88 33 9d be
       0.1903047 -0.40076455 0.10907408 -0.30703378
000090 da 12 9c be 37 9f fe be 04 72 77 be 0e a0 d3 be
       -0.30483133 -0.49730846 -0.24164587 -0.4133305
0000a0 14 a0 1c 3e 20 27 6b 3e d7 48 c3 3d 32 41 3b 3e
       0.1529544 0.22964144 0.095353775 0.18286589
0000b0 7f c5 00 be 1d ea e2 bd d1 01 85 be 30 87 54 bc
       -0.12575339 -0.1107981 -0.25977948 -0.012971684
0000c0 b6 d7 a5 bd 66 6c 12 3d 14 be 1d be a1 fc 2c be
       -0.08097784 0.035747908 -0.1540454 -0.16893245
0000d0 52 ea 21 bc 2d dc 81 be aa 00 88 bd ba 68 16 bf
       -0.0098825265 -0.25363293 -0.06640752 -0.5875355
0000e0 f3 74 cf 3d e9 3c 6d be 18 ff 15 3e 92 b4 ce be
       0.10129728 -0.23167767 0.14648092 -0.4037214
0000f0 aa 00 75 3e d4 34 ac bd 4e 14 00 3e 8f 33 8f 3d
       0.23926035 -0.08408514 0.12507746 0.06992256
000100 5a 6d 00 3e d5 05 26 3f 39 c5 08 3e 4e bd eb 3e
       0.12541714 0.6485265 0.13356484 0.46042866
000110 92 29 b3 3e 62 94 3b 3d 9b 34 81 3d af 77 27 be
       0.34992653 0.045795806 0.06308862 -0.1635425
000120 1a 35 84 be 31 92 03 bf 2a 65 5b be bd 4f 42 be
       -0.25821763 -0.51394945 -0.2142531 -0.1897573
000130 4e 49 03 3d 6e 75 8d be a5 b9 47 be d6 20 ce 3d
       0.03205233 -0.27628654 -0.19504412 0.10064857
000140 4c 18 c8 3e f9 a5 6b 3d cd 77 96 be 23 db 1e 3e
       0.39081037 0.05753133 -0.29388276 0.15513282
000150 24 56 77 be 65 b7 c8 3e e3 e9 0e 3e 41 7d 82 3e
       -0.24153954 0.3920242 0.13956408 0.25486186
000160 07 ff 1b be 2a 48 4a 3d f1 59 37 be 1f dd 39 3e
       -0.15234004 0.049385227 -0.17905404 0.18150757
000170 5b 15 9a bb ca 56 8e 3e 45 a9 6e 3e 1e 1c 36 3d
       -0.004702253 0.2780059 0.23306759 0.04446041
000180 c9 23 b1 3d 4e 3c a0 3d 1a 10 80 3d 32 49 49 be
       0.086494036 0.07824002 0.06253071 -0.19656828

nn.layers.0.bias f4 [50]
000000 6c c8 9e bd d0 5e 8f bd 15 ea 00 bd ed 16 19 bd
       -0.07753071 -0.07000506 -0.031473238 -0.03737538
000010 9e 4e 28 3e 38 b6 d6 3d b5 ea b9 ba da 84 00 be
       0.1643624 0.10483974 -0.0014184328 -0.12550679
000020 7b b7 03 be 03 80 5b 3e 7b 1f 2e be c6 25 e1 bb
       -0.12862961 0.21435551 -0.17004196 -0.006870958
000030 b3 02 fa 3d a3 55 cd bd a2 09 aa 3d a7 b0 5f 3d
       0.12207546 -0.100260995 0.083026186 0.05461183
000040 4f 12 f5 bd 2c 85 4c 3d 95 0c 87 3d 30 82 0c 3e
       -0.11966383 0.04993169 0.06594197 0.13721538
000050 de 6a f2 bb a4 66 49 bd 83 2c 49 3c 60 17 7f bb
       -0.0073979935 -0.04917015 0.012278679 -0.0038923845
000060 b8 f0 47 be 9e f8 71 bd b4 0a b8 3d 9b f4 45 bc
       -0.1952542 -0.05907499 0.089864165 -0.012082244
000070 10 76 cc 3d 60 9a 18 be b3 b5 c2 bb e1 f1 b2 bb
       0.09983456 -0.1490264 -0.0059420704 -0.005460963
000080 d0 1f ac bd 19 c6 2a bd f1 39 25 3c fc 8c 59 3c
       -0.08404505 -0.041692827 0.010084615 0.013278242
000090 e3 f7 4b 3d 1b f4 49 bd 0c 6b 1a be 1e cf d4 bd
       0.04979695 -0.049305063 -0.15079898 -0.10391067
0000a0 8b 46 91 bc dd 2f f5 3d 33 7c 9b 3d 2b b3 fd bd
       -0.017733833 0.1197202 0.075920485 -0.12387689
0000b0 4c 25 f1 bd de 24 31 3d a6 54 32 3e 79 f4 3d be
       -0.11774692 0.04324805 0.17415103 -0.1855029
0000c0 7d 2c 18 3e 89 04 0d be
       0.14860721 -0.13771261

nn.layers.1.weight f4 [50, 50]
000000 4d bc 91 be d7 a4 c7 bd 18 51 43 3e f9 85 e0 be
       -0.28463975 -0.097482376 0.19073904 -0.43852213
000010 a4 e0 be bd 56 4e 92 bc c9 25 6c 3d 39 01 19 be
       -0.093201905 -0.01785962 0.057653222 -0.14941873
000020 36 ac fd 3c 1c 78 ff bd ab be 7e be 37 36 29 be
       0.030965906 -0.12474081 -0.24877422 -0.16524588
000030 75 e5 08 3e 26 47 05 3e 91 3d a9 3d dd c2 6a bc
       0.13368781 0.13015422 0.08263696 -0.014328686
000040 d4 dc c0 bd bb cd b3 bd 29 d7 e7 3e 5b 7a 87 3e
       -0.094171196 -0.08779474 0.45281342 0.26460537
000050 56 5f b7 bd c8 2c b2 be a7 60 9d 3d 39 7b 9f bc
       -0.08953731 -0.3479979 0.076844506 -0.019467937
000060 e0 11 09 3b 51 11 03 bd 0b 25 57 3e c6 57 58 3e
       0.0020915195 -0.031998936 0.21010225 0.21127233
000070 2a 97 92 3d 06 8a 52 bd dc a9 ba 3c ae 05 e1 3d
       0.071577385 -0.05140116 0.022786073 0.109874114
000080 98 e6 2b be f6 3b 63 be 01 a6 25 bd 08 80 1b bd
       -0.16787183 -0.22190842 -0.040441517 -0.037963897
000090 81 4c 9b 3e b4 36 75 3d 4e 22 97 3d 0c 2b 6c bc
       0.30331805 0.059866622 0.0737959 -0.01441456
0000a0 0a 6e d3 bd c3 82 bd bd f5 0e 38 3e 43 51 0c be
       -0.10323723 -0.092534564 0.17974456 -0.13702874
0000b0 d1 3e 64 3e c6 74 1a 3e 0d 3d f6 bd 65 f5 12 be
       0.22289588 0.15083608 -0.12023363 -0.14351423
0000c0 f7 05 e6 bd b1 af d0 3b d7 43 0b be d1 8f d5 3d
       -0.112316065 0.0063686003 -0.13600098 0.104278214
0000d0 89 92 6a bc e4 a8 52 3c 45 66 ca bd 48 da 8b be
       -0.014317163 0.0128576495 -0.098827876 -0.27314973
0000e0 d1 35 33 3d 2e 18 16 3e 64 5c 0e bd b2 1a 3c be
       0.043752495 0.14657661 -0.03475608 -0.18369558
0000f0 29 fa 6e 3e 6d e2 80 bd 59 81 34 3e b2 57 07 3c
       0.23337616 -0.06293187 0.17627467 0.008260654
000100 5f 53 a6 bc 02 bb 03 bc 48 ac cf 3c ee 50 80 3e
       -0.020303426 -0.008040192 0.025350705 0.25061744
000110 f4 24 54 3d 05 f1 77 be df e5 e8 3d b4 a6 cb 3d
       0.051793054 -0.24213035 0.113719694 0.099439055
000120 d4 15 d3 bc 82 6e 5b bd ef 2f 25 3d 00 80 69 3c
       -0.025767244 -0.053572185 0.040328916 0.014251709
000130 63 5b 05 bd 93 b6 96 3e 56 90 fe bd 0d a7 d2 3c
       -0.032557856 0.29436168 -0.12429874 0.025714422
000140 fd 53 93 3c 9f d6 9a 3c 3d e7 02 3e 18 69 8e be
       0.017984385 0.018901167 0.12783523 -0.27814555
000150 31 de 42 be 8a c2 89 3c 57 2d 06 3e 7e a7 af bd
       -0.19030072 0.016816396 0.13103233 -0.085768685
000160 48 9a e8 3c 14 1c d3 bd d5 b8 ad 3d fa 3d 7c bc
       0.02839388 -0.1030809 0.084825195 -0.015395636
000170 15 4c 95 bd f4 fd 35 bd d4 f1 0d bc bf 81 67 3d
       -0.07289902 -0.04443164 -0.008663613 0.05652022
000180 34 72 e4 3d ef 1a e0 3d 24 f7 62 be 31 2d ab 3c
       0.11154595 0.10942637 -0.22164589 0.020895572
000190 6d 3c 34 bb df e7 ff bd ae 5a 7d 3d bc 4f 2a be
       -0.0027501837 -0.12495398 0.061854057 -0.16631979
0001a0 2b d3 58 bd fd f1 10 3e 4f 1a f3 3d f1 e0 94 3d
       -0.05293576 0.14154811 0.11870252 0.07269467
0001b0 ab 65 23 3e 53 14 cc ba 7e be a3 3c 99 37 b6 bd
       0.15956752 -0.0015570022 0.019988295 -0.08897323
0001c0 be 6e 01 be 93 b4 04 3d 23 22 b5 bd 73 56 57 bd
       -0.12639901 0.03239877 -0.08844402 -0.05257268
0001d0 48 9c 45 be 51 39 9d bd 6c fe 19 be fa de b3 bd
       -0.19297898 -0.07676948 -0.1503846 -0.08782764
0001e0 b7 21 6e be 9d df 94 3d df c9 33 be 69 cb d2 3d
       -0.23255049 0.07269213 -0.17557476 0.10292704
0001f0 9b a6 92 3e d2 31 18 be df f9 1c bd 00 65 42 be
       0.28642735 -0.14862755 -0.038324233 -0.18983841
000200 1a ee 7f bc 32 22 4d be 93 86 33 3e 41 05 af 3d
       -0.015620733 -0.20032576 0.17531805 0.08545924
000210 56 2c 5c 3d 40 a0 be bd 9d 45 3e be f1 25 8e be
       0.05375322 -0.09307909 -0.18581243 -0.27763322
000220 ad 99 1b 3d 88 ee 72 be 3d b8 d8 be 29 88 4b 3d
       0.037988354 -0.23723805 -0.42328063 0.0496904
000230 b4 d7 55 3e c7 13 0a 3d b1 27 43 3d 3d d2 27 be
       0.20883065 0.033710267 0.047645275 -0.16388793
000240 43 55 dd bc c2 8f 35 3d 1a 3a 9f bd 3d 68 60 3d
       -0.027018195 0.04432655 -0.07774754 0.05478691
000250 97 0f 06 3e e9 5e a8 be 33 c1 33 be ba c4 8b bd
       0.13091885 -0.3288491 -0.17554168 -0.06824632
000260 e3 70 b9 3d 19 db b8 3d d8 7d 19 bc 27 46 a5 3d
       0.090547346 0.090261646 -0.009368382 0.08070021
000270 82 75 5b be c9 b6 56 be 9d 14 28 3e fb 9c a7 3e
       -0.21431544 -0.20968165 0.16414113 0.32736954
000280 e8 45 75 be cf bb 43 be dc e0 ae bd 24 f0 45 3e
       -0.23952448 -0.19114612 -0.08538982 0.19329888
000290 51 a6 44 bd e9 f3 c5 bd f7 a1 22 be 8a c5 28 bd
       -0.048010174 -0.09665663 -0.15882097 -0.041204013
0002a0 49 7e 98 be d0 6b 30 be 1c 6a 42 bd b6 79 60 3e
       -0.29783848 -0.17228627 -0.047464475 0.21921429
0002b0 95 6f 38 3e e7 b3 53 be 81 f3 27 3e b1 41 b4 3c
       0.18011315 -0.20674096 0.16401483 0.02200398
0002c0 75 bf 93 3d c9 5e 95 be d2 f7 ba 3d f2 cf 81 be
       0.07214252 -0.29173878 0.09129299 -0.25353962
0002d0 b6 d8 89 be c3 ca c2 bd 0f 10 1a 3c c7 b1 2a be
       -0.2692315 -0.0951133 0.009403243 -0.16669379
0002e0 75 b0 7a 3d 29 ea 9f be ee 3a 79 be 6a fb bf bd
       0.06120344 -0.31233338 -0.24338886 -0.09374125
0002f0 0a f5 34 be bb ea cb bd 4e 26 75 be 0e 55 a4 3e
       -0.176716 -0.09956881 -0.23940393 0.32096142
000300 80 87 a9 3d f5 92 95 bc 32 6e 3b 3e 65 2a b6 bd
       0.08277798 -0.018258551 0.18303755 -0.08894805
000310 eb 10 aa bd c5 b1 b4 be df 16 13 be 07 87 f0 bd
       -0.08304008 -0.35291877 -0.14364193 -0.117445044
000320 7a ac af bd 46 91 19 bd c3 87 14 be 6a cc bf bd
       -0.08577819 -0.03749206 -0.14504914 -0.09365161
000330 8e f1 ee 3c cd 6c 8f bd 91 f6 15 3c dc 42 f2 bd
       0.029167917 -0.07003174 0.009153024 -0.11829159
000340 08 83 61 be a6 65 87 3e c3 35 72 bd 9f 01 4b 3e
       -0.2202264 0.2644474 -0.059133302 0.19824837
000350 ef cd 78 bc b6 97 ec 3b 41 9c e3 bc c3 51 dd 3d
       -0.015185817 0.007220234 -0.027784469 0.108066104
000360 a5 49 ba be 0e ce 1e bd f4 d1 a5 3d 59 5c aa 3e
       -0.3638431 -0.038770728 0.08096686 0.3327358
000370 59 ce f6 3d ad c5 cd bd 1f 9b 80 bd 72 27 05 bb
       0.120510764 -0.10047469 -0.06279587 -0.00203177
000380 06 20 8f be a2 52 27 bc f3 5b 8b bd 3f cb 1a 3d
       -0.2795412 -0.010212572 -0.06804647 0.037791487
000390 9f 5f 5e 3d c5 42 29 be d0 4c eb 3d bf 14 af bd
       0.05429041 -0.16529377 0.1148926 -0.08548879
0003a0 22 75 ae 3d fb 9f 08 bd 5e a7 23 be 64 cb 2f 3e
       0.08518435 -0.033355694 -0.15981814 0.17167431
0003b0 40 a5 8b 3d c6 e4 0b bd 34 e4 21 3e 7c 22 78 bd
       0.06818628 -0.034153722 0.15809709 -0.060579762
0003c0 94 9c 2e 3e 10 ac a4 bd 31 59 cb bd e9 e3 b1 be
       0.17051917 -0.08040631 -0.09929121 -0.34744194
0003d0 ba c7 9b be 32 ea 26 3e 93 8a bc 3b a9 11 d2 3d
       -0.30425817 0.16300276 0.005753824 0.10257275
0003e0 79 ce 23 3e ab 1d 0d be f6 0d 28 be ee 56 48 bd
       0.15996732 -0.13780849 -0.16411576 -0.048911028
0003f0 09 a8 a1 b9 51 72 8b 3c 33 90 f5 bd b0 2e a2 be
       -0.0003083351 0.017022284 -0.119903944 -0.31676245

nn.layers.1.bias f4 [50]
000000 83 73 6e 3d ce 70 fb bd c0 20 19 bc bf 76 46 3d
       0.05821563 -0.12277375 -0.009346187 0.04845309
000010 58 03 c0 3d 28 df 39 be d2 80 3d bb b9 f5 b9 3d
       0.09375638 -0.18151534 -0.0028915894 0.09080071
000020 88 db fc bd 29 1a 76 bc 15 0d 63 be 32 56 43 be
       -0.1234656 -0.0150208855 -0.22172959 -0.1907585
000030 7b 38 03 3e c0 f8 04 be 66 29 68 3e 8a ff f2 3d
       0.12814514 -0.12985516 0.22672042 0.118651465
000040 3c bb 70 bd 08 0d 4a bc a7 48 24 be ad 0c e4 3d
       -0.05877231 -0.012332208 -0.1604334 0.1113523
000050 9d 01 82 bc 07 f2 f3 ba ff 86 da bd b0 ab 21 3d
       -0.01586991 -0.0018611558 -0.1067028 0.039470375
000060 f7 a2 6b 3d aa ab 7c bd 89 94 ab bc 8c f4 5b 3d
       0.057528462 -0.06168715 -0.02094485 0.053700015
000070 04 53 8b bd 84 5f 74 3d f6 65 e8 3c 6a b0 da bd
       -0.06802943 0.059661403 0.028368931 -0.106781796
000080 24 70 8a bd 07 c3 9c bc 80 f1 ac bc 7b d2 c0 bb
       -0.067596704 -0.019135965 -0.02111125 -0.005884466
000090 76 3b a4 bd 13 52 9e bd ee 25 52 be ed b0 92 3d
       -0.08019154 -0.07730498 -0.20522282 0.07162652
0000a0 bb eb 31 3d d8 50 9c bd 01 4b bd 3d 59 5f 81 bc
       0.0434377 -0.07632607 0.092428215 -0.015792536
0000b0 e0 32 f5 bd e5 0f 8d bd 81 a9 bc bd d8 63 95 3c
       -0.11972594 -0.06887797 -0.09212018 0.018236086
0000c0 2c 4c b6 3d 3c 51 ed 3d
       0.089012474 0.1158776

nn.layers.2.weight f4 [50, 50]
000000 18 64 90 bc 06 9f 17 3e 06 3a 35 be 2c 24 07 bd
       -0.017625853 0.14806756 -0.17697915 -0.03299348
000010 a3 30 66 3a 0a bf 53 3e 6f 7d e2 bd e4 ff 5d 3d
       0.0008781051 0.20678344 -0.11059081 0.054199114
000020 e3 8c 91 bd 63 51 7b 3e eb 34 f4 bd 8a 9a e1 3d
       -0.0710695 0.24542765 -0.11924156 0.11015804
000030 b7 16 0f be cb f9 0a be d4 3d bd bd 3b 97 cc 3d
       -0.13973509 -0.13571851 -0.092403084 0.099897824
000040 97 6e 25 3d 9c 0c 02 3e 95 ff cd bd e4 19 44 3d
       0.04038867 0.12700123 -0.10058514 0.047876254
000050 83 a0 80 3d 2d 3c 19 3e 7d 20 be 3d 06 ac ef bd
       0.06280615 0.14964361 0.092835404 -0.11702733
000060 5d 6b 84 3e 0c 7a 71 3c c3 bf 27 be 5f 7f 39 be
       0.25863162 0.014738571 -0.16381745 -0.18114994
000070 c1 cb 9a bd 6b 9a 71 bd 0b 74 e5 bc e6 e9 1a 3e
       -0.07558394 -0.058985155 -0.028009435 0.15128288
000080 05 a1 42 be 19 a8 6b be b7 df 21 3e 3b 51 34 3e
       -0.19006737 -0.23013343 0.15807997 0.17609112
000090 6a 1c 98 3d db c0 c5 3b 4e a2 01 3e 99 9c 5a 3e
       0.074272946 0.006034953 0.1265957 0.213488
0000a0 76 2c 81 3d ab 79 ae be cc 1a 64 bd a4 c4 e8 3d
       0.063073084 -0.340772 -0.055689618 0.11365631
0000b0 e9 be 93 be fb 0c 11 bd 00 ca a1 3d 6e 7d 80 bc
       -0.2885659 -0.03541277 0.078998566 -0.01568481
0000c0 b2 af 0a be 3a 9a 84 3d e0 0a 25 3c 0b 43 1f 3e
       -0.13543585 0.06474729 0.010073394 0.15552919
0000d0 93 c4 87 be b9 18 d3 be d6 ba 87 be 4c 08 12 3e
       -0.26517162 -0.412298 -0.26509732 0.14260978
0000e0 b7 9f 9e be db ce bc 3d 69 e9 ac 3e 32 f6 74 bd
       -0.30981228 0.09219142 0.33771828 -0.059805103
0000f0 ed 93 3e bd 83 ef c0 3e ad e1 a9 be 02 70 9e be
       -0.04652779 0.37682733 -0.3317999 -0.3094483
000100 9d 58 3a 3e 97 d7 d9 be 03 e0 64 3e 5e 76 be bc
       0.18197866 -0.42547294 0.22351079 -0.023249801
000110 fb 66 0f 3e a6 24 02 be a5 a1 0d 3b 67 53 87 3d
       0.14004128 -0.12709293 0.002161124 0.066077046
000120 40 f0 4c be 9c 78 56 be b1 23 99 bd f3 c9 aa 3e
       -0.20013523 -0.20944446 -0.07477511 0.333572
000130 52 b4 0f be 94 70 ee bd ae 0c 28 3c 89 60 cf bc
       -0.1403363 -0.11642566 0.010256929 -0.025314586
000140 c4 7c 14 3e e0 ba a2 3e 7f 78 49 3e 2e e8 aa 3e
       0.1450072 0.317832 0.19674872 0.33380264
000150 1d dc 33 3d 54 f9 93 3d d1 64 67 3e 71 c0 50 3e
       0.04391109 0.0722529 0.22597052 0.2038591
000160 da f9 16 3f ff 45 0d be 0c ac 72 be 3e 52 92 3e
       0.58974993 -0.13796233 -0.23698443 0.2857837
000170 51 82 f7 3d 08 f8 90 3d 68 9e 9a 3e 96 7f e7 3c
       0.12085403 0.07078558 0.3019898 0.02825908
000180 f2 04 32 be 2a 22 eb 3d 1d a2 04 3e 50 85 bf 3d
       -0.17384699 0.11481126 0.12952466 0.09351599
000190 4f d8 86 3e 36 88 43 be e3 91 95 3c 94 c1 33 be
       0.26336905 -0.19094929 0.01825804 -0.17554313
0001a0 f7 ff bc 3d 51 4d 59 be a0 f5 02 be ef 2e 0d 3d
       0.09228509 -0.212209 -0.12789011 0.034468587
0001b0 1b 57 5d be b7 36 39 3e 35 83 02 3d 84 46 17 be
       -0.2161526 0.18087278 0.03186341 -0.14772993
0001c0 39 1e 32 3d bf c3 9d 3d d6 8a c2 bc 42 4d 34 3d
       0.043485854 0.07703351 -0.023747843 0.04401899
0001d0 a4 1a 47 3e 2e ca 7d 3d 85 c9 46 3e d8 1b 0b 3b
       0.19443756 0.06196039 0.19412811 0.0021226313
0001e0 49 2e 12 be 11 29 88 be 27 67 b7 3d 68 2d e1 3d
       -0.14275469 -0.2659383 0.089552216 0.10994989
0001f0 0e 4c e0 3d 0b a5 6c 3e d0 d4 53 3e 59 33 0f bd
       0.10952006 0.23109834 0.2068665 -0.03496108
000200 ff b7 4f bc ad 13 c5 3e f3 0d 58 3e 0e b7 9e 39
       -0.012678145 0.38491574 0.21099071 0.00030272495
000210 0e c3 4d be 1e c1 22 39 42 e3 9b bd 4b cd 27 be
       -0.20093939 0.00015521466 -0.07611705 -0.16386907
000220 3c 99 df be 3f 26 a8 3d 44 8b 3d be 0b c7 84 bc
       -0.43671596 0.0821042 -0.18510157 -0.016208192
000230 03 93 73 3e e3 22 8c be 10 1b a4 bc c6 ec 69 be
       0.2378655 -0.27370366 -0.020032436 -0.22844228
000240 c6 54 19 bd 10 4d 96 3d 99 2d 6f be 91 23 19 be
       -0.037434362 0.07338917 -0.23357238 -0.14954974
000250 10 20 2b 3d e9 0d 99 3d 08 91 ed bb 8f ab 9e 3d
       0.041778624 0.07473356 -0.007249955 0.07747566
000260 ad 86 72 bd 70 b1 c8 bc 80 d9 a8 3c c6 88 ac be
       -0.059210468 -0.024498671 0.020611525 -0.336981
000270 54 5d 9b 3e 88 96 ab 3b be c9 bd 3c ba 27 b8 bd
       0.3034464 0.0052364506 0.023167487 -0.08991952
000280 65 ae cc 3b 64 21 6e 3d 22 a2 1e 3e 0c e8 ab 3d
       0.0062463754 0.058137313 0.15491536 0.08393869
000290 97 14 fe 3d ae a6 c7 3d 3c fc 58 3e f0 f0 84 3d
       0.12406271 0.097485885 0.2118997 0.06491268
0002a0 50 93 4c 3e c5 0a 09 3e 81 ad b8 3e 39 05 e0 bd
       0.1997807 0.13383015 0.36069873 -0.10938496
0002b0 d6 1f 18 3e 1c 0f aa 3c 9a c5 a0 bd 97 11 b0 3c
       0.14855894 0.020759158 -0.078501895 0.021492762
0002c0 e9 6f 9a bc 89 80 92 bd 2a d0 ea bc c1 af 8f 3e
       -0.018852191 -0.071534224 -0.028663713 0.28063777
0002d0 51 61 f3 bd b8 50 ca bd 73 70 15 3e f8 56 ec bd
       -0.11883796 -0.09878677 0.14593677 -0.115400255
0002e0 6f 26 0a be b3 41 e5 3d 28 31 9f be 6a 12 bd bd
       -0.13491224 0.11194172 -0.3109219 -0.09232028
0002f0 cc b6 79 3d 30 1a ed bd 6b 8c 04 3d bd 64 5b bd
       0.060965344 -0.115772605 0.032360476 -0.05356287
000300 15 5c 41 bd a7 87 44 3e ee 65 85 3d 7c 49 a5 3e
       -0.047206957 0.19192372 0.06513582 0.32282627
000310 f2 27 2e 3d 76 a6 14 3c a3 f6 29 bd 62 d4 2d be
       0.042518564 0.0090728905 -0.041494977 -0.16975549
000320 61 31 1f be 65 9d 4c 3e 0d 1b 46 3d 57 45 0c 3e
       -0.1554618 0.19981916 0.04836564 0.13698326
000330 a4 f2 9c bd b8 e8 a5 3e c7 a5 be 3d 80 41 ca 3d
       -0.076634675 0.32404113 0.09308963 0.098757744
000340 b9 22 3b be b1 48 0a 3d e5 ab 8d 3d 71 df e2 bd
       -0.18274964 0.03376073 0.06917552 -0.11077774
000350 42 62 c6 bd fd 60 7c bc 31 b4 f9 bd 1d fd 15 3e
       -0.0968671 -0.015403983 -0.12192572 0.14647336
000360 90 c3 cb 3c 1f 2f 51 be 3f 46 c9 bd 00 42 18 be
       0.024873525 -0.20428132 -0.098278515 -0.14868927
000370 e2 3a 8f bc 14 a3 3e 3d 1c 41 29 bd c1 9d 05 3e
       -0.017484132 0.046542242 -0.04132186 0.1304846
000380 82 18 58 3d a7 0c fb 3d 3f 08 63 bd bc 9d ac 3d
       0.052757747 0.122582726 -0.055427786 0.08428523
000390 60 81 27 bd 75 0d 32 3e 8e 72 68 3d 79 c0 2f 3e
       -0.040894866 0.17387946 0.056749873 0.17163266
0003a0 39 17 2c 3e 68 da 30 3e f4 fb 2b 3d de df 6a be
       0.16805734 0.17270815 0.041988328 -0.22936961
0003b0 d2 5f 5b 3e b9 a8 0f 3e 31 8e 97 bd 91 91 92 be
       0.21423271 0.14029206 -0.07400168 -0.28626683
0003c0 f9 e4 32 3e 5e f6 cc 3d 8d 5d 39 be 8f 8b 0f be
       0.17470159 0.10007928 -0.18102093 -0.14018081
0003d0 17 05 16 3e 90 38 73 be 21 6b b8 bc de c0 78 bd
       0.14650379 -0.23752046 -0.02251202 -0.060730807
0003e0 d7 4f a6 bd fa 28 aa bd a8 48 93 be 45 3c 2a 3e
       -0.08120697 -0.08308597 -0.2876637 0.16624554
0003f0 2b 53 8f 3c 78 2b 23 3c 50 fb 82 bd 0a 0e 52 bc
       0.017495712 0.009959094 -0.0639559 -0.01282073

nn.layers.2.bias f4 [50]
000000 68 4a 42 bb 69 ef 43 be 2d c4 1f 3d b0 c1 ca 3c
       -0.00296464 -0.19134296 0.039005447 0.02475056
000010 93 a3 49 bb 87 2b 2d 3d ec 3e b3 3d 01 81 c5 3d
       -0.0030767664 0.04227784 0.08752236 0.09643746
000020 9b 2d 0e 3c e3 fe ba 3c d7 ce a9 bb 10 8c 8f bd
       0.008677865 0.022826618 -0.005182128 -0.07009137
000030 4c b8 9d bd c1 e0 bd bc 36 f1 c3 3a 92 d4 23 3d
       -0.077011675 -0.02317846 0.0014949206 0.039997645
000040 f7 00 ed 3d 3d 80 f3 3c a8 3f 8a 3a d4 26 d0 bc
       0.1157245 0.029724235 0.0010547535 -0.02540914
000050 b9 f0 84 38 9d 85 c5 3c 77 fb cf 3c 1c 23 cd 3c
       6.3390886e-05 0.024111563 0.025388462 0.025041156
000060 c7 34 7d 3d 58 a8 9f 3c d8 fc 0e 3e ff e3 cd 3d
       0.06181791 0.019489452 0.1396364 0.100532524
000070 90 17 a0 bd 36 67 61 3d 85 46 67 3c 78 b0 32 3d
       -0.07816994 0.05503007 0.014115934 0.043625325
000080 90 6a 0d be ef 89 5f 3d 2f c8 2b bd c2 a7 03 bd
       -0.13810182 0.054574903 -0.041938957 -0.03214241
000090 64 a2 3e 3c 1b 39 fe bb 90 b3 82 b9 cd 7a 22 bd
       0.011635397 -0.0077582723 -0.00024929317 -0.039667893
0000a0 c8 89 e7 3d fc 86 c5 bd 67 e2 c9 bd 3d 3f 78 3d
       0.113055766 -0.09644887 -0.09857636 0.060607184
0000b0 08 04 f4 3c e1 0f 7f bc eb 9d e2 3c 50 41 52 3d
       0.029787078 -0.015567751 0.027663192 0.051331818
0000c0 28 e7 ed bc d7 37 b8 bd
       -0.029040888 -0.089950256

nn.layers.3.weight f4 [50, 50]
000000 08 e3 36 bd 51 4c 0b be 18 ea 94 bd a2 ad 63 3d
       -0.044650108 -0.13603331 -0.07271212 0.05558551
000010 eb 9b ca 3d d1 23 ff 3e 2c 3b ad bd b2 a8 9c 3d
       0.0989302 0.49832013 -0.08458552 0.076493636
000020 b0 ec 87 be bf d0 4e 3e a3 11 07 3e c1 3c 87 bc
       -0.26547766 0.20196818 0.13190322 -0.016508462
000030 db ed fc 3c db eb 50 3d 1e 33 94 bc 55 3a 56 3d
       0.030875137 0.05100618 -0.01809078 0.052301724
000040 c6 02 e6 3d 9d 48 f2 be d0 82 14 be b2 99 85 3d
       0.11230998 -0.47321025 -0.14503026 0.06523456
000050 2a 22 b1 3e 58 0c ac bd b1 b4 ee 3d 5e e3 4a be
       0.34596378 -0.08400792 0.11655558 -0.19813296
000060 eb 6c be bd 8a cb 50 be 70 b1 56 3d 9b 17 0b 3e
       -0.09298118 -0.20390144 0.05241531 0.13583224
000070 c3 69 7a 3e 05 83 36 3d c3 37 1e be 24 8c 8a bd
       0.24454407 0.044558544 -0.15450959 -0.06765011
000080 d9 e0 a3 3e e6 d4 61 be 2e c9 97 3c 1f 19 41 3e
       0.32007483 -0.2205387 0.018528547 0.18857239
000090 0a 12 15 3e 73 11 5d bd a0 9a dd 3b c0 64 55 3e
       0.14557663 -0.05397172 0.0067628175 0.20839214
0000a0 87 e1 d1 be 5d 5e 00 3e 0f 56 ef 3d 8c 2b d7 3c
       -0.40992376 0.12535997 0.11686336 0.026265882
0000b0 36 0b 12 3e 7e 93 25 3e 68 47 16 3e 20 c7 6e be
       0.14262089 0.16169545 0.14675677 -0.23318148
0000c0 ee 8c 4e 3e 53 0c d6 3e df e9 70 be 56 67 73 3e
       0.20170948 0.41806278 -0.23526715 0.23769888
0000d0 63 34 e8 bd 1e c9 99 3e 60 de 16 3c 70 fb 79 be
       -0.11338117 0.30036253 0.009208292 -0.24412322
0000e0 00 ed 0b 3d 74 c4 93 be c2 e4 b4 bc f8 cd 6f 3e
       0.034161568 -0.2886082 -0.022081736 0.23418415
0000f0 bc 92 21 be 8c 7d 25 be 2e 30 ba 3b 49 cb 0d 3d
       -0.15778631 -0.16161174 0.005682013 0.034617696
000100 dd 7f 3e bd 37 ec 68 3c dd 10 39 be 82 8d a7 bd
       -0.04650866 0.014216474 -0.18072839 -0.08181287
000110 69 1c f0 bd 97 8a 95 3e 60 b8 09 3e 99 a1 73 3c
       -0.11724169 0.29207298 0.1344924 0.014870071
000120 6f 87 dc bd 46 05 59 be f4 d7 74 3d 0d 41 fb bb
       -0.107680194 -0.21193418 0.05977626 -0.0076676668
000130 d8 08 7c 3d 79 43 07 be 2c 81 20 3e aa a0 46 bd
       0.06153187 -0.13209333 0.15674275 -0.048493065
000140 32 6c f4 3d 2d f7 51 be e1 86 36 bd 81 f2 3b be
       0.11934699 -0.20504446 -0.044562224 -0.18354227
000150 8c 06 df bc bf 77 4a bd 3a 68 19 3e af fc 84 bd
       -0.027224801 -0.049430605 0.14981166 -0.06493508
000160 ae f3 3b bd fa 9d 3a 3e 3b 62 a8 3c 79 0d cb 3c
       -0.045886688 0.18224326 0.020554652 0.024786698
000170 92 4f 10 be a0 43 88 3e 01 8f 92 bd 5f 50 29 3c
       -0.14092854 0.26614094 -0.07156182 0.010334103
000180 32 f7 d6 3d 94 e6 4e be 31 cb 78 3e e1 2e c1 3d
       0.104963675 -0.20205146 0.24296261 0.094327696
000190 80 ff 22 be d2 20 06 3e e6 42 85 be 02 e9 f0 3d
       -0.15917778 0.13098457 -0.26027602 0.11763193
0001a0 da c9 c4 bd 98 2d 10 3e 11 41 9e 3a 6d af 00 3e
       -0.09608813 0.14079893 0.0012073835 0.1256692
0001b0 3c 99 7c be eb 99 c8 bd d3 43 bf bd 09 e5 75 3d
       -0.2466783 -0.097949825 -0.09339108 0.060032878
0001c0 d5 36 2e be ce ee e0 bc 2a 8e 4c 3d b3 30 e4 3c
       -0.17013104 -0.027457621 0.049940266 0.027855253
0001d0 a3 05 ad 3e 85 b1 16 3d a4 d7 06 3e db 19 91 bd
       0.33793363 0.03679039 0.13168198 -0.0708501
0001e0 a9 ee a0 3e 34 e2 36 be dd 4e 83 3d 98 61 2a be
       0.31432083 -0.17859727 0.06411526 -0.16638792
0001f0 c5 ed 0b be 2d ab bb bd a2 9d 83 be 94 3b 3a 3d
       -0.1366492 -0.091635086 -0.25706202 0.045466974
000200 32 36 52 bd 96 0f ec 3d a2 81 9a 3e 61 2d b0 bd
       -0.051321216 0.1152641 0.30177027 -0.08602405
000210 b7 4b 87 3e c7 b3 ee bd 9e 0c 92 3d 3e 79 b0 3e
       0.26424953 -0.116553836 0.07131313 0.344675
000220 a7 c0 5d 3c aa c0 12 3e 95 78 95 be 0a 0b 51 3e
       0.013534701 0.14331308 -0.2919356 0.20414367
000230 34 07 ae bd fc e1 1d 3d 57 7c 3e 3e c7 29 07 3d
       -0.08497468 0.038545594 0.1860212 0.032998826
000240 c8 0c 42 bc 70 30 11 be 31 a3 76 3d 7b 03 47 be
       -0.011843868 -0.14178634 0.060214225 -0.19434921
000250 5e 79 a1 be e1 a9 aa bd fa 5a 3c 3e 82 96 a6 3e
       -0.31537908 -0.08333183 0.1839408 0.32536703
000260 2f a6 0e bd 6b 9b 82 3c 00 1f 7b be 3a 4d 16 bd
       -0.034826454 0.01594325 -0.24523544 -0.036694743
000270 a1 bf ec bd b3 60 98 bd 2e b4 41 3e 8b 1b c8 bd
       -0.11559988 -0.07440319 0.1891639 -0.097708784
000280 a5 e9 86 3d 07 45 21 be df 74 8d 3e de 20 7c 3e
       0.06587533 -0.15748988 0.27628228 0.24621913
000290 25 8f 07 bd 44 1e 25 3e 16 af 91 3e 63 0d 8a bd
       -0.033095498 0.16124827 0.28453892 -0.067408346
0002a0 00 d3 45 be bc 60 ee bd 90 0b 27 3d d2 ad 90 bc
       -0.19318771 -0.11639544 0.04078251 -0.017661009
0002b0 50 06 47 be fd 43 37 be 53 fa 64 bd 95 3e 8f 3e
       -0.19436002 -0.17897029 -0.05590279 0.27977434
0002c0 e0 40 b1 3d 0c c6 69 bd b3 38 98 be 54 94 3e 3d
       0.08654952 -0.057073638 -0.29730758 0.046528175
0002d0 8e 38 c6 bc 16 28 f0 be c3 b0 2f bb 2c 70 80 bc
       -0.02419689 -0.46905583 -0.002680824 -0.015678488
0002e0 c1 b2 ff 3d 1d ee 42 3b a4 e7 6c 3e 0c 10 9a bd
       0.124852665 0.0029743977 0.23135239 -0.07522592
0002f0 d7 e7 d0 3c 5d 55 2c 3e 9c aa b5 3d d5 ae 1f 3c
       0.025501175 0.16829439 0.08870432 0.009746273
000300 fd 7d 08 be a6 14 da bd f2 15 64 3e 1e 05 63 bd
       -0.1332931 -0.106484696 0.22273996 -0.055424802
000310 21 a3 84 be 59 86 3b be cb c9 18 3d b8 d2 07 bc
       -0.25905707 -0.18312968 0.03730182 -0.008289985
000320 ac 72 37 3d 2a 49 2e 3e 2b 02 b5 bd a3 3f d2 3d
       0.044787094 0.17020097 -0.08838304 0.10266044
000330 de 85 0d 3d 67 37 30 be 19 4a 3b be 4a 8c cf 3c
       0.034551494 -0.17208634 -0.18289985 0.02533545
000340 26 0b 88 3e 60 86 2f be e7 4c 5c 3d 24 13 b5 3d
       0.26571006 -0.17141104 0.053784277 0.088415414
000350 02 e8 0f 3e 9d 49 ee bd 09 91 4c be 14 7e 19 bd
       0.14053348 -0.11635134 -0.19977202 -0.037473753
000360 7c 56 1f be ce ff 09 bc 5f 88 fb bd a1 18 e6 bd
       -0.15560335 -0.008422805 -0.1228187 -0.11235166
000370 45 db 75 3e 40 66 a1 3d 0a a7 4c 3d 54 b3 f2 3d
       0.24009426 0.07880831 0.04996399 0.118506104
000380 59 d2 06 be ce 95 95 3c 14 c1 78 3e dd 49 32 bc
       -0.13166179 0.018259909 0.24292403 -0.010881868
000390 ef 04 b6 3e 59 9e ef 3d bb 6c d7 bd 73 2c 2c 3d
       0.3555064 0.11700124 -0.105187856 0.042034578
0003a0 ab 4e 3a 3e af 5e db bd 51 92 14 be b7 43 5c bd
       0.18194072 -0.10711419 -0.1450894 -0.053775515
0003b0 00 2d e9 3d bc ed 70 3d 5c 42 ab bd 2e b9 05 3d
       0.11385536 0.05882047 -0.083622664 0.032647304
0003c0 9f 06 5d be 0c 55 42 be 8c 5c c7 3d b2 2c 98 3e
       -0.21584557 -0.18977755 0.09734449 0.297216
0003d0 e1 63 03 bd 92 7d 40 3e d4 73 9f bd 8f f6 7f be
       -0.032077674 0.18797901 -0.07785764 -0.24996398
0003e0 b2 01 f4 3d aa 57 82 3d 20 ab a5 bd 77 a5 56 3e
       0.11914386 0.06364377 -0.0808928 0.20961557
0003f0 6c f8 ad bc 1e 17 62 be ce b0 c8 bd 88 e1 22 be
       -0.02123662 -0.22079131 -0.09799348 -0.15906346

nn.layers.3.bias f4 [50]
000000 b2 bb cf bd 4a 99 f2 bc a8 87 97 bc 60 fc 93 bc
       -0.10143222 -0.02961411 -0.018497303 -0.018064678
000010 c8 69 b7 3c f2 55 8c bc 3e 3a 22 3e e6 0c 01 bd
       0.022389308 -0.017130826 0.1584253 -0.03150644
000020 18 9b aa bb 48 19 3e 3d b7 49 35 bd d1 17 81 bd
       -0.005206477 0.04641083 -0.044259753 -0.06303371
000030 ab 01 95 3c de bc 17 3c 0a 42 1e 3c 0c 40 4a bc
       0.018189272 0.009261338 0.0096593 -0.0123443715
000040 34 55 67 3c 8d 05 34 3c 3b 30 4f ba fd f7 63 3d
       0.014119435 0.010987652 -0.000790361 0.055656422
000050 15 6b 23 3c 1e ed b9 3c 32 17 c6 3c 8b 15 bf bc
       0.009974261 0.022696074 0.024180982 -0.023325702
000060 44 2b 4d bd 5e aa a5 bd e0 70 73 bc 29 38 a6 bd
       -0.05009009 -0.080891356 -0.0148584545 -0.081161804
000070 82 17 60 3d cb 7d f3 3c 08 4a 50 3b 00 bf 90 bc
       0.05470992 0.029723069 0.0031782407 -0.0176692
000080 5c f2 15 3d 79 e4 e7 bc 39 46 0a 3e a8 98 ee 3b
       0.036608085 -0.028307186 0.1350335 0.0072813816
000090 7a 0b bf bd fd 20 88 3d 35 b2 89 bc 6c 3f de 3b
       -0.09328361 0.06646917 -0.016808609 0.006782463
0000a0 9b 5a 52 ba ac be 37 bd 6e ca a0 3b bf e6 b1 3c
       -0.00080243655 -0.044859573 0.004906944 0.021716474
0000b0 96 ac 22 bc bd 1a c4 ba b1 1c 9e 3c b9 58 82 3b
       -0.009928843 -0.0014961582 0.01930079 0.0039778617
0000c0 df fc eb bc 69 d5 85 3d
       -0.028807102 0.065348454

nn.layers.4.weight f4 [50, 50]
000000 c2 03 ee 3d 91 3f 59 bd 22 de 0c be 1c 9a 8f 3e
       0.116218105 -0.053039137 -0.13756612 0.28047264
000010 00 30 e8 bd 36 31 03 3d f2 86 31 bd 18 a3 83 bc
       -0.1133728 0.032029353 -0.043341585 -0.01606898
000020 31 20 20 3e be cc e1 3d ee 82 02 bc 69 f8 1f be
       0.1563728 0.110253796 -0.007965786 -0.15622105
000030 d6 b3 22 bd fd a1 9f 3d 7a 2d 5d 3c fe 91 1c 3e
       -0.039722286 0.07794569 0.013499612 0.15290067
000040 70 a2 2f 3d e0 ba 20 3e 18 33 a9 be 32 90 39 bc
       0.04287952 0.15696287 -0.33046794 -0.011325883
000050 d5 f9 1b be 8b 89 94 be a0 04 d0 bd 20 24 75 3b
       -0.15232022 -0.29011187 -0.10157132 0.0037405565
000060 2d 7a bb 3c b0 7e 28 be 6c ed aa 3c 5f da c1 bd
       0.022885406 -0.16454577 0.020865165 -0.09465479
000070 9c d6 d8 3b 16 c8 86 3d 55 5d e6 bd e3 64 5a 3e
       0.0066173803 0.06581132 -0.112482704 0.21327548
000080 f9 a0 60 be 87 44 f3 3d 77 c2 c2 3d db 1c 53 3e
       -0.21936406 0.11878305 0.095097475 0.20616476
000090 1b 65 76 bc ee c8 24 3d 21 b5 50 bd d9 e1 bf bd
       -0.015038754 0.040230684 -0.050953988 -0.09369249
0000a0 bd 65 22 3e e7 e6 3d 3d bc 2f 48 3e 17 8a 46 3e
       0.15859123 0.046362784 0.19549459 0.19388615
0000b0 23 6a 0c 3d 70 8c 4b be 08 03 bb bc 1f 78 ad bc
       0.034280907 -0.19877791 -0.022828594 -0.021175442
0000c0 25 1b 28 bb 90 89 9e be 2e 39 b6 bd 98 2e 24 3d
       -0.0025650945 -0.30964327 -0.08897625 0.040083498
0000d0 22 ff cd bc 88 22 eb 3c 14 a7 91 bd 6f 10 cf bd
       -0.02514607 0.02870299 -0.07111946 -0.10110556
0000e0 fe 74 a8 bd 82 d7 8b 3c 8a 05 be 3c 4b 48 7a be
       -0.082254395 0.017070536 0.023196 -0.2444164
0000f0 75 cc 9e bd 52 9d b9 3d 5f e2 69 bd 7d c0 cb bd
       -0.07753841 0.090632096 -0.05710065 -0.099488236
000100 4c bf 87 3e 83 14 15 3e 7b 1b cb 3c a5 94 3d bd
       0.26513135 0.14558606 0.024793377 -0.046284337
000110 07 f0 e4 bd f5 f8 c4 3d ee da 59 3e 02 19 65 bd
       -0.11178594 0.09617797 0.21274921 -0.055932052
000120 30 ad e3 bc 1d 11 8a 3c 52 24 36 bd 46 7e a1 3d
       -0.027792543 0.016853863 -0.04446823 0.07885413
000130 fc 48 ad 3d f1 a3 27 bc 02 2a dd 3e 9f 83 8c 3c
       0.08461186 -0.010231958 0.43196112 0.017152606
000140 61 36 b5 3d 15 8a 2a be b8 37 c3 ba 87 85 2f be
       0.088482626 -0.16654237 -0.0014893925 -0.1714078
000150 49 b7 90 3c 7e 11 63 3e 90 f9 2e 3d ec 6a 8e bc
       0.017665522 0.22174641 0.04271847 -0.017384969
000160 de da 18 3e e9 f0 c9 bd 28 2e f9 3d eb f2 51 bc
       0.14927241 -0.09860403 0.12167007 -0.012814264
000170 72 16 a4 be 70 68 5e be 94 0c 23 3e fd fb 68 bd
       -0.32048374 -0.21719527 0.15922767 -0.05688094
000180 f4 91 42 3e 0d 3f 6d 3e 17 ac 56 be b7 a0 96 bc
       0.19000989 0.23168583 -0.20964085 -0.018387182
000190 54 79 a1 3e f8 ec 1f bd 61 03 97 bd f9 75 30 be
       0.3153788 -0.03904435 -0.07373691 -0.17232503
0001a0 22 15 97 bd d7 25 d0 bd 29 81 17 bd 4a b8 b8 3d
       -0.07377078 -0.101634674 -0.03698841 0.09019525
0001b0 00 5e 8d bd 2c 21 30 3b ff 1c 0a 3d 35 f8 87 be
       -0.06902695 0.002687524 0.03371906 -0.26556554
0001c0 34 cd f9 3d 04 47 24 be 46 a8 e2 bc 24 db d8 3c
       0.121973425 -0.16042715 -0.02766813 0.026471682
0001d0 73 f9 8b be 75 95 41 be 5b 14 6c bd 48 c7 34 be
       -0.27338752 -0.1890467 -0.0576366 -0.17654145
0001e0 b4 7a 93 bd a6 fb 02 3b 87 bc 20 3e 81 1f 29 be
       -0.07201138 0.001998642 0.15696917 -0.16515924
0001f0 64 eb 43 3e 25 38 98 be 48 00 0c 3e ff bd 57 3c
       0.19132763 -0.29730335 0.13671982 0.013167857
000200 bc 66 27 bd 62 21 d4 bd f3 f5 af 3e 57 03 b2 bc
       -0.04086946 -0.1035793 0.34367332 -0.021730108
000210 5d d6 8b 3d 93 2a 9c be 24 a8 14 bc fe 08 7c be
       0.06827996 -0.30501232 -0.009073291 -0.24612805
000220 dd 9b 99 3d 7c 2b 67 3d 96 b0 c4 3d df 42 8a be
       0.07500432 0.056437954 0.096039936 -0.27004144
000230 d2 fe 68 be 27 df 43 be 73 6e e3 3e 2a 05 c8 be
       -0.22753456 -0.19128095 0.44420204 -0.3906644
000240 69 4e 22 3e 75 b5 9b 3c 9b 3c 5d 3d e6 13 aa 3d
       0.15850224 0.019007424 0.054012876 0.083045766
000250 df f4 b7 bd d8 53 85 be ee b2 8b bc 01 a3 06 3e
       -0.08982252 -0.2604053 -0.017053094 0.13148119
000260 b3 fe 27 be f8 5d fa bb 14 63 8b 3d 72 fb 0f 3e
       -0.16405754 -0.0076405965 0.06806007 0.14060763
000270 75 00 76 3e 68 64 06 be 06 85 86 3c 02 65 9e 3d
       0.24023612 -0.1312424 0.016420852 0.077341095
000280 97 3b d0 bd 05 8d 8b 3e 18 01 9a bd 48 c2 93 bd
       -0.10167616 0.27256027 -0.0751974 -0.072147906
000290 87 63 23 3e 55 a4 76 3e 60 01 dc bd d4 46 ea 3d
       0.15955935 0.24086125 -0.1074245 0.11439291
0002a0 c6 4c 3a 3e 17 73 c9 3e 88 ed 1f bd a7 43 4c 3e
       0.18193349 0.3934562 -0.039044887 0.19947682
0002b0 cd e3 22 3e 3d 32 7f 3d ee 89 35 be 81 72 79 3d
       0.15907212 0.06230377 -0.17728397 0.060900215
0002c0 71 d6 72 3e 44 bf 81 3d d0 c4 82 be be 53 ca bd
       0.23714615 0.06335309 -0.2554078 -0.09879254
0002d0 ca 70 d1 3d e5 b0 06 3e ee 0b 0d be 45 6c 97 bd
       0.10226591 0.13153417 -0.13774082 -0.07393698
0002e0 05 7b 24 3e 9e fa 90 3e a4 b4 64 bd 01 53 2f be
       0.16062553 0.28316206 -0.055836335 -0.17121507
0002f0 8b 11 60 bd 74 ff 44 bd 9b 7a e5 bd 28 c0 42 3e
       -0.05470423 -0.04809518 -0.11205026 0.19018614
000300 92 c9 a4 bb c2 96 b2 bd 92 a3 c3 3d 82 0b 78 3d
       -0.005028912 -0.08720161 0.09552683 0.06055785
000310 c8 e2 91 3d 53 c4 88 3c 6c ba a5 3d c2 7c 95 3e
       0.07123333 0.016695177 0.08092198 0.29196745
000320 19 cb 0e 3e 6c 08 c7 3c b3 3d 81 3d 39 9b c7 bd
       0.13944663 0.024296008 0.06310596 -0.09746403
000330 da 42 f4 bd 1d 6e 9d be 8d cb 1b 3e 5a d9 db bd
       -0.119268134 -0.30748072 0.15214367 -0.10734816
000340 89 5f c5 3c 9a d9 c7 bd b0 5e e4 bc 01 5a 60 3d
       0.024093406 -0.09758301 -0.027877182 0.054773334
000350 55 17 97 bc 84 08 e8 3c 07 b9 22 be 7a a0 94 3d
       -0.018443743 0.028324373 -0.15890895 0.07257171
000360 57 c8 ff 3d 2b ec 6c 3e 2e 33 9b 3e 73 47 f4 bd
       0.12489384 0.23136966 0.30312485 -0.1192769
000370 c2 27 0d bd 11 85 45 3e 04 91 18 3d 8a f1 85 bd
       -0.034461744 0.19289042 0.037247673 -0.065402105
000380 13 16 ed bc 8b b9 08 3e 9b 8b 0c bd d7 fe 75 bd
       -0.02894119 0.13352029 -0.034312826 -0.060057487
000390 d5 d0 94 3d 16 7d a5 3e 5b dc 96 3d fa 2c 80 be
       0.07266394 0.32321995 0.07366248 -0.25034314
0003a0 73 26 31 bd 1d 06 b6 bc 44 20 c4 bd 04 e5 2a 3e
       -0.04324956 -0.022219712 -0.09576467 0.16688925
0003b0 fb 8c 13 bd 04 05 ee bd 55 7f ec bd 30 a1 2c 3c
       -0.03602312 -0.116220504 -0.11547724 0.010536477
0003c0 83 2e d8 bd cf 0d e4 3d 3c 6d b8 bd c9 e6 73 3e
       -0.105557464 0.11135446 -0.0900521 0.23818506
0003d0 85 55 5b 3e 88 5a 78 be cc 76 59 bd c1 ff ca bd
       0.21419342 -0.24253285 -0.05309181 -0.099120624
0003e0 06 98 22 3e 51 03 0e 3e c3 ce 4b 3e 60 1a 0d 3e
       0.15878305 0.13868453 0.19903092 0.13779593
0003f0 43 be 85 3d 82 df 86 3c d2 a8 82 bd 10 8b e7 3d
       0.0653043 0.016463999 -0.06379856 0.11305821

nn.layers.4.bias f4 [50]
000000 55 da 3b bc 15 ff 50 bb c5 24 34 bd f3 91 94 bb
       -0.011465629 -0.0031890322 -0.04398038 -0.004534
000010 ba f0 45 3c 57 5a b3 bb 7a f0 4a 3a d8 00 11 3c
       0.0120813195 -0.005473416 0.0007741522 0.008850299
000020 02 01 be bb 4c bb 80 3c 10 b3 60 3b 91 7c 67 bc
       -0.00579846 0.01571431 0.0034286417 -0.01412882
000030 37 49 93 bb 7e 99 78 bc 9f b6 23 3c 4c 15 73 bc
       -0.004494812 -0.015173314 0.009992271 -0.014836621
000040 9b 92 ca bc 77 9e 34 bb 5f ff ab 3c ec 53 f1 bc
       -0.02472811 -0.0027560273 0.020995794 -0.029458962
000050 b7 37 22 3d 8c 07 c3 3b c0 52 23 3c 81 b2 8e bc
       0.039603915 0.0059518274 0.00996846 -0.017419102
000060 b9 47 d3 bc 14 4b a5 ba 43 1a 91 3b 65 73 9b bb
       -0.025791036 -0.0012610876 0.0044281795 -0.0047439807
000070 df 89 b4 bb ed fb 67 bc 7f 26 7e bb 1f a9 04 3c
       -0.0055095996 -0.014159185 -0.003878027 0.008096962
000080 d3 83 f5 bc d8 6d fd bc 73 42 10 bc 91 48 fd bb
       -0.029970085 -0.030936167 -0.008804905 -0.007729598
000090 9c 12 02 3b c8 38 0f 3c 5f 7d 49 bc 13 0b 09 bc
       0.0019847518 0.008741565 -0.012297957 -0.008364457
0000a0 6c 70 87 bb 74 d2 9e bc 17 99 d0 bc ae 96 12 bd
       -0.004133275 -0.019387461 -0.025463624 -0.03578823
0000b0 06 f8 2d 3c 24 db 16 3c 35 35 31 3c 9f b4 c0 3a
       0.010618215 0.009207521 0.010815908 0.0014702267
0000c0 49 db 89 3b 12 47 2b bc
       0.004207049 -0.010453956

nn.layers.5.weight f4 [1, 50]
000000 12 98 ac 3e 9c ce 99 3e ce 6a 99 3c f2 49 fe bc
       0.3370977 0.30040443 0.018727686 -0.03104112
000010 43 60 1b bd 9e 81 2a 3e 6c c6 a3 3e 25 df 53 3e
       -0.0379336 0.16651008 0.3198732 0.20690592
000020 2a e6 5b be ec f2 39 3c cd aa 90 3e 37 89 aa 3d
       -0.2147452 0.011349421 0.2825531 0.08326953
000030 f7 57 ac 3e 95 a6 f9 3d ca a5 17 be aa cb 26 3e
       0.33660862 0.12189976 -0.14809337 0.16288629
000040 0e e2 19 bf 92 8d 1b be 01 c8 3b be 26 6a fc 3e
       -0.6011056 -0.15190724 -0.18338014 0.49299735
000050 06 20 b3 3e bf d3 ee 3e de a8 2f be 07 f8 91 3d
       0.3498537 0.46645924 -0.17154261 0.071273856
000060 37 2f c5 be 2a ad 96 be 91 c8 79 bc ae 9e 81 3d
       -0.38512585 -0.2942899 -0.015245573 0.06329094
000070 f2 6a 9d be 8c 9d 55 3e 4a 4f 5d 3e 78 89 b3 3e
       -0.30745655 0.2086088 0.21612278 0.35065818
000080 8e 94 68 be c9 24 c5 be 3d 16 8f bc 88 7e fd 3c
       -0.22712919 -0.38504627 -0.017466659 0.030944124
000090 15 10 80 3d d2 5e 45 3e ab 06 93 3e 37 72 c3 3e
       0.062530674 0.19274452 0.28716025 0.38173077
0000a0 35 5c ba 3e d0 9f e4 be ea 4e 37 3e 54 dd bc be
       0.36398473 -0.44653177 0.17901197 -0.3688761
0000b0 97 4d be bd d9 13 37 be 1c 25 00 3e 8f 31 69 3d
       -0.09292143 -0.17878665 0.12514156 0.05693203
0000c0 4e 09 1b be 50 31 93 be
       -0.15140268 -0.2874856
