output/Burgers_UQPINN/weight.pth (torch, 114821 bytes, 29 tensors)

P.layers.0.weight f4 [50, 3]
-0.12501422 -0.17124769 0.035563387 0.020766648 -0.08358754 -0.2844472 0.013303142 0.39227715
0.11307993 -0.16375375 0.22313502 -0.04032587 0.2163624 0.06741253 -0.13134976 -0.018027207
0.061968323 0.25584796 0.22159557 0.24249704 0.041856073 -0.0048123994 0.73608255 0.0569058
-0.22452776 -0.04990556 0.055700198 -0.11886969 -0.2670698 0.044669703 -0.1365929 0.39652508
-0.103316255 0.120800726 -0.14413512 0.10789362 -0.17236727 0.14234067 0.013284464 -0.11155263
0.4650762 0.14502078 0.29308856 0.39222166 0.10446249 -0.2999007 -0.0923502 0.0629468
-0.034926593 -0.020015204 -0.13538998 0.31226313 0.07032105 0.12035182 -0.1752312 -0.023313731
0.03782563 0.24187037 -0.031276453 0.19967027 0.14627695 -0.032693844 0.11998724 0.06370621
0.20361345 -0.009386971 -0.26143014 -0.23889865 0.09160764 -0.3632004 0.16784708 0.023609001
0.050213676 -0.036962833 0.15964505 -0.098881975 -0.41998556 -0.08873378 0.12878145 0.4403519
0.122908145 -0.20812659 -0.13373569 -0.14690042 0.34961396 0.3123907 0.03886276 -0.40769258
0.058459274 -0.033603933 0.023004597 -0.12673315 0.12779081 0.13712431 0.063415796 -0.12456877
0.11302405 0.026658649 -0.12258754 -0.19006604 -0.03473483 -0.026947983 0.20722486 -0.032232687
0.01435111 0.15097758 -0.22211677 -0.04490939 0.13172483 0.10074731 0.21008678 0.16176032
-0.24742629 -0.032999072 -0.05007844 -0.03911123 -0.075790115 -0.050131503 -0.027329475 -0.010095538
-0.47433335 -0.40707394 0.05030036 0.22423646 -0.15846139 -0.06267775 0.33404323 -0.13032536
-0.06370701 -0.09263636 -0.07363349 0.01894106 0.10708431 0.42174578 -0.120188355 -0.0171478
0.15334699 -0.13113965 -0.23149838 -0.28368533 0.017433602 0.20750047 -0.15945275 0.030917518
-0.0424379 0.14244172 -0.09777929 0.229595 -0.10659338 0.07100494
00000000: ba03 00be 8e5b 2fbe eaaa 113d d11e aa3c
00000010: f22f abbd 10a3 91be 6cf5 593c 8dd8 c83e
00000020: 7396 e73d 10af 27be 827d 643e bd2c 25bd
00000030: 1b8e 5d3e 950f 8a3d 8d80 06be cbad 93bc
00000040: 7fd2 7d3d 81fe 823e f3e9 623e 2551 783e
00000050: 4671 2b3d 55b1 9dbb e86f 3c3f 0e16 693d
00000060: 9bea 65be c669 4cbd e425 643d f471 f3bd
00000070: 5fbd 88be 94f7 363d 02df 0bbe 5605 cb3e
00000080: 7997 d3bd 5f66 f73d 2898 13be 55f7 dc3d
00000090: 0c81 30be c1c1 113e 15a7 593c b575 e4bd
000000a0: 781e ee3e 5480 143e b40f 963e 47d1 c83e
000000b0: 6ef0 d53d 968c 99be 1a22 bdbd 40ea 803d
000000c0: 300f 0fbd edf6 a3bc aca3 0abe f4e0 9f3e
000000d0: 7c04 903d 047b f63d cf6f 33be 70fc bebc
000000e0: 0cef 1a3d deac 773e bd1b 00bd 5d76 4c3e
000000f0: a0c9 153e fbe9 05bd dfbb f53d 6778 823d
00000100: 0b80 503e cfcb 19bc 2cda 85be d9a1 74be
00000110: c99c bb3d 67f5 b9be 1be0 2b3e aa67 c13c
00000120: dbac 4d3d 5766 17bd fe79 233e a282 cabd
00000130: 5908 d7be 0eba b5bd 49df 033e ce75 e13e
00000140: 44b7 fb3d 231f 55be 02f2 08be 106d 16be
00000150: 9a00 b33e adf1 9f3e 8f2e 1f3d 15bd d0be
00000160: fe72 6f3d 47a4 09bd 2374 bc3c 56c6 01be
00000170: 98db 023e 516a 0c3e 24e0 813d e91d ffbd
00000180: 2779 e73d 3d63 da3c 2d0f fbbd aca0 42be
00000190: 1c46 0ebd 04c2 dcbc c132 543e 6c06 04bd
000001a0: eb20 6b3c de99 1a3e 9472 63be e9f2 37bd
000001b0: e0e2 063e 9b54 ce3d fd20 573e 7fa4 253e
000001c0: 515d 7dbe 092a 07bd 0d1f 4dbd 1933 20bd
000001d0: d937 9bbd b156 4dbd 10e2 dfbc c167 25bc
000001e0: d2db f2be ff6b d0be c007 4e3d 3e9e 653e
000001f0: b443 22be 315d 80bd b707 ab3e 0374 05be
00000200: d278 82bd 22b8 bdbd 28cd 96bd 482a 9b3c
00000210: 054f db3d 10ef d73e 5025 f6bd 8b79 8cbc
00000220: fe06 1d3e 7949 06be e90d 6dbe 343f 91be
00000230: ead0 8e3c 017b 543e 9547 23be bc46 fd3c
00000240: 5dd3 2dbd 3edc 113e 8240 c8bd f41a 6b3e
00000250: a14d dabd 0a6b 913d

P.layers.0.bias f4 [50]
-0.14540958 -0.011181604 0.052122563 -0.11969649 0.03722158 -0.04161211 -0.05730265 0.06750912
-0.116832115 -0.04055318 0.10712456 -0.18240696 -0.078336544 0.21583174 -0.32239905 -0.07370193
-0.02636749 -0.09952274 0.003326389 0.21413584 0.15793087 0.11419591 0.00050244003 0.13698645
0.13755406 0.13181566 -0.1775192 -0.13840178 0.11223722 -0.13404348 0.07336306 0.17813383
-0.11768726 0.05021036 -0.05454074 -0.08228037 -0.12746991 0.048033033 -0.071933135 0.04903242
-0.1877507 -0.04347436 -0.08064637 -0.09881339 -0.02932254 0.06842748 -0.036228813 0.030238535
0.018345619 -0.07126187
00000000: 40e6 14be 0c33 37bc 787e 553d 6f23 f5bd
00000010: a875 183d 7671 2abd 2fb6 6abd 3942 8a3d
00000020: ad45 efbd 171b 26bd 1f64 db3d e4c8 3abe
00000030: e96e a0bd ff02 5d3e 7d11 a5be 0af1 96bd
00000040: a200 d8bc 94d2 cbbd 8cff 593b 6d46 5b3e
00000050: a1b8 213e 8cdf e93d 2eb6 033a 2d46 0c3e
00000060: f9da 0c3e affa 063e 98c7 35be 32b9 0dbe
00000070: a1dc e53d b242 09be 5f3f 963d b768 363e
00000080: 0506 f1bd 61a9 4d3d 1c66 5fbd 9c82 a8bd
00000090: 7987 02be 49be 443d ae51 93bd 38d6 483d
000000a0: b841 40be 2c12 32bd ed29 a5bd ad5e cabd
000000b0: d335 f0bc b523 8c3d aa64 14bd ceb6 f73c
000000c0: 8d49 963c bef1 91bd

P.layers.1.weight f4 [50, 50]
-0.21693827 -0.08664844 0.18813907 -0.0479169 0.21565492 0.024100473 -0.101179525 0.041681018
0.11944153 -0.15747643 0.1642925 -0.20234603 -0.14085345 0.14286941 0.05209415 0.13547234
-0.14508902 -0.012937199 -0.05695226 -0.098907016 0.095036454 0.20820893 0.19919339 0.12281439
0.2625952 -0.21384689 0.16804042 -0.13328923 0.2147768 -0.038636595 -0.06577853 0.2063093
-0.09458728 -0.15890802 -0.24399619 -0.40244102 0.054802097 0.06865728 -0.03037836 -0.013719705
0.17043385 -0.09302638 -0.06250073 -0.2934331 0.12792505 0.14642903 0.20600387 -0.1081946
0.22619827 -0.3863886 -0.11654666 -0.0011225778 -0.058036387 -0.18634795 0.14459284 0.17167953
-0.215836 -0.4965176 0.18859199 0.30649623 -0.20278262 -0.024579389 -0.023431486 -0.44853896
-0.11897639 -0.11302549 -0.0005337402 -0.016875705 -0.20616473 0.17403619 0.059523933 -0.2110204
0.23058334 -0.28037876 0.11917596 0.13008441 -0.03240523 -0.070359275 -0.2609034 -0.059518065
-0.17370464 -0.114054136 -0.048273202 -0.17690791 0.053462766 0.33487353 -0.23618871 0.033847097
-0.009326713 -0.11084776 -0.13250446 0.31697825 0.05961819 0.18193181 -0.3180283 -0.18338828
-0.0514683 -0.21215954 -0.18203177 0.06809903 0.42792156 0.032564 0.027311305 0.11496969
0.06140549 -0.09541522 -0.05453366 -0.26038644 0.07029507 -0.12164941 0.08944161 0.15398137
-0.07533703 -0.13361777 -0.08626352 0.14650793 0.17966527 0.38641533 -0.17834558 -0.120547034
0.0709408 -0.266899 -0.03337637 -0.08625732 -0.26027033 0.11557031 -0.13491562 0.09904446
-0.017477272 -0.17762344 0.12920989 -0.2623825 0.16634494 -0.1616762 0.057074215 0.3015641
0.040181525 0.04915278 0.26139376 -0.009846494 -0.089259855 0.20325871 -0.087971106 0.18250783
-0.34021118 0.07186916 0.089315325 0.2278082 -0.015219786 0.12172867 0.09976702 -0.1915579
-0.018388575 0.020018151 -0.12139764 -0.24538068 -0.022982331 0.17244685 -0.16804199 0.09477577
-0.073302224 -0.06109845 -0.1783638 0.22189218 -0.16346537 0.0015376193 -0.15967683 0.09147407
0.25626653 -0.051980224 0.118042566 0.085134834 -0.06320123 0.20554432 0.025759296 0.21394743
0.024601674 -0.17868705 0.12156621 -0.0097004175 0.15112615 0.14301184 0.032028373 0.22773026
-0.03723574 -0.11829923 -0.10316713 -0.1653962 -0.015575147 0.10654704 -0.013907291 0.18466656
-0.111305684 -0.21502285 0.087585926 0.038899943 0.044836465 -0.26854086 0.115268774 0.04145239
-0.057449665 0.007940121 0.14420456 0.04924397 -0.17035045 -0.08342537 -0.13391751 -0.099555
-0.08210253 0.16323791 0.06822974 -0.1650456 -0.040455166 -0.16274035 -0.1811571 -0.029231759
-0.006572861 0.03731139 0.07585837 0.014227175 0.2837296 -0.07026617 0.1966222 0.16596581
-0.08636908 0.043228906 -0.2364914 0.22378342 0.14957902 -0.21491084 -0.0099070035 0.06758529
-0.1071339 0.28348252 0.015807265 0.08267151 -0.008985134 -0.04276782 -0.19921036 0.10387667
0.1314623 0.4214489 0.013178274 -0.15458989 -0.016011434 -0.15579912 0.14185897 0.48317158
-0.46931633 0.10802588 -0.08710906 -0.2072927 -0.2751368 -0.17214142 -0.076495335 -0.23775056
00000000: 1125 5ebe bd74 b1bd 87a7 403e 8344 44bd
00000010: a5d4 5c3e 5b6e c53c 3637 cfbd b7b9 2a3d
00000020: c39d f43d 8041 21be 4b3c 283e cc33 4fbe
00000030: e33b 10be 5c4c 123e ad60 553d 43b9 0a3e
00000040: 3792 14be 8cf6 53bc c646 69bd c38f cabd
00000050: 79a2 c23d b934 553e 5af9 4b3e 1c86 fb3d
00000060: e172 863e aefa 5abe ca12 2c3e f97c 08be
00000070: 73ee 5b3e 6841 1ebd e5b6 86bd bf42 533e
00000080: fab6 c1bd c9b8 22be 23da 79be c00c cebe
00000090: 2a78 603d 309c 8c3d 0adc f8bc 9dc8 60bc
000000a0: 3686 2e3e 9d84 bebd 6200 80bd dd3c 96be
000000b0: c9fe 023e 7ef1 153e aef2 523e 2195 ddbd
000000c0: 85a0 673e bad4 c5be 04b0 eebd 7623 93ba
000000d0: 90b7 6dbd ffd1 3ebe 2510 143e c2cc 2f3e
000000e0: 1d04 5dbe 8e37 febe 421e 413e 13ed 9c3e
000000f0: 3fa6 4fbe b75a c9bc 63f3 bfbc e6a6 e5be
00000100: e5a9 f3bd e879 e7bd b3ea 0bba eb3e 8abc
00000110: d91c 53be 8b36 323e 5ecf 733d bb15 58be
00000120: 0a1e 6c3e ce8d 8fbe 8712 f43d d934 053e
00000130: 59bb 04bd 8618 90bd 2195 85be 37c9 73bd
00000140: a1df 31be 3795 e9bd 1fba 45bd 5927 35be
00000150: c6fb 5a3d 8b74 ab3e 74db 71be 41a3 0a3d
00000160: 12cf 18bc 2704 e3bd 40af 07be f94a a23e
00000170: 3432 743d 554c 3a3e 9bd4 a2be 23ca 3bbe
00000180: 6dd0 52bd 5a40 59be 8966 3abe 8177 8b3d
00000190: 8918 db3e d461 053d f5bb df3c 3b75 eb3d
000001a0: 5384 7b3d 0e69 c3bd b05e 5fbd 5f51 85be
000001b0: ddf6 8f3d 5323 f9bd 2a2d b73d 4bad 1d3e
000001c0: 4d4a 9abd 19d3 08be eeaa b0bd 2d06 163e
000001d0: 2cfa 373e 3bd8 c53e 39a0 36be 5de1 f6bd
000001e0: 6949 913d fca6 88be a9b5 08bd aea7 b0bd
000001f0: 2742 85be 20b0 ec3d 5227 0abe d2d7 ca3d
00000200: 7f2c 8fbc ebe2 35be 994f 043e 0057 86be
00000210: 5456 2a3e 728e 25be a7c6 693d 9c66 9a3e
00000220: 6295 243d 6d54 493d 67d5 853e 3053 21bc
00000230: dfcd b6bd 0d23 503e 322a b4bd 55e3 3a3e
00000240: 2930 aebe 2330 933d f4ea b63d 8e46 693e
00000250: 695c 79bc e24c f93d a752 cc3d c127 44be
00000260: a3a3 96bc 1bfd a33c 539f f8bd 1345 7bbe
00000270: 7145 bcbc e895 303e 3313 2cbe cd19 c23d
00000280: 7a1f 96bd 5e42 7abd 00a5 36be b437 633e
00000290: 7763 27be f189 c93a 5382 23be c256 bb3d
000002a0: 5e35 833e 37e9 54bd 4dc0 f13d 2c5b ae3d
000002b0: a56f 81bd 367a 523e 2905 d33c 0915 5b3e
000002c0: 7389 c93c bdf9 36be b5f7 f83d 80ee 1ebc
000002d0: d0c0 1a3e b271 123e 2f30 033d 1f32 693e
000002e0: 8184 18bd de46 f2bd 4a49 d3bd 9f5d 29be
000002f0: e72e 7fbc 5635 da3d 68db 63bc 3b19 3d3e
00000300: 3cf4 e3bd f32e 5cbe 4060 b33d 8c55 1f3d
00000310: 71a6 373d 307e 89be 0912 ec3d fbc9 293d
00000320: 5750 6bbd 4817 023c 5caa 133e 0cb4 493d
00000330: 5970 2ebe ecda aabd ac21 09be 7ee3 cbbd
00000340: 5f25 a8bd d727 273e 09bc 8b3d b701 29be
00000350: 51b4 25bd 68a5 26be 3f81 39be 7177 efbc
00000360: 2861 d7bb d4d3 183d a25b 9b3d 1919 693c
00000370: 0245 913e b6e7 8fbd 5457 493e f1f2 293e
00000380: 46e2 b0bd cb10 313d cd2a 72be 7b27 653e
00000390: 3e2b 193e 9611 5cbe fc50 22bc 286a 8a3d
000003a0: 0569 dbbd 9f24 913e 3d7e 813c ae4f a93d
000003b0: 6236 13bc 4f2d 2fbd cdfd 4bbe 4bbd d43d
000003c0: 0e9e 063e 26c8 d73e b0e9 573c d04c 1ebe
000003d0: 692a 83bc ce89 1fbe 7a43 113e 4462 f73e
000003e0: 3b4a f0be ac3c dd3d 3c66 b2bd 8a44 54be
000003f0: bbde 8cbe d745 30be 96a9 9cbd e274 73be

P.layers.1.bias f4 [50]
0.08669761 0.022826634 -0.12805839 0.09162573 0.05992921 -0.03626908 -0.046410248 -0.019984588
0.035220645 0.0059566284 -0.074757844 -0.09126597 -0.07506287 0.06188369 0.1298622 -0.043994103
0.037571587 0.098002225 -0.15302011 -0.052267317 -0.03863914 0.10306685 0.07234424 0.035370544
0.08554747 -0.008840384 -0.007927296 -0.05305884 -0.12471855 0.06341823 -0.060789075 -0.18756999
0.095976636 -0.09298866 -0.040930357 -0.006377133 0.055327516 0.02186556 0.08528234 0.10961498
0.047121137 0.0950914 0.064461656 -0.12347391 0.16883275 0.03197976 0.014032017 0.22067116
-0.054516 -0.050766066
00000000: 848e b13d ecfe ba3c bd21 03be 45a6 bb3d
00000010: 5578 753d e38e 14bd ac18 3ebd b8b6 a3bc
00000020: 8643 103d d22f c33b a41a 99bd a7e9 babd
00000030: 90ba 99bd c179 7d3d 99fa 043e 2933 34bd
00000040: aae4 193d 64b5 c83d 4eb1 1cbe 4116 56bd
00000050: 1344 1ebd b614 d33d 3829 943d b4e0 103d
00000060: 8333 af3d 42d7 10bc 7de1 01bc 3a54 59bd
00000070: 706c ffbd 6be1 813d f7fd 78bd 5912 40be
00000080: 668f c43d d770 bebd 97a6 27bd 45f7 d0bb
00000090: 1b9f 623d 671f b33c 82a8 ae3d d27d e03d
000000a0: 1802 413d 48bf c23d 7904 843d e4df fcbd
000000b0: 7ee2 2c3e 35fd 023d 8ce6 653c 9ff7 613e
000000c0: 2b4c 5fbd 14f0 4fbd

P.layers.2.weight f4 [50, 50]
0.2694657 -0.18047746 0.009683053 -0.17846225 -0.05818179 0.22290275 0.050945263 -0.020905292
-0.13177375 0.17968898 0.009421403 -0.121124625 0.12557018 -0.21767396 0.28658313 0.0015008254
0.2164267 0.047900867 0.19081347 -0.019107305 0.23816185 0.25019583 0.07556541 0.06801284
0.090339474 0.23668005 0.24694936 -0.042170107 -0.017023478 -0.02067034 -0.08451363 -0.006030437
-0.15823016 -0.0020745324 -0.054134868 -0.18528074 0.18033513 -0.02259224 0.037558608 0.2011439
0.2515732 -0.28587326 -0.0066452245 -0.20127301 0.14975482 0.04129249 -0.29907614 -0.040428102
0.0561765 0.063403144 0.027902856 0.05298885 -0.24322999 -0.27181903 0.17740719 -0.12952617
0.31013238 -0.018664552 -0.0068273293 -0.06391419 -0.0007047397 0.1793364 -0.01801313 0.11356173
0.14978145 0.07804969 0.22392036 0.06987458 -0.04917107 -0.06716436 0.07449851 0.2644926
0.20583816 -0.014109367 -0.06216763 0.020552881 0.11507806 0.06089457 -0.07176674 -0.13198857
-0.10800215 -0.09839637 0.17841162 -0.16652165 -0.2204126 0.09654999 0.14400043 0.3033911
0.053773735 -0.100076735 0.053499497 -0.05875515 0.03277714 -0.11786163 0.21362181 -0.10865371
0.021668954 0.03943544 -0.06676584 -0.16922583 -0.23811233 -0.038279586 0.020022122 -0.02203767
-0.06350946 0.32339257 0.099893026 0.13082069 -0.08140521 -0.058048397 0.055090144 -0.054339077
-0.064226575 -0.084730275 -0.11356856 0.114481196 -0.16970293 -0.089918174 0.25473332 0.001645396
0.049561523 0.040362984 -0.02218313 0.09653166 -0.049139965 -0.2529958 0.16410595 -0.19340986
-0.00044681152 0.18298195 0.105912276 0.12698138 -0.08368989 -0.05842093 0.14553437 -0.017747452
0.16878177 0.14044563 -0.043169927 -0.27517524 -0.056460176 -0.046783037 -0.067138426 -0.2405095
0.12070528 -0.25872228 0.026851283 -0.04663595 -0.31531107 0.11845143 0.0276407 -0.01879113
0.020217292 0.02066005 -0.06928478 0.0314605 0.058806088 0.3047015 0.18830472 0.10759639
-0.122066505 -0.0048678936 -0.08518327 -0.07902165 0.0706853 -0.32937598 -0.093032345 0.19311702
-0.19761184 0.027379703 0.10091845 0.115268305 0.120094225 -0.056611754 -0.045727596 -0.12139169
-0.15795831 0.104090184 -0.010963634 0.2757619 -0.09097294 -0.29904413 -0.23485897 -0.22759259
-0.04037142 0.105025694 0.16128908 0.14265656 -0.22604592 0.044206783 0.20680642 -0.05991649
-0.025060661 -0.34939668 -0.012709493 0.2055871 -0.2629879 -0.25762 -0.31302473 0.034050297
0.017305894 -0.14689274 -0.10898198 -0.09258063 -0.078356326 0.10082581 -0.018554894 -0.09194302
-0.078137286 0.09880136 -0.015466938 -0.14019659 -0.17036933 0.19230506 0.43795267 0.047602374
0.18869847 0.29196876 -0.037776247 0.19437176 -0.41628936 0.21557976 0.059088074 0.104394145
-0.117058136 -0.19344671 -0.1480745 0.10393224 -0.32607633 0.040658824 -0.16350077 -0.07431257
0.27553552 0.09471897 -0.13917181 -0.011895125 0.13331003 -0.22947618 0.17822878 0.16918425
0.01748383 0.16175647 0.15790439 -0.33104593 0.3003325 0.32374185 0.109137505 0.12302098
-0.10267122 -0.05473619 0.07351995 0.123325445 -0.0024880883 0.02160315 0.3830643 0.0015790999
00000000: 69f7 893e 15cf 38be aba5 1e3c cfbe 36be
00000010: 0750 6ebd 9e40 643e fbab 503d 9341 abbc
00000020: b3ef 06be 6300 383e 3a5c 1a3c 3010 f8bd
00000030: 7895 003e ece5 5ebe 06bb 923e 58b7 c43a
00000040: f69e 5d3e b333 443d 9b64 433e ec86 9cbc
00000050: b3e0 733e ab19 803e 0ac2 9a3d 514a 8b3d
00000060: e703 b93d 415c 723e 4be0 7c3e 90ba 2cbd
00000070: d274 8bbc d854 a9bc 7b15 adbd f99a c5bb
00000080: 1607 22be e1f4 07bb 86bc 5dbd 3cba 3dbe
00000090: c6a9 383e 5c13 b9bc 0ed7 193d abf8 4d3e
000000a0: 34ce 803e fb5d 92be 2fc0 d9bb 831a 4ebe
000000b0: 5459 193e 5022 293d 8220 99be f097 25bd
000000c0: 5419 663d 82d9 813d 8894 e43c d60a 593d
000000d0: 4811 79be dd2b 8bbe 3baa 353e 82a2 04be
000000e0: acc9 9e3e 67e6 98bc cab7 dfbb 71e5 82bd
000000f0: 48be 38ba f6a3 373e 4690 93bc 0d93 e83d
00000100: 4f60 193e 84d8 9f3d 614b 653e 671a 8f3d
00000110: 9b67 49bd 788d 89bd ad92 983d 936b 873e
00000120: 3dc7 523e f92a 67bc 7ca3 7ebd 845e a83c
00000130: 0cae eb3d 966c 793d 71fa 92bd 0328 07be
00000140: 3b30 ddbd 0984 c9bd 89b1 363e a784 2abe
00000150: d7b3 61be 00bc c53d d974 133e 1456 9b3e
00000160: d941 5c3d 08f5 ccbd 4a22 5b3d 3da9 70bd
00000170: 5341 063d 7061 f1bd adbf 5a3e d685 debd
00000180: 1783 b13c 0e87 213d 87bc 88bd 8949 2dbe
00000190: b8d3 73be 0ecb 1cbd 6f05 a43c 5888 b4bc
000001a0: 3f11 82bd b693 a53e b794 cc3d dcf5 053e
000001b0: c6b7 a6bd 28c4 6dbd 34a6 613d a792 5ebd
000001c0: 3989 83bd 1187 adbd a296 e8bd 1e75 ea3d
000001d0: 9bc6 2dbe 0527 b8bd 686c 823e 54aa d73a
000001e0: 0601 4b3d a853 253d 65b9 b5bc 64b2 c53d
000001f0: fd46 49bd aa88 81be 640b 283e 3c0d 46be
00000200: 0742 eab9 9f5f 3b3e 89e8 d83d 6807 023e
00000210: 9b65 abbd c94a 6fbd f606 153e 1b63 91bc
00000220: 21d5 2c3e fbd0 0f3e f3d2 30bd c5e3 8cbe
00000230: c942 67bd 929f 3fbd df7f 89bd 1f48 76be
00000240: 5434 f73d 3f77 84be 39f7 db3c 5705 3fbd
00000250: 7470 a1be aa96 f23d c06e e23c dbef 99bc
00000260: bc9e a53c 443f a93c 2ee5 8dbd badc 003d
00000270: a7de 703d d601 9c3e f4d2 403e 7f5b dc3d
00000280: 01fe f9bd da82 9fbb 9174 aebd 1ad6 a1bd
00000290: 74c3 903d f8a3 a8be be87 bebd 78c0 453e
000002a0: c25a 4abe 664b e03c 55ae ce3d ca11 ec3d
000002b0: f6f3 f53d bae1 67bd dc4c 3bbd 359c f8bd
000002c0: d3bf 21be 3c2d d53d d0a0 33bc aa30 8d3e
000002d0: 0550 babd 501c 99be df7e 70be 080e 69be
000002e0: 815c 25bd b617 d73d f728 253e 9014 123e
000002f0: 9578 67be 2c12 353d 10c5 533e fe6a 75bd
00000300: 044c cdbc 1fe4 b2be 7a3b 50bc 6d85 523e
00000310: 5aa6 86be c5e6 83be c744 a0be 5378 0b3d
00000320: 17c5 8d3c 0d6b 16be f231 dfbd ea9a bdbd
00000330: 4879 a0bd c37d ce3d 6f00 98bc 9f4c bcbd
00000340: 7106 a0bd 5e58 ca3d 0a69 7dbc b28f 0fbe
00000350: 4c75 2ebe 9eeb 443e 553b e03e b5fa 423d
00000360: 2c3a 413e ee7c 953e 44bb 1abd 6409 473e
00000370: e123 d5be f1c0 5c3e 5606 723d 99cc d53d
00000380: 2dbc efbd e516 46be d7a0 17be 6dda d43d
00000390: 7af3 a6be de89 263d bf6c 27be 3031 98bd
000003a0: fe12 8d3e 05fc c13d 0e83 0ebe c5e3 42bc
000003b0: 6d82 083e cefb 6abe 9b81 363e a33e 2d3e
000003c0: 403a 8f3c 7da3 253e b0b1 213e da7e a9be
000003d0: 2ec5 993e 7ec1 a53e 7c83 df3d 6cf2 fb3d
000003e0: 4a45 d2bd 0e33 60bd a191 963d 0d92 fc3d
000003f0: 320f 23bb 17f9 b03c 0121 c43e cdf9 ce3a

P.layers.2.bias f4 [50]
0.008896455 0.06395673 -0.027693866 0.116893664 0.11386521 0.1023025 0.07083683 -0.028542366
-0.053796604 -0.070599094 -0.04429157 -0.08643185 0.017902376 -0.15470475 0.083751984 0.06167582
0.030955503 0.1482913 0.09831172 -0.10405221 0.0025379604 -0.099421084 0.010765293 0.10233501
-0.092547975 -0.0006129183 -0.093527004 0.002641769 -0.05798567 0.059708923 0.05648592 0.13344681
0.015395905 0.031787626 0.0005032222 -0.07873171 -0.06402394 0.082270674 0.056667298 -0.02866043
0.05575403 0.09853053 0.008998401 0.011362082 0.086686306 0.011019245 0.07571729 0.020032974
-0.04143465 -0.010929738
00000000: 70c2 113c bffb 823d 3fde e2bc f265 ef3d
00000010: 2a32 e93d f983 d13d e612 913d aed1 e9bc
00000020: d459 5cbd 4296 90bd 146b 35bd 2f03 b1bd
00000030: 01a8 923c ec6a 1ebe 2986 ab3d c99f 7c3d
00000040: 6596 fd3c add9 173e a857 c93d 5319 d5bd
00000050: e953 263b 489d cbbd e960 303c 0595 d13d
00000060: cb89 bdbd 40ac 20ba 168b bfbd 8721 2d3b
00000070: 6282 6dbd 5891 743d c85d 673d 48a6 083e
00000080: 1b3f 7c3c be33 023d acea 033a 173e a1bd
00000090: fc1e 83bd 877d a83d f81b 683d 47c9 eabc
000000a0: 565e 643d 60ca c93d 086e 133c 0728 3a3c
000000b0: 9788 b13d 108a 343c ab11 9b3d 311c a43c
000000c0: 61b7 29bd a512 33bc

P.layers.3.weight f4 [50, 50]
-0.21097209 0.07702986 -0.27518407 0.11550391 0.34504482 -0.13785672 -0.0029160075 -0.14303266
-0.22966409 -0.1553868 -0.12679271 0.07064092 -0.115064874 -0.053599887 -0.0056054546 -0.04561725
0.32373935 0.0037505103 0.13808374 -0.08047192 0.13689743 -0.13302855 0.058274396 -0.034780327
-0.13126956 -0.13278341 -0.18971717 -0.02978288 0.022247223 -0.22492702 -0.029752094 -0.2997765
0.22944868 -0.14414585 0.16128385 0.3863493 0.13763122 -0.04897468 0.057693508 -0.10633799
-0.07610455 0.02542285 0.14515665 0.008953273 0.061798338 0.09300428 -0.31641957 0.013220538
-0.27258548 -0.1211994 0.15868445 0.27987686 -0.057904303 -0.16237867 0.09677125 -0.003912371
-0.119953245 -0.09276287 0.25131753 -0.1208545 -0.14970623 -0.058600545 -0.17789344 -0.18736543
-0.069692895 0.11554523 0.29108968 -0.07847029 -0.26507255 0.21773334 0.01843595 0.10852725
-0.18061006 -0.21452154 -0.010841224 0.30903545 0.18911721 -0.026158836 0.030740388 0.45056164
-0.027668932 -0.5168496 0.02659197 -0.008393785 -0.06970268 -0.12859307 0.0750757 -0.19498034
0.010920291 0.17262323 0.06858242 -0.029572995 0.08305712 -0.09703906 -0.19244187 0.23098613
-0.2837394 -0.25146773 0.022409223 0.023242444 0.13964808 -0.12068144 -0.15996851 -0.075609915
0.019692188 -0.22127903 -0.182587 0.036423 -0.027492803 -0.013568325 0.26494816 0.14247397
0.14164265 -0.1307117 -0.24718967 -0.0070364866 -0.16863821 0.010554414 0.15398255 0.25618568
0.2562674 0.10158923 0.046166066 0.088355735 -0.22677824 0.19896953 -0.16813825 0.086304374
0.39388937 0.13438888 -0.1113998 -0.0070223906 0.024519628 -0.14835183 -0.012021898 0.17599948
0.14791298 0.01977405 -0.06607246 0.036545232 -0.15380682 -0.17849076 0.3298191 -0.07075393
-0.035280272 0.18964759 -0.04420423 -0.32047194 -0.1122066 -0.127596 -0.65199804 0.065697245
0.016146835 -0.8557313 0.3128693 0.03080742 -0.33781847 -0.36178797 -0.07585083 -0.30459115
-0.079538494 0.15764947 0.019592475 0.10467639 -0.2689532 -0.5850497 0.54257894 -0.61828905
0.10638767 0.14445853 -0.1310734 -0.14340399 -0.7332283 -0.27112865 0.22276753 0.53446025
-0.34009704 -0.045717314 0.19965993 -1.012377 -0.28042048 0.057075385 -0.20894296 -0.3713012
0.23078862 0.7632443 0.08217754 0.54225236 -0.54091054 -0.0219616 0.14549404 0.3521389
-0.29511127 -0.9755059 0.11534465 0.44751185 -0.6925366 -0.36854813 0.7202787 0.12341804
0.0515345 0.01344061 -0.0130067365 0.13665704 -0.02954253 -0.24890065 0.00034836488 0.11916526
0.1509839 0.00075657264 -0.09701992 0.19195674 0.084882446 -0.032366473 0.22340952 0.039320778
-0.15060225 -0.009286707 -0.2218656 -0.2498112 -0.13991876 0.06819929 0.12922058 -0.11053103
0.19089921 -0.014503031 0.23309697 -0.010310854 -0.021935582 -0.3754172 0.28777298 -0.085344225
-0.20779468 0.17256019 -0.031980183 0.0071696565 0.13640521 0.06133052 -0.13990451 -0.19231504
-0.147723 -0.37234935 -0.20859271 -0.12867819 -0.34851864 0.00039793816 -0.041505378 0.10945691
-0.032886766 0.06515383 0.14313644 -0.034290623 -0.20728433 -0.14267573 0.051972028 -0.08021845
00000000: 1109 58be d5c1 9d3d ede4 8cbe 508d ec3d
00000010: b7a9 b03e 502a 0dbe 7d1a 3fbb 2777 12be
00000020: 102d 6bbe b81d 1fbe f3d5 01be 30ac 903d
00000030: 22a7 ebbd 8e8b 5bbd f6ad b7bb 27d9 3abd
00000040: 2ac1 a53e 1fcb 753b d365 0d3e 76ce a4bd
00000050: d72e 0c3e a338 08be 22b1 6e3d d175 0ebd
00000060: 876b 06be 60f8 07be 3845 42be 3afb f3bc
00000070: cf3f b63c 4553 66be aaba f3bc 4e7c 99be
00000080: 98f4 6a3e f89a 13be 9827 253e 93cf c53e
00000090: 33ef 0c3e ad99 48bd 0750 6c3d bbc7 d9bd
000000a0: b4dc 9bbd 9543 d03c f2a3 143e c0b0 123c
000000b0: 4120 7d3d 0779 be3d bf01 a2be f59a 583c
000000c0: 5390 8bbe 6437 f8bd 2d7e 223e 054c 8f3e
000000d0: 102d 6dbd 9846 26be 0130 c63d 5933 80bb
000000e0: 0caa f5bd 76fa bdbd b1ac 803e 9082 f7bd
000000f0: 974c 19be 2007 70bd b329 36be b9dc 3fbe
00000100: 26bb 8ebd faa2 ec3d b509 953e 08b5 a0bd
00000110: 97b7 87be 7df5 5e3e fd06 973c 8943 de3d
00000120: d8f1 38be 89ab 5bbe 649f 31bc e539 9e3e
00000130: f1a7 413e 0e4b d6bc 44d3 fb3c 04b0 e63e
00000140: f5a9 e2bc 4150 04bf 67d7 d93c 1686 09bc
00000150: 47c0 8ebd e7ad 03be 4ac1 993d eda8 47be
00000160: 05eb 323c 25c4 303e f174 8c3d 1143 f2bc
00000170: da19 aa3d 6abc c6bd 7b0f 45be a187 6c3e
00000180: 4a46 91be 61c0 80be 8c93 b73c f066 be3c
00000190: e8ff 0e3e d527 f7bd c9ce 23be 5fd9 9abd
000001a0: 8351 a13c f896 62be 16f8 3abe 4930 153d
000001b0: 9638 e1bc ae4d 5ebc 49a7 873e b2e4 113e
000001c0: c50a 113e 4ad9 05be 4a1f 7dbe 5492 e6bb
000001d0: 7faf 2cbe 6cec 2c3c 9aad 1d3e c52a 833e
000001e0: 7b35 833e 040e d03d a118 3d3d daf3 b43d
000001f0: 8e38 68be abbe 4b3e 6f2c 2cbe 59c0 b03d
00000200: deab c93e 3d9d 093e 9425 e4bd 151c e6bb
00000210: 63dd c83c 8be9 17be 7ff7 44bc 3539 343e
00000220: 8076 173e 30fd a13c ff50 87bd 74b0 153d
00000230: 897f 1dbe 48c6 36be 0dde a83e 70e7 90bd
00000240: 0c82 10bd fa32 423e 7f0f 35bd e614 a4be
00000250: 93cc e5bd 87a8 02be 58e9 26bf 478c 863d
00000260: 5e46 843c 3511 5bbf 6830 a03e d85f fc3c
00000270: 8bf6 acbe 463c b9be ae57 9bbd 5ff3 9bbe
00000280: 14e5 a2bd dd6e 213e 6680 a03c 9360 d63d
00000290: 3cb4 89be d1c5 15bf 74e6 0a3f 3148 1ebf
000002a0: c7e1 d93d f0ec 133e 1b38 06be 7fd8 12be
000002b0: dab4 3bbf 60d1 8abe 2c1d 643e 63d2 083f
000002c0: 3321 aebe 1442 3bbd a773 4c3e 9295 81bf
000002d0: 4693 8fbe e1c7 693d 25f5 55be 311b bebe
000002e0: da53 6c3e fa63 433f b34c a83d 0dd1 0a3f
000002f0: 1d79 0abf d0e8 b3bc 64fc 143e 8d4b b43e
00000300: d318 97be c1ba 79bf d139 ec3d 4620 e53e
00000310: 144a 31bf 57b2 bcbe 2f64 383f 99c2 fc3d
00000320: d715 533d 0136 5c3c 351a 55bc d3ef 0b3e
00000330: 2d03 f2bc d0df 7ebe bea4 b639 ea0c f43d
00000340: 869b 1a3e bb54 463a 61b2 c6bd 4f90 443e
00000350: d9d6 ad3d b592 04bd 77c5 643e d30e 213d
00000360: 7a37 1abe 4627 18bc bc30 63be 82ce 7fbe
00000370: dd46 0fbe 12ac 8b3d 6652 043e 185e e2bd
00000380: 157b 433e 1f9e 6dbc f9b0 6e3e dbee 28bc
00000390: 40b2 b3bc af36 c0be fb56 933e f4c8 aebd
000003a0: 21c8 54be 9eb3 303e a7fd 02bd 70ef ea3b
000003b0: cfad 0b3e b635 7b3d 2143 0fbe 3cee 44be
000003c0: b344 17be 93a4 bebe 5499 55be 37c4 03be
000003d0: 0971 b2be 5ba2 d039 8b01 2abd f22a e03d
000003e0: 46b4 06bd 5f6f 853d 5c92 123e 5374 0cbd
000003f0: 5842 54be 9619 12be 9fe0 543d 9249 a4bd

P.layers.3.bias f4 [50]
-0.0073552835 -0.03852852 -0.028566767 -0.20039864 0.0025074468 0.0059899497 0.0061788685 -0.018327173
0.07702659 0.02057222 0.03772323 -0.087576814 -0.01151472 0.0025612577 -0.0059951963 -0.066000365
-0.04756048 -0.02885876 0.0145097105 0.026796492 0.013010187 0.041721288 -0.07500249 -0.11686215
-0.035097137 -0.029910192 -0.16855443 0.003622467 0.037295163 -0.0011088395 0.02232297 0.017148461
-0.02199457 -0.046814106 0.03926095 -0.029248511 0.013839797 -0.038796946 0.14675948 0.009392865
-0.039221905 -0.025390942 -0.0407203 0.017969014 0.004621858 0.0006721913 0.029702025 -0.0036101446
-0.07978146 0.017616892
00000000: 9704 f1bb 15d0 1dbd da04 eabc 4d35 4dbe
00000010: fa53 243b 5747 c43b 1b78 ca3b de22 96bc
00000020: 1ec0 9d3d 1387 a83c ac83 1a3d 795b b3bd
00000030: 3ca8 3cbc c6da 273b 5a73 c4bb 332b 87bd
00000040: c7ce 42bd 3569 ecbc 23ba 6d3c 5184 db3c
00000050: ae28 553c f1e3 2a3d e89a 99bd 6c55 efbd
00000060: 04c2 0fbd 3806 f5bc 8899 2cbe e966 6d3b
00000070: d0c2 183d 7b56 91ba a9de b63c ee7a 8c3c
00000080: f52d b4bc 26c0 3fbd 17d0 203d 939a efbc
00000090: 51c0 623c 8ce9 1ebd 1e48 163e 88e4 193c
000000a0: 26a7 20bd aa00 d0bc 54ca 26bd c133 933c
000000b0: f472 973b ff35 303a a951 f33c 2d98 6cbb
000000c0: 7664 a3bd 4d51 903c

P.layers.4.weight f4 [50, 50]
0.16635531 -0.06506083 -0.06951344 -0.1935218 -0.2117839 -0.32187587 -0.17083757 -0.10029318
-0.08991713 0.03175303 0.042515576 -0.29720834 0.25684005 -0.021573491 -0.02396106 -0.036224537
-0.24559538 -0.17826931 -0.10223192 -0.14887854 0.20330085 -0.06274285 0.12139651 0.007490998
0.1522858 -0.30743274 0.14852412 0.024971416 0.26074722 0.18561745 -0.024839308 -0.26096198
0.101539776 -0.30815804 0.10225274 -0.2880356 -0.036728594 0.15928622 0.0030774274 -0.21044022
-0.25396088 -0.17625904 0.4288889 -0.35855168 -0.123812586 -0.00035127864 0.061614484 0.07860236
-0.08713015 -0.22114778 0.15765156 0.07184214 -0.114980236 0.44105083 -0.03134343 0.29072034
0.15223874 -0.048095744 0.11660172 -0.10969811 -0.29324564 -0.013504835 0.024361806 0.28801075
-0.06561469 0.27087453 -0.06395793 0.02715346 -0.0527604 0.23022223 -0.4371272 -0.22873671
0.15865721 0.030214256 -0.1695423 0.16891494 -0.22977158 -0.027639523 -0.10352608 -0.7252272
0.5460385 0.124785975 -0.029176803 -0.08044601 -0.0699845 0.1606575 -0.002900047 -0.26409903
-0.10567687 0.090000406 0.028265297 0.22364533 -0.009079419 0.117172346 0.27132204 0.1737932
0.16030006 0.07134422 -0.01510593 0.42814955 -0.0007139791 0.1296177 0.08980192 -0.55494666
-0.18510556 -0.5258727 0.25707585 0.14457184 -0.12107306 -0.3461238 -0.02121097 0.2557618
-0.09090793 0.57007134 -0.39589915 0.02626668 0.14745675 -0.047263104 -0.080107905 -0.4671141
0.11733224 0.46896088 0.03575163 -0.10689406 0.12264424 0.057679083 0.469221 -0.30473384
0.15938762 0.4627857 -0.17346962 -0.26452035 -0.25091696 -0.41038883 -0.22203194 0.23987305
-0.0485137 -0.094799995 -0.14762402 -0.18412861 0.02677866 0.61126477 -0.08961807 -0.08673376
0.15239802 -0.40901253 -0.1651891 -0.3287936 0.086522005 -0.2212497 0.1406168 -0.0017872166
0.09786386 -0.008779236 -0.07558682 0.09992998 -0.11471102 0.106272124 0.0473284 0.11135075
0.08205454 0.00559893 0.12176852 0.070243336 -0.27514973 -0.039632965 -0.017789248 -0.046586573
0.08493761 0.124250524 -0.31181487 0.04774994 -0.29554382 -0.05708664 -0.028271625 -0.1190125
-0.06983778 -0.2939218 0.20220487 0.103480965 0.10808339 -0.19759934 -0.00018746644 -0.15937153
0.031666264 0.0107377395 0.11762371 -0.1821695 -0.06926996 -0.070689335 -0.11378643 -0.029565781
-0.08268633 0.1968346 -0.092193946 0.4449054 0.155639 0.013945784 -0.21165368 0.029558027
-0.16215876 0.027669549 -0.02364775 -0.10242775 -0.39260533 0.09557812 -0.11082109 0.23518579
-0.09204298 -0.08896118 -0.22952905 -0.048136793 0.112441435 0.12143365 0.15726437 -0.02762386
-0.042244166 0.09457964 -0.32126448 0.16410276 0.1894943 -0.22039299 0.25412592 0.22953202
-0.39522812 -0.022697426 0.18227844 0.157536 -0.22228545 -0.047718998 0.024937274 -0.30277017
-0.10989142 0.22148238 0.02922303 0.23406628 -0.07488781 0.14985952 -0.104436345 0.17885582
0.105209015 -0.14007021 0.21241522 0.05021765 0.0011639645 0.16956668 0.13528201 0.024895385
0.14201325 -0.13944125 -0.15586364 0.07283407 0.08465152 -0.101198874 0.26235765 -0.2164537
00000000: 0c59 2a3e 9d3e 85bd 105d 8ebd 942a 46be
00000010: e1dd 58be eacc a4be 0bf0 2ebe 8366 cdbd
00000020: 7926 b8bd 770f 023d d024 2e3d b12b 98be
00000030: 8a80 833e e4ba b0bc fc49 c4bc 2e60 14bd
00000040: 5b7d 7bbe 3b8c 36be f85e d1bd 9e73 18be
00000050: 192e 503e 537f 80bd bc9e f83d 0c77 f53b
00000060: cff0 1b3e d367 9dbe b516 183e db90 cc3c
00000070: a980 853e 8012 3e3e ce7b cbbc cf9c 85be
00000080: 16f4 cf3d e4c6 9dbe e269 d13d 6779 93be
00000090: b970 16bd ed1b 233e aaae 493b a47d 57be
000000a0: 2907 82be 407d 34be 5397 db3e 1694 b7be
000000b0: 7491 fdbd d22b b8b9 785f 7c3d 46fa a03d
000000c0: 4b71 b2bd 9074 62be 696f 213e f921 933d
000000d0: c27a ebbd 6ad1 e13e f861 00bd 4cd9 943e
000000e0: 79e4 1b3e 0b00 45bd e2cc ee3d 67a9 e0bd
000000f0: 4b24 96be 6243 5dbc 6992 c73c 2576 933e
00000100: ff60 86bd 11b0 8a3e 60fc 82bd ef70 de3c
00000110: 4a1b 58bd 60bf 6b3e 23cf dfbe f539 6abe
00000120: 0977 223e e383 f73c 7f9c 2dbe 0af8 2c3e
00000130: 3e49 6bbe 486c e2bc 7b05 d4bd 7da8 39bf
00000140: 2ec9 0b3f ca8f ff3d 3104 efbc e1c0 a4bd
00000150: 0954 8fbd 6683 243e b70e 3ebb fd37 87be
00000160: 1d6d d8bd 2252 b83d a08c e73c 4803 653e
00000170: d8c1 14bc 0ef8 ef3d b9ea 8a3e d8f6 313e
00000180: b325 243e eb1c 923d dd7e 77bc 6b36 db3e
00000190: 542a 3bba 81ba 043e 12ea b73d fc10 0ebf
000001a0: 508c 3dbe 989f 06bf 729f 833e a40a 143e
000001b0: 27f5 f7bd 2437 b1be a1c2 adbc 36f3 823e
000001c0: f02d babd 32f0 113f 4bb3 cabe 382d d73c
000001d0: e7fe 163e f596 41bd 9d0f a4bd 9429 efbe
000001e0: e34b f03d a41b f03e 4d70 123d 46eb dabd
000001f0: e72c fb3d e740 6c3d bc3d f03e 1306 9cbe
00000200: 8236 233e 3ff2 ec3e 05a2 31be 366f 87be
00000210: 3078 80be 7c1e d2be 575c 63be 48a1 753e
00000220: 4db6 46bd 8026 c2bd c02a 17be 368c 3cbe
00000230: ec5e db3c d97b 1c3f ae89 b7bd 78a1 b1bd
00000240: 3a0e 1c3e 176a d1be 5527 29be a257 a8be
00000250: 7332 b13d 488f 62be dafd 0f3e 0a41 eaba
00000260: d96c c83d c9d6 0fbc 43cd 9abd 17a8 cc3d
00000270: 9ced eabd 33a5 d93d 6ddb 413d dd0b e43d
00000280: 360c a83d 3b77 b73b c661 f93d bddb 8f3d
00000290: 6de0 8cbe 2d56 22bd c2ba 91bc 90d1 3ebd
000002a0: c5f3 ad3d 0f77 fe3d 33a6 9fbe 7195 433d
000002b0: 8551 97be aed3 69bd e599 e7bc d3bc f3bd
000002c0: 1c07 8fbd eb7c 96be cb0e 4f3e d4ed d33d
000002d0: d35a dd3d 7b57 4abe a492 44b9 4a32 23be
000002e0: 7cb4 013d 58ed 2f3c b3e4 f03d a48a 3abe
000002f0: 69dd 8dbd 92c5 90bd dc08 e9bd f033 f2bc
00000300: 7357 a9bd 028f 493e 2ed0 bcbd a4ca e33e
00000310: d45f 1f3e dc7c 643c bebb 58be ad23 f23c
00000320: f20c 26be 40ab e23c edb8 c1bc a4c5 d1bd
00000330: 9103 c9be 76be c33d 2bf6 e2bd 8bd4 703e
00000340: 0881 bcbd 4731 b6bd aa09 6bbe 162b 45bd
00000350: b247 e63d 35b2 f83d e909 213e 6f4b e2bc
00000360: 3808 2dbd f8b2 c13d c77c a4be 8e0a 283e
00000370: cb0a 423e b3ae 61be cb1c 823e 710a 6b3e
00000380: 575b cabe f4ef b9bc 33a7 3a3e 1e51 213e
00000390: cc9e 63be ff74 43bd 4149 cc3c b104 9bbe
000003a0: c10e e1bd 47cc 623e 2365 ef3c 12af 6f3e
000003b0: c85e 99bd c674 193e b9e2 d5bd fb25 373e
000003c0: d377 d73d 916e 0fbe 6083 593e 06b1 4d3d
000003d0: 2b90 983a e3a2 2d3e 5e87 0a3e 68f1 cb3c
000003e0: ec6b 113e b0c9 0ebe b89a 1fbe 072a 953d
000003f0: c75d ad3d 5b41 cfbd be53 863e 0aa6 5dbe

P.layers.4.bias f4 [50]
0.002220808 -0.045378134 -0.030723985 0.006469372 -0.033013087 0.005988951 0.0076585244 -0.009003057
-0.008042272 -0.02287024 0.0140806055 -0.027796695 0.008384322 -0.015195651 -0.05283929 -0.0077513754
0.0028117937 -0.039260276 0.013896978 -0.0021378752 -0.005513713 0.020413935 0.014483842 0.025091367
-0.012975697 -0.04124041 0.03770651 0.06460407 -0.038802765 -0.0014784152 0.013185292 -0.022711998
0.012491532 0.033299662 0.008155699 0.005643695 -0.0012540956 0.0026364976 0.009055385 0.007442069
0.010196787 0.0025911655 -0.021708323 -0.013838148 0.005996737 -0.018572355 0.015864614 0.043628085
-0.019351125 0.012976479
00000000: fa8a 113b 6cde 39bd deb0 fbbc 07fd d33b
00000010: bb38 07bd f63e c43b 5cf4 fa3b 8f81 13bc
00000020: bcc3 03bc 5f5a bbbc 57b2 663c e5b5 e3bc
00000030: 655e 093c 2ef7 78bc 036e 58bd 40ff fdbb
00000040: 1246 383b 62cf 20bd 27b0 633c 981b 0cbb
00000050: 61ac b4bb 203b a73c a34d 6d3c 698c cd3c
00000060: 0598 54bc b4eb 28bd 2472 1a3d 234f 843d
00000070: a6ef 1ebd 62c7 c1ba 1f07 583c 830e babc
00000080: 48a9 4c3c 3a65 083d 7b9f 053c bfee b83b
00000090: 7760 a4ba 17c9 2c3b 0a5d 143c 99dc f33b
000000a0: 6d10 273c 8bd0 293b a7d5 b1bc 66b9 62bc
000000b0: 4780 c43b 0d25 98bc 82f6 813c 5db3 323d
000000c0: 4086 9ebc 4c9b 543c

P.layers.5.weight f4 [1, 50]
0.29472098 -0.21669734 0.69210446 -0.2523159 0.17477924 -0.43541127 -0.16745304 -0.2096799
-0.20044366 0.12801668 -0.055319287 -0.1496911 0.017546026 0.17353648 0.050520353 0.043952994
-0.15015721 0.3814588 -0.34875834 -0.21812442 0.16439377 0.055272236 0.41854692 0.09474161
-0.25524408 -0.080597565 0.15170227 0.011886612 0.114077166 0.098230526 -0.046118837 0.1588463
-0.24186453 -0.18390025 -0.29645076 -0.1773184 0.35357177 0.19823831 0.14914784 0.26065212
-0.29904324 -0.42597106 -0.02273663 -0.22093569 -0.14558059 -0.31580257 0.14052872 -0.033308562
0.0020869558 -0.017662521
00000000: abe5 963e e8e5 5dbe c22d 313f 8d2f 81be
00000010: 54f9 323e 3aee debe cf78 2bbe 54b6 56be
00000020: 1a41 4dbe ce16 033e 7a96 62bd a048 19be
00000030: afbc 8f3c 8cb3 313e 6eee 4e3d 0e08 343d
00000040: d0c2 19be 914e c33e 7490 b2be 025c 5fbe
00000050: d756 283e 2465 623d c84b d63e e407 c23d
00000060: 5aaf 82be 5610 a5bd d757 1b3e 10c0 423c
00000070: 4aa1 e93d 162d c93d 1be7 3cbd 9ba8 223e
00000080: 56ab 77be 5950 3cbe 65c8 97be f492 35be
00000090: 5c07 b53e fcfe 4a3e 36ba 183e 3274 853e
000000a0: 321c 99be e118 dabe 2b42 babc f73c 62be
000000b0: 1413 15be e0b0 a1be c3e6 0f3e 8f6e 08bd
000000c0: 4fc5 083b feb0 90bc

Q.layers.0.weight f4 [50, 3]
-0.24845514 0.09894042 -0.118690416 0.08860356 0.43530688 0.09174361 -0.18836546 -0.18241657
-0.19125128 0.23966815 0.12592193 -0.37770844 -0.14423874 -0.17818864 0.199038 0.25500438
-0.30694684 -0.20025861 -0.003786557 0.008313712 0.3237629 0.23683816 -0.14832143 -0.46471044
0.09205682 0.3500448 0.0073913927 -0.11714259 0.04491825 -0.27741376 -0.03319856 -0.11811725
0.1933347 0.2392819 0.23510845 -0.104487374 0.083829656 -0.15766056 0.09486252 0.18674004
0.46279243 0.22243826 -0.2511066 0.6482443 0.23712729 -0.1396081 0.051977266 0.11409295
-0.08425551 -0.13577911 -0.21329612 0.10083334 0.35054693 0.2701685 0.12495643 -0.005630863
0.41144055 0.19583869 0.35643226 0.12876832 0.3734887 -0.014015868 0.12705605 0.2734073
0.3549075 -0.015770767 -0.027772991 -0.037364334 0.09154248 -0.00795203 0.056399316 -0.46913183
-0.2505436 -0.04082445 -0.055453688 -0.07266534 -0.14672603 0.081319325 0.41118622 -0.0404406
0.0057162037 0.13709274 -0.0074639595 -0.24697426 -0.24976146 -0.20908917 -0.07953335 -0.22963828
0.23738535 0.18546854 -0.04980465 -0.81819683 0.080425486 0.095780335 -0.10872887 0.12208351
-0.35927308 0.22542106 -0.2652446 -0.09598591 0.03003825 -0.1981397 0.23140863 0.36027336
0.056065846 -0.11044168 0.13142173 -0.14887556 -0.18557514 -0.26834592 -0.23783386 -0.13088083
-0.14757045 0.2939266 -0.08018863 0.26208195 0.46899414 -0.118148796 0.28059617 0.23385847
0.07316663 -0.2512388 0.088767104 0.11753418 0.015057867 0.053608052 -0.09599692 -0.21199042
0.30258402 0.18281387 -0.002999873 -0.13966541 0.11483898 -0.09058564 0.33505115 0.20886819
0.16920792 0.02767884 0.2056727 -0.13551717 0.26415735 -0.11254196 0.124042034 -0.31197459
-0.27078965 0.048699375 0.15900415 0.089823425 0.20497498 -0.2343305
00000000: 066b 7ebe 46a1 ca3d f613 f3bd c975 b53d
00000010: 8be0 de3e 13e4 bb3d e0e2 40be 69cb 3abe
00000020: 60d7 43be 916b 753e aef1 003e 0063 c1be
00000030: 52b3 13be 1577 36be 9ed0 4b3e ef8f 823e
00000040: 2328 9dbe 9810 4dbe e227 78bb 3c36 083c
00000050: 40c4 a53e b485 723e 93e1 17be 87ee edbe
00000060: 4988 bc3d 1239 b33e 7f33 f23b 74e8 efbd
00000070: 33fc 373d 2d09 8ebe 37fb 07bd 75e7 f1bd
00000080: 88f9 453e 5006 753e 45c0 703e 7afd d5bd
00000090: e2ae ab3d c571 21be 4847 c23d c838 3f3e
000000a0: 21f3 ec3e dbc6 633e 0b91 80be 57f3 253f
000000b0: 7fd1 723e 6df5 0ebe 1de6 543d 91a9 e93d
000000c0: 278e acbd ae09 0bbe 4c6a 5abe b681 ce3d
000000d0: e37a b33e 8753 8a3e 28e9 ff3d 1a83 b8bb
000000e0: 56a8 d23e f089 483e 4a7e b63e d8db 033e
000000f0: e939 bf3e d0a2 65bc fb1a 023e 0bfc 8b3e
00000100: 70b6 b53e b231 81bc 2f84 e3bc 580b 19bd
00000110: a07a bb3d 3b49 02bc f802 673d 0c32 f0be
00000120: 4047 80be 8a37 27bd 6823 63bd 91d1 94bd
00000130: 593f 16be bf8a a63d 0087 d23e 0ba5 25bd
00000140: fe4e bb3b 0a62 0c3e 3b94 f4bb d2e6 7cbe
00000150: 78c1 7fbe 791b 56be 62e2 a2bd 4c26 6bbe
00000160: 2515 733e 77eb 3d3e f6ff 4bbd 5975 51bf
00000170: 1eb6 a43d 7b28 c43d 3ead debd eb06 fa3d
00000180: a4f2 b7be c7d4 663e 24ce 87be 4394 c4bd
00000190: c712 f63c 22e5 4abe 62f6 6c3e c075 b83e
000001a0: 4da5 653d 3f2f e2bd 6b93 063e d672 18be
000001b0: 6907 3ebe a364 89be b88a 73be a005 06be
000001c0: b51c 17be 8c7d 963e f039 a4bd 9b2f 863e
000001d0: 0020 f03e fff7 f1bd 4daa 8f3e 9878 6f3e
000001e0: 63d8 953d 5fa2 80be 87cb b53d c3b5 f03d
000001f0: 46b5 763c 1e94 5b3d 089a c4bd 0414 59be
00000200: 4bec 9a3e 8f33 3b3e 8499 44bb 7304 0fbe
00000210: b330 eb3d f784 b9bd d38b ab3e 8be1 553e
00000220: d744 2d3e bcbe e23c dd9b 523e 03c5 0abe
00000230: a23f 873e 667c e6bd c009 fe3d 22bb 9fbe
00000240: f1a4 8abe ff78 473d fcd1 223e 58f5 b73d
00000250: f6e4 513e 56f4 6fbe

Q.layers.0.bias f4 [50]
0.06366738 0.07850879 0.089110404 0.06455515 -0.004731369 -0.09663675 0.012662808 -0.05228406
0.048717976 0.013177153 -0.024170322 -0.043936454 0.08909237 0.16170536 0.21241295 -0.037396695
-0.028370297 0.04727535 -0.00996298 -0.013979587 0.014862066 -0.0397786 0.024387807 -0.09298086
-0.10004937 -0.03316134 0.0003192191 -0.06255941 0.07545128 0.060049653 0.008406538 0.048343863
-0.048303716 0.027718054 0.13802853 0.10037245 -0.06879106 0.022456042 0.011781942 0.056874253
0.031048646 0.07498974 -0.0535951 0.008264643 0.029887557 -0.02467473 -0.046004776 0.025690889
-0.020758398 0.016345892
00000000: 0b64 823d 37c9 a03d 847f b63d 7e35 843d
00000010: 9a09 9bbb 7de9 c5bd ab77 4f3c cf27 56bd
00000020: 808c 473d fce4 573c d700 c6bc b6f6 33bd
00000030: 0f76 b63d 1796 253e c882 593e 472d 19bd
00000040: d368 e8bc cca3 413d c43b 23bc a30a 65bc
00000050: 0680 733c e3ee 22bd f0c8 c73c c06c bebd
00000060: afe6 ccbd 2fd4 07bd dd5c a739 261f 80bd
00000070: 3386 9a3d a0f6 753d 93bb 093c 3704 463d
00000080: 1eda 45bd f910 e33c 5a57 0d3e 1290 cd3d
00000090: 54e2 8cbd bcf5 b73c 0c09 413c faf4 683d
000000a0: bb59 fe3c 3994 993d 8986 5bbd 6d68 073c
000000b0: c0d6 f43c a922 cabc 816f 3cbd b375 d23c
000000c0: 840d aabc d2e7 853c

Q.layers.1.weight f4 [50, 50]
-0.21284021 0.16937621 0.30392438 0.3019079 0.042574722 0.24250689 -0.049951382 0.058389205
0.05010182 -0.23955631 0.07188521 -0.04711648 0.26284188 -0.16428885 -0.18712652 -0.20334068
-0.0017480702 -0.27695793 0.09044601 -0.10060528 0.21225986 0.29914883 0.075483896 -0.07339535
-0.21564658 -0.02954667 0.0469398 -0.12749301 0.08233559 -0.16754934 0.22956072 0.13976876
-0.4938866 -0.23468484 0.011151584 -0.129548 -0.18801416 -0.015117537 -0.43421504 -0.303238
0.29941174 0.36380678 0.077790536 -0.006334059 0.16743456 -0.0027846384 0.09736723 -0.13264965
-0.44181493 -0.009371253 -0.2125247 -0.45167142 0.24662265 0.09717426 0.034326397 0.22346401
-0.39142025 0.27451858 -0.07308616 0.046339344 0.107931815 -0.012799717 -0.040320896 0.014552277
-0.21142158 -0.09383587 0.10880971 -0.19951057 -0.26676133 0.12157546 -0.09179175 -0.08145185
-0.15020975 -0.00048732455 0.124500975 0.09357099 0.06252254 -0.00806858 0.11443583 -0.04052512
0.19240235 0.14389445 -0.007142384 0.13568845 0.060594294 -0.06194173 0.023903634 0.1427346
-0.061519403 -0.41326874 0.02386816 -0.054676704 -0.0847466 0.19938718 -0.117632315 0.07042319
0.19032165 -0.16330233 0.1191165 -0.23538162 -0.1511349 -0.08060753 -0.17010209 0.15046805
-0.14190106 0.35864797 -0.26359126 0.22210272 -0.061026882 0.0041159005 -0.18537472 0.14936723
0.043227796 -0.12820095 0.074171916 0.10848173 0.0006587504 -0.10561088 0.040920593 0.017128311
-0.071647316 -0.013432547 0.10346447 0.24782321 0.13768113 0.1879156 0.021522354 0.28301117
-0.08826265 0.20021175 -0.04014758 -0.15752673 0.09656155 0.41817647 0.0060444926 0.10619443
0.1785555 -0.018685937 0.07676164 -0.08114945 0.286152 0.13159722 0.0011727313 0.1280738
-0.30093077 0.188583 0.2504166 -0.055558927 -0.09028745 0.23838219 0.07000686 0.061024725
0.047877677 0.025999095 -0.01680578 -0.17790446 -0.007779617 0.28579378 0.3049261 0.23197639
-0.042110972 -0.08537467 -0.027929816 0.0963033 -0.020470077 -0.006044196 0.14196698 -0.27811685
-0.23242576 -0.028882701 -0.12906255 -0.23541427 -0.19100851 0.096307755 0.3040615 0.065354176
0.10505613 0.3400001 0.05635589 0.04403014 0.18291923 -0.1817154 0.30124843 -0.093082316
-0.05968635 -0.05220645 -0.13730675 0.06166681 0.072702594 0.043191686 0.021958709 -0.08979027
0.037692614 -0.14092658 -0.22202726 0.09544211 0.13001932 0.12517905 -0.008597002 -0.14647244
-0.077770725 -0.27331027 0.024317104 0.017573029 -0.22623773 0.19832128 -0.051413044 -0.23915759
-0.07458793 0.08279033 -0.084309414 -0.20537433 0.16824514 -0.021141488 -0.013745323 0.08308105
0.41065758 0.00646327 0.08003415 -0.41827932 -0.2299961 -0.11891886 0.038509075 0.12165901
0.2041602 0.19204843 -0.2218177 -0.30529118 0.1825755 0.09014529 0.31813943 -0.074152894
0.18700027 0.44995686 -0.028359963 -0.15889391 0.16213265 0.31957808 -0.07842184 0.1282415
0.11900083 -0.11460809 -0.101143494 -0.0122336885 -0.059564497 -0.013511305 0.17506178 0.18908247
-0.053947344 -0.08908828 -0.14123406 0.311861 0.10017826 -0.12213787 0.34347665 -0.030342968
00000000: c9f2 59be f570 2d3e fa9b 9b3e ac93 9a3e
00000010: d562 2e3d ba53 783e d299 4cbd 8529 6f3d
00000020: 9137 4d3d 404e 75be 8e38 933d 36fd 40bd
00000030: 3693 863e 563b 28be 189e 3fbe 8a38 50be
00000040: 811f e5ba 6ecd 8dbe c23b b93d 240a cebd
00000050: a65a 593e 092a 993e 4d97 9a3d 4d50 96bd
00000060: 75d2 5cbe dc0b f2bc f343 403d 878d 02be
00000070: 909f a83d 0e92 2bbe f711 6b3e 8b1f 0f3e
00000080: b4de fcbe 3951 70be 22b5 363c 3ba8 04be
00000090: c986 40be 8caf 77bc 6f51 debe 0342 9bbe
000000a0: 7f4c 993e e244 ba3e a550 9f3d f08d cfbb
000000b0: f773 2b3e 7b7e 36bb 7868 c73d 4fd5 07be
000000c0: 9135 e2be e289 19bc 13a0 59be 7a41 e7be
000000d0: a68a 7c3e 4c03 c73d d699 0c3d c0d3 643e
000000e0: 3c68 c8be b38d 8c3e 32ae 95bd 53ce 3d3d
000000f0: 5b0b dd3d e7b5 51bc 8627 25bd ac6c 6e3c
00000100: e67e 58be 052d c0bd a0d7 de3d 804c 4cbe
00000110: f194 88be 8efc f83d 50fd bbbd 3ad0 a6bd
00000120: 96d0 19be 987f ffb9 5efa fe3d 26a2 bf3d
00000130: d10b 803d 1432 04bc 555d ea3d abfd 25bd
00000140: 1f05 453e 1159 133e a90a eabb eaf1 0a3e
00000150: b931 783d 9db6 7dbd 8ed1 c33c 0529 123e
00000160: c5fb 7bbd f697 d3be 2987 c33c aef4 5fbd
00000170: a08f adbd 272c 4c3e 36e9 f0bd 093a 903d
00000180: aee3 423e ba38 27be 5af3 f33d e107 71be
00000190: 1bc3 1abe 9015 a5bd 3e2f 2ebe 4c14 1a3e
000001a0: 834e 11be b5a0 b73e 6ff5 86be e56e 633e
000001b0: 53f7 79bd adde 863b dfd2 3dbe b9f3 183e
000001c0: a10f 313d 1c47 03be 72e7 973d ab2b de3d
000001d0: feaf 2c3a 844a d8bd 5a9c 273d ac50 8c3c
000001e0: d4bb 92bd 3014 5cbc 2ee5 d33d 5ec5 7d3e
000001f0: 48fc 0c3e f26c 403e a64f b03c d7e6 903e
00000200: 0cc3 b4bd 4f04 4d3e ca71 24bd b04e 21be
00000210: 10c2 c53d 3a1b d63e e110 c63b 777c d93d
00000220: 41d7 363e 4013 99bc 3535 9d3d af31 a6bd
00000230: 8482 923e 6cc1 063e 55b6 993a c725 033e
00000240: 9913 9abe e71b 413e 9b36 803e c291 63bd
00000250: a0e8 b8bd 761a 743e c25f 8f3d 10f5 793d
00000260: 621b 443d 0efc d43c 46ac 89bc 962c 36be
00000270: 28ec febb 9053 923e 461f 9c3e 388b 6d3e
00000280: 8e7c 2cbd ead8 aebd 12cd e4bc aa3a c53d
00000290: ddb0 a7bc 640e c6bb cb5f 113e 5565 8ebe
000002a0: 0501 6ebe 6a9b ecbc f928 04be 7010 71be
000002b0: bc97 43be 003d c53d f3ad 9b3e 69d8 853d
000002c0: ab27 d73d 7e14 ae3e 6fd5 663d f358 343d
000002d0: 2e4f 3b3e 9a13 3abe 3c3d 9a3e f1a1 bebd
000002e0: ad79 74bd 6ed6 55bd 249a 0cbe 5696 7c3d
000002f0: 19e5 943d c4e9 303d c0e2 b33c f6e3 b7bd
00000300: 9263 1a3d 0f4f 10be 1d5b 63be 2777 c33d
00000310: c923 053e f02e 003e 71da 0cbc dffc 15be
00000320: 4246 9fbd 53ef 8bbe aa34 c73c 50f5 8f3c
00000330: ddaa 67be bc14 4b3e 7c96 52bd bae5 74be
00000340: 8fc1 98bd fa8d a93d 6aaa acbd a64d 52be
00000350: 7448 2c3e ea30 adbc 1034 61bc 6626 aa3d
00000360: b641 d23e d7c9 d33b f2e8 a33d b528 d6be
00000370: 1984 6bbe bb8b f3bd b1bb 1d3d 5c28 f93d
00000380: 5f0f 513e 58a8 443e 2e24 63be 204f 9cbe
00000390: 12f5 3a3e 189e b83d 2ce3 a23e 79dd 97bd
000003a0: 007d 3f3e bf60 e63e 2753 e8bc 16b5 22be
000003b0: 1a06 263e bd9f a33e a19b a0bd bd51 033e
000003c0: b5b6 f33d a5b7 eabd 5224 cfbd cf6f 48bc
000003d0: e7f9 73bd 855e 5dbc 6543 333e d69e 413e
000003e0: e4f7 5cbd eb73 b6bd a99f 10be 3fac 9f3e
000003f0: 422a cd3d 6b23 fabd 2cdc af3e d191 f8bc

Q.layers.1.bias f4 [50]
0.19368872 -0.07221836 -0.045726247 -0.025568059 -0.0073973853 -0.027349463 0.19323593 0.054219913
-0.041160066 -0.019209491 0.021822913 0.096386634 0.04585185 0.011553263 0.026614102 -0.09417849
0.08392439 0.14324506 -0.019200616 0.041386787 0.10279168 -0.028534532 0.02150035 0.038623072
-0.059387516 0.0047482303 -0.04114203 -0.12292225 -0.004895017 -0.021736572 0.048488013 0.047402073
0.031884737 -0.017109862 -0.021807611 -0.022415187 0.0098802615 0.09556525 0.02179912 0.027433408
-0.032119606 0.025395963 -0.032900784 0.016368907 0.03927221 -0.015852911 0.032483455 -0.02065612
0.09042325 -0.0005364978
00000000: 5656 463e 38e7 93bd 724b 3bbd 1b74 d1bc
00000010: c465 f2bb fb0b e0bc a4df 453e b315 5e3d
00000020: 7597 28bd 395d 9dbc f7c5 b23c 5b66 c53d
00000030: 26cf 3b3d e649 3d3c d105 da3c a7e0 c0bd
00000040: 8de0 ab3d d5ae 123e 9c4a 9dbc 3185 293d
00000050: 7284 d23d 40c1 e9bc 8121 b03c 3a33 1e3d
00000060: 5340 73bd 0b97 9b3b 8c84 28bd a9be fbbd
00000070: 6166 a0bb e510 b2bc 5e9b 463d ad28 423d
00000080: 9299 023d fb29 8cbc e0a5 b2bc 0ea0 b7bc
00000090: d2e0 213c b7b7 c33d 1194 b23c 07bc e03c
000000a0: d98f 03bd 320b d03c f9c2 06bd 1618 863c
000000b0: e6db 203d f7dd 81bc 5f0d 053d 0637 a9bc
000000c0: d32f b93d c2a3 0cba
