output/Darcy_PINN/weight.pth (torch, 90653 bytes, 22 tensors)

nn.mlps.0.layers.0.weight f4 [50, 2]
0	0xbe89c759	-0.26909903
1	0xbeadcfe5	-0.33947673
2	0x3c4cd223	0.012501272
3	0x3e829b71	0.25509217
4	0x3c95abb5	0.018270353
5	0x3d3d6c48	0.046245843
6	0xbe226261	-0.15857841
7	0x3e54ee86	0.20794114
8	0x3d5d9027	0.054092553
9	0xbe7955b7	-0.24349104
10	0x3deaf4a0	0.1147244
11	0x3dbb8fa1	0.091582544
12	0x3eba4c09	0.36386135
13	0x3ce722af	0.02821478
14	0xbd252a19	-0.04032335
15	0xbcf7479f	-0.030185519
16	0xbe9697bd	-0.29412642
17	0xbdc79451	-0.09745086
18	0x3df41329	0.11917717
19	0xbd9dd596	-0.07706754
20	0x3e491b82	0.196394
21	0x3ea55a03	0.32295236
22	0xbea97d06	-0.33103198
23	0x3e4bb083	0.19891553
24	0x3e3ded1f	0.18547486
25	0x3e877200	0.26454163
26	0xbdf59374	-0.11991015
27	0xbdcc913a	-0.09988637
28	0x3dfc0833	0.123062514
29	0xbec51d38	-0.38498855
30	0x3d8f7eb6	0.0700659
31	0xbe3431e4	-0.17597157
32	0xbda0ac6e	-0.07845388
33	0x3d4b6852	0.049660034
34	0xbe9563d6	-0.2917773
35	0x3e5f1e57	0.21788917
36	0x3d6655a7	0.05623403
37	0xbdc11eb2	-0.09429683
38	0xbdd2c41d	-0.10291312
39	0xbe82b95e	-0.2553205
40	0x3e56a90c	0.20962924
41	0x3c58db9b	0.013235952
42	0x3d84b4dc	0.06479809
43	0xbe1cc3ab	-0.15309016
44	0xbe8c33ca	-0.27383262
45	0xbd8adfd1	-0.06780971
46	0xbde233e3	-0.11045053
47	0xbc1b67e4	-0.009485219
48	0xbda9e49f	-0.08295559
49	0xbe9dae7c	-0.30797184
50	0x3da3a272	0.07989968
51	0x3e6373ae	0.22212097
52	0xbe589b06	-0.21152887
53	0xbe1b55d8	-0.15169466
54	0xbe628a3a	-0.22123042
55	0x3e616497	0.22011028
56	0xbe8c8c85	-0.27450958
57	0x3eab4f5f	0.33458993
58	0x3d3a8644	0.045538202
59	0x3dd0734f	0.10178243
60	0xbe9227bc	-0.2854594
61	0xbe4eacee	-0.20183155
62	0x3d8a4f88	0.06753451
63	0xbe173307	-0.14765559
64	0xbe4b8afe	-0.1987724
65	0x3d479398	0.04872474
66	0x3ea5361f	0.32267854
67	0x3ca3345b	0.019922426
68	0x3e538890	0.20657563
69	0x3e92301a	0.28552324
70	0xbe075dee	-0.13219425
71	0x3d8de260	0.06927943
72	0x3d9fe799	0.078078456
73	0xbdc14144	-0.094362766
74	0xbca06e1c	-0.019583754
75	0xbe868b9c	-0.26278389
76	0x3ea090fa	0.31360608
77	0xbd0dd45a	-0.034626342
78	0x3dfa7bde	0.12230657
79	0x3e56e8f6	0.20987305
80	0xbe09f998	-0.13474119
81	0x3dde39df	0.10850882
82	0x3e110dc4	0.14165407
83	0x3f059508	0.5218053
84	0x3d10a03a	0.035309054
85	0x3df976f6	0.12180893
86	0x3d81324d	0.06308422
87	0xbe7217ca	-0.23641887
88	0x3d223c59	0.039608333
89	0x3e2ff7df	0.17184399
90	0x3e7d9b75	0.24766333
91	0xbdd3ca3a	-0.10341306
92	0xbe94818a	-0.2900508
93	0xbd021fd7	-0.031768646
94	0xbd04c4fc	-0.03241442
95	0x3d087c89	0.03332189
96	0x3dd5d0ec	0.10440239
97	0xbe37b952	-0.17941788
98	0x3e64bcfd	0.22337718
99	0xbe18ec05	-0.14933784

nn.mlps.0.layers.0.bias f4 [50]
0	0x3d22cd8f	0.039746817
1	0x3dad4756	0.08460872
2	0xbda52cdd	-0.080651976
3	0x3ce4c94d	0.027928019
4	0xbdc76649	-0.09736306
5	0x3d00fe02	0.03149224
6	0x3bd5b086	0.0065212874
7	0xbd72b9ab	-0.059259098
8	0xbd1515af	-0.036397632
9	0x3cf9bd57	0.030485792
10	0xbd26376d	-0.040580202
11	0xbca9cd16	-0.020727675
12	0x3cc53a43	0.024075633
13	0x3d122812	0.035682745
14	0xbd072065	-0.03298988
15	0x3cf0dfb4	0.029403545
16	0x3ce01de2	0.027358
17	0x3d06f501	0.032948498
18	0x3d4e701d	0.05039989
19	0x3dfcd3a9	0.123450585
20	0x3b408813	0.0029377982
21	0x3d4d207f	0.05007982
22	0xbcaa5612	-0.020792995
23	0xbd226405	-0.039646167
24	0x3d22216a	0.039582647
25	0x3d6bf54e	0.057606988
26	0xbd1789a7	-0.03699651
27	0x3bd8b0c8	0.006612871
28	0xbb08b784	-0.0020861337
29	0xbd429c17	-0.04751214
30	0x3d9882dc	0.074468344
31	0x3d67f4ab	0.056629818
32	0x3db6dfa1	0.089293726
33	0x3d48c787	0.04901841
34	0x3deabc41	0.11461688
35	0xbd557724	-0.052115574
36	0xbdc6ee0d	-0.09713373
37	0xbd60b31c	-0.054858312
38	0xbc2291d9	-0.009922468
39	0x3d9483a1	0.07251669
40	0x3e068d13	0.13139753
41	0xbd457008	-0.048202544
42	0xbd0b5fa1	-0.034026746
43	0x3d61feec	0.055174753
44	0xbd8a658e	-0.06757651
45	0x3d19ef76	0.037581883
46	0x3d9d4f02	0.07681085
47	0xbdbdb5dc	-0.092632025
48	0x3cbdf2f7	0.023187144
49	0xbcbd107e	-0.023079153

nn.mlps.0.layers.1.weight f4 [50, 50]
0	0x3e0473f7	0.12934862
1	0xbe2bc3ae	-0.16773865
2	0xbc4b5197	-0.012409589
3	0x3cae7814	0.021297492
4	0xbe47db3e	-0.19517228
5	0xbd71cd9a	-0.059033968
6	0xbe8b89a4	-0.2725345
7	0xbdf4c9c1	-0.11952544
8	0xbe1f2d41	-0.15544607
9	0x3d89d98b	0.06730946
10	0xbe3a5731	-0.18197323
11	0x3cf695ce	0.03010073
12	0xbe100c94	-0.14067298
13	0xbe69e956	-0.22842917
14	0xbe4db6a4	-0.20089203
15	0xbc9ece6c	-0.019385539
16	0xbdf182a4	-0.11792496
17	0x3db88582	0.090098396
18	0x3e0f53f8	0.13996875
19	0xbe3f94dd	-0.1870913
20	0xbe2dbc23	-0.169663
21	0xbcfcb625	-0.030848572
22	0xbdd7414b	-0.105105005
23	0xbd94b1ce	-0.07260476
24	0x3cb53ee7	0.02212472
25	0x3e4f31c1	0.20233823
26	0x3cc73da8	0.024321392
27	0xbd612f16	-0.054976545
28	0xbc954683	-0.0182221
29	0xbd266857	-0.04062685
30	0x3e1d9707	0.15389644
31	0x3dacc9bd	0.08436916
32	0x3dc9611c	0.09832975
33	0x3e417fb5	0.18896373
34	0xbe8892aa	-0.26674396
35	0xbe041c05	-0.12901314
36	0x3da92f58	0.08260983
37	0xbe63a233	-0.22229843
38	0x3b6a01db	0.0035706672
39	0x3d122b3e	0.03568577
40	0xbcc705b6	-0.024294715
41	0x3e423b8a	0.18968025
42	0xb8af684f	-8.364079e-05
43	0xbdf57b3d	-0.119863965
44	0xbe9cf2e4	-0.3065406
45	0xbcd1d7de	-0.025615629
46	0x3d780ef1	0.060561124
47	0xbdc42334	-0.09577027
48	0x3de755cd	0.11295662
49	0x3d1d09f3	0.038339566
50	0xbe6015c8	-0.21883309
51	0xbcd5fae9	-0.02612062
52	0x3d15413b	0.03643916
53	0xbd843173	-0.06454744
54	0xb9cdc2d6	-0.0003924581
55	0x3c23727f	0.009976028
56	0xbd51d424	-0.051227704
57	0x3cae289a	0.021259595
58	0x3c39ca76	0.011339774
59	0x3e1e8553	0.15480547
60	0x3dc82e32	0.09774436
61	0xbdb26fe8	-0.08712751
62	0xbe81030b	-0.25197634
63	0x3e274922	0.16336492
64	0xbe03369e	-0.12813804
65	0xbdfa1678	-0.12211317
66	0xbe237173	-0.15961246
67	0xbc8ee06d	-0.017440999
68	0xbd0e1de5	-0.03469648
69	0xbd241c97	-0.040066328
70	0xbd9e402c	-0.077270836
71	0x3d0f06e5	0.034918685
72	0x3dc64a68	0.096821606
73	0x3e13d2fc	0.14435953
74	0xbdc80666	-0.097668454
75	0xbdb2c479	-0.087288804
76	0xbcc54c01	-0.024084093
77	0xbe36c7eb	-0.178497
78	0xbc1ada30	-0.009451434
79	0xbdf4da78	-0.11955732
80	0xbe06f464	-0.13179165
81	0x3e0f541c	0.13996929
82	0x3e0beacf	0.13663791
83	0x3e04ef56	0.12981924
84	0xbe05488d	-0.13015957
85	0x3ce98cab	0.028509459
86	0xbbba4329	-0.0056842756
87	0xbdf5f6b1	-0.12009943
88	0xbdbe8fd9	-0.093047805
89	0xbb8794dc	-0.0041376185
90	0xbd45fc88	-0.048336536
91	0x3bd08abe	0.0063641956
92	0x3dcd659c	0.10029146
93	0xbd0bea17	-0.034158792
94	0xbbea84a4	-0.0071569253
95	0x3e1fbb0c	0.15598696
96	0x3d58ad3b	0.05289958
97	0x3eee5baa	0.4655431
98	0xbe31cb75	-0.17362769
99	0xbbc61b5b	-0.0060457415
100	0x3d8ab377	0.067725115
101	0x3ddf0d55	0.10891215
102	0x3e2f8960	0.17142248
103	0xbe01a21a	-0.12659493
104	0xbdf34f00	-0.118803024
105	0xbe7382f8	-0.2378043
106	0x3e4b5d37	0.19859777
107	0x3da6b46f	0.08139884
108	0xbe821f29	-0.25414398
109	0xbe0ee309	-0.13953795
110	0x3e532243	0.20618539
111	0x3e271ef9	0.16320409
112	0x3d905b15	0.070486225
113	0xbb5fc3e2	-0.0034143855
114	0x3d7c4931	0.06159324
115	0x3c915db0	0.017744869
116	0x3ca94085	0.020660648
117	0xbd7cab22	-0.061686642
118	0x3e005f35	0.12536319
119	0x3e1367cc	0.14395064
120	0x3db9be81	0.09069539
121	0xbdcacfe3	-0.099029325
122	0xbd400a70	-0.046884954
123	0xbd28f630	-0.041250408
124	0x3e08e43f	0.13368319
125	0xbc3345e3	-0.010941955
126	0x3df17ecb	0.11791762
127	0xbea94d77	-0.33066913
128	0xbe3a0f0b	-0.18169801
129	0x3e507544	0.20357233
130	0xbaf48132	-0.0018654226
131	0xbe0154ef	-0.12630056
132	0x3d0dfce3	0.034665
133	0xbd94d04f	-0.07266294
134	0x3dcab10e	0.09897052
135	0x3ddb43f6	0.10706322
136	0x3e931949	0.2873023
137	0x3eb30244	0.34962666
138	0xbe3e196e	-0.18564388
139	0xbd857e33	-0.06518211
140	0xbcb6dc91	-0.022321971
141	0xbd063be7	-0.03277197
142	0xbbcf51ca	-0.0063268887
143	0xbe912d1e	-0.28354734
144	0x3e8b5fd1	0.2722154
145	0x3c1c54f3	0.009541738
146	0xbdd7b13b	-0.10531851
147	0xbdb0a5e9	-0.08625395
148	0xbcef50d6	-0.02921335
149	0x3cac47c6	0.021030318
150	0x3e0cb3b5	0.13740428
151	0x3b12a36d	0.0022375241
152	0xbe156e50	-0.14592862
153	0x3e49d4a8	0.19710028
154	0x3dab1ee9	0.08355505
155	0x3e16a4b9	0.14711274
156	0x3e9fb1ec	0.3119043
157	0xbd8b22bb	-0.06793734
158	0xbdb31b3d	-0.0874543
159	0xbe1dc7ac	-0.154082
160	0x3ce77387	0.02825333
161	0x3e356a48	0.17716324
162	0xbe0f43c4	-0.13990694
163	0x3e57f399	0.21089019
164	0x3e156c38	0.14592063
165	0x3c67b433	0.014142084
166	0x3e2f3c2b	0.17112796
167	0xbdaccb3f	-0.084372036
168	0x3db8cb4b	0.0902315
169	0x3e149aff	0.14512251
170	0x3dbc299c	0.09187624
171	0xbd784e99	-0.06062183
172	0xbd35856e	-0.0443167
173	0x3e4d82d5	0.2006944
174	0xbb8c7f25	-0.0042876177
175	0x3e580db6	0.2109898
176	0xbd03071e	-0.03198921
177	0x3e6fbb43	0.23411278
178	0x3dbc0dae	0.09182297
179	0x3c6b4ab3	0.014361071
180	0x3e60cae0	0.2195239
181	0x3da1a7df	0.07893347
182	0x3e705687	0.23470508
183	0x3ccd0726	0.025027823
184	0xbeb2e393	-0.3493925
185	0xbe144db7	-0.14482771
186	0x3c6451e8	0.013935544
187	0x3e062bee	0.13102695
188	0x3e812892	0.25226265
189	0x3bc2e295	0.005947421
190	0xbe7892f9	-0.24274816
191	0x3b6e6437	0.003637565
192	0xbd94219e	-0.072329745
193	0xbc542e9f	-0.012950568
194	0x3e19c699	0.15017165
195	0x3e11f450	0.14253354
196	0xbe1632b1	-0.14667775
197	0x3dd2264e	0.10261212
198	0xbe4b15dd	-0.19832559
199	0xbd17d869	-0.03707162
200	0x3df666f9	0.12031359
201	0xbe246b73	-0.16056614
202	0xbc279d71	-0.010230408
203	0xbcb3208b	-0.021866104
204	0x3e0b1fa2	0.13586286
205	0xbbf93c9a	-0.007606101
206	0x3e52703d	0.20550628
207	0xbe729bce	-0.23692247
208	0x3c6819a3	0.0141662685
209	0x3d895495	0.06705586
210	0xbcc51ad1	-0.024060639
211	0xbe3dc201	-0.18531038
212	0xbd0e1d2c	-0.03469579
213	0xbda83660	-0.08213496
214	0xbd8aef6e	-0.06783949
215	0x3d240983	0.040048134
216	0xbde29b31	-0.11064757
217	0x3d328704	0.043585792
218	0x3e1cd262	0.1531463
219	0xbec96ec2	-0.39342314
220	0xbc0e2afc	-0.00867724
221	0xbdf3882f	-0.11891209
222	0xba2d2fcf	-0.00066065503
223	0x3e4ab0a5	0.19793947
224	0xbe57f7dd	-0.21090646
225	0x3c6e99df	0.014563053
226	0x3e797edb	0.24364798
227	0x3e06e519	0.13173331
228	0x3e45112b	0.1924483
229	0x3da12578	0.07868475
230	0xbe334399	-0.17506255
231	0x3da3fc10	0.080070615
232	0x3e3c2617	0.18373905
233	0x3d44b8a2	0.048027642
234	0xbe76a57d	-0.24086566
235	0xbd55f17d	-0.052232254
236	0x3c63c223	0.013901266
237	0xbd2d0139	-0.042237494
238	0x3ea91b60	0.33028698
239	0xbe0d5718	-0.13802755
240	0xbd86fab7	-0.06590789
241	0x3ded88c9	0.11598355
242	0x3e9ec815	0.31012025
243	0xbe64434f	-0.22291301
244	0x3e0b6d10	0.13615823
245	0xbde0c401	-0.10974885
246	0x3d32768c	0.043570086
247	0x3df1ff78	0.11816305
248	0x3dd253ed	0.10269914
249	0x3cf50730	0.029910654
250	0xbd95a649	-0.07307107
251	0xbe038975	-0.12845404
252	0x3de212a7	0.11038714
253	0xb885f33d	-6.387241e-05
254	0x3e667091	0.22503878
255	0xbe50039d	-0.20313878

nn.mlps.0.layers.1.bias f4 [50]
0	0x3d8f9750	0.070112824
1	0xbd9c09d7	-0.07619064
2	0xbda3950a	-0.07987411
3	0xbd48efde	-0.04905688
4	0xbdc638e7	-0.09678822
5	0xbd913335	-0.07089845
6	0x3d16b423	0.036792886
7	0x3d9507c3	0.07276871
8	0x3d3e8b3f	0.046519514
9	0xbd7ca237	-0.061678138
10	0x3d50607b	0.05087326
11	0xbd8a2478	-0.06745237
12	0xbd4b3165	-0.049607653
13	0xbd1909e8	-0.037362963
14	0x3da381d9	0.07983751
15	0x3d9bcc5b	0.07607337
16	0xbc315b78	-0.0108250305
17	0x3c399c39	0.01132875
18	0x3e1cdc71	0.15318467
19	0xbded6c04	-0.11592868
20	0x3d27505b	0.040848117
21	0xbd3577b7	-0.044303622
22	0x3d2b8617	0.041875925
23	0xbc031062	-0.007999511
24	0xbc4ebe28	-0.012618579
25	0xbd873589	-0.06602008
26	0x3c24aae3	0.010050508
27	0xbc5f6532	-0.013634967
28	0xbd84e813	-0.06489577
29	0xbc77fa26	-0.015135324
30	0xbce09e1e	-0.027419146
31	0x3d8594b5	0.06522504
32	0xbda67e83	-0.08129599
33	0x3d19c5ca	0.037542142
34	0x3d703dcc	0.058652684
35	0xbc58da6f	-0.013235672
36	0xbc691f60	-0.014228672
37	0x3ddee015	0.10882584
38	0x3d608433	0.054813575
39	0xbc785886	-0.015157824
40	0xbd15eba0	-0.036601663
41	0xbce5fe29	-0.028075295
42	0x3d59f1c0	0.053209066
43	0x3d252983	0.04032279
44	0x3d380f5f	0.044936534
45	0xbd0120ab	-0.031525295
46	0xbc6b8c57	-0.014376721
47	0xbd6807c0	-0.056648016
48	0xbddc42e8	-0.10754949
49	0xbd4936ac	-0.049124405

nn.mlps.0.layers.2.weight f4 [50, 50]
0	0x3d9c6da4	0.076381
1	0xbd317a77	-0.043329682
2	0xbdd0863c	-0.10181853
3	0x3dbc6cd9	0.092004485
4	0xbe239fd3	-0.15978937
5	0xbda3f692	-0.08006014
6	0x3dac57ea	0.08415206
7	0x3d3b2d06	0.045697235
8	0x3e2b2917	0.16714893
9	0x3d10cf0f	0.035353716
10	0x3a38826b	0.0007038477
11	0x3da0780c	0.07835397
12	0x3e2410a2	0.1602197
13	0x3e136bbb	0.14396565
14	0x3e641b03	0.22275929
15	0xbcfb8af6	-0.03070591
16	0xbe1d914e	-0.1538746
17	0x3e54635c	0.20741028
18	0xbdc37d4c	-0.09545383
19	0xbe12157b	-0.14266007
20	0xbdc2db22	-0.095144525
21	0x3df0895e	0.11744951
22	0x3d74932f	0.059710678
23	0x3dd5adbb	0.10433527
24	0xbcdaf384	-0.026727445
25	0xbdf9e448	-0.12201744
26	0x3df153a0	0.11783528
27	0x3c3c2421	0.011483223
28	0xbe3702dd	-0.17872186
29	0xbdbdc42b	-0.09265932
30	0xbddd6336	-0.108099386
31	0xbdebcd49	-0.115137644
32	0xbe978f77	-0.29601642
33	0xbe530b89	-0.20609869
34	0x3e4169e8	0.18888056
35	0x3dd7aa50	0.105305314
36	0xbdd9e4bb	-0.1063933
37	0x3de82413	0.113350056
38	0x3e06b8d3	0.13156442
39	0xbca972da	-0.020684648
40	0x3e042bd0	0.12907338
41	0x3bd96a55	0.00663499
42	0x3c9f675b	0.019458463
43	0xbd5fc3c3	-0.054630052
44	0x3d8d611a	0.06903286
45	0xbe00929f	-0.12555932
46	0xbe460841	-0.19339086
47	0xbe2e54df	-0.17024563
48	0xbec349de	-0.38142294
49	0x3d03f5bf	0.032216784
50	0x3d93b49c	0.07212183
51	0xbcbec203	-0.023285871
52	0xbe120b81	-0.14262201
53	0xbe76ed47	-0.24113952
54	0x3e1443d5	0.14479001
55	0xbda591c6	-0.08084445
56	0xbc2648ac	-0.010149162
57	0xbd035e2a	-0.032072224
58	0x3e4134bd	0.18867774
59	0xbe779d50	-0.24181104
60	0x3e3c597b	0.18393509
61	0xbe6ad0e8	-0.22931254
62	0xbe184372	-0.14869478
63	0xbe17a8a9	-0.14810432
64	0x3ecf5eae	0.40501922
65	0x3e26bb05	0.1628228
66	0xbdbfa919	-0.09358425
67	0x3c3d1170	0.011539802
68	0xbd6b34ac	-0.05742328
69	0xbe4ca611	-0.19985224
70	0xbce77db1	-0.028258177
71	0xbd98c467	-0.07459336
72	0x3dd4695e	0.1037166
73	0x3d9340e5	0.07190112
74	0x3c878fbc	0.01654803
75	0xbdf41ac8	-0.119191706
76	0x3c152206	0.00910235
77	0x3b046d6f	0.002020683
78	0xbe836b15	-0.25667635
79	0xbce7540f	-0.028238324
80	0xbe0d4c9a	-0.13798752
81	0xbbc34f80	-0.005960405
82	0xbbfeb36a	-0.0077728527
83	0x3e12ab04	0.1432305
84	0xbb39dccf	-0.0028360372
85	0x3e0c0df0	0.13677192
86	0xbdeec41e	-0.116585
87	0x3e624db0	0.22099948
88	0x3e8a9aaa	0.27071124
89	0x3e0ec7aa	0.13943353
90	0x3dcf7d24	0.101312906
91	0x3d108685	0.035284538
92	0x3e639d51	0.2222798
93	0xbecf0d4a	-0.40439826
94	0xbda7d89d	-0.081956126
95	0xbdac0c94	-0.084008366
96	0x3e1a5f26	0.15075359
97	0x3b91e722	0.004452602
98	0xbe4cd62b	-0.20003574
99	0xbea2c4d9	-0.31790808
100	0xbd51856a	-0.051152624
101	0xbd9e1e72	-0.07720651
102	0x3de2304c	0.11044368
103	0xbe9dcced	-0.30820408
104	0x3ee0d44b	0.43911967
105	0x3d537111	0.0516215
106	0xbe2963b3	-0.16541938
107	0xbc219864	-0.009862993
108	0x3c56b0cd	0.013103676
109	0x3e355a3e	0.17710206
110	0x3b9b35bb	0.00473663
111	0xbeb80cd6	-0.35947293
112	0xbd9eabd6	-0.07747619
113	0xbb25bd63	-0.0025289885
114	0xbc989df2	-0.018630002
115	0xbd46dfa1	-0.048553113
116	0x3d5165ef	0.051122602
117	0x3dc0b181	0.09408856
118	0xbe950ac4	-0.29109776
119	0x3e9d8c1c	0.30770957
120	0x3d3932a0	0.045214295
121	0x3c8519c4	0.016247638
122	0x3d86be3f	0.06579255
123	0xbd483cc8	-0.04888609
124	0xbe19b21f	-0.15009354
125	0x3e71609b	0.23572008
126	0xbdb36466	-0.08759384
127	0x3d3c1745	0.04592063
128	0x3e4bcfcf	0.19903491
129	0x3dac1fa8	0.084044755
130	0xbe16c761	-0.14724495
131	0xbd9b631f	-0.07587265
132	0x3b248d29	0.0025108552
133	0x3de6b0f1	0.11264218
134	0x3d15b91b	0.036553483
135	0x3d4b7615	0.04967316
136	0x3e56b9cd	0.20969315
137	0x3dab31af	0.08359086
138	0x3e347e98	0.17626417
139	0xbcfb62a8	-0.030686691
140	0xbcd64f7f	-0.026160954
141	0xbda995a1	-0.082804926
142	0xbd62b784	-0.055350795
143	0x3e4635d9	0.19356479
144	0x3e0d340c	0.13789386
145	0x3e25ab52	0.16178635
146	0xbdf8c5fe	-0.12147139
147	0xbcbebd91	-0.023283752
148	0xbd67853c	-0.056523547
149	0xbdc4a9cb	-0.09602698
150	0xbdfb1846	-0.12260489
151	0xbd322f94	-0.043502405
152	0x3eb8b213	0.3607336
153	0xbd527412	-0.051380225
154	0x3eca971e	0.39568418
155	0x3e23560a	0.1595079
156	0xbb9f60c1	-0.004863829
157	0xbe38dfa5	-0.18054064
158	0xbe8d6bfb	-0.27621445
159	0xbe20e17b	-0.15711014
160	0x3dc67543	0.09690335
161	0xbdc8a3c5	-0.097968616
162	0x3e831455	0.2560145
163	0x3e33e262	0.17566827
164	0xbe0ec63e	-0.13942811
165	0x3d9f4b21	0.077780016
166	0x3b860d51	0.004090943
167	0xbd3aa65b	-0.045568805
168	0xbd67c4bd	-0.05658411
169	0x3df4ed16	0.11959283
170	0x3e2a1566	0.16609725
171	0x3d543fd5	0.051818687
172	0x3c835ad5	0.016034523
173	0xbe21e3c7	-0.15809546
174	0x3e32f338	0.17475593
175	0x3cbfb913	0.02340368
176	0x3dc2ad7d	0.095057465
177	0x3c3f8dd2	0.011691527
178	0x3e1cc34a	0.15308872
179	0xbd0170d5	-0.031601746
180	0x3e157e09	0.1459886
181	0x3e833c64	0.25632012
182	0xbe0a4afc	-0.13505167
183	0x3e4e7e69	0.20165409
184	0x3d953feb	0.07287582
185	0xbd729084	-0.059219852
186	0x3e5beadf	0.21476315
187	0x3adb9582	0.0016752931
188	0x3c339e17	0.0109629845
189	0x3e2aa340	0.16663837
190	0x3dc0ce23	0.094143175
191	0x3d24aca6	0.040203713
192	0xbce6ddf6	-0.028182011
193	0xbd1a87cf	-0.037727173
194	0xbe13d72c	-0.1443755
195	0x3e80dabc	0.2516688
196	0x3ddfedb8	0.10934013
197	0x3dbcc732	0.09217681
198	0xbda21ab3	-0.07915249
199	0x3dda6b18	0.10664958
200	0xbcd41929	-0.025890904
201	0x3d81ac7d	0.06331728
202	0x3d21f96e	0.039544515
203	0xbe611e4a	-0.2198421
204	0x3d8f2ba5	0.069907464
205	0x3e15172f	0.14559625
206	0xbe8a0355	-0.26955667
207	0x3e74c92f	0.2390487
208	0xbda2e9f4	-0.07954779
209	0x3e4636ad	0.19356795
210	0xbeaae9fb	-0.33381638
211	0x3df05ce3	0.11736467
212	0x3ca84f07	0.020545496
213	0xbe68d522	-0.22737554
214	0xbeac5a1c	-0.33662498
215	0xbe562f0a	-0.20916381
216	0xbddb3755	-0.10703913
217	0xbe1aafab	-0.15106075
218	0x3d06ccf0	0.032910287
219	0x3dab36f6	0.08360092
220	0xbdc83341	-0.09775401
221	0xbb93774a	-0.0045003043
222	0x3d64c660	0.055853248
223	0x3d942be6	0.072349355
224	0x3d80a1c3	0.062808536
225	0xbd45d374	-0.04829736
226	0x3d80b1d0	0.06283915
227	0x3caffaa7	0.021481825
228	0x3e721df1	0.23644234
229	0x3c2b72ab	0.010464351
230	0xbca708a5	-0.020389864
231	0xbdf1d378	-0.118079126
232	0x3d356fc9	0.04429606
233	0xbd9d43a3	-0.07678916
234	0xbda5cbe8	-0.08095533
235	0xbe40a964	-0.18814617
236	0x3e016937	0.12637793
237	0xbe0f2958	-0.13980615
238	0xbe30244f	-0.1720135
239	0xbcd593ec	-0.026071511
240	0x3d0f0b1a	0.034922697
241	0x3d604111	0.054749552
242	0x3e02c1df	0.12769268
243	0xbc955319	-0.0182281
244	0x3d2bed90	0.041974604
245	0x3d6bfca4	0.057613984
246	0x3db58bfe	0.08864592
247	0x3dea9110	0.1145345
248	0x3d05e2b1	0.032686893
249	0xbb5cd57c	-0.0033696583
250	0x3e838039	0.25683764
251	0xbce627c4	-0.028095134
252	0xbeb53f03	-0.35399637
253	0x3d3dbeb6	0.046324454
254	0x3dd5531c	0.104162425
255	0xbe9466aa	-0.28984576

nn.mlps.0.layers.2.bias f4 [50]
0	0x3ce3ad54	0.02779261
1	0x3d42c716	0.047553144
2	0xbd38d074	-0.04512067
3	0xbd3c24af	-0.04593342
4	0xbd983bb7	-0.07433265
5	0x3dacc5fa	0.084361985
6	0x3d554308	0.05206588
7	0x3b97cffc	0.004632948
8	0xbce7bdc4	-0.02828873
9	0x3d8512e1	0.064977415
10	0xbc2a2783	-0.010385397
11	0x3d1d32c9	0.03837851
12	0x3d62f8a7	0.055412915
13	0xbd1f2b8f	-0.0388599
14	0x3d2d5afc	0.042323098
15	0xbd1dd2fa	-0.03853128
16	0xbda4ab96	-0.0804054
17	0x3d4beb17	0.049784746
18	0x3d629988	0.0553222
19	0x3c387d05	0.011260276
20	0x3c11d816	0.008901617
21	0xbd770fa2	-0.060317643
22	0x3cff00dc	0.03112834
23	0xbd361b1f	-0.04445946
24	0xbd750c3a	-0.059826113
25	0xbd8d1300	-0.068883896
26	0x3d394700	0.045233727
27	0xbc1ed72b	-0.009694855
28	0xbceeac59	-0.029134916
29	0xbcf5ead9	-0.03001921
30	0x3c6ab4ef	0.0143253645
31	0x3d5954d8	0.05305943
32	0xbd76799d	-0.060174573
33	0xbd9b55a5	-0.07584695
34	0x3d4c9f5e	0.049956672
35	0xbd32ebc8	-0.04368189
36	0xbca11181	-0.019661667
37	0x3d507d4c	0.050900742
38	0x3d3ae61a	0.0456296
39	0xbc956e76	-0.018241148
40	0xbc76529f	-0.015034347
41	0x3d5e8d4f	0.05433398
42	0xbd16a2c6	-0.036776327
43	0xbcaf8066	-0.02142353
44	0x3da0230f	0.07819187
45	0x3d7c16d8	0.061545223
46	0x3d00bbb3	0.031429004
47	0x3d231d52	0.039822884
48	0x3caa7161	0.020806016
49	0xbccef539	-0.025263416

nn.mlps.0.layers.3.weight f4 [50, 50]
0	0xbeb00d76	-0.3438527
1	0x3d8c5034	0.06851235
2	0xbbd39826	-0.0064573465
3	0x3e6f2f5c	0.2335791
4	0x3e3f7fc4	0.18701082
5	0xbe0b262b	-0.13588779
6	0xbd4750c9	-0.048661027
7	0xbe060343	-0.13087182
8	0xbdb19e36	-0.086727545
9	0xbbedefa1	-0.007261232
10	0x3e1a70fa	0.1508216
11	0xbdf2b1cb	-0.118503176
12	0x3d71432d	0.058901954
13	0x3db053c7	0.08609729
14	0xbddefcdc	-0.10888073
15	0x3d74f4eb	0.059803884
16	0x3e8d46b7	0.27593014
17	0x3d6f9b99	0.058498
18	0x3dd0bca5	0.10192231
19	0x3dda68aa	0.10664494
20	0x3db5e920	0.08882356
21	0x3c31d1d0	0.010853246
22	0xbe5fae83	-0.21843915
23	0xbe1f3730	-0.15548396
24	0x3e08ac7e	0.1334705
25	0x3e255375	0.16145118
26	0xbd6ee3e3	-0.0583228
27	0xbd2b5a9d	-0.041834462
28	0xbe555a7a	-0.20835295
29	0xbe890d58	-0.26767993
30	0x3d90421e	0.07043861
31	0x3df3bef6	0.11901657
32	0xbd4934a5	-0.04912247
33	0x3cc84934	0.024448968
34	0xbcdd1828	-0.026989058
35	0xbd6a021a	-0.05713091
36	0xbd98472f	-0.07435452
37	0xbdc0eadc	-0.09419796
38	0x3d1a4223	0.03766073
39	0xbb8dec01	-0.0043311124
40	0x3e5f659a	0.21816102
41	0x3e388341	0.1801882
42	0xbe42a63b	-0.19008724
43	0xbdc6109b	-0.09671136
44	0x3d24f53d	0.04027294
45	0xbdc0be26	-0.09411268
46	0x3e944d44	0.289652
47	0xbda4cd67	-0.0804699
48	0x3dc8c5f7	0.09803384
49	0x3e8d1049	0.27551487
50	0xbd7b7886	-0.061394237
51	0x3dc3168e	0.09525786
52	0xbc5bb741	-0.01341039
53	0x3de818da	0.11332865
54	0xbdd67393	-0.10471263
55	0x3e0ce02b	0.13757388
56	0xbd29fc00	-0.04150009
57	0x3de4fc71	0.11180962
58	0xbc756a10	-0.014978901
59	0xbd15dc0b	-0.036586802
60	0xbdf3060f	-0.1186639
61	0xbda3adb0	-0.07992113
62	0xbd03d7c0	-0.032188177
63	0x3e5f9a69	0.21836247
64	0x3e47582c	0.19467229
65	0x3de14100	0.10998726
66	0x3e5e4197	0.21704708
67	0xbe041076	-0.12896904
68	0xbc07cb21	-0.008288176
69	0x3e8bc41e	0.27298063
70	0xbdfcd5ac	-0.12345442
71	0x3e47b638	0.19503105
72	0x3db951e6	0.09048824
73	0xbcf93be7	-0.030424071
74	0xbe2e11b6	-0.16998944
75	0xbcec7e5a	-0.028868843
76	0xbe88a9c1	-0.26692012
77	0x3dc6cb1c	0.09706709
78	0x3e95fb21	0.2929316
79	0x3c2c22da	0.010506356
80	0x3e912aa5	0.28352848
81	0xbdcb5c51	-0.09929717
82	0xbe333f02	-0.17504504
83	0x3e0453af	0.12922548
84	0x3ea72ec5	0.3265287
85	0xbd8fdaab	-0.070241295
86	0x3e09e9e1	0.13468124
87	0xbc12ec3c	-0.0089674555
88	0xbe4ab552	-0.1979573
89	0xbe33ffba	-0.1757802
90	0x3e7aeb28	0.24503767
91	0xbdb43ed3	-0.08801045
92	0xbe4c2324	-0.1993528
93	0x3d9318ec	0.07182488
94	0xbdef4313	-0.11682715
95	0x3dbf4ddf	0.093410246
96	0xbd87f698	-0.06638831
97	0x3d89d7b7	0.067305975
98	0xbdbdb759	-0.092634864
99	0x3d7740a2	0.060364373
100	0xbe577f76	-0.21044716
101	0xbe0429cd	-0.1290657
102	0x3e637e69	0.2221619
103	0xbe0e9747	-0.13924895
104	0xbdf18bf9	-0.11794276
105	0xbd9969c6	-0.07490878
106	0x3e3de681	0.18544962
107	0x3e4c9ec3	0.19982438
108	0xbde4bccd	-0.111688234
109	0xbdc8610c	-0.09784135
110	0x3da5f40f	0.08103191
111	0xbe28086f	-0.16409467
112	0xbd53ae2f	-0.051679786
113	0x3e61bcd7	0.22044693
114	0xbda18c96	-0.07888143
115	0x3d144929	0.036202583
116	0x3e74045e	0.23829791
117	0x3d4d0a2f	0.05005854
118	0xbd48b8b6	-0.04900428
119	0xbda76fde	-0.08175634
120	0xbd0926e6	-0.033484362
121	0xba128a9d	-0.0005590113
122	0x3d537252	0.051622696
123	0xbd707b58	-0.05871138
124	0x3d21185d	0.039329875
125	0x3d3a9d04	0.045559898
126	0xbe01b384	-0.12666136
127	0xbda810e5	-0.082063474
128	0x3d487f3c	0.048949465
129	0xbb4e5c7f	-0.0031488237
130	0x3e5b9542	0.21443656
131	0x3e232e25	0.15935571
132	0xbd1729df	-0.036905166
133	0xbe1644c2	-0.14674667
134	0x3b860d8f	0.004090972
135	0x3d9c4cf2	0.07631864
136	0xbe25c9f1	-0.16190316
137	0xbd0314d0	-0.03200227
138	0xbde3c578	-0.111216486
139	0xbdcbf195	-0.099581875
140	0xbe293360	-0.16523504
141	0x3e398571	0.1811731
142	0x3e5a1399	0.21296538
143	0xbe1fe6df	-0.15615414
144	0x3d282e4f	0.04105979
145	0x3e182098	0.14856184
146	0x3e7d0e4d	0.24712487
147	0x3db7c7ed	0.0897368
148	0x3e85195d	0.25995913
149	0x3e25bcea	0.16185346
150	0xbeca4a3a	-0.39509755
151	0xbd9bc2cc	-0.07605514
152	0x3e8b5cee	0.27219337
153	0x3e1f49ca	0.15555492
154	0x3c350b47	0.011050052
155	0xbe894e3e	-0.26817507
156	0x3e27e7f7	0.16397081
157	0x3ddd61f7	0.10809701
158	0xbe9a35c2	-0.3011914
159	0x3e12982b	0.1431586
160	0xbd1c33e4	-0.038135424
161	0x3e493f2f	0.19653009
162	0xbd97aa3b	-0.07405516
163	0x3d6382f7	0.05554482
164	0xbdc8b367	-0.09799843
165	0xbd80bcf9	-0.06286044
166	0x3e220222	0.15821126
167	0xbdf04c29	-0.117332764
168	0x3e5746da	0.21023121
169	0x3ec5e6da	0.38652688
170	0x3cb0bd5b	0.021574667
171	0x3de6111a	0.112337306
172	0x3d14773a	0.036246516
173	0x3d44f152	0.048081703
174	0xbbc10667	-0.005890656
175	0x3e46ff9e	0.19433448
176	0x3cab1237	0.020882709
177	0x3e20dc49	0.15709032
178	0x3de0726e	0.10959326
179	0x3c796144	0.015220944
180	0x3da3b0b3	0.07992687
181	0xbde226c3	-0.110425495
182	0x3dc9c103	0.09851267
183	0x3da9ffd2	0.08300747
184	0xbeaa8d24	-0.33310807
185	0x3dbea6b1	0.093091376
186	0x3bc84ac7	0.00611243
187	0x3d927ccd	0.0715271
188	0xbe8d656f	-0.2761645
189	0xbe929f32	-0.2863708
190	0x3eb02ec3	0.34410676
191	0x3dc813e6	0.0976942
192	0x3da2b108	0.07943922
193	0xbde206f7	-0.11036485
194	0xbea5cd2a	-0.3238309
195	0x3e1c9d2a	0.15294328
196	0x3c99bc03	0.018766409
197	0xbe8e59d1	-0.278029
198	0x3e6c2e2e	0.23064491
199	0x3e06134d	0.130933
200	0x3c78a265	0.015175437
201	0xbea2f897	-0.31830284
202	0xbd88eb62	-0.06685521
203	0x3e2b8cc8	0.16752923
204	0x3e3c85c9	0.1841041
205	0xbe0579bf	-0.13034724
206	0xbd062188	-0.03274682
207	0x3dff5314	0.12467018
208	0x3d954ebd	0.07290409
209	0xbe27c51b	-0.16383784
210	0xbd64c4ae	-0.05585163
211	0x3b7b1b41	0.0038315805
212	0xbd0f9a0e	-0.035059027
213	0xbe3633e7	-0.17793237
214	0xbe0af8fd	-0.13571544
215	0x3cb71e1d	0.022353226
216	0xbddbf84b	-0.107407175
217	0xbe684d58	-0.22685754
218	0xbed70e34	-0.42003024
219	0x3e606221	0.21912433
220	0xbe16695f	-0.14688633
221	0xbc0e9fc6	-0.008705085
222	0xbc282433	-0.010262537
223	0x3e23b547	0.1598712
224	0xbc6cfbea	-0.014464358
225	0x3e2a9710	0.16659188
226	0xbe5fe1db	-0.21863501
227	0xbd9fce1b	-0.078029834
228	0x3e418d1e	0.18901488
229	0xbd437910	-0.047722876
230	0xbe2b01c8	-0.16699898
231	0x3e8470bd	0.25867262
232	0x3cbc79d6	0.023007315
233	0x3d746dd7	0.059675064
234	0xbdcddc55	-0.100517906
235	0x3ec93d7b	0.39304718
236	0x3ba12d95	0.004918764
237	0xbe049177	-0.12946115
238	0x3df8aa72	0.12141885
239	0x3df36326	0.118841454
240	0x3e30d88a	0.17270103
241	0x3e8b1d3b	0.2717074
242	0x3c8be9e5	0.017079303
243	0x3dd04407	0.10169225
244	0xbde54d09	-0.11196334
245	0xbe2b2958	-0.1671499
246	0x3da8c609	0.08240897
247	0xbe8b64b5	-0.2722527
248	0xbe4b5cc7	-0.1985961
249	0x3d8e56af	0.06950127
250	0x3e2b724f	0.16742824
251	0x3e06a111	0.1314738
252	0xbdf39170	-0.118929744
253	0x3d6b72a7	0.057482388
254	0xbe8b919c	-0.2725953
255	0x3d86c84b	0.065811716

nn.mlps.0.layers.3.bias f4 [50]
0	0x3cc26048	0.023727551
1	0xbca4ed96	-0.020132821
2	0x3d082f4e	0.03324824
3	0xbd6c9a1a	-0.05776415
4	0xbd84891b	-0.06471463
5	0xbc324004	-0.01087952
6	0x3d1e440a	0.038639106
7	0x3d24a109	0.040192638
8	0x3d11cb9c	0.035594568
9	0xbd1227fe	-0.03568267
10	0xbd3cdc83	-0.046108734
11	0x3d1eee80	0.03880167
12	0x3d07b982	0.0331359
13	0xbd14c379	-0.03631923
14	0x3d0e6cf0	0.03477186
15	0xbd2dd1c8	-0.04243639
16	0xbd0a0154	-0.033692673
17	0xbd6e1bab	-0.058131855
18	0xbca1079f	-0.019656954
19	0xbc03139a	-0.008000279
20	0x3d25c17c	0.040467724
21	0xbc9c553b	-0.01908361
22	0x3cf66976	0.030079585
23	0xbb9c7e5e	-0.0047758063
24	0xbcfc339f	-0.030786334
25	0xba341d3b	-0.0006870811
26	0xbcd1d112	-0.025612388
27	0xbd352b9f	-0.044231053
28	0x3cd3bb34	0.025846101
29	0x3c98ae4b	0.018637797
30	0xbd4f6199	-0.050630186
31	0x3d080621	0.03320897
32	0xbd8013dd	-0.062537886
33	0xbd21af97	-0.039474096
34	0xbd13ffd8	-0.036132663
35	0x3cdd3c9f	0.027006445
36	0x3d2a3ad7	0.04156002
37	0x3ce38903	0.027775293
38	0xbd22e3fd	-0.039768208
39	0x3d1c181d	0.038108934
40	0xbd24aa56	-0.040201508
41	0x3d1b41bd	0.03790449
42	0x3d8b1db8	0.06792778
43	0x3cfa5db2	0.030562256
44	0x3cd5b8ce	0.026089098
45	0x3cf3604b	0.029709002
46	0xbd118927	-0.03553119
47	0xbcf42b40	-0.02980578
48	0xbcf16d77	-0.029471142
49	0x3d517d67	0.051144984

nn.mlps.0.layers.4.weight f4 [50, 50]
0	0x3e4a5a74	0.19761068
1	0x3b559e62	0.0032595624
2	0x3dbdfdcf	0.09276926
3	0xbdbe8434	-0.093025595
4	0x3df665f1	0.120311625
5	0x3d9d741f	0.07688164
6	0x3ea534cd	0.32266846
7	0x3e0be2d5	0.13660748
8	0x3ddc944a	0.107704714
9	0xbccdcd52	-0.025122318
10	0xbd14629b	-0.03622685
11	0x3e0373c8	0.12837136
12	0x3c9459f4	0.0181093
13	0xbcb41506	-0.021982681
14	0xbc4bd887	-0.012441761
15	0xbcde472e	-0.02713355
16	0xbd72c3de	-0.059268825
17	0xbddd4003	-0.10803225
18	0xbda33a29	-0.079700775
19	0x3d901266	0.07034759
20	0x3e2fdc8e	0.17173979
21	0xbe0a33e7	-0.13496362
22	0xbdbd03dc	-0.09229252
23	0xbd4cb15c	-0.04997383
24	0xbe09223c	-0.13391966
25	0xbe46d063	-0.1941543
26	0x3c766626	0.0150390025
27	0xbce74cbf	-0.028234838
28	0xbe38ec45	-0.1805888
29	0x3d5ce409	0.05392841
30	0x3d84198f	0.064501874
31	0xbe05415f	-0.13013218
32	0xbcec66b2	-0.028857563
33	0xbe5a4192	-0.21314076
34	0xbe004076	-0.1252459
35	0xbd3a8713	-0.045538973
36	0x3e02354c	0.12715644
37	0x3ea452a4	0.320943
38	0x3e6e68ee	0.23282215
39	0x3ce68fab	0.028144678
40	0xbe2539df	-0.16135357
41	0x3d1c4bae	0.03815811
42	0x3e3dbec1	0.18529798
43	0xbd4ff104	-0.05076696
44	0x3da158cb	0.07878264
45	0x3d6fed1a	0.058575727
46	0xbdc28f1c	-0.09499952
47	0x3dd60eff	0.10452079
48	0xbe816764	-0.25274193
49	0x3dcfb3b2	0.10141696
50	0x3dd4720e	0.10373317
51	0x3be54fde	0.0069980463
52	0x3e722ccc	0.23649901
53	0xbeaa28de	-0.33234304
54	0xbe6bb621	-0.23018695
55	0x3c89cd2a	0.016821463
56	0xbd8dd14c	-0.06924686
57	0x3e826b59	0.25472525
58	0x3e7a5bbe	0.2444906
59	0xbd1b7546	-0.037953638
60	0xbdf516b1	-0.11967219
61	0xbdb445b4	-0.08802357
62	0xbe170789	-0.14748968
63	0xbde83ee0	-0.113401175
64	0x3e2de347	0.1698123
65	0xbdaac1c2	-0.083377376
66	0x3e30945f	0.17244099
67	0xbe20475d	-0.15652223
68	0xbe49488b	-0.19656579
69	0x3de33c10	0.110954404
70	0x3af4e8dd	0.0018685121
71	0xbc770d70	-0.015078887
72	0x3e6f94b5	0.23396571
73	0x3e0d3cd8	0.13792741
74	0xbd76a266	-0.06021347
75	0x3d263385	0.040576477
76	0x3e02411f	0.12720154
77	0xbcf8f679	-0.030390965
78	0xbcf22e94	-0.029563226
79	0x3e93a943	0.28840074
80	0x3c074378	0.008255832
81	0xbe4a8ef7	-0.197811
82	0xbe58f5ab	-0.21187465
83	0xbdeb4c4b	-0.11489161
84	0xbc965271	-0.018349858
85	0x3db8ff44	0.09033063
86	0x3e338d59	0.17534389
87	0x3ca25949	0.019817965
88	0xbe07cabf	-0.13260935
89	0x3e7ff2ee	0.24995014
90	0xbdd9516f	-0.10611235
91	0xbd406005	-0.04696657
92	0x3bda1c9e	0.0066562435
93	0x3dee7e39	0.11645169
94	0x3e20a070	0.15686202
95	0xbda9caef	-0.0829066
96	0x3df98a4b	0.121845804
97	0xbc6ca805	-0.014444356
98	0xbddcc690	-0.1078006
99	0x3e355d5d	0.17711397
100	0xbe72c982	-0.23709682
101	0xbcc2e15f	-0.023789106
102	0x3bb53d23	0.0055309697
103	0xbeb559dc	-0.3542012
104	0x3e84dc99	0.25949553
105	0xbe2ddd23	-0.16978888
106	0xbce17f6f	-0.027526585
107	0x3dea6854	0.1144568
108	0x3e5e1da9	0.21691002
109	0x3da20375	0.079108156
110	0xbd7c6589	-0.06162027
111	0x3e1a9a7b	0.15097992
112	0x3d97f743	0.07420208
113	0x3e60b8ab	0.21945445
114	0xbe0d11f0	-0.13776374
115	0x3d628465	0.055302043
116	0x3e5643b5	0.20924266
117	0xbd29495a	-0.04132972
118	0x3e91c2c1	0.28468898
119	0x3d6fbae9	0.05852786
120	0xbc9e2f13	-0.019309556
121	0xbb9d9b48	-0.0048097707
122	0xbe4f537e	-0.20246693
123	0x3deb2cf7	0.11483186
124	0xbd90b9b0	-0.07066667
125	0x3deddc5d	0.116142966
126	0x3e135000	0.14385986
127	0xbe383296	-0.17988047
128	0xbda03a8d	-0.07823668
129	0x3d0505fd	0.032476414
130	0xbdbd174e	-0.09232961
131	0x3db73a99	0.089467235
132	0xbdc1a8a2	-0.09455992
133	0x3dfa57a7	0.122237496
134	0xbe7290e7	-0.23688088
135	0x3dc6c763	0.09705999
136	0xbe561739	-0.20907296
137	0xbe4b9c32	-0.19883803
138	0x3ddc9d40	0.107721806
139	0xbd564e92	-0.052321024
140	0xbe49a933	-0.1969345
141	0x3d27cc47	0.0409663
142	0x3d140bf3	0.03614421
143	0x3de24491	0.11048234
144	0xbd64e186	-0.05587914
145	0xbdfdaf69	-0.123869725
146	0x3e3bee55	0.18352635
147	0x3ebfcb2f	0.37459704
148	0x3d50cde0	0.050977588
149	0xbc1e4206	-0.009659296
150	0x3e4c0951	0.19925429
151	0xbd6a1954	-0.05715306
152	0xbccc40de	-0.024933275
153	0xbe0ea5f3	-0.13930492
154	0x3e323330	0.17402339
155	0x3c63735e	0.013882486
156	0x3df974dc	0.12180492
157	0x3e076ccf	0.13225101
158	0x3e0ba487	0.13636981
159	0x3ddbe031	0.107361205
160	0x3e03c650	0.12868619
161	0xbe2dad1a	-0.16960564
162	0xbec0638a	-0.37575942
163	0x3d2c6cde	0.04209601
164	0xbe83c22e	-0.25734085
165	0xbc3d8d05	-0.011569266
166	0x3e094a64	0.13407284
167	0x3d926dda	0.07149859
168	0xbc16143e	-0.0091601
169	0xbc9c875b	-0.019107511
170	0xbdf31232	-0.11868705
171	0x3e1134df	0.14180325
172	0xbe153d91	-0.14574267
173	0xbd27c89b	-0.040962797
174	0x3e739c91	0.23790194
175	0x3c8b4e55	0.017005125
176	0xbd9ebb12	-0.077505246
177	0xbd8f65f0	-0.07001865
178	0xbe59b591	-0.21260668
179	0xbe0c6b99	-0.1371292
180	0xbcc32a70	-0.023823947
181	0x3da10e29	0.07864029
182	0xbe36473d	-0.17800613
183	0xbe3b8c5a	-0.18315259
184	0x3da89b30	0.08232725
185	0xbe08d650	-0.13363004
186	0xbd8f6054	-0.07000795
187	0xbde2498f	-0.110491864
188	0xbe059bbe	-0.13047692
189	0xbdbed3c8	-0.09317738
190	0xba577eea	-0.0008220511
191	0xbd91353a	-0.0709023
192	0xbe0c8db0	-0.13725924
193	0xbe816abd	-0.25276747
194	0x3e29e527	0.16591321
195	0xbea6372e	-0.32463974
196	0x3de79725	0.113081254
197	0x3e268c18	0.16264379
198	0x3e5a19bb	0.21298878
199	0xbe1334b9	-0.14375581
200	0xbea44098	-0.3208053
201	0xbdd6f89c	-0.10496637
202	0xbe86d415	-0.2633368
203	0x3c480ba4	0.012209807
204	0xbd0a45a1	-0.03375781
205	0x3e40260e	0.18764517
206	0xbdc0d4dd	-0.094156004
207	0x3d9a6aae	0.07539879
208	0x3c893282	0.016747717
209	0x3c87c9c2	0.016575698
210	0x3e159150	0.14606214
211	0x3cc76c39	0.024343597
212	0xbdc0dce7	-0.09417134
213	0xbd9ab05f	-0.07553171
214	0xbd83c381	-0.06433774
215	0x3e2652a6	0.16242465
216	0x3d50399d	0.050836194
217	0x3db85978	0.0900144
218	0xbe376598	-0.17909849
219	0xbd5433b2	-0.051807113
220	0x3e56fa2e	0.20993873
221	0x3b8a6057	0.0042229104
222	0xbe2d8631	-0.16945721
223	0xbcb5cf6d	-0.022193635
224	0x3daada2e	0.08342396
225	0xbc9d47ae	-0.019199219
226	0x3c46633a	0.012108618
227	0xbe10b057	-0.14129768
228	0xbdae139a	-0.084998325
229	0xbbf29b8b	-0.007403796
230	0xbe856925	-0.2605678
231	0x38b99960	8.850056e-05
232	0x3e7a2451	0.24427916
233	0x3dad4a88	0.08461481
234	0x3d0cf77f	0.03441572
235	0x3ddd1859	0.107956596
236	0xbd437d89	-0.04772714
237	0x3c415851	0.011800841
238	0x3e3e38de	0.1857638
239	0xbdb0a357	-0.086249046
240	0x3d28a723	0.04117502
241	0xbe40a3f4	-0.18812543
242	0xbe29ce45	-0.16582592
243	0xbe687a5e	-0.2270293
244	0x3ded2b25	0.11580495
245	0x3c27c29b	0.010239269
246	0x3de7c3af	0.113166206
247	0xbd8e7bcb	-0.069572054
248	0xbc1a5d41	-0.0094216475
249	0xbdb1dfb7	-0.08685248
250	0x3e439141	0.19098379
251	0xbe4a669a	-0.19765702
252	0x3c6c3353	0.0144165335
253	0x3daf9685	0.08573631
254	0x3d840b89	0.06447513
255	0xbe695802	-0.22787479

nn.mlps.0.layers.4.bias f4 [50]
0	0x3d35e158	0.044404358
1	0x3cf78f09	0.030219572
2	0xbcb47298	-0.022027299
3	0xbcc6187b	-0.024181595
4	0xbcf7cb9b	-0.030248454
5	0x3d0a39f3	0.03374667
6	0xbcdc4062	-0.026886169
7	0x3cf0e99b	0.029408267
8	0xbccffb0d	-0.025388265
9	0x3caa5472	0.02079222
10	0x3ce1fb6a	0.027585704
11	0xbd2070a7	-0.039169934
12	0xbd097399	-0.03355751
13	0x3d2f2cb8	0.042767256
14	0xbcad9dbb	-0.021193376
15	0x3d014874	0.031563237
16	0x3cf814e1	0.030283393
17	0xbd1ec42e	-0.03876131
18	0x3d114f18	0.03547582
19	0x3cddb50f	0.027063875
20	0x3cee7528	0.029108599
21	0x3cdd21ba	0.026993621
22	0xbcea6f37	-0.028617484
23	0xbd12cc74	-0.035839513
24	0x3d580b12	0.052744932
25	0x3ca43c44	0.020048268
26	0x3d0a4e8d	0.033766318
27	0x3caef0b3	0.021355009
28	0xbca7b946	-0.020474087
29	0xbd7fb054	-0.06242402
30	0xbd03df84	-0.032195583
31	0xbd0764c5	-0.033055086
32	0xbcd71072	-0.026252959
33	0xbd0c81d0	-0.034303486
34	0x3cd1adbc	0.025595538
35	0x3d2127c5	0.039344568
36	0x3cdded35	0.027090648
37	0xbd164ec0	-0.036696196
38	0xbcb6b4f3	-0.02230308
39	0xbc5a62c8	-0.013329215
40	0x3d1101b3	0.03540201
41	0x3ce46ba1	0.027883353
42	0xbcb88be6	-0.022527646
43	0xbc04a439	-0.008095794
44	0xbd172355	-0.03689893
45	0x3cf9b51a	0.030481864
46	0xbceffe96	-0.0292962
47	0x3cf9c2c3	0.030488377
48	0x3d972550	0.07380164
49	0xbcc1501d	-0.023597771

nn.mlps.0.layers.5.weight f4 [1, 50]
0	0xbe261b5a	-0.16221371
1	0xbec16f7f	-0.37780377
2	0x3e7c8517	0.24660145
3	0x3edd3193	0.43201885
4	0x3e7b8192	0.24561146
5	0xbe8f9632	-0.28044277
6	0x3ea682fa	0.32521802
7	0xbe8a4705	-0.2700731
8	0x3ea6c677	0.32573292
9	0xbe8d64c6	-0.27615947
10	0xbe87b838	-0.26507735
11	0x3df0492f	0.11732709
12	0x3e2d42ed	0.16920061
13	0xbdea90bb	-0.114533864
14	0x3e8e4ccb	0.27792963
15	0xbed442a2	-0.41457087
16	0xbe1b12cf	-0.15143894
17	0x3db44075	0.08801357
18	0xbe06729b	-0.13129656
19	0xbe8e1ebf	-0.27757832
20	0xbe8dc4fe	-0.27689356
21	0xbe52d6c6	-0.20589742
22	0x3e221f91	0.15832354
23	0x3e485859	0.19564952
24	0xbe086261	-0.13318779
25	0xbe4bd0ab	-0.1990382
26	0xbe116416	-0.14198336
27	0xbec43650	-0.38322687
28	0x3ec0a51e	0.37625974
29	0x3dff303e	0.12460373
30	0x3e07f9c5	0.13278873
31	0x3e427484	0.1898976
32	0x3ea8881b	0.3291634
33	0x3e0a5727	0.13509808
34	0xbedc9184	-0.4307977
35	0xbe0bceb1	-0.13653065
36	0xbe8e85b6	-0.27836388
37	0x3d5dfab8	0.054194182
38	0x3e839d86	0.25706118
39	0x3ddcf823	0.10789516
40	0xbeaf056c	-0.34183824
41	0xbe5eba32	-0.21750715
42	0x3ec44423	0.38333234
43	0x3d84c012	0.06481947
44	0x3e6b187d	0.2295856
45	0xbeb9cfb9	-0.36291292
46	0x3eb268a3	0.34845456
47	0xbe4487a5	-0.1919237
48	0xbdd71f3d	-0.10504005
49	0x3e4354b3	0.19075279

nn.mlps.1.layers.0.weight f4 [50, 1]
0	0xbe17380a	-0.14767471
1	0x3e171bf4	0.14756757
2	0x3eb07dbe	0.34470934
3	0x3e41560f	0.18880485
4	0x3e34c8b0	0.17654681
5	0xbd4ce54e	-0.05002337
6	0xbcfa3d54	-0.030546822
7	0xbd3e403d	-0.04644798
8	0x3e80250c	0.25028265
9	0x3d5b12ee	0.05348485
10	0x3ee3171b	0.44353566
11	0xbc287712	-0.010282295
12	0x3dd64bfa	0.1046371
13	0x3ee46ecd	0.44615784
14	0xbe329798	-0.17440641
15	0x3e4c8117	0.19971119
16	0xbcf697d9	-0.030101703
17	0xbd265523	-0.040608536
18	0x3c92d491	0.017923625
19	0x3d6ae6ef	0.05734914
20	0xbdcddb65	-0.10051612
21	0xbefbd531	-0.4918609
22	0x3e49d14c	0.19708747
23	0xbe0bfb53	-0.13670091
24	0xbd21166b	-0.03932802
25	0xbc3a199f	-0.011358648
26	0xbe12fc93	-0.14354162
27	0x3cbfd861	0.023418607
28	0x3efde6c8	0.49590135
29	0x3a49496f	0.0007678484
30	0x3ed2b236	0.4115159
31	0xbe622ee2	-0.22088197
32	0xbd3c2fed	-0.045944143
33	0xbe26711d	-0.16254087
34	0x3cc2904a	0.023750443
35	0xbe1a977c	-0.15096849
36	0x3e8953f2	0.26821858
37	0x3eb1b348	0.34707093
38	0xbe492f4c	-0.19646949
39	0x3e9086a3	0.2822772
40	0x3dc1ec5f	0.09468912
41	0xbea28b5a	-0.31746942
42	0xbe797d88	-0.24364293
43	0xbe1899ce	-0.14902422
44	0xbe514711	-0.20437266
45	0xbe1a3bfd	-0.15061946
46	0x3dc3cb40	0.09560251
47	0xbecb0ef8	-0.39659858
48	0x3e2edbb1	0.17075993
49	0xbd8293f0	-0.06375873

nn.mlps.1.layers.0.bias f4 [50]
0	0xbc2ec4d9	-0.010667049
1	0x3d081334	0.03322144
2	0x3cfb5f00	0.030684948
3	0x3c4a88f9	0.012361758
4	0x3c760dde	0.015017955
5	0xbce602f8	-0.028077587
6	0x3c725c1e	0.01479247
7	0xbc8b2c80	-0.016988993
8	0x3d319ff3	0.04336543
9	0xbc6fdd2e	-0.014640136
10	0x3cb76a2d	0.022389496
11	0xbce9283c	-0.028461568
12	0x3cdcec2e	0.026968088
13	0x3bfabbba	0.0076517733
14	0xbca0aac1	-0.019612672
15	0x3ce6a424	0.02815444
16	0x3c167b6f	0.009184702
17	0x3c3deb52	0.011591749
18	0x3d0aa157	0.033845272
19	0x3d2534bc	0.040333495
20	0x3986dee0	0.00025724526
21	0xbc86ad7b	-0.016440144
22	0xbaf26fac	-0.0018496416
23	0xbd05bac4	-0.032648817
24	0xbcbbcb9e	-0.02292424
25	0xbcb64990	-0.022251874
26	0xbd0a9783	-0.0338359
27	0x3c8d971e	0.017283972
28	0x3c3121d0	0.010811284
29	0x3cad2e3d	0.021140212
30	0x3bf649a3	0.0075161024
31	0xbd3b2fa5	-0.045699734
32	0x3b52daaa	0.003217379
33	0xbcb65d8d	-0.022261405
34	0x3c1a9f44	0.009437386
35	0xbc829a44	-0.0159427
36	0x3c5c2faf	0.013439103
37	0xba9a47ec	-0.0011770702
38	0x3b9b2595	0.0047347047
39	0x3d2a35d5	0.041555244
40	0x3d415beb	0.0472068
41	0xbaab529d	-0.0013070885
42	0x3d2d29db	0.042276245
43	0xbadd18a7	-0.0016868309
44	0xbc074e12	-0.0082583595
45	0x3cc291b3	0.023751115
46	0x3c9449c2	0.018101577
47	0xbc20dc39	-0.00981813
48	0xbc28eb09	-0.010309943
49	0xbc8dad3e	-0.017294522

nn.mlps.1.layers.1.weight f4 [50, 50]
0	0x3e9d4c09	0.30722073
1	0xbdfe3733	-0.12412872
2	0x3df2efe7	0.11862164
3	0x3df2c26b	0.118534885
4	0xbd219f3a	-0.03945849
5	0xbe8e3058	-0.27771258
6	0xbdc90d35	-0.09816972
7	0x3c25536e	0.010090692
8	0x3dab238f	0.08356392
9	0x3d06ec1e	0.032940023
10	0xbdd816e0	-0.10551238
11	0xbe52ea3a	-0.20597163
12	0xbdfd6ae7	-0.12373906
13	0x3ddecf4d	0.10879383
14	0x3dfeb9e2	0.12437798
15	0x3cf7f2f9	0.030267226
16	0x3d65f720	0.05614388
17	0xbd7d7a50	-0.061884224
18	0xbe459587	-0.19295321
19	0x3e88ef89	0.2674525
20	0x3e8383af	0.25686404
21	0xbe7e41ac	-0.2482974
22	0x3da9270c	0.08259401
23	0x3da06db1	0.07833422
24	0xbdfa414a	-0.12219484
25	0xbc8b3558	-0.01699321
26	0xbb6086c2	-0.003426001
27	0x3e618880	0.22024727
28	0xbe9ea786	-0.30987185
29	0x3e47d839	0.19516076
30	0x3d8110ca	0.063020304
31	0xbe06a9c9	-0.13150705
32	0xbc9b6cb9	-0.018972741
33	0xbdaaf776	-0.08347981
34	0x3e6d1e1c	0.23156017
35	0x3e251300	0.16120529
36	0x3c9e0070	0.019287318
37	0xbd3aeee5	-0.045637984
38	0x3df4ddd7	0.11956375
39	0xbc9ef5ca	-0.01940431
40	0xbcbda492	-0.023149762
41	0xbdc10725	-0.09425191
42	0x3da38372	0.079840556
43	0xbe5259b5	-0.20542033
44	0xbe4de84b	-0.20108144
45	0x3cf91912	0.030407462
46	0x3d86dba4	0.06584862
47	0x3dcf5e85	0.1012545
48	0x3d69c47d	0.05707215
49	0xbd88ebc4	-0.06685594
50	0xbdc2f811	-0.09519971
51	0x3e8b40a5	0.27197757
52	0x3e7ad69c	0.2449593
53	0x3e9269cb	0.2859634
54	0x3c899be9	0.016797977
55	0x3d0ae726	0.033911847
56	0x3d3931e2	0.045213588
57	0x3e52e493	0.20595007
58	0x3dde5a26	0.10857038
59	0xbded947d	-0.116005875
60	0x3cab371b	0.0209003
61	0xbd9549f2	-0.072894946
62	0xbd0b0926	-0.03394427
63	0xbe08cf5d	-0.13360353
64	0xbdc64dfc	-0.09682843
65	0xbe17fbd2	-0.14842156
66	0xbd0bab97	-0.034099188
67	0xbe2f63e2	-0.17127946
68	0x3d0f1873	0.034935426
69	0x3b61e533	0.0034468889
70	0x3dc24982	0.09486677
71	0x3ee2f46e	0.4432711
72	0x3e91734b	0.28408274
73	0xbb9d2bf0	-0.0047964975
74	0xbd343342	-0.043994196
75	0xbcf06e8e	-0.029349592
76	0xbde51a5b	-0.111866675
77	0xbe43c3ed	-0.19117709
78	0xbc837081	-0.016044857
79	0xb99b9e40	-0.0002968181
80	0xbc1c2490	-0.009530202
81	0xbd576146	-0.052583
82	0xbe77e798	-0.2420944
83	0xbe223381	-0.1583996
84	0x3cc5fb97	0.024167819
85	0xbc779e40	-0.015113413
86	0xbe53b861	-0.20675804
87	0xbd2e177b	-0.04250286
88	0xbdae012a	-0.08496316
89	0x3e534b3d	0.2063417
90	0x3d9f3ef6	0.07775681
91	0x3e1d1768	0.1534096
92	0x3d32485e	0.043526046
93	0xbe2ac866	-0.16678008
94	0xbb8d6625	-0.004315155
95	0xbcfaaa27	-0.030598713
96	0xbde3ac37	-0.11116832
97	0xbe0a3179	-0.13495435
98	0xbe77f06c	-0.24212807
99	0x3d5657a7	0.052329686
100	0xbe3c194f	-0.1836903
101	0xbeb2180f	-0.3478398
102	0x3e52bee1	0.20580627
103	0x3dd4c70d	0.103895284
104	0x3de68217	0.112552814
105	0xba1cb5ea	-0.0005978035
106	0xbe98f5c2	-0.29874998
107	0x3e257ed2	0.1616166
108	0xbb4427e2	-0.0029930999
109	0x3d5ce98c	0.053933665
110	0x3d41a246	0.047273897
111	0x3d60f037	0.054916587
112	0x3d019fb8	0.03164646
113	0xbca2283e	-0.01979458
114	0x3d880d69	0.06643183
115	0xbdcf4ce2	-0.10122086
116	0xbd642b58	-0.0557054
117	0xbd5ac53c	-0.053410754
118	0xbe7559a0	-0.2395997
119	0x3e55a311	0.20862986
120	0x3e6bf6ea	0.23043409
121	0x3d9f7ffc	0.07788083
122	0xbe4048a9	-0.18777718
123	0xbde327f5	-0.110916056
124	0x3d83d86b	0.06437763
125	0xbd25f23f	-0.040514227
126	0x3d9399c0	0.0720706
127	0xbd989549	-0.07450349
128	0xbdd94992	-0.106097355
129	0xbdebe819	-0.115188785
130	0x3dffbca9	0.12487156
131	0x3d1014cd	0.035176087
132	0x3d2dc612	0.042425223
133	0x3e18c47e	0.14918706
134	0x3e0b3fcc	0.13598555
135	0x3d865ab4	0.06560269
136	0x3d872e0e	0.06600581
137	0x3cea5bac	0.028608166
138	0x3e377464	0.17915493
139	0xbe479f31	-0.1949432
140	0xbe073a79	-0.132059
141	0x3d56c512	0.052434035
142	0xbdeff572	-0.11716737
143	0x3e3ffc1a	0.18748513
144	0xbe1437b0	-0.14474368
145	0xbd60e129	-0.05490223
146	0x3e40426d	0.1877534
147	0xbddf74a8	-0.10910922
148	0x3e07bb8b	0.13255136
149	0xbe3e19a9	-0.18564476
150	0xbe3c8b82	-0.18412593
151	0xbda52bd7	-0.080650024
152	0xbe0703cf	-0.13185047
153	0x3ca2e402	0.019884113
154	0xbd674999	-0.056466673
155	0x3e9cc672	0.30620152
156	0xbe67fc83	-0.2265492
157	0x3e0ff1ce	0.14057085
158	0xbd960477	-0.0732507
159	0x3c7a8cdf	0.015292375
160	0x3d9e98e8	0.07744008
161	0xbde876ec	-0.113508075
162	0x3e1a4e09	0.1506883
163	0xbe1efbb8	-0.1552571
164	0x3d229ee2	0.039702304
165	0x3e1ab645	0.15108593
166	0xbd7ce50f	-0.061741885
167	0xbe405c27	-0.18785153
168	0x3e77fa89	0.24216665
169	0xbb811371	-0.003939085
170	0xbe03e8f5	-0.12881835
171	0xbd3b4ab0	-0.045725524
172	0x3e35f4b4	0.17769128
173	0x3df7adaa	0.12093671
174	0x3d950121	0.07275606
175	0x3e22685a	0.1586012
176	0xb9a097f4	-0.00030630792
177	0x3d351aa4	0.04421486
178	0xbd670510	-0.056401312
179	0x3e2b88a3	0.16751342
180	0xbd14d714	-0.036337927
181	0xbe03bad3	-0.12864237
182	0x3c9f5a3d	0.019452209
183	0x3eb7b49d	0.35879984
184	0x3d925a68	0.0714615
185	0x3d96a17b	0.07355019
186	0x3e42190a	0.18954864
187	0x3d56d9c4	0.05245377
188	0x3d6c6dde	0.057721965
189	0xbd93275b	-0.07185241
190	0x3ec54818	0.38531566
191	0x3e0084ec	0.12550706
192	0x3d818bae	0.0632547
193	0xbdd05253	-0.10171952
194	0xbe8bc367	-0.27297518
195	0x3e0bc4ce	0.13649294
196	0x3e9c88f3	0.30573234
197	0xbdd5c5b9	-0.10438103
198	0xbd715466	-0.05891838
199	0x3dff2c9c	0.124596804
200	0xbda03f0c	-0.07824525
201	0xbc3bbda0	-0.011458784
202	0x3b7331d6	0.0037108562
203	0x3cbbcc05	0.022924433
204	0xbbae6ffc	-0.005323408
205	0xbe515f17	-0.2044643
206	0x3d4eea42	0.050516374
207	0x3e91e50f	0.2849507
208	0xba79e6dc	-0.0009532997
209	0x3d6b409b	0.05743466
210	0xbbb0e2c1	-0.005398125
211	0xbd8d1e2e	-0.06890522
212	0x3d694679	0.056951974
213	0x3e06e374	0.13172704
214	0x3d6393d8	0.055560917
215	0xbd3eca75	-0.046579797
216	0xbded84fe	-0.11597632
217	0xbdc053f1	-0.093910106
218	0xbe2e602e	-0.17028877
219	0xbcc3ade6	-0.023886632
220	0xbdad4ba6	-0.084616944
221	0xbe844596	-0.2583434
222	0xbe251624	-0.16121727
223	0x3d7aeeb5	0.061262805
224	0x3d5c3c43	0.053768408
225	0xbe24533a	-0.16047373
226	0x3e15d187	0.1463071
227	0x3eae38bb	0.34027657
228	0x3d6268b3	0.05527563
229	0x3d631b5e	0.05544602
230	0x3e47d27d	0.19513889
231	0xbdd6ee80	-0.10494709
232	0xbda04ee3	-0.078275464
233	0x3caf95e0	0.02143377
234	0xbd290680	-0.041265965
235	0xbd9d8f21	-0.07693315
236	0xbe47929b	-0.1948952
237	0x3d944958	0.07240552
238	0x3dac0861	0.08400036
239	0x3d6df4e1	0.058094863
240	0x3d13d36c	0.0360903
241	0x3df6156e	0.12015806
242	0x3d7d2f27	0.061812546
243	0xbde73a0f	-0.11290371
244	0xbe21d8cb	-0.15805356
245	0x3df4c905	0.11952404
246	0x3e3c2e66	0.18377075
247	0x3d98a1ed	0.0745276
248	0x3b9865ab	0.0046507916
249	0xbdef2dc3	-0.1167865
250	0xbe163cfa	-0.14671698
251	0xbe6dae46	-0.23211011
252	0xbd892c86	-0.06697945
253	0x3d34b8f6	0.044121705
254	0xbe69ad91	-0.22820117
255	0x3e476a88	0.19474232

nn.mlps.1.layers.1.bias f4 [50]
0	0x3b991a5b	0.0046723313
1	0x3cc70c09	0.024297731
2	0xbd4ae18a	-0.049531497
3	0x3d09247a	0.033482052
4	0xbc1e8a0c	-0.009676468
5	0x3c23b819	0.009992623
6	0x3c8eedc7	0.017447365
7	0xbc545ddc	-0.012961831
8	0x3c0d10c6	0.008609956
9	0x3c3dbf2b	0.0115812225
10	0xbc76b978	-0.015058868
11	0x3cb4e403	0.02208138
12	0xbc8294c3	-0.015940076
13	0x3cca624a	0.024705071
14	0xbc9669ae	-0.018360939
15	0x3cac1610	0.021006614
16	0xbca6b1a7	-0.020348383
17	0x3c47b4d8	0.012189113
18	0x3d04e6db	0.032446723
19	0xbce8a4cb	-0.028398892
20	0xbc81bc41	-0.015836837
21	0xbc0a1ac9	-0.008429238
22	0xbcdd0ca6	-0.02698357
23	0xbcb06510	-0.021532565
24	0xbb8c0357	-0.004272859
25	0x3c7dbd53	0.015487033
26	0xbca09ef0	-0.019607037
27	0x3d32e39a	0.04367409
28	0xbb244f2a	-0.00250716
29	0xbcb1c3c0	-0.021699786
30	0xbc7be3f9	-0.015374177
31	0x3bec0376	0.007202561
32	0x3ca3c469	0.019991117
33	0xbca1357b	-0.019678822
34	0x3c5b5cff	0.013388871
35	0xbc3327cd	-0.010934782
36	0x3c26fd25	0.01019219
37	0x39e70fc5	0.00044071503
38	0xbc9c440e	-0.01907542
39	0x3c408818	0.011751197
40	0xbce254c2	-0.027628306
41	0xbd3da0c3	-0.046295892
42	0x3c094a33	0.008379507
43	0x3cd2e057	0.02574174
44	0x3c319e2c	0.010840934
45	0x3c290064	0.010315035
46	0xbbd4d7b0	-0.0064954385
47	0xbbdb6b40	-0.006696135
48	0x3c8f34c1	0.01748121
49	0x3cfadf22	0.030623976
