output/Darcy_PINN/weight.pth (torch, 90653 bytes, 22 tensors)

nn.mlps.0.layers.0.weight f4 [50, 2]
000000 94 b7 83 be bb b8 9e be f3 16 97 3d 0a f8 83 3e
       -0.25725996 -0.31000313 0.07377424 0.25775176
000010 f2 1d 08 bd c8 b1 01 3c 6f c2 14 be ff 6a 51 3e
       -0.033231683 0.0079159215 -0.14527296 0.20450972
000020 55 f8 3d bc c0 fe 8b be 4f 68 ff 3d a4 58 95 3d
       -0.0115948515 -0.27342796 0.12471067 0.072922975
000030 dc be b0 3e 29 8a 02 3c a4 4d 9f bd d3 63 04 bd
       0.34520614 0.00796751 -0.07778481 -0.032321762
000040 4b 62 98 be cd 81 9b bd fd 6f e7 3d 0a 2f d7 bd
       -0.29762492 -0.07593117 0.11300657 -0.10507019
000050 32 1a 2a 3e 55 4d a0 3e 77 3c c7 be bf c1 28 3e
       0.16611555 0.31309 -0.3891332 0.16480158
000060 e0 f9 48 3e 2f 11 82 3e 79 91 ed bd 42 59 ad bd
       0.1962657 0.25403735 -0.11600012 -0.0846429
000070 5d 22 f0 3d 1d 2e be be 92 d5 e5 bd 0f cc 2c be
       0.11725304 -0.37144557 -0.11222376 -0.16874717
000080 a4 65 a9 bd 70 3a 03 3d 30 6c 8a be a9 0c 5b 3e
       -0.082713395 0.032038152 -0.27035666 0.21391548
000090 87 88 b0 3d fc dd bb bd 3c f0 8c bd 92 16 89 be
       0.086197905 -0.091731995 -0.068817586 -0.26775032
0000a0 79 c5 3e 3e f0 c9 b0 bc 19 17 c4 3d 03 ea 1c be
       0.18630017 -0.021580666 0.09574718 -0.15323643
0000b0 b0 34 8c be 7b e1 5b bd d2 d2 17 be b2 5e ce bb
       -0.27383947 -0.05368183 -0.14826515 -0.0062979097
0000c0 05 b8 c5 bd 2b b7 88 be fe ec d9 3d ec f5 73 3e
       -0.096542396 -0.26702246 0.10640906 0.2382428
0000d0 54 c3 5e be 5d 2a 03 be a7 3e 58 be 53 c0 7d 3e
       -0.217542 -0.12809129 -0.2111765 0.24780397
0000e0 8e 98 90 be d1 db aa 3e 8d bf 35 3d 2f a5 00 3e
       -0.2824139 0.33370832 0.04437213 0.12563013
0000f0 43 35 8a be 43 7a 25 be 96 00 c0 3d 06 92 30 be
       -0.2699376 -0.1615992 0.09375112 -0.17243204
000100 c7 29 26 be 5e 34 89 3d 80 b0 a9 3e 23 1f af b8
       -0.16226874 0.066994414 0.3314247 -8.35045e-05
000110 a0 69 74 3e 50 7a 59 3e 84 1b 1e be 76 b5 93 3d
       0.23868418 0.21238065 -0.15440184 0.07212345
000120 ef 83 20 3c 73 71 70 bd 70 f5 47 bd 63 c2 89 be
       0.00979708 -0.058701944 -0.04881805 -0.26906118
000130 78 c9 8e 3e 74 66 7a bd 3b b1 20 3e 8c ff 46 3e
       0.27888083 -0.061132863 0.15692608 0.19433421
000140 1a 11 34 3e a8 07 2c 3e b5 2e 4b 3e 73 38 01 3f
       0.17584649 0.16799796 0.19842036 0.5047676
000150 2e 5c 2c 3d 18 5e 18 3e cb 60 ac 3d f6 ba 7d be
       0.042080097 0.14879644 0.08416899 -0.24778351
000160 b7 21 d9 bb 60 e7 1d 3e 7b e3 74 3e ff 11 f9 bd
       -0.0066263336 0.15420294 0.23914902 -0.121616356
000170 42 b1 78 be b2 a5 6c 3c 94 cc d5 bd 5c f9 9c 3c
       -0.24286368 0.014443802 -0.10439411 0.019161873
000180 b9 89 22 3e db bd 13 be d6 5d 55 3e 22 52 18 be
       0.1587285 -0.14427893 0.20836577 -0.14875081

nn.mlps.0.layers.0.bias f4 [50]
000000 90 35 98 3d 0f 17 51 3b 8c 95 e5 3d 89 40 83 3d
       0.07432091 0.0031904613 0.112101644 0.064087935
000010 11 b9 86 bc db 27 15 3d 11 e6 31 3d 11 1e 11 bd
       -0.016445668 0.036414962 0.0434323 -0.035429064
000020 25 d6 81 bc c9 25 96 3c 89 fa 5d bc 3c b6 1f 3e
       -0.015849182 0.018328564 -0.013548502 0.1559686
000030 b2 ae 17 3c ec 5a 95 3d d1 45 a5 bd f2 4b 31 be
       0.009257959 0.072927326 -0.08069957 -0.17314127
000040 39 c6 d8 3d 51 4b 3d 3d f1 20 95 3c b9 10 95 bd
       0.10584683 0.046214405 0.018204184 -0.0727858
000050 8d 6c 82 3d 83 80 5f 3c 4d 38 c8 bc 17 e8 d7 3d
       0.06368361 0.013641479 -0.024440909 0.105423145
000060 7a f9 83 3d f4 c7 d5 3c 3e b1 d9 bc df 3a 78 3d
       0.06444068 0.026096322 -0.026573773 0.06060302
000070 68 4d 86 bc 61 54 ba bd f1 24 f3 3c 71 87 74 3c
       -0.016394332 -0.09098125 0.029680701 0.01492487
000080 53 12 80 3d b6 d3 10 3c c6 eb 25 be 4d fb bc bc
       0.06253495 0.008839538 -0.16203222 -0.023069048
000090 45 31 02 be 82 3b 88 bc aa 93 a3 3d 35 88 12 bc
       -0.12714107 -0.016629938 0.07987149 -0.008943607
0000a0 13 af 86 3d c4 ce 55 3d 30 de 9d bd 86 e2 0d bc
       0.065763615 0.05219914 -0.077083945 -0.008659964
0000b0 d8 fd b7 bc 20 1e c7 bc c8 37 8f bd 0f 72 a7 bc
       -0.02245991 -0.024306357 -0.06993061 -0.02044013
0000c0 3d 21 d8 bd ff 7c 99 bd
       -0.10553215 -0.07494544

nn.mlps.0.layers.1.weight f4 [50, 50]
000000 97 b4 ca 3d bc 5a 19 be 22 1f 0f bc 6a ca 08 bc
       0.09897726 -0.14976019 -0.00873545 -0.0083490405
000010 e1 8c 51 be 75 9a f6 bc c5 c7 6c be 3a 66 ef bd
       -0.20463897 -0.030102948 -0.23123081 -0.1168942
000020 87 6a 48 be 14 59 b3 3d 16 3a 18 be b2 5d 1b bb
       -0.19571887 0.08757225 -0.14865908 -0.002370697
000030 42 f9 f3 bd 89 e9 91 be ed 5a 44 be be 39 d3 3b
       -0.119127765 -0.28498486 -0.1917531 0.0064460924
000040 71 f2 37 be 01 66 69 3d a4 8a 08 3e aa b8 64 be
       -0.17963578 0.056982044 0.13334137 -0.22336069
000050 ad 42 fa bd 74 17 0d bd f7 87 18 be 43 fe ed bd
       -0.12219749 -0.034446195 -0.14895616 -0.11620762
000060 c2 be 52 bc 4c c2 61 3e bc a5 10 bc 4a 50 a9 bd
       -0.012862863 0.22046775 -0.008828577 -0.08267267
000070 5d b3 0b bd 4d ca a6 3c 3f a6 f0 3d f3 93 af 3d
       -0.0341066 0.020360136 0.11750459 0.08573141
000080 79 54 08 3d a9 6d 6c 3e 94 12 73 be 15 df 1a be
       0.033283684 0.23088707 -0.23737556 -0.15124162
000090 58 23 00 3e a6 c8 77 be f8 26 3e 3d 4d 63 63 3d
       0.12513483 -0.24197635 0.046423882 0.055514622
0000a0 4f e8 b5 bd 0c 51 54 3e b2 88 59 3d f1 42 02 be
       -0.088822 0.20734042 0.05310888 -0.12720849
0000b0 5d ce 82 be 0e af 19 3c 19 f1 9d 3b 3a 3f 9c bd
       -0.25548068 0.009380115 0.004820001 -0.07629247
0000c0 c5 a0 00 3e 53 19 a3 3d 7b b2 46 be cc 62 06 bd
       0.12561329 0.079638146 -0.19404022 -0.032809064
0000d0 4b 84 75 3d f0 6a 98 bc e2 9d b4 ba 67 89 0b bc
       0.059940618 -0.01860568 -0.0013779963 -0.008516646
0000e0 ca d2 c1 bd 24 96 f2 3b 37 31 4e 3d 5b de 03 3e
       -0.09464033 0.007403152 0.050339904 0.1287779
0000f0 97 9e 8c 3d ea 0e 1a bd 64 80 88 be 49 30 62 3e
       0.06866186 -0.03761188 -0.26660454 0.22088732
000100 30 44 0f be c3 11 1c be 9e 56 94 bd 0d 4f f5 3c
       -0.13990855 -0.1524115 -0.072430834 0.02994492
000110 5b 6e 0e bd df d3 93 bc fe 5f ff bd 4d a2 ee 3c
       -0.034773212 -0.018045364 -0.12469481 0.029130125
000120 62 2a 0f 3e 25 25 4a 3e f8 e0 88 bd ee 07 c6 bd
       0.13981012 0.19740732 -0.066835344 -0.09669481
000130 25 d5 88 3a f5 3e 0d be 12 1f 55 3c 9c fa 3f be
       0.0010439499 -0.13793547 0.013007896 -0.18747944
000140 23 b3 ca bd 85 f4 00 3e 13 10 5e 3e 94 f3 ad 3d
       -0.09897449 0.12593277 0.2168582 0.084937245
000150 b3 7a 24 be bf 76 6a 3d e8 51 74 bd a1 83 e6 bd
       -0.16062431 0.05724215 -0.059648424 -0.11255575
000160 63 33 10 be 13 9e 97 bc fb e1 7b 3c 1a 81 ef 39
       -0.14082102 -0.018507993 0.015373702 0.0004568182
000170 ec cf 2b 3d 82 89 12 bd 28 fc 64 bd 58 a9 e4 3d
       0.041946337 -0.03577567 -0.055904537 0.11165112
000180 73 ee e1 3d 94 1a e6 3e e7 d7 52 be 81 a8 81 bd
       0.11031809 0.44942153 -0.20590173 -0.06330968
000190 3a dd b6 3d 37 71 d8 3d f1 7e ef 3d e6 41 d5 bd
       0.08928914 0.10568469 0.11694134 -0.1041296
0001a0 7a b1 ef bd 57 c3 81 be 56 84 29 3e 1a a5 7c 3d
       -0.11703773 -0.25344345 0.16554388 0.06168089
0001b0 ca 6f 65 be 8c 0c 23 be d0 2e 3a 3e d3 ea 46 3e
       -0.22405925 -0.15922755 0.1818192 0.19425516
0001c0 13 15 60 3d c1 e1 1f 3d 03 71 79 3d e0 e7 d6 3c
       0.054707598 0.039033655 0.060898792 0.026233613
0001d0 ef 67 8d 3d 5f 90 ee bc 5b 52 06 3e 3e b8 2f 3e
       0.069045894 -0.029121576 0.13117354 0.17160127
0001e0 a2 ca 60 3d 33 ee c8 bd c9 f0 65 bc be fc 95 bc
       0.054880746 -0.09811058 -0.014034458 -0.018308993
0001f0 24 40 1d 3e 14 c2 9b bc 07 89 10 3e 44 87 9c be
       0.15356499 -0.019013442 0.14114772 -0.3057195
000200 37 3c 25 be 1d 41 22 3e 65 f0 f6 3c b8 9f 02 be
       -0.16136251 0.15845151 0.030143926 -0.1275624
000210 ee de bb 3d 52 cf d6 bd 8f 18 a9 3d ed 30 02 3e
       0.0917338 -0.10488762 0.08256637 0.12713976
000220 98 b1 86 3e fe 8c b7 3e 12 34 64 be df f0 9e bd
       0.26307368 0.35849756 -0.22285488 -0.07760786
000230 f0 2e 83 3c c6 43 3a bd 17 3d 24 bd 4c 29 8d be
       0.016013592 -0.04547479 -0.040097322 -0.2757057
000240 66 a1 71 3e c4 55 b5 bc d1 23 66 bd 3e 5f f7 bd
       0.23596725 -0.022135623 -0.0561865 -0.12078713
000250 2b 61 fc bc 58 8e 89 bc d2 69 46 3e 8e dc 93 bb
       -0.030808052 -0.016791508 0.19376305 -0.004512376
000260 02 e5 09 3e 33 c8 a3 3e 9b 51 8e 3d ee 29 0a 3e
       0.13466266 0.31988677 0.06949159 0.13492557
000270 00 f9 89 3e 46 e7 cc bd 2a 48 3e bd 5e 09 33 be
       0.26947784 -0.100050494 -0.04645554 -0.17484042
000280 18 b0 a1 bc 89 de a3 3e 06 42 18 be 68 bf be 3e
       -0.019737288 0.32005718 -0.14868936 0.37255406
000290 4e 38 a6 3d 62 f8 05 be 87 03 e3 3e 1a 9f ba 3c
       0.08116208 -0.13083032 0.4433863 0.022780944
0002a0 61 2f e3 3d 9b 4c 00 3e 2b e1 62 3d f9 7d 47 bd
       0.11093021 0.12529223 0.05539052 -0.04870412
0002b0 06 bf d2 b9 0d 24 c8 3e e4 73 95 3d 0f 93 56 3e
       -0.00040196645 0.39090005 0.07297495 0.20954536
0002c0 f0 50 cd bb 65 f2 ae 3e 99 7e dc 3d 74 43 3b be
       -0.006265752 0.34169307 0.10766334 -0.1828745
0002d0 89 63 90 3e b3 86 39 3d 44 94 d0 3e 32 cc e2 bc
       0.2820094 0.045294475 0.40738118 -0.027685259
0002e0 a1 1f ee be 51 a3 f1 bd 22 84 33 be 56 27 02 3e
       -0.46508506 -0.11798728 -0.17530873 0.12710318
0002f0 ac 04 5d 3e 4b a9 d4 bc ab 6f 12 be 24 de 01 3d
       0.21583813 -0.025959631 -0.1430041 0.03170599
000300 a9 5f 79 be cc d6 2f bc bc b7 86 3d 76 0e 86 3d
       -0.24352898 -0.010732364 0.06578013 0.06545727
000310 0e 01 c4 bd 74 d5 bd 3d bb d7 c0 be 17 c0 3d be
       -0.09570514 0.092692286 -0.3766459 -0.18530308
000320 77 dc ea 3d 82 25 d0 bd 42 a7 6f 3d 96 56 58 3d
       0.114678316 -0.10163404 0.05850912 0.05281695
000330 65 20 78 3d 2f d3 db 3c 3d 43 5a 3e 92 24 ac be
       0.06057777 0.026834099 0.21314712 -0.3362165
000340 ef 27 84 ba 24 26 9e 3d 58 28 d9 bc e2 39 08 be
       -0.0010082702 0.077221185 -0.026508495 -0.1330333
000350 d2 a8 d8 3b 68 56 77 3b 69 9b fb bd 7b 9c b6 bd
       0.006611922 0.003774071 -0.122855015 -0.08916565
000360 e9 57 0b 3d 33 be ce 3d f7 1b 5a 3e 7b 4f d3 be
       0.034019385 0.10094871 0.2129973 -0.41271576
000370 da de 35 bc aa c8 a5 bd 20 5b f4 bb f8 c2 7a 3e
       -0.011100495 -0.08094914 -0.007457152 0.24488437
000380 e1 59 47 be 0d 50 86 3d b5 25 5e 3e 8c c9 3f 3e
       -0.1946788 0.06558237 0.21694072 0.18729228
000390 c3 62 46 3e 20 06 67 bd 08 54 29 be 2b ad d0 3d
       0.19373612 -0.056402326 -0.16535962 0.10189279
0003a0 eb a5 96 3e 26 51 66 3d b1 8e 78 be c2 69 91 bd
       0.2942346 0.056229733 -0.24273182 -0.0710025
0003b0 40 ab 35 be 5b 73 c5 bd 34 24 a6 3e 60 b4 ca bd
       -0.17741108 -0.09641143 0.32449496 -0.09897685
0003c0 1d c2 f9 3d 9c dc 44 3e 87 bf 4c 3e 00 8b 4f be
       0.12195227 0.19224781 0.19994937 -0.20267868
0003d0 aa 2f 53 3d 24 54 06 be 62 3b 91 3d 08 7a 77 3b
       0.051559128 -0.13118035 0.070914045 0.0037761945
0003e0 fc 30 37 3d 41 7f 3f bd 0d ed 82 bd 2e 89 e8 bd
       0.04472445 -0.04675222 -0.0639287 -0.1135429
0003f0 fd 09 9d 3d df a6 05 3d 57 d5 4c 3e bb d3 51 be
       0.07667921 0.032629844 0.20003258 -0.20490925

nn.mlps.0.layers.1.bias f4 [50]
000000 82 07 cd 3c 66 65 05 bc 4d f6 f7 bc 8a b4 23 3e
       0.025027994 -0.008141851 -0.030268813 0.15986839
000010 98 2e 6b 3d 12 4d a9 bc 9e 59 22 3d bf b3 2c bd
       0.057417482 -0.020666633 0.039636247 -0.042163607
000020 b2 4d ff bd fb a9 f6 bc d6 48 05 3d c9 2b a7 bd
       -0.12465991 -0.03011035 0.032540165 -0.08162648
000030 a0 bf 29 bd 1b 21 d5 bc 09 f3 ad 3c 0d 7b d5 bc
       -0.041442513 -0.026016762 0.021234052 -0.026059652
000040 d4 8c 3a 3d 4e e9 90 bc 34 3a 0b bd 70 13 d0 3d
       0.04554446 -0.017689373 -0.033991054 0.101599574
000050 5d 31 19 3d 94 81 c9 bc 90 a2 37 3d 9e 52 d9 bc
       0.037400592 -0.02459792 0.044832766 -0.026528653
000060 84 47 f1 3b 58 f4 5f bc 7a 01 1e 3d b0 d1 86 bd
       0.0073632617 -0.013669096 0.038575627 -0.065829635
000070 7c 31 9e b9 16 67 87 bd 03 05 08 3e 82 b1 9d 3d
       -0.00030172977 -0.06611459 0.13283162 0.076998726
000080 87 39 b2 3b f8 75 72 3c 26 d0 8e 3c 55 b7 8a bc
       0.0054389867 0.014798634 0.017433237 -0.016933123
000090 9c 5a 87 3d dc c4 27 3c 65 41 a3 bb 47 fc 57 3d
       0.06609079 0.010239806 -0.004982161 0.052730825
0000a0 e4 3a 02 bd 15 dc 11 bd 88 03 cb 3b 01 aa 03 3d
       -0.031794444 -0.035610277 0.0061954893 0.03214455
0000b0 5c c6 39 bc d0 34 5f 3d 87 f4 2e 3d 87 89 0b bd
       -0.0113387965 0.054493725 0.04271367 -0.034066703
0000c0 0d 9b 8b 3d 1d 63 ad 3c
       0.06816683 0.021165425

nn.mlps.0.layers.2.weight f4 [50, 50]
000000 7c 45 46 bd 8a 88 61 3c 92 d9 46 3d 8d b1 37 bd
       -0.04840611 0.013765464 0.048547335 -0.04484706
000010 01 f2 25 be fd a7 6e 3c f4 15 ac 3c ce 79 6e 3d
       -0.16205598 0.014566419 0.021006562 0.05822163
000020 73 2c ad 3e 44 4d 75 3e f0 8d 8b bc 34 cc 68 3e
       0.33822975 0.23955256 -0.017035455 0.22734147
000030 b2 60 93 3e b0 46 2c 3e 3b 0b d4 3d 37 1f 54 bc
       0.2878471 0.1682384 0.103537045 -0.012946895
000040 10 c3 1c be f0 32 3d 3e a0 14 ff bd ea e8 a9 bc
       -0.15308785 0.18476462 -0.12455106 -0.020740945
000050 64 40 1c be 4e 9d 22 3e b3 34 be bd b9 57 6c 3d
       -0.15258938 0.1588032 -0.09287395 0.057700846
000060 e9 87 09 bd de 03 7a bc b7 81 ac 3d 1e 58 61 3d
       -0.03357688 -0.015259711 0.08423179 0.055015676
000070 e5 f7 c5 bd 6d 56 44 3d 18 04 1b be 4c c3 85 be
       -0.09666423 0.047933985 -0.1513828 -0.26125562
000080 43 71 6e be 16 bf 49 be 2b 37 1e 3e dc fd d4 3d
       -0.23285393 -0.197018 0.15450732 0.10399982
000090 cd a8 ae bd 3c d8 53 3d df 6f e5 3d d8 dc a2 bd
       -0.0852829 0.05171989 0.11202978 -0.07952279
0000a0 38 02 31 3e 6a 44 cf 3c fb 2a b5 bc 89 0d c5 bd
       0.17286003 0.025301177 -0.022115221 -0.09621722
0000b0 05 1e a7 3d 59 35 fe bd 7e 18 43 be 3c 49 c0 bd
       0.08160023 -0.12412519 -0.19052312 -0.09388968
0000c0 8d 41 ae be 4e 88 7c 3c 01 b6 37 3d 53 27 24 bb
       -0.34034386 0.015413357 0.044851307 -0.0025047853
0000d0 8a 07 72 bd 70 18 90 be fa 74 04 3e 15 58 73 bd
       -0.05908922 -0.28143644 0.12935248 -0.059410173
0000e0 b9 f3 ab bc f8 f6 db bd 24 91 76 3e b5 fd 37 be
       -0.02099024 -0.10740465 0.24078804 -0.17967875
0000f0 ee 83 44 3e 0b 50 2d be ca 53 e7 bd c2 79 f5 bd
       0.19190952 -0.16925065 -0.11295278 -0.11986114
000100 a0 47 af 3e 0e e8 05 3e ca c5 c9 bd f3 a8 16 bc
       0.34234333 0.13076803 -0.098521784 -0.009195554
000110 78 c2 72 bd e4 9a 0f be 5c f2 04 bd 7d 92 93 bd
       -0.05926749 -0.1402393 -0.032457694 -0.07205675
000120 89 f3 51 3d c4 e4 0f 3d 04 93 d9 3b 4a b3 d7 bd
       0.051257644 0.035130277 0.00663984 -0.105322435
000130 35 de 31 3c 94 bd b8 3c ca a0 54 be 9a 1e 7e bb
       0.010856201 0.022551335 -0.20764461 -0.0038775564
000140 34 28 25 be 3b 09 2c bd 7b c4 75 3c 8d 30 12 3e
       -0.16128618 -0.04200099 0.015000458 0.14276333
000150 b3 d6 17 bb 8b 6d 0c 3e 4b 65 f7 bd b4 25 51 3e
       -0.0023168742 0.13713662 -0.12079867 0.20424539
000160 91 59 86 3e 79 39 0a 3e c1 69 e5 3d 69 55 fe 3c
       0.2624021 0.13498487 0.112018116 0.031046586
000170 fc 0e 63 3e b6 b6 d4 be 14 e1 9c bd aa 6d 93 bd
       0.22173685 -0.41545647 -0.07660118 -0.07198651
000180 8a 80 22 3e 0b 49 f0 3c fa d3 48 be 7c cf a7 be
       0.15869346 0.029331705 -0.19612113 -0.32775486
000190 0d 0d 80 3d e2 f0 68 be 31 3c 80 bc 83 1e cc be
       0.06252489 -0.2274814 -0.015653701 -0.3986703
0001a0 b4 98 c7 3e 7f a6 c8 bd ef 6c b6 bd 29 7a 59 bb
       0.3898369 -0.097973816 -0.08907496 -0.0033184385
0001b0 25 81 01 3c 29 a2 96 3a dc 2d a6 3d 8d ab e8 be
       0.007904326 0.0011492419 0.08114216 -0.45443383
0001c0 46 ee 53 be ab 53 1d 3c 17 08 29 3e d6 59 00 3e
       -0.20696363 0.0096024675 0.16506992 0.1253427
0001d0 4e d8 94 3d 0d 6b 26 3d 40 7c ac be 7e 06 a8 3d
       0.07267819 0.040629435 -0.33688545 0.08204363
0001e0 e5 0d 22 3e 87 4c 44 bd 7a 4a 5c 3e 64 57 b9 bb
       0.15825613 -0.047924545 0.21512786 -0.0056561697
0001f0 30 bf 59 be 7b d7 d9 3d ea 00 b2 bd 85 30 d3 3c
       -0.21264338 0.10636803 -0.086915806 0.025779972
000200 56 e1 41 3b fe f4 6d 3d 41 17 4c be 70 4d 58 bc
       0.0029583774 0.05809497 -0.19930746 -0.013202056
000210 73 93 e9 bc 51 9a 24 3e 33 54 12 3e 77 c8 9d 3c
       -0.028512692 0.16074492 0.14289932 0.019260628
000220 17 23 59 3e ba 5c 88 3d 2a 79 90 3e e5 14 4a bc
       0.21204792 0.06658311 0.2821744 -0.012334083
000230 aa c1 ed bd 59 f4 20 be 94 1d 3c 3d a9 a2 8f 3e
       -0.11609204 -0.15718211 0.045926645 0.28053787
000240 c5 84 35 3e 86 94 4e 3e d1 35 8e bd 60 9d 19 be
       0.17726429 0.20173845 -0.069438584 -0.1500144
000250 be a1 03 be ee bd a5 bd cb 15 8b bd 86 07 c0 bd
       -0.12854668 -0.08092867 -0.06791266 -0.09376435
000260 53 ce 87 3e 1c 05 d9 3c 0a f4 d2 3e 65 50 b9 3d
       0.265246 0.026491694 0.41201812 0.09048537
000270 d0 17 64 3d a1 c6 19 be e0 1c b7 be 65 02 8c be
       0.055686772 -0.15017177 -0.35764217 -0.27345577
000280 5f 04 d3 3d 0b 6d 1f be 23 b1 21 3e 97 34 1b 3e
       0.10303568 -0.1556894 0.15790229 0.1515678
000290 6b 95 97 bd aa 6d 6c 3d 5c 35 03 3d d6 c9 14 bd
       -0.07401546 0.05772177 0.03203331 -0.0363253
0002a0 74 27 1c bd 8d 35 94 3d 03 3b 48 3e a7 76 b4 3c
       -0.038123563 0.072367765 0.19553761 0.022029234
0002b0 92 cc 1f 3e 5e f2 ed bd 2e 1c 3b 3e d4 c4 5b bd
       0.15605381 -0.116184935 0.18272468 -0.053654507
0002c0 6f 93 f7 3d 50 73 c2 3b 36 74 07 3e a2 62 8b bd
       0.120886676 0.0059341565 0.13227925 -0.06805922
0002d0 eb 01 41 3e d3 36 9d 3e 7c e4 fe bd 96 db 66 3e
       0.18848388 0.3070589 -0.12445924 0.22544703
0002e0 53 86 a8 3d 10 29 a3 bd d1 c7 50 3e 86 94 03 3d
       0.08228745 -0.079668164 0.20388724 0.032124065
0002f0 77 7b 13 3d 6f 40 37 3e 5e cc 59 3d 5d b7 ad 3c
       0.036006417 0.17895673 0.053173415 0.021205598
000300 3f ab fb 3b ef 4f 0d 3c 46 ae 04 be 06 88 8b 3e
       0.0076803262 0.008625015 -0.12957105 0.27252215
000310 2f 8c f8 3d 82 5e ab 3c 6a 3d d1 bd 9a d3 f5 3d
       0.12136113 0.020919088 -0.10216792 0.120032504
000320 c9 c8 47 bc 2d 3d 9b ba a3 78 05 3b ae e1 90 be
       -0.012193867 -0.0011843793 0.0020366095 -0.2829718
000330 6c fb 6c 3d 58 92 b8 3d 6e d1 87 be a9 1f b4 3e
       0.057856962 0.09012288 -0.2652697 0.35180405
000340 2a 64 4a bd 8a a8 21 3e 90 e6 ab be 15 0e e8 3d
       -0.04941193 0.15786949 -0.33574343 0.11330811
000350 97 c1 03 bc 38 6c 73 be 86 ba 8a be 32 c5 e7 bd
       -0.008041761 -0.23771751 -0.2709543 -0.11316909
000360 97 c8 f1 bd 88 83 17 be 5a a0 d0 3c 23 df 71 bb
       -0.118058376 -0.14796269 0.025467087 -0.0036906681
000370 fa 35 b0 bd dd c3 11 3b ce 77 bd 3d af e2 93 3d
       -0.08604045 0.0022241988 0.092513666 0.07220971
000380 26 ee 79 3d 64 00 55 bd 56 fe 48 3d 8a 4d b2 3c
       0.06101813 -0.052002326 0.04907068 0.02176549
000390 89 d1 29 3e 93 15 fd 3c 5b 80 e5 bc e4 91 01 be
       0.16583838 0.030894076 -0.028015306 -0.12653309
0003a0 fa b7 07 3d 02 d4 a9 bd c7 7a 65 bd 65 2e 34 be
       0.033134438 -0.082923904 -0.056025293 -0.17595823
0003b0 39 b0 02 3e 41 a9 0c be e4 40 12 be 28 40 60 bd
       0.12762536 -0.1373644 -0.14282566 -0.054748684
0003c0 78 37 ae 3c 24 11 74 3d 69 7e 0e 3e 69 09 b1 ba
       0.021266684 0.05958666 0.13915409 -0.0013506833
0003d0 0e 44 2f 3d d8 a8 1d 3d 73 03 a7 3d 3f 62 8b 3d
       0.04278951 0.0384911 0.08154955 0.06805848
0003e0 0b ad 98 bc 82 5a 57 ba 89 df 54 3e 7e f4 d3 3c
       -0.0186372 -0.0008215086 0.20788397 0.025873419
0003f0 2a 8f 70 be 1b d6 87 be c7 8a 92 3d 3a a6 5f be
       -0.23492113 -0.26530537 0.07155376 -0.21840754

nn.mlps.0.layers.2.bias f4 [50]
000000 b8 a4 8e bd e1 fc bd 3c e4 78 da bc ff 10 85 3d
       -0.06965011 0.023191871 -0.026668973 0.064973824
000010 5e 2b 32 bd a6 47 7d bc fd 92 ea 3c 7e 4f e4 bb
       -0.04349839 -0.015458977 0.028634543 -0.006967484
000020 05 51 77 bc ff b9 e5 bd d1 06 0c 3d df 7b 20 3d
       -0.015095 -0.112171166 0.034186188 0.039180633
000030 b1 03 2a 3d 56 fe 0d bd d3 f2 13 3d 65 43 01 bd
       0.041507427 -0.03466638 0.036120247 -0.031558413
000040 55 54 90 bc 2e 47 e0 3c 9f 44 3c 3d 1f 8d 03 3e
       -0.017618338 0.027377691 0.04596388 0.12846802
000050 a7 9e 04 bd b0 c7 c5 bc 75 3d 27 3d a6 2f 72 3d
       -0.032377865 -0.02414307 0.040830094 0.059127472
000060 29 ea 0a bd 94 72 be 3d e0 b8 c1 3c ee 89 cc 3b
       -0.03391472 0.09299198 0.023647726 0.0062420284
000070 25 34 33 bd c5 ed 2f bd c4 aa 16 3d da 02 66 3d
       -0.0437509 -0.042951364 0.03678395 0.056155063
000080 79 8c de bc 2d ee a7 bc ba 55 2c 3d 6a 23 83 3d
       -0.027166592 -0.020499313 0.042073943 0.06403239
000090 9f b5 15 bd ba 84 97 3c 10 a8 ac 3c f1 83 d9 bd
       -0.03655016 0.018495906 0.021076232 -0.10620869
0000a0 ba 04 34 3d aa 1d ab bd a4 b2 2c bd 31 03 f8 bc
       0.04394982 -0.08355267 -0.042162552 -0.03027496
0000b0 6a d6 3d 3d 61 49 43 bc 37 c4 f9 3c 3b 74 fb 3c
       0.04634706 -0.01191935 0.03048907 0.030695071
0000c0 7e 75 ad 3c bb 9f 22 bd
       0.021174189 -0.039703112

nn.mlps.0.layers.3.weight f4 [50, 50]
000000 c5 dd a1 be 15 68 ab 3d 91 2a 03 be 1b 92 86 3e
       -0.3161451 0.083694614 -0.12809207 0.26283345
000010 87 44 26 3e c2 9b f9 bd e5 10 2f bd f9 01 40 be
       0.16237079 -0.121879116 -0.04274072 -0.18750753
000020 54 01 7d bd 00 cb 80 bc 3a e3 39 3e d7 74 e5 bd
       -0.061768845 -0.015721798 0.18153086 -0.11203926
000030 58 01 c9 3d b5 6e 8c 3d e0 2b c8 bd 99 b6 75 3d
       0.098147094 0.06857053 -0.097739935 0.05998859
000040 48 99 87 3e 9c 1c 88 3d 87 37 01 3e ce fe b1 3d
       0.26484132 0.06646082 0.12618838 0.08691178
000050 8d ca 90 3d a6 a2 c1 bc b2 d3 59 be e8 f5 21 be
       0.070698835 -0.023637127 -0.21272162 -0.15816462
000060 de 40 fa 3d ed b6 0b 3e e9 13 59 bd 02 0f af bd
       0.12219404 0.13644 -0.052997503 -0.085477844
000070 1a c4 57 be 75 1e 8c be 86 26 6b 3d 21 19 0f 3e
       -0.210709 -0.27366987 0.057409786 0.1397443
000080 b9 35 36 bd 2c 6e 21 3c 03 9e 8b bc d4 4a 9c bd
       -0.044484828 0.009852927 -0.01704312 -0.0763146
000090 5e f6 8e bd ec bc c3 bd d4 f8 55 3d c6 63 4d 3d
       -0.069805846 -0.09557518 0.052239254 0.05014398
0000a0 50 bb 2e 3e a8 f6 cf 3d af 4e 4d be e6 82 c1 bd
       0.17063642 0.10154468 -0.20049547 -0.09448795
0000b0 93 62 4b 3d 8f 01 d2 bd 38 a4 97 3e fa 99 8c bd
       0.049654555 -0.102542035 0.29617476 -0.06865306
0000c0 2f 7e be 3d b8 28 85 3e 30 c4 e2 bd d0 e3 00 3e
       0.09301411 0.26007628 -0.11072576 0.12586904
0000d0 ce 06 06 bd bd 45 d9 3d f6 ca 16 be 88 7a ed 3d
       -0.032721333 0.10609005 -0.14725861 0.115956366
0000e0 49 d4 b5 bc 3b f6 f5 3d b1 a9 a4 3b 14 28 81 bd
       -0.022195952 0.12009855 0.0050251116 -0.063064724
0000f0 db c1 17 be 1e 56 c6 bc f4 f8 4d 3c 49 39 4f 3e
       -0.14820044 -0.024210986 0.012571562 0.20236696
000100 a1 49 5e 3e d9 21 8d 3d 26 ba 5b 3e 14 fe c9 bd
       0.21707775 0.068912216 0.21457729 -0.09862915
000110 3b 47 4e 3d d7 e2 bb 3e 85 2e af bd f1 04 3c 3e
       0.0503609 0.36696503 -0.08553795 0.1836126
000120 cf 62 f6 3d f4 93 e3 bc 0b 85 53 be fd 5a 38 3c
       0.12030565 -0.02778051 -0.2065622 0.011252162
000130 70 89 83 be d5 ec a3 3d 21 5a 8a 3e e4 66 c3 3b
       -0.25690794 0.080041565 0.27021888 0.0059631933
000140 68 f4 8f 3e 9b 2d aa bd 27 66 3c be 0c 4e 14 3e
       0.28116155 -0.0830948 -0.18398343 0.14482898
000150 41 35 ba 3e 2a 01 29 bd f8 75 07 3e 6f 7a 56 bd
       0.36368755 -0.041260876 0.13228595 -0.052362856
000160 cf d1 3c be f5 b1 ab be b4 cd 80 3e 9e a2 fc bd
       -0.1843941 -0.33534208 0.2515694 -0.12335704
000170 6f 80 62 be e7 7f 98 3d 38 a1 9d 3d 3f 0e e7 3d
       -0.22119306 0.074462704 0.07696766 0.11282014
000180 96 2e 82 bd 72 b4 85 3d 1e 14 ac bd 63 ce 01 3d
       -0.06356542 0.06528558 -0.084022745 0.031690966
000190 df 60 21 be 4b 19 d3 bd 0c cc 05 3e 64 6a bc bd
       -0.1575961 -0.103075586 0.13066119 -0.0919998
0001a0 95 b9 1e be 73 50 81 bd c1 13 59 3e 60 ac d5 3d
       -0.15500481 -0.063141726 0.21198942 0.104332685
0001b0 3f da b0 bd e7 81 a4 bd 00 92 24 3e 5b e6 20 be
       -0.08635377 -0.080325894 0.1607132 -0.15712874
0001c0 cf 13 00 bc 6d 02 3c 3e ca 8c 6d bd 3d 27 47 3d
       -0.007817223 0.183603 -0.057995595 0.048621405
0001d0 dd ac 52 3e 3f 1c 63 3d f5 7b ed bc b9 ac 35 be
       0.20573755 0.05544686 -0.028989771 -0.1774167
0001e0 f8 b3 7f bd c5 63 61 bd 02 14 c2 3d a2 35 db bd
       -0.06242749 -0.05502679 0.094764724 -0.10703589
0001f0 1d 3e bc 3c d0 78 59 bd f1 a0 a9 bd 78 28 2c be
       0.022978837 -0.05309373 -0.0828265 -0.16812313
000200 69 d3 4c 3d 2f 2b 3f bc 9f 2b 48 3e 6a 98 5a 3e
       0.050006304 -0.011668011 0.1954789 0.21347204
000210 cc c1 4d bd c8 ea 32 be 83 5f 78 39 3e cf 18 3b
       -0.050233647 -0.17472374 0.00023686704 0.0023316885
000220 24 98 20 be 04 60 36 bb 46 c3 b7 bd c6 0e 67 3d
       -0.15683037 -0.0027828226 -0.08972792 0.056410573
000230 64 37 8a be 85 5e fa 3d 74 c7 54 3e 9c a0 22 be
       -0.26995385 0.122250594 0.2077921 -0.1588158
000240 48 cb d1 bc f2 a9 32 3e 40 c3 89 3e 44 4b 00 3e
       -0.025609627 0.17447641 0.26906776 0.12528712
000250 61 c5 70 3e d2 5a 26 3e d6 25 32 be 7c cb 9d 3c
       0.23512794 0.16245583 -0.17397246 0.019262068
000260 b9 61 23 3e 74 23 89 3d 09 98 6c bd 65 13 51 be
       0.15955247 0.06696215 -0.05776218 -0.20417555
000270 38 ac 49 3e 01 d8 44 3c 48 36 4c be c0 9f 45 3e
       0.19694602 0.01201439 -0.19942582 0.19299221
000280 58 3f 1e bd f2 9d 47 3e 0b 07 51 3b 34 f5 c9 3c
       -0.038634628 0.19493845 0.0031895067 0.024653055
000290 3d 6c ae bd ea 4d a1 bd 19 8f 0b 3e be 25 99 bd
       -0.085167386 -0.07876189 0.13628806 -0.07477902
0002a0 99 1e 80 3e df dd 37 3e 74 ec 0a 3e 34 4e 81 3c
       0.25023344 0.17955731 0.13566762 0.01578436
0002b0 2d 36 46 3d 09 1c 64 bd cd 25 43 bd 26 89 98 3d
       0.04839151 -0.0556908 -0.04764347 0.07448034
0002c0 2b 35 bd 3c a3 32 49 3d be a5 0b 3e 63 1c 92 3d
       0.023096642 0.049120557 0.13637444 0.071343206
0002d0 8d d6 e2 bc 48 cf c8 bd eb 48 06 3e f0 91 21 3e
       -0.027690196 -0.09805161 0.13113753 0.15778327
0002e0 df 48 a1 be f0 0d 2e 3c a4 2e b1 3d e5 1a ac 3d
       -0.3150091 0.01062344 0.08651474 0.08403567
0002f0 a1 75 39 be 5b f3 13 be d1 df 39 3e 5f 3d 3c 3e
       -0.18111278 -0.14448301 0.18151785 0.18382786
000300 ea d6 b4 3d cd 0a 62 bd 49 67 85 be 75 99 67 3e
       0.08830054 -0.05518608 -0.26055363 0.22617133
000310 5a 99 86 38 5d 5a 82 be 59 53 3a 3e df b9 40 3d
       6.418182e-05 -0.25459567 0.18195857 0.04705226
000320 a4 2d 82 bd 7d 6c a8 be a7 47 0f bc cb 4f 37 3e
       -0.063563615 -0.3289527 -0.008745111 0.17901532
000330 a8 c8 05 3e 37 95 22 be dc 14 0d bd 00 84 f8 3d
       0.13064826 -0.15877233 -0.03444372 0.12134552
000340 94 62 41 3d fc 7a 30 be dc d2 a4 bd 63 1e 9a 3d
       0.047213152 -0.17234415 -0.08048031 0.07525327
000350 59 aa e9 3c ea c9 40 be a4 d8 c4 bd 4a ae b8 3c
       0.02852361 -0.18827024 -0.096116334 0.022544045
000360 69 05 e1 bd 49 1f 26 be b5 27 a7 be 75 ac ce 3e
       -0.1098736 -0.16222872 -0.32647482 0.4036595
000370 1f 7c d8 bd 23 bb 02 bd 75 96 f7 bc 41 e6 35 3e
       -0.10570549 -0.03191675 -0.03022311 0.17763616
000380 bb 6b 38 bd 0f a4 48 3e 0f d4 44 be c4 17 67 bd
       -0.045024615 0.19593833 -0.19221519 -0.05641915
000390 44 a5 19 3e f6 53 6b bd 29 e2 04 be 9b 47 89 3e
       0.1500445 -0.05745312 -0.12976898 0.26812443
0003a0 55 cb 86 3b 3a 31 8b 3d 30 01 9e bd 03 42 f6 3e
       0.0041135945 0.067964986 -0.0771507 0.48097238
0003b0 7b 06 0e bc 7f 58 41 be 54 ed cd 3d 07 cd ff bc
       -0.008668537 -0.18881415 0.10055032 -0.031225694
0003c0 92 d2 83 3e 93 a9 92 3e 99 91 50 bc 5d 88 ed 3d
       0.2574659 0.28645 -0.012730026 0.11598275
0003d0 47 83 4c bc 9e 66 34 be 00 a9 bb 3d e0 18 8b be
       -0.012482471 -0.1761727 0.091630936 -0.27167416
0003e0 f1 7d 52 be 22 ef ad 3c 68 ca 13 3e 90 6e c1 3d
       -0.20555855 0.021232191 0.1443268 0.09444916
0003f0 dc f5 d2 3c 73 28 3c 3d c6 84 5d be 62 3e 4b 3d
       0.025752 0.045937013 -0.2163268 0.04962004

nn.mlps.0.layers.3.bias f4 [50]
000000 c9 3e 17 3d ea ee 96 bc b2 05 0c 3d 83 66 43 bc
       0.03692511 -0.01842447 0.03418512 -0.011926296
000010 e2 92 e3 3c 7b b2 18 bd 44 8b 32 3b 04 36 21 3c
       0.02778 -0.037279587 0.0027243653 0.0098395385
000020 58 dc 18 3d ac b9 03 bd ce e9 00 bd d1 6e 08 3d
       0.03731951 -0.032159492 -0.031472974 0.033308808
000030 c8 02 00 3e 8b 55 14 bd 60 53 0f 3d 01 ad e2 bc
       0.12501061 -0.036214393 0.034991622 -0.027670385
000040 a6 2e 38 bd bd 1c 12 bd d3 1e 4b bd b9 62 35 bd
       -0.044966362 -0.03567194 -0.049589943 -0.044283602
000050 01 9a 1a 3d 57 b1 0f bd 62 1b 25 3d 86 0d 0c 3d
       0.037744526 -0.035081234 0.040309317 0.034192584
000060 e6 91 14 bd 86 8c cc 3c db ed 0e 3d 34 6a b0 bc
       -0.036271952 0.02496935 0.034894805 -0.021535017
000070 19 50 30 3d a9 ad 16 3d 49 82 21 bd 77 a4 10 3d
       0.043045137 0.03678671 -0.03943089 0.035313096
000080 7b ff 60 bc 47 dc 26 bd a8 4b 12 bd e7 a7 0c 3d
       -0.013732786 -0.040737417 -0.035716683 0.03433981
000090 ec 8b 7c 3c 4a 55 1c 3d d8 45 37 bd 7d de 16 3d
       0.015414219 0.038167275 -0.044744343 0.036833275
0000a0 41 25 26 bd 75 37 1c 3d f0 08 20 ba c4 fd f5 3c
       -0.04056287 0.038138825 -0.00061048474 0.030028231
0000b0 c0 98 2c 3d f3 44 0d 3d 7c 63 c2 bc a7 ab 2d bd
       0.04213786 0.034489583 -0.023729078 -0.04240003
0000c0 fd bd d9 bc f9 12 17 3d
       -0.026579851 0.036883328

nn.mlps.0.layers.4.weight f4 [50, 50]
000000 57 26 3b 3e a3 7d 04 bd ea b3 0c 3e 86 a9 56 be
       0.18276344 -0.03234638 0.13740507 -0.20963106
000010 37 b9 dd 3d d7 b4 b2 3d 7e ba 59 3e 5f ae 1e 3e
       0.108263426 0.08725899 0.21262547 0.15496205
000020 1e ad ba 3d 65 03 b8 bc 76 f7 41 3e ac cd 01 3e
       0.09115051 -0.022462556 0.18942055 0.12676114
000030 36 fd 2c bd 2a 8a 07 bc 41 1f cf bb a5 67 1a bd
       -0.04223367 -0.008272687 -0.0063208644 -0.0376965
000040 47 3e 3a bd 02 fd d2 bd be ab 4f 3e 31 e0 ab 3d
       -0.04546955 -0.10302164 0.20280358 0.083923705
000050 ca c1 47 3e bb 68 05 be 6a 4d e1 bd 9e 71 8e 3d
       0.19507518 -0.13028233 -0.11001094 0.069552645
000060 e4 cc 01 be 1f 14 72 be 0e 4e 18 bc 55 a3 eb bc
       -0.12675816 -0.23640488 -0.009295953 -0.028764406
000070 bf 79 37 be 8f 28 40 3d 5c 8c 6c 3d 0c 0b 03 be
       -0.17917536 0.04691368 0.057751045 -0.12797183
000080 ea a5 fc bc 92 5b 43 be 6c 3b f3 bd a2 5a 34 bd
       -0.030840833 -0.190779 -0.11876568 -0.044031747
000090 ed 50 05 3e 79 ce a4 3e 7d 20 81 3e 8a 6a f1 3b
       0.13019152 0.32188776 0.252201 0.007367437
0000a0 95 e9 25 be 1f 0e 0a 3d e8 e3 49 3e 31 45 43 bd
       -0.16202386 0.033704873 0.19715846 -0.047673408
0000b0 44 b2 b9 3d eb 24 2a 3d ab 98 d0 bd c7 56 0b 3e
       0.090672046 0.041539114 -0.10185369 0.13607322
0000c0 dc f1 87 be 2a 80 d7 3d da ef d4 3d 80 b0 21 3c
       -0.26551712 0.10522492 0.103973106 0.009868741
0000d0 b4 9c 65 3e 7d f3 cc be e4 c8 57 be a2 6d 85 3c
       0.22423059 -0.40029517 -0.21072727 0.016287629
0000e0 9d 63 34 be 75 81 7b 3e 67 00 76 3e 08 73 fe bc
       -0.17616124 0.24561103 0.24023591 -0.03106071
0000f0 81 c3 30 bd f2 65 c4 bd 75 b8 f2 bd fe bc e2 bd
       -0.043155197 -0.09589757 -0.11851589 -0.11071204
000100 7f e1 27 3e c8 2a 99 bd ea 82 32 3e 34 02 1e be
       0.16394614 -0.07478863 0.17432752 -0.15430528
000110 7e d6 8a bd 43 ad ec 3d 1e af 7b bb 82 8d a7 bc
       -0.067791924 0.115564846 -0.0038403939 -0.020453218
000120 14 e2 6e 3e 30 7c 4e 3e 52 4b 0d bd 65 9e 5e 3d
       0.2332843 0.20164561 -0.03449566 0.054350276
000130 36 93 01 3e 1d 7f 0e bd fa 9d a7 bc 36 a1 98 3e
       0.12653813 -0.034789193 -0.020461071 0.29810494
000140 9e 3a 1f 3b 0d b3 51 be 14 85 4f be e8 a5 c2 bd
       0.0024296413 -0.20478459 -0.20265609 -0.095043
000150 89 41 85 bc 85 c2 a8 3d 99 cb 2c 3e 6f 4b cc 3c
       -0.016266601 0.08240227 0.16874541 0.024938313
000160 80 86 00 be 57 85 7b 3e 07 68 d8 bd f7 16 50 bd
       -0.12551308 0.24562584 -0.10566717 -0.05080315
000170 fd cb 18 bc ce e3 c8 3d 0d 94 2e 3e 81 41 c2 bd
       -0.009325978 0.09809075 0.17048664 -0.0948515
000180 60 64 0c 3e 38 ef 83 bc 41 b9 c9 bd 92 b9 37 3e
       0.13710165 -0.01610528 -0.098497875 0.17941883
000190 0a c8 65 be 55 8a df bc 5c f0 fd 3b 48 2a 78 be
       -0.2243959 -0.027287642 0.0077496003 -0.24234879
0001a0 3b 27 94 3e 09 9a 2c be 6d 6d 8e 3d 3a 79 c1 3d
       0.2893618 -0.16855635 0.06954465 0.0944695
0001b0 e9 d9 34 3e 1c a1 e9 3d c8 18 05 be 9c 4d c9 3d
       0.17661251 0.11407682 -0.12997735 0.09829256
0001c0 56 84 9a bc 62 88 80 3e a2 d9 22 be 48 6c a0 3d
       -0.01886193 0.25104052 -0.15903333 0.07833153
0001d0 94 49 72 3e 81 24 a0 bc 01 c9 df 3d d0 60 3a 3d
       0.2366088 -0.019548656 0.1092701 0.045502484
0001e0 55 bb 67 bd 8e 43 cc b9 df c5 65 be 5e 11 c0 3d
       -0.056575138 -0.00038960244 -0.22438763 0.093783125
0001f0 66 fd 81 bd 23 ef 08 3e 4a 84 22 3e 39 ef 25 be
       -0.0634716 0.13372473 0.15870777 -0.16204537
000200 a2 3c d9 bd 73 5b a7 3c d9 e5 80 bd 3c 72 7f 3d
       -0.10607268 0.020429349 -0.0629384 0.0623648
000210 94 6c 8f bd b6 df 18 3e 34 62 44 be bd 35 9f 3d
       -0.070031315 0.14929089 -0.19178087 0.07773922
000220 dd 2b 6c be 61 f4 60 be 55 04 02 3e f0 3e a5 bd
       -0.23063608 -0.21968223 0.12696965 -0.08068645
000230 b9 21 25 be 77 d5 f4 3b 9f 4b f3 3b 5c 75 c3 3d
       -0.16126145 0.007471736 0.007424786 0.09543869
000240 b6 f1 93 bd 7c f2 19 be 4d 14 50 3e 0e 20 c3 3e
       -0.07223837 -0.15033907 0.20320244 0.38110393
000250 64 70 99 3d 9e 9b 6e bd 91 9a 43 3e 80 61 8f bd
       0.0749214 -0.058253877 0.19101931 -0.070010185
000260 8b 15 a2 bb 37 87 b6 bd cb 72 1c 3e d5 a1 b1 3c
       -0.004946416 -0.08912509 0.15278165 0.021683613
000270 56 a4 53 3e a2 17 0c 3e cb 04 1d 3e 7e b2 d7 3d
       0.20668158 0.1368089 0.1533386 0.105320916
000280 61 cb be 3d 78 4c 2a be 45 96 ce be 98 a7 3e 3d
       0.09316135 -0.16630733 -0.40349022 0.04654655
000290 93 04 82 be 34 21 77 bc ad 5a 0f 3e c5 38 9e 3d
       -0.25394115 -0.0150836 0.13999434 0.07725672
0002a0 b0 f0 ad bd a1 b2 07 bd bb d0 dd bd 10 cc 1e 3e
       -0.08493173 -0.03312934 -0.10830828 0.15507531
0002b0 76 16 1d be a4 68 7a bd 91 6e 52 3e aa 5a 38 3b
       -0.153406 -0.06113495 0.2054999 0.0028130212
0002c0 d8 52 99 bd ad 3e 87 bd 43 47 6a be 6e e9 1c be
       -0.07486504 -0.06603751 -0.22878747 -0.15323421
0002d0 fb c7 78 bc 39 b7 a7 3d ae 84 38 be c3 08 53 be
       -0.015184398 0.08189244 -0.18019363 -0.20608811
0002e0 4a 9d b1 3d 90 74 f3 bd 53 3f 7c bd 8e 84 f8 bd
       0.08672579 -0.11887467 -0.06158383 -0.12134658
0002f0 0c 6d 07 be c5 a3 c9 bd 5d fd 63 3b 5d 57 97 bd
       -0.13225192 -0.0984569 0.0034788467 -0.0738971
000300 a1 5a 04 be 1f 5e 72 be c5 d7 23 3e 54 70 a5 be
       -0.12925197 -0.23668717 0.16000278 -0.32312262
000310 0b 21 d1 3d 90 55 2f 3e ec df 55 3e 71 89 18 be
       0.102113806 0.17122483 0.208862 -0.1489618
000320 d6 8d 9e be 7f aa cd bd c0 8a 88 be 5b 3e d2 3d
       -0.30967587 -0.10042285 -0.26668358 0.102657996
000330 d4 0c 04 bd 8f 17 3c 3e 52 62 01 3c 26 17 93 3d
       -0.032238796 0.18368362 0.007896977 0.071821496
000340 5d 55 85 3c 3e 6d aa 3c 33 59 37 3d 8b bb 73 3c
       0.016276056 0.020804044 0.0447628 0.014876257
000350 60 70 dc bd 13 0c 98 bd c0 86 8b bd ee fc 29 3e
       -0.10763621 -0.07424178 -0.06812811 0.16600391
000360 7d 0e 54 3d 52 44 bb 3d f8 13 b8 be 60 4c 7e bd
       0.05177163 0.091438904 -0.35952735 -0.062084556
000370 76 b9 49 3e 39 c2 a1 3b 36 6f 2a be 63 71 9e bd
       0.19699654 0.004936483 -0.16643986 -0.077364706
000380 c1 b1 8e 3d 74 26 7f bc 30 24 a7 3c a8 cd 06 be
       0.069674976 -0.015573133 0.020402998 -0.13164389
000390 11 0b c4 bd f2 03 3f bc 3e 57 80 be ce 2f 44 bb
       -0.09572423 -0.0116586555 -0.2506656 -0.002993572
0003a0 7e 89 7b 3e ec 6a 96 3d 58 36 26 3d 79 bf dd 3d
       0.24564168 0.073446125 0.04057917 0.10827536
0003b0 3f 8c 3f bd 19 6f 9f 3b 06 9b 39 3e f4 1a ac bd
       -0.04676461 0.004865539 0.18125543 -0.084035784
0003c0 0e 71 45 3d 7c 23 44 be 25 ca 28 be 10 6b 62 be
       0.04820352 -0.19154161 -0.16483362 -0.22111154
0003d0 c9 e9 d4 3d cc 60 8a 3c 69 2a e6 3d ff 3d 9e bd
       0.103961535 0.01689186 0.11238558 -0.077266686
0003e0 12 88 8c bb 56 17 d0 bd 46 37 3a 3e f4 bf 57 be
       -0.004288682 -0.10160701 0.18185148 -0.21069318
0003f0 0d 84 d7 3c 75 50 76 bb 82 7e 81 3d c2 93 65 be
       0.026308084 -0.0037584577 0.063229576 -0.22419646

nn.mlps.0.layers.4.bias f4 [50]
000000 53 a2 14 3d 20 2c 0c 3d 1f 84 29 bd 13 de 0c bd
       0.036287617 0.03422177 -0.041385766 -0.034391474
000010 f3 00 0f bd 43 2e 0f 3d 0f 1f 2a bd 2e be dc 3c
       -0.034913015 0.034956228 -0.041533526 0.026946153
000020 48 c5 05 bd 5d 8f 14 3d 85 6c 17 3d 76 08 2b bd
       -0.032658845 0.036269534 0.036968727 -0.041756116
000030 26 22 24 bd 9f f0 68 3d 5e 1d 2c bd 5e 04 05 3d
       -0.04007163 0.0568701 -0.042020194 0.032474868
000040 e0 26 2c 3d 7d cf 9e 3d aa 37 2b 3d 0a bb 09 3d
       0.04202926 0.07754419 0.041801132 0.03362564
000050 ef 85 1d 3d f4 c6 18 3d c5 68 1a bd 03 f4 18 bd
       0.038457807 0.03729911 -0.037697572 -0.037342083
000060 9e 53 30 3d 5d 6d 3a 3d 86 4b 1b 3d 9c 4e 0a 3d
       0.043048494 0.045514453 0.03791382 0.033766374
000070 91 33 1d bd 16 98 17 bd 76 40 37 bd ba 3d 18 bd
       -0.038379256 -0.037010275 -0.04473921 -0.037168242
000080 af aa 0d bd 5d 50 2a bd 8d 5d 15 3d 8b a9 39 3d
       -0.034586605 -0.041580547 0.03646617 0.045327704
000090 3c 7f e8 3c 08 36 2a bd d9 4b 0e bd d6 72 52 bd
       0.028380983 -0.041555434 -0.034740303 -0.051379047
0000a0 5b 25 14 3d 35 05 0c 3d 27 d3 24 bd c2 55 82 3c
       0.036168437 0.034184653 -0.040240433 0.015910033
0000b0 57 88 2b bd 07 37 17 3d 38 80 15 bd 71 ef 09 3d
       -0.04187807 0.036917713 -0.036499232 0.033675615
0000c0 75 53 90 bd a3 d7 25 bd
       -0.07047168 -0.04048885

nn.mlps.0.layers.5.weight f4 [1, 50]
000000 f6 d7 86 be dd 5c cc be 7d 18 97 3e cd bd e8 3e
       -0.2633664 -0.399146 0.2951087 0.45457307
000010 2c 47 84 3e 35 d5 9e be 3e 80 ae 3e c7 40 95 be
       0.2583555 -0.3102204 0.34082216 -0.29150984
000020 7e b8 a7 3e 41 62 9a be f5 9c 9d be 5e b0 17 3e
       0.32757944 -0.30153087 -0.3078381 0.14813372
000030 cc 72 47 3e e5 1f 58 be 0c 3f 8d 3e ad d4 ef be
       0.19477385 -0.21105917 0.27587163 -0.46841946
000040 61 7b 2b be aa 4f 56 3e 95 9b 0e be 9e f3 94 be
       -0.16746284 0.20928827 -0.13926537 -0.29092115
000050 15 1b 9b be cd c3 64 be 54 be 2c 3e cf 8b 5e 3e
       -0.302941 -0.22340317 0.1686948 0.2173302
000060 5c ba 4e be 83 f6 87 be 39 9f 2a be 9d a7 ca be
       -0.20188278 -0.2655526 -0.16662301 -0.39581004
000070 f5 f1 d4 3e 0f 0b 25 3e 64 e1 43 3e 7a 3a 59 3e
       0.4159085 0.161175 0.19128948 0.21213713
000080 b7 65 b1 3e a6 22 45 3e 2a 3b e8 be ea 4c 3c be
       0.34647915 0.19251499 -0.4535764 -0.18388715
000090 cd 0a 95 be ff 7f 85 3d e1 d1 8c 3e fd 0a f7 3d
       -0.29109803 0.06518554 0.27503875 0.12062643
0000a0 ee 50 c6 be 36 a4 6b be dc 6c df 3e 5d 3f c6 3d
       -0.3873362 -0.2301186 0.4363774 0.09680054
0000b0 99 27 86 3e 8e d9 c2 be fb 76 b8 3e 9c 53 57 be
       0.26202086 -0.38056606 0.36028275 -0.21027988
0000c0 79 26 07 3e f1 c1 70 3e
       0.1319827 0.23511483

nn.mlps.1.layers.0.weight f4 [50, 1]
000000 32 a5 aa bd 0d 4d 27 3e 67 a9 88 3e 27 38 6c 3e
       -0.0833229 0.16337986 0.26691744 0.23068295
000010 56 c7 96 3d 34 6a 6c bd e9 45 a7 bc 32 16 52 bd
       0.07362239 -0.05771847 -0.020419078 -0.0512907
000020 af 8a cb 3e e6 ae 72 3d a7 6a c5 3e 58 fc bf bc
       0.39754245 0.059248827 0.38557932 -0.023435757
000030 b7 9f 8d 3d 16 d2 b3 3e 86 83 09 be b6 3e 05 3e
       0.06915229 0.3512122 -0.13429078 0.13012204
000040 b4 2c 8a bc 44 dc 95 bc 02 4d 96 3c e3 ec 55 3d
       -0.01686702 -0.018293507 0.018347267 0.052227866
000050 cd 8e 80 bd d8 e2 e4 be 5a 25 6f 3e 37 05 2f be
       -0.06277237 -0.44704318 0.23354092 -0.17091833
000060 d8 34 47 bd 16 18 17 bd 8f 2d 9a bd ca 5e 45 3d
       -0.04863438 -0.036888205 -0.07528221 0.0481861
000070 cb db d0 3e 31 52 26 bd 2f c0 c6 3e dc 0b 98 be
       0.4079269 -0.040605728 0.388185 -0.29696548
000080 3d 32 3c bd 1e 3d 45 be 4f df 1b 3d 85 78 b9 bd
       -0.04594635 -0.19261596 0.03805476 -0.090561904
000090 81 0b 8e 3e f6 2a ac 3e a9 df 6e be 9e a2 9c 3e
       0.27743152 0.33626527 -0.23327507 0.30592817
0000a0 41 5f 67 3d 13 80 a4 be 3f 5d 79 be d3 67 59 be
       0.056487326 -0.32128963 -0.24351977 -0.21231012
0000b0 8b a7 2e be ff 76 3d be e8 02 8a 3d 9e e8 73 be
       -0.170561 -0.18502425 0.067388356 -0.23819205
0000c0 b9 fe 64 3e ea ec 6f bd
       0.22362794 -0.05857555

nn.mlps.1.layers.0.bias f4 [50]
000000 44 26 dc bc 87 ef 29 3c 7b 73 a3 3c 16 4f a5 bc
       -0.026873715 0.010372049 0.019952526 -0.020179313
000010 33 fc 55 bc fd ca ee bc 76 af b3 3c 7e 45 c7 bc
       -0.013060617 -0.029149527 0.021934252 -0.024325129
000020 d9 88 f8 ba 83 78 b3 bc 58 46 ac 3c 32 4e d7 bc
       -0.0018961682 -0.02190805 0.021029636 -0.026282404
000030 62 0c 87 3a 88 5c 9e bc 5d 7c b9 bc 86 ba c2 3c
       0.0010303373 -0.019331232 -0.022642309 0.023770582
000040 5d 8e bc 3c c7 1f ba 3c b7 74 be 3c d5 88 db 3c
       0.023017103 0.02272023 0.023249013 0.026798645
000050 3a 81 76 3c c1 5d bc 3c a9 c9 bf bc 53 ac 84 3c
       0.015045458 0.022993924 -0.023411589 0.016195452
000060 f2 94 e4 bc 56 b2 cb bc 96 61 d4 bc 55 f3 ce 3c
       -0.027903054 -0.02486531 -0.025925439 0.025262514
000070 4c d2 c3 bc 0c 57 e7 bc 01 bd 98 bc 61 e5 a4 bc
       -0.023903988 -0.02823975 -0.018644812 -0.020128908
000080 31 5d b3 3c e7 77 80 3c 19 5c cc 3c e5 22 cb bc
       0.021895023 0.015682174 0.02494626 -0.024796912
000090 66 64 b8 3c 03 3a 95 bc 85 75 c0 3c 17 41 8e bc
       0.022508811 -0.018216139 0.023493538 -0.017365022
0000a0 cd 55 ff 3c 9b 30 9a bc d1 45 bb 3c 19 2b c2 3c
       0.031168843 -0.018822005 0.02286044 0.023702191
0000b0 a9 98 c3 bc 8e 47 a7 3c 18 e2 cb 3c e0 51 bc bc
       -0.023876505 0.020419862 0.024888083 -0.02298826
0000c0 98 b1 c6 bc f5 3e ca bc
       -0.024254605 -0.024688223

nn.mlps.1.layers.1.weight f4 [50, 50]
000000 05 0d 96 3e aa 72 d6 bd d5 85 21 3e 08 3f 1d 3e
       0.29306808 -0.10471089 0.15773709 0.15356076
000010 15 b8 89 bc f7 f0 80 be 2e 95 c7 bd cc ec 23 3d
       -0.01681141 -0.25183842 -0.09745251 0.04002075
000020 10 73 fb 3d eb 09 18 3d 79 73 8b bd e9 6b 24 be
       0.12277806 0.037118834 -0.06809134 -0.1605679
000030 c9 98 ed bd 6b a3 18 3e b5 fe cd 3d 5b 21 6a 3d
       -0.11601407 0.14906089 0.10058347 0.057160717
000040 c4 f1 6e 3d 96 59 84 bd 51 6f 74 be 35 7f 6b 3e
       0.058336034 -0.064624 -0.23870589 0.22997744
000050 26 ad 7c 3e 82 c5 91 be 17 51 f4 3d 4d b4 53 3d
       0.24675426 -0.28471 0.11929529 0.05168562
000060 93 fa 95 bd b6 24 fd 3c 2a 90 91 bc 9d fe 2c 3e
       -0.07323184 0.030901294 -0.017768938 0.16894002
000070 e8 82 8b be 0b 2f 59 3e f0 c9 d3 3d 44 c4 2a be
       -0.2724831 0.21209352 0.10341251 -0.16676432
000080 ae fc 93 bc 05 bc e6 bd 8e 3b 3f 3e eb b9 15 3e
       -0.018064823 -0.11266331 0.18675062 0.14621703
000090 f3 24 6b 3d 0f ff 76 bb 1e 2d ab 3d b1 fe a6 3c
       0.057408284 -0.0037688648 0.08358215 0.020385118
0000a0 b5 63 07 bd 3b 42 0a be e5 1c 25 3d a6 a0 70 be
       -0.033054072 -0.13501827 0.04031076 -0.23498783
0000b0 bf e8 6d be a7 73 26 b8 91 f8 89 3d b9 2f 7f 3d
       -0.23233317 -3.9685194e-05 0.067368634 0.06230137
0000c0 6e 4e b8 3d 30 89 5d bd 64 8c 8f bd 59 3e 82 3e
       0.08999334 -0.05408591 -0.07009199 0.25438192
0000d0 04 d2 74 3e c5 7a 8a 3e f8 b6 5e bc 5d a9 8a 3d
       0.2390824 0.2704679 -0.013593428 0.06770585
0000e0 cc 1f 99 3d 2c 23 74 3e 27 2d a9 3d e0 26 12 be
       0.07476768 0.23841542 0.08260565 -0.14272642
0000f0 b3 5c a7 3c 38 f7 9f bd 33 89 8d bd 36 ea 07 be
       0.020429945 -0.07810825 -0.06910934 -0.13272938
000100 f7 c4 a7 bd da f0 23 be 95 ff 9f ba 89 53 0c be
       -0.08191865 -0.16009846 -0.0012206907 -0.13703741
000110 48 1e 82 3d 6d 74 c9 bc 33 31 f7 3d 5f e6 df 3e
       0.06353432 -0.024591649 0.12069931 0.43730447
000120 7f 87 8a 3e 49 e0 eb 3b 8f 5a a4 bc cf 5a a0 bb
       0.270565 0.0071983677 -0.020062713 -0.0048936377
000130 c4 bc b1 bd d3 e5 55 be ff 13 2a bc df 92 f6 3c
       -0.08678582 -0.20888452 -0.010380744 0.03009933
000140 63 c9 84 bc 0e a1 14 bd 75 90 57 be 8a ae 15 be
       -0.01620931 -0.036286406 -0.210512 -0.14617363
000150 42 3e f3 ba 19 37 15 3c bc 31 60 be b2 d1 63 bd
       -0.0018557983 0.009107375 -0.21893972 -0.055619903
000160 38 49 92 bd a1 79 41 3e d9 fa 2b 3d b9 5b 2a 3e
       -0.071428716 0.18894054 0.041987274 0.16636552
000170 cb c0 62 3d 92 a2 1d be 38 b7 90 3b bb 22 98 bc
       0.055359643 -0.15394047 0.0044163726 -0.018571248
000180 ea ea 12 be 0a 14 12 be c2 90 82 be 4f 02 b4 3d
       -0.14347425 -0.14265457 -0.25501066 0.08789503
000190 87 1e 6b be 16 63 8d be 50 16 46 3e 78 1c f3 3d
       -0.22960864 -0.2761466 0.19344449 0.11870664
0001a0 ce 73 12 3e 77 a4 99 bd 21 e0 94 be 67 55 b4 3d
       0.14301988 -0.07502072 -0.29077247 0.08805352
0001b0 84 aa c0 bc 0f b7 98 3d f8 6b 0d 3c 7f a2 b2 bd
       -0.023518808 0.07456791 0.008631699 -0.087224
0001c0 7f ce 93 3d ac 2d 50 bd 23 92 42 3c 25 41 5e bd
       0.072171204 -0.050824806 0.011875662 -0.054261345
0001d0 10 71 04 bd 41 c7 f1 bc 9e 29 d2 bd 68 79 8b 3e
       -0.032334387 -0.029513957 -0.10261844 0.27241063
0001e0 9b 15 57 3e dd f7 04 3e c3 17 2c be c2 7d 16 be
       0.21004336 0.12985177 -0.1680594 -0.1469641
0001f0 60 83 20 bc 6d 48 15 be f6 63 04 3d 69 96 21 3d
       -0.009796947 -0.1457841 0.032321893 0.039450083
000200 23 d1 1c be f9 7d 39 be 27 6b b7 3d f5 27 f4 3c
       -0.15314154 -0.18114461 0.089559846 0.02980421
000210 e7 8d dc 3c 3d 91 e5 3d bf 66 62 3e 9d 09 6f 3c
       0.026923133 0.11209343 0.22109507 0.014589694
000220 2d e5 85 3d c7 4f d2 3c 74 80 23 3e f7 fd 4f be
       0.065378524 0.025672806 0.1596697 -0.20311724
000230 7e 6c ae bd 2c 2b 42 3d dc 94 09 be 8f ca 20 3e
       -0.08516787 0.047404453 -0.13435692 0.1570227
000240 2f b0 3c be 67 26 b3 bd d7 f0 72 3e 3b 0d e1 bd
       -0.18426584 -0.08747559 0.23724686 -0.10988852
000250 8c c9 22 3e 5f 52 80 be 5b fd 52 be be e3 87 bd
       0.15897197 -0.25062844 -0.2060446 -0.06635235
000260 a9 c6 0c be 11 43 e4 3a b8 af 5e bd 15 a7 6f 3e
       -0.13747658 0.0017415007 -0.054366797 0.2340358
000270 1d 1b 4b be 39 d5 84 3d 06 99 c0 bd 3b 1f a0 3b
       -0.19834562 0.064859815 -0.09404187 0.0048865355
000280 51 fd 94 3d 27 ee b2 bd 9b cd 19 3e 29 a9 20 be
       0.07274879 -0.0873683 0.15019839 -0.1568953
000290 62 1b f5 3c 87 87 20 3e b3 d3 00 bd ff 5f 2a be
       0.029920284 0.156767 -0.031451892 -0.16638182
0002a0 d0 3c 42 3e b4 6f 94 3d 60 81 fa bd 44 b3 2c bd
       0.1896851 0.07247868 -0.122317076 -0.04216315
0002b0 cb 0c 28 3e 2a fe 08 3e 9a 9a 3a bc 71 dc ee 3d
       0.1641113 0.13378206 -0.011389399 0.116631396
0002c0 a8 26 35 bc ad ea b3 3d 27 42 70 bd 60 5c 9a 3d
       -0.01105658 0.08784995 -0.058656838 0.075371504
0002d0 da 84 2f bd 8c f4 e6 bd 8a 7d 11 3d db 41 bd 3e
       -0.042851306 -0.11277112 0.035520114 0.36964306
0002e0 c9 08 0b 3e c8 64 59 3d d1 c2 37 3e 6a d1 34 3d
       0.1357757 0.053074628 0.1794541 0.044145025
0002f0 a3 ff 93 3d f5 1c b4 bd 74 dc da 3e a2 ac 05 3e
       0.07226493 -0.087945856 0.42746317 0.13054135
000300 64 de 94 3d 38 4c ad bd 79 f3 8b be ab d8 19 3e
       0.0726898 -0.08461803 -0.27334192 0.15024059
000310 ce 0a ad 3e cb 2c e2 bd 8b 65 97 bd fd 8c 9a 3d
       0.33797306 -0.110437 -0.07392415 0.07546423
000320 3e 14 ba bd 37 1f 85 3b 63 16 b6 3c d5 2c 4b 3d
       -0.09085892 0.004062559 0.022227472 0.049603302
000330 47 f4 87 3c b5 a2 38 be 87 56 41 3d f3 f9 9f 3e
       0.016595973 -0.18030818 0.04720166 0.31245384
000340 1e 23 c6 3c 2f 62 86 3d cc 4a f0 3b 7b 50 3a bd
       0.024186667 0.06561696 0.007333135 -0.04548691
000350 28 57 8e 3d 75 c8 15 3e 63 62 17 3d 51 d4 d7 bc
       0.069502175 0.1462725 0.036959063 -0.026346358
000360 8d 99 f3 bd 0b 3e d1 bd fe be 47 be d0 8a 65 bd
       -0.11894522 -0.10216912 -0.19506451 -0.056040585
000370 03 b7 c9 bd 0b 59 89 be ff 46 09 be 59 c9 1c 3d
       -0.0984936 -0.26825747 -0.13405989 0.038277958
000380 04 10 bd 3d 02 a8 fe bd 74 38 05 3e ba a6 9a 3e
       0.0923157 -0.12434389 0.13009816 0.30205327
000390 98 d4 86 3d eb 8b 9b 3d 36 a6 58 3e c9 76 04 be
       0.06583518 0.075950466 0.21157154 -0.12935938
0003a0 17 06 aa bd 80 46 3b bb fb 40 9e bd 41 7d b8 bd
       -0.08301943 -0.0028575957 -0.07727238 -0.09008265
0003b0 60 68 30 be 3e 2e c5 3d dd b1 69 3d 21 f2 a9 3d
       -0.17227316 0.096279606 0.05705439 0.082981355
0003c0 26 ee ed 3c 98 a2 c5 3d 3b fe 0e 3d 25 05 0d be
       0.029044222 0.09650153 0.03491042 -0.13771494
0003d0 17 6e 38 be c1 fe c1 3d fd 65 3e 3e 56 4f 73 3d
       -0.18010746 0.094724186 0.18593593 0.059401833
0003e0 6a 65 fc 3c 77 56 d6 bd cb 2f 0c be ff 64 79 be
       0.030810077 -0.104657106 -0.13690107 -0.24354933
0003f0 94 7f b7 bd db c9 8c 3c d9 42 80 be 97 28 27 3e
       -0.089598805 0.017186096 -0.25051 0.16324078
