output/Darcy_PINN/weight.pth (torch, 90653 bytes, 22 tensors)

nn.mlps.0.layers.0.weight f4 [50, 2]
000000 d0 91 a1 be f2 e8 c1 be 2d af 76 3d 04 73 80 3e
       -0.3155656 -0.37873036 0.060225654 0.2508775
000010 4c 37 ac bc 64 42 f4 3c 9a 4d 14 be ae e4 66 3e
       -0.021022461 0.029816814 -0.14482728 0.22548172
000020 36 af 99 3a e2 8c 8c be b0 01 03 3e 20 55 ab 3d
       0.001172519 -0.27451235 0.12793612 0.08365846
000030 ec 72 b2 3e 7a 8b 39 3c 9a d4 90 bd 35 c1 1d bd
       0.34853303 0.011324758 -0.070718005 -0.038514335
000040 73 18 95 be 4e 62 94 bd 0b 67 00 3e a2 a7 90 bd
       -0.29120216 -0.07245313 0.12539308 -0.070632234
000050 cc fc 6e 3e ff 63 ba 3e a7 f9 bd be 72 c7 49 3e
       0.23338622 0.36404416 -0.37104532 0.19704989
000060 af 85 3e 3e 93 cd 6f 3e 32 0b e1 bd 85 ed a6 bd
       0.18605684 0.23418264 -0.109884635 -0.08150772
000070 47 e7 02 3e 6b 30 c7 be ff a9 d1 3c 5f 30 30 be
       0.12783538 -0.38904127 0.025593756 -0.17205952
000080 fa 36 97 bd 69 77 77 3d 9a e9 8e be e9 12 6a 3e
       -0.07383533 0.060416613 -0.279126 0.22858776
000090 f1 32 a3 3d 4f cd ba bd a7 55 89 bd 31 47 90 be
       0.07968701 -0.09121191 -0.0670579 -0.28179315
0000a0 31 a3 4c 3e f1 1d 0f bb 9c 6c bc 3d 48 61 17 be
       0.19984128 -0.0021837915 0.09200403 -0.14783204
0000b0 28 73 87 be 4b c9 5f bd 7f 8e 05 be 2f 86 4e 3c
       -0.26455045 -0.054635327 -0.13042639 0.012605234
0000c0 30 0b c2 bd 00 8f 91 be a8 e3 c8 3d 6d df 6e 3e
       -0.0947479 -0.28429413 0.09809047 0.23327418
0000d0 4d 45 5c be 11 56 05 be fd 11 63 be a0 c3 83 3e
       -0.21510811 -0.13021113 -0.2217483 0.25735188
0000e0 29 3d 8e be 99 8c a8 3e c7 eb 08 3d 03 9d c9 3d
       -0.27781036 0.32919767 0.03342798 0.09844401
0000f0 15 8e 8e be 22 14 35 be 3a 17 d7 3d d6 6a 0e be
       -0.27842775 -0.17683461 0.10502477 -0.13907942
000100 0f 68 2d be 00 37 95 3d b6 ae a4 3e 54 e9 68 bb
       -0.16934226 0.07285881 0.32164544 -0.0035539465
000110 c0 71 66 3e 75 42 2d 3e 12 6b 1b be 3c 20 7f 3d
       0.2250433 0.16919883 -0.15177563 0.0622866
000120 5c 93 be 3b c1 76 ab bd f4 de 33 bd 9b f9 8b be
       0.0058159065 -0.0837226 -0.043913797 -0.2733887
000130 17 cd 93 3e 95 6e 27 bd d2 6d 21 3e 58 b9 45 3e
       0.2886741 -0.040876944 0.1576455 0.19308984
000140 ae 15 bf bc df 32 24 3e da 06 5c 3e 3b 20 02 3f
       -0.023325767 0.16035031 0.21486989 0.5083043
000150 f9 cf f7 3c e6 37 05 3e 18 c0 ad 3d 46 d8 6d be
       0.030250536 0.13009605 0.084839046 -0.23227033
000160 a4 5d b1 3b 0a 50 23 3e 62 f2 82 3e 25 ee dd bd
       0.005412774 0.15948501 0.25575548 -0.10836438
000170 87 f2 81 be fe a4 78 bc 2e 26 ad bd 8f b9 c3 3c
       -0.25380346 -0.015176056 -0.08454548 0.023892192
000180 41 fb 01 3e fa df 1e be c7 91 59 3e 5f ce 24 be
       0.12693502 -0.15515128 0.21247016 -0.1609435

nn.mlps.0.layers.0.bias f4 [50]
000000 50 06 20 3c 3d 36 0f 3c 48 90 27 3d f0 b4 cd 3c
       0.00976713 0.008740959 0.04090908 0.025110692
000010 cd 44 7d bc 27 90 95 3c 7c 5c 73 3c 56 af 6d bc
       -0.015458298 0.018257214 0.014853593 -0.014507135
000020 b5 3c e6 bb 98 40 00 3c a2 4b b4 3c 40 13 9d 3d
       -0.00702628 0.0078279 0.02200872 0.07669687
000030 93 6b ad ba de aa f3 3c 05 d3 1a bd 4f 72 97 bd
       -0.0013230912 0.029744562 -0.0377989 -0.073948495
000040 33 5a 05 3d 7f b8 9a 3c f0 ac 16 3c 39 d2 eb bc
       0.032556724 0.018886803 0.009196505 -0.028786765
000050 f4 bb a9 3c 86 f8 0b 3c 69 61 43 bc 57 ce 17 3d
       0.020719506 0.008543139 -0.01192508 0.037062015
000060 e1 f7 f2 3c cb bf 43 3c d0 79 42 bc fa 64 d8 3c
       0.029659213 0.0119475825 -0.011869863 0.026415337
000070 c2 40 aa bb 43 6c b0 bc 66 81 41 3c 1b 91 a2 3c
       -0.005195708 -0.021535998 0.011810636 0.019844582
000080 ee a2 d5 3c a5 24 9f 3b b8 a3 59 bd 17 5c 41 bc
       0.026078667 0.0048566633 -0.05313465 -0.011801741
000090 b6 1c 01 bd d1 47 3d bc 3d 27 e1 3b eb 8e a9 3b
       -0.03152152 -0.011552767 0.0068711326 0.005174508
0000a0 f3 8a ed 3c 5f 1f c2 3c 4e 81 b9 bc 44 5d dc 3b
       0.02899692 0.0236966 -0.022644665 0.0067249853
0000b0 17 f2 be bb 90 22 c2 3b ed 06 f0 bc 10 6a 38 bc
       -0.005827199 0.0059245303 -0.029300177 -0.011255756
0000c0 5e 16 e3 bc d3 bc d6 bc
       -0.027720626 -0.026213085

nn.mlps.0.layers.1.weight f4 [50, 50]
000000 1b ee ef 3d 51 f1 1f be ba f8 55 3b fa e3 23 3c
       0.11715337 -0.15619399 0.0032649473 0.010003084
000010 89 81 50 be e5 93 1c bd 4b 93 76 be f5 54 e3 bd
       -0.20361914 -0.03822698 -0.24079625 -0.11100189
000020 0b 44 3f be f3 d1 a7 3d 0e 7c 2a be 38 d1 34 3c
       -0.186783 0.081943415 -0.16648886 0.01103621
000030 10 27 02 be 48 5c 8a be ad 5c 4f be f9 9f 84 bc
       -0.12710214 -0.2702353 -0.20250197 -0.016189562
000040 20 50 24 be 21 a6 93 3d 71 58 03 3e 19 15 5d be
       -0.1604619 0.07209421 0.12826706 -0.2159008
000050 e5 fe 05 be 4d 35 27 bd a3 a5 0f be 2b ba d8 bd
       -0.13085516 -0.040822316 -0.14028029 -0.10582384
000060 d0 f4 da ba bd f9 59 3e 5e c8 d6 38 e4 07 8a bd
       -0.001670504 0.21286674 0.000102416365 -0.06739786
000070 cb 3e c9 bc ee d6 ab 3b 68 57 03 3e df 28 99 3d
       -0.024566075 0.0052441275 0.12826312 0.07478499
000080 6c 8e 41 3d 1f 5f 63 3e f2 28 80 be 17 5e 14 be
       0.047254965 0.22204255 -0.2503124 -0.14489017
000090 af 17 dc 3d 0b 79 72 be d4 ef 1a 3d e9 e0 3f 3d
       0.10746705 -0.23678987 0.037826374 0.04684535
0000a0 b3 37 7b bd 44 24 47 3e f6 98 24 3d fb 58 07 be
       -0.061332416 0.19447428 0.040184937 -0.13217537
0000b0 72 91 88 be 9f 19 40 ba 71 82 67 3c 24 aa 93 bd
       -0.26673466 -0.00073280366 0.014130221 -0.07210186
0000c0 be 31 e2 3d b7 c9 84 3d 8a b8 5d be 11 08 ef bc
       0.11044644 0.064837866 -0.21652427 -0.029178651
0000d0 c9 18 4b 3c 22 f2 51 bd 84 7a 1a 3b ef 37 07 bb
       0.012396046 -0.051256306 0.002357156 -0.0020632704
0000e0 5d 87 a5 bd 3c e5 94 3b 1c 79 22 3d 18 75 0f 3e
       -0.08082459 0.0045439284 0.03966628 0.14009511
0000f0 22 fd b7 3d ac 1c 83 bd ef f4 84 be 07 a7 4a 3e
       0.08983828 -0.06401953 -0.2596812 0.19790278
000100 fb d8 f0 bd 94 1f f7 bd fc 3f ec bd 50 1e 05 3b
       -0.11760136 -0.1206657 -0.115356416 0.0020312257
000110 6f 72 dc bc 3d 2c ab bc 48 80 e4 bd de 6c 1f 3d
       -0.026910035 -0.020895118 -0.1115728 0.038922183
000120 59 28 03 3e d1 7d 31 3e d2 1b a6 bd 47 5e bb bd
       0.1280836 0.17333151 -0.08110775 -0.09148841
000130 af 39 e5 bb ae b0 29 be e1 30 72 bb d5 b2 25 be
       -0.006995402 -0.16571304 -0.0036955404 -0.161815
000140 c7 22 e5 bd 6e 29 12 3e cc 6e 40 3e 2b 83 ca 3d
       -0.11188274 0.14273617 0.18792266 0.098882996
000150 c4 f9 10 be 36 48 35 3d 35 9a bc bc c0 11 ea bd
       -0.14157778 0.04425832 -0.02302275 -0.11429167
000160 06 25 01 be 4b 7b 22 bc df e8 76 bc ca 1b 2e 3c
       -0.1261178 -0.009917091 -0.015070169 0.010626743
000170 7b 1d 84 3d 30 12 cf bc ae 68 2b bd c3 93 05 3e
       0.064509355 -0.025277227 -0.041847877 0.13044648
000180 7e d7 c7 3d 11 8d e0 3e f3 d2 32 be 57 59 0b bd
       0.09757899 0.43857625 -0.17463283 -0.034020748
000190 b1 69 97 3d 12 0a de 3d ed 42 f4 3d 01 b1 ec bd
       0.07393206 0.108417645 0.119268276 -0.11557198
0001a0 d7 23 e9 bd a2 ba 7e be cb 70 34 3e 73 3c 70 3d
       -0.11383789 -0.24875882 0.17621152 0.0586514
0001b0 a1 7a 6e be c0 23 1e be fb 39 46 3e 50 f7 3b 3e
       -0.23288967 -0.15443325 0.19358055 0.18356061
0001c0 c8 91 7c 3d 70 a3 14 3d 64 46 9a 3d 8c 36 06 3d
       0.061662465 0.03628868 0.07532957 0.032766864
0001d0 a3 90 7b 3d 27 37 27 bd 45 87 0a 3e e4 f4 2c 3e
       0.061417233 -0.04082408 0.13528164 0.16890293
0001e0 0d db 77 3d d8 cc bd bd 85 bf b1 bc 03 b4 a4 bc
       0.060511637 -0.092675865 -0.021697769 -0.020105368
0001f0 46 56 1a 3e 8c ad 63 bc e8 cf 08 3e b2 80 a2 be
       0.15071973 -0.013896357 0.1336056 -0.31738812
000200 e1 6e 31 be ce 8d 23 3e de 27 a9 3c 14 ec f9 bd
       -0.17327453 0.15972063 0.020648893 -0.122032315
000210 e2 74 ab 3d 1d c9 c3 bd cd 05 ba 3d 2f 72 f8 3d
       0.08371903 -0.09559844 0.09083138 0.12131154
000220 48 e7 89 3e 5a f1 b6 3e 39 26 5b be 01 fb 8f bd
       0.26934266 0.35731012 -0.214013 -0.07030297
000230 a4 83 a4 3b 63 b1 15 bd a7 6e 29 bd 68 eb 89 be
       0.0050205756 -0.036546122 -0.041365292 -0.26937413
000240 6c 22 72 3e 38 16 63 bc 83 81 82 bd 8a 08 00 be
       0.23645943 -0.013860278 -0.06372359 -0.12503257
000250 d3 9a e9 bc 08 e9 e2 bb a7 b8 d8 3d e8 9d 44 3c
       -0.028516209 -0.006924752 0.10582095 0.012000538
000260 ba 50 94 bd 73 90 68 3e 86 c9 96 3d 47 e6 14 3e
       -0.0724196 0.22711353 0.07362656 0.14540969
000270 6e 65 98 3e b1 cc b1 bd 47 e0 a0 bd 6c 1f 2b be
       0.29764885 -0.0868162 -0.078552775 -0.16711205
000280 c8 a9 41 3d 88 a5 54 3e 16 ec ff bd f2 ea 84 3e
       0.047281057 0.2076627 -0.12496202 0.259605
000290 0a f5 0d 3e 35 34 8c bc 07 8c 77 3e 60 44 62 bd
       0.13863006 -0.017114738 0.2417451 -0.05524099
0002a0 2e 09 c1 3d 3d ff 11 3e 03 81 8a 3d 48 51 78 bd
       0.09425579 0.14257522 0.06762888 -0.06062439
0002b0 a4 e3 eb bc 48 8d 73 3e c1 ff 31 3c 97 1e 63 3e
       -0.028795071 0.23784363 0.010864199 0.22179638
0002c0 a9 47 ff bc ad 88 84 3e c4 f9 c4 3d c1 24 22 bd
       -0.0311621 0.25885525 0.096179515 -0.039585833
0002d0 73 00 67 3e c8 6e 9c 3d c7 1e 98 3e 8f 2e 07 3c
       0.22558765 0.07638317 0.2971098 0.0082508465
0002e0 cd dd b5 be bb 32 07 be 00 18 b4 bc 92 8b fd 3d
       -0.35520783 -0.13202946 -0.0219841 0.123801365
0002f0 90 54 68 3e 50 60 64 3c 36 e4 3e be 63 0b 69 3d
       0.22688508 0.013938978 -0.18641743 0.056895625
000300 ae 50 f6 bd 21 df d4 bb 4e 98 ec 3d 06 31 f8 3d
       -0.12027107 -0.0064963256 0.11552487 0.121187255
000310 74 64 e4 bd aa 1e ac 3d f9 64 61 be 99 7e 9d bd
       -0.111519724 0.08404286 -0.22011174 -0.07690162
000320 a5 61 b5 3d 93 10 ef bd e6 f3 ab bd bd 73 8f 3b
       0.08856515 -0.11673083 -0.08396129 0.0043778108
000330 be 88 b2 3d 4a c6 02 3c 24 8c 47 3e ff 7e 99 be
       0.08717488 0.007981846 0.19487053 -0.29979703
000340 bd 2d 51 3c fe 2a 6e 3d 95 fb 9e bb c4 f3 29 be
       0.0127672525 0.05814647 -0.0048517683 -0.16596895
000350 02 5b 28 bb 1b f0 58 bd 65 2d a8 bd 57 cd 41 3d
       -0.002568901 -0.052963357 -0.08211783 0.047314968
000360 5a 04 79 bd 55 9c 97 3d cf 3a 36 3e 46 e1 c2 be
       -0.060795166 0.07402865 0.17795871 -0.38062495
000370 85 6a ed bc b0 d2 d7 bd 3c e3 e9 3b 65 0e 48 3e
       -0.028981457 -0.10538232 0.007137684 0.19536741
000380 73 d6 62 be a7 22 4f 3d 97 05 6b 3e 18 e8 1c 3e
       -0.22152118 0.050570156 0.22951351 0.15322912
000390 17 67 52 3e 7d 6d bf 3c 9b 2f 33 be c4 62 bd 3d
       0.20547138 0.023367638 -0.17498629 0.09247354
0003a0 00 32 7f 3e df 50 2b 3d bd dd 47 be d0 57 4c bd
       0.24921417 0.04182517 -0.1951818 -0.049888432
0003b0 a9 41 92 bd a3 5d 9c bd 0c 2e 9c 3e 3b e1 cb bd
       -0.0714143 -0.07635047 0.3050388 -0.09955069
0003c0 6b 9c f5 3b 32 dc 38 3e 43 d8 8a 3e bb c4 57 be
       0.007495453 0.18052748 0.2711812 -0.2107114
0003d0 03 e6 b8 3d 14 b1 03 be 66 6d b3 3d 18 8d 1b 3d
       0.09028246 -0.12860519 0.087611005 0.037976354
0003e0 9d f9 d2 3d 60 02 cd bb 7c dc 94 bd 0e f9 f0 bd
       0.10301516 -0.0062563866 -0.072686166 -0.117662534
0003f0 14 04 53 3d d2 a6 5c 3c 01 c7 56 3e 78 21 51 be
       0.05151756 0.013467507 0.20974351 -0.20422924

nn.mlps.0.layers.1.bias f4 [50]
000000 4e 43 42 3c f2 67 4a bc 96 a3 6e bc b9 0f 3b 3d
       0.011856867 -0.012353884 -0.014565369 0.04566929
000010 60 fc 8d bb 62 2c 64 bc 38 a2 7d 3c b3 4f b6 bc
       -0.004333064 -0.013926597 0.0154805705 -0.0222548
000020 84 ee 7d bd 04 c0 87 bc 43 c3 2e 3b eb a4 a2 bc
       -0.061995044 -0.016571052 0.0026666678 -0.01985403
000030 d8 2a 89 bc ed af 53 bc d5 b3 4c 3c 09 1e 21 3c
       -0.016744062 -0.012920362 0.012494047 0.009833821
000040 77 76 90 3c 96 3a 01 bc 36 33 5e 3c 63 24 37 3a
       0.017634613 -0.007887503 0.013562014 0.0006986318
000050 3a ae 72 3c c8 ba 50 bc b6 dd 99 3c ac 30 0f bb
       0.014812047 -0.012739845 0.018782478 -0.002184908
000060 8f 0c be 3c 4e 9b 53 bc ba 68 86 3c 52 12 92 bc
       0.023199348 -0.0129154455 0.01640736 -0.017831001
000070 e6 dc f2 bb 00 77 a3 bc e5 ca 94 3d 5e ae de 3c
       -0.007411587 -0.019954205 0.072652616 0.027182754
000080 ed 30 5a bc 57 43 47 3c ac 4b 20 3c a2 1c 71 bc
       -0.013317329 0.012162051 0.009783667 -0.014716299
000090 e0 59 80 3c 62 30 b6 bc 22 59 96 3b 9b 8c 2c 3c
       0.015667856 -0.022239868 0.004588262 0.01053157
0000a0 52 0b 51 bc 00 0c 55 bc cf a3 cb 3b f8 76 76 3c
       -0.012759047 -0.013003349 0.006214596 0.015043013
0000b0 b6 f9 55 b9 ab 3b 8a 3c 40 8a 7c 3c d2 c0 80 bc
       -0.00020406288 0.016874155 0.015413821 -0.015716944
0000c0 22 d3 2b 3d c4 10 d0 3c
       0.0419494 0.02539862

nn.mlps.0.layers.2.weight f4 [50, 50]
000000 22 ca 87 bc 84 25 c0 3c 50 e9 0d 3d 8b 04 f7 3d
       -0.016575877 0.023455389 0.034646332 0.120614134
000010 4f 9d be bd 80 7a d2 3b 3f df 62 3d 8e 3f e7 3c
       -0.09307348 0.0064232945 0.055388685 0.028228547
000020 1d bf 45 3e 49 e6 39 3e 55 31 0e bc ae da 30 3e
       0.19311185 0.18154253 -0.008678754 0.1727092
000030 e3 82 75 3e 73 04 1e 3e 40 ec c2 3d d1 ac 0d be
       0.2397571 0.15431385 0.09517717 -0.13835455
000040 b3 25 09 be 5f 78 4c 3e 0e 4c df bd c7 23 99 bb
       -0.13393287 0.19967793 -0.10903178 -0.0046734544
000050 0c dd 04 be cb 67 17 3e b1 73 be 3b 6c 06 9b 3d
       -0.12974948 0.14785688 0.0058121313 0.07569584
000060 ff 35 f7 bc d1 de 00 bd 79 e4 d3 3d 1f e5 d3 bb
       -0.030177115 -0.031462494 0.10346312 -0.0064665223
000070 cd 4c 7b bd 7d a5 74 bc 3b 03 cb bd de 7a 40 be
       -0.06135254 -0.014932034 -0.099127255 -0.1879687
000080 e5 a4 6b be e6 7f 4c be 97 1d 13 3e ee f7 c4 3d
       -0.23012121 -0.19970664 0.14366756 0.09617601
000090 a5 b0 5c bd e8 29 8e 3d 6a 38 e2 3d c0 44 12 bc
       -0.0538794 0.06941587 0.110459164 -0.008927524
0000a0 7f 73 25 3e 21 60 47 ba 32 e2 41 3a be 97 86 bd
       0.1615734 -0.0007605572 0.00073960715 -0.06571911
0000b0 c5 bb 5e 3d 22 12 ad bd 0d 00 2b be ba 7f 05 be
       0.05437829 -0.08450724 -0.16699238 -0.13037005
0000c0 9b 07 95 be a9 ad 6e 3c 55 40 5d 3d 41 61 b9 b9
       -0.29107365 0.014567771 0.05401643 -0.0003535841
0000d0 78 a9 e0 bd 9d d9 82 be 2e 82 0f 3e 90 11 6f bd
       -0.109698236 -0.2555665 0.14014503 -0.05836636
0000e0 ec c6 b9 bc d1 8e e5 bd 03 fc 5f 3e 41 3e 4c be
       -0.022677861 -0.11208881 0.21873479 -0.19945623
0000f0 6b f2 43 3e 80 56 51 be 9f 77 ef bd 2c db 08 be
       0.19135444 -0.20443153 -0.11692738 -0.13364857
000100 8a 2e bc 3e 0f e3 08 3e fe 14 cd bd b4 ae 57 bb
       0.36754256 0.13367866 -0.100137696 -0.0032910528
000110 25 8e b8 bd 90 09 10 be c3 28 00 bd e2 b5 89 bd
       -0.09011487 -0.14066148 -0.031288873 -0.067241445
000120 4c 81 99 3d bb da c8 3c d2 bf 3f 3c e9 70 d1 bd
       0.074953645 0.024518361 0.011703448 -0.10226614
000130 bf 38 a6 3c fb af 09 3c 3c 8d 58 be 1b a2 ca bc
       0.02029073 0.008403773 -0.21147627 -0.024735501
000140 04 fe 19 be cd c1 9f bc 2d 2a ea ba f7 a0 1b 3e
       -0.15038306 -0.019501591 -0.0017865353 0.15198122
000150 9b a3 81 bb 2c 67 12 3e 9e 2c e7 bd 30 df 53 3e
       -0.003956271 0.1429717 -0.11287807 0.20690608
000160 0d df 87 3e a0 15 0b 3e 65 79 e7 3d 75 01 e7 3c
       0.26537362 0.13582468 0.11302451 0.028198937
000170 80 c7 62 3e e1 f0 d2 be b2 d4 ab bd fe bf 9b bd
       0.22146416 -0.411994 -0.08390178 -0.07604979
000180 0e 6c 1f 3e 72 64 dc 3c 56 ee 43 be df d1 a9 be
       0.15568563 0.026903365 -0.19133887 -0.3316793
000190 80 1e 1f 3c 18 70 29 be 80 cd 80 3c 6d fc dd be
       0.009711862 -0.16546667 0.01572299 -0.43356648
0001a0 08 6a c1 3e 44 ee 16 bd 3c a9 12 be a7 14 23 3d
       0.37776208 -0.03684832 -0.1432237 0.039814617
0001b0 3e fc cf 3d f6 9e dc 3d 3d 8f 41 3d 5f 16 b8 be
       0.10155533 0.10772507 0.047255743 -0.35954568
0001c0 18 d4 10 be 56 bf dd 3c 98 cc f0 3d 4e 28 93 3d
       -0.14143407 0.027068775 0.11757773 0.07185422
0001d0 6c 3f a6 3c cd 47 75 3d c6 ac 92 be bd 57 38 3e
       0.020293914 0.059882928 -0.2864744 0.1800222
0001e0 35 5c b5 3d 47 a0 a6 bb 3b e2 a0 3d a7 85 c8 bd
       0.08855478 -0.0050850245 0.0785565 -0.09791117
0001f0 ec f8 45 be 71 cc 35 3e 3e 73 d5 bd 37 57 89 3d
       -0.19333237 0.1775377 -0.10422371 0.06706088
000200 ce 4e 81 3d 9a 89 b2 3d 55 a0 58 be 3e 64 88 bd
       0.06313859 0.08717652 -0.21154912 -0.06659745
000210 ac 16 4f bc f9 6d cc 3d e4 d3 f1 3d 0c ed 84 3d
       -0.012639683 0.09981913 0.11807993 0.064905256
000220 0b 80 3d 3e c6 34 dc 3d 5c db 54 3e 47 e6 1a bd
       0.18505876 0.10752253 0.20786804 -0.037817266
000230 28 d5 87 bd ea e7 c2 bd 47 a7 e8 bc a0 26 49 3e
       -0.06632453 -0.0951689 -0.028400077 0.1964364
000240 96 44 28 3e 9b 99 0f 3e f8 2d 06 be 4f a6 5c bd
       0.16432413 0.1402344 -0.13103473 -0.05386954
000250 2a e5 46 be 7a ad dc bd 19 ba 99 bd c2 bc dd bd
       -0.19423357 -0.107752755 -0.075061984 -0.10827018
000260 96 fe 8e 3e 7b b7 87 bd b3 c7 cc 3e 78 4c cc 3d
       0.2792861 -0.06626793 0.39996108 0.09975523
000270 7e a9 09 3d 99 37 11 be 83 1d 98 be f6 ed 6c be
       0.033608906 -0.14181365 -0.29710016 -0.2313765
000280 dd ba c3 3d f6 90 00 be 0d c4 41 3e 32 d2 20 3e
       0.09557126 -0.12555298 0.18922444 0.15705183
000290 61 43 91 bd a0 68 f7 3d ae 8c b8 3c 5a d7 26 bd
       -0.0709293 0.120805025 0.022528019 -0.04073272
0002a0 41 16 55 bd 1a 0f 44 3d fc b4 38 3e be 1d e2 3c
       -0.052023176 0.047865964 0.1803779 0.027602073
0002b0 59 f4 a4 3d 99 d6 03 be 6b e8 37 3e 18 3d 50 bd
       0.08054418 -0.12874831 0.17959754 -0.050839514
0002c0 6e ce ed 3d f8 fe d8 3c cd 57 c5 3d 3c 6a 63 bd
       0.11611639 0.026488766 0.09635887 -0.055521235
0002d0 ac 0d 21 3e a0 d4 92 3e 3d ec 13 be cb 33 77 3e
       0.15727872 0.28677845 -0.14445587 0.24140851
0002e0 5a 3e b6 3d 88 f7 9b bd f0 48 43 3e eb c2 8b 3c
       0.08898611 -0.07615572 0.19070792 0.017060718
0002f0 e6 7f 27 3d b0 60 1f 3e 28 ea 6e 3d 6a fc 28 3d
       0.040893458 0.15564227 0.058328778 0.041256346
000300 de c7 68 bb 10 29 23 bc 23 37 e8 bd 07 38 7a 3e
       -0.003551952 -0.0099585205 -0.113386415 0.24435435
000310 79 5e d5 3d 02 23 38 3d 76 d8 f4 bd 90 51 fd 3d
       0.1041841 0.04495526 -0.11955349 0.123690724
000320 6c 49 96 bc 60 fc 41 3c 19 42 d5 3c 52 93 48 be
       -0.018345557 0.011839956 0.026032494 -0.19587448
000330 89 2f 93 3d 99 2f c2 3d 02 c0 83 be 30 d4 b2 3e
       0.07186801 0.09481735 -0.25732428 0.3492751
000340 7f da c6 bd e5 f2 19 3e ae 88 ab be 00 b6 e0 3d
       -0.097096436 0.15034063 -0.33502716 0.10972214
000350 70 6b 55 bc e8 29 6d be 7a e7 94 be 9c e4 25 be
       -0.013026103 -0.23160517 -0.29082853 -0.16200489
000360 dc da e1 bd 39 26 11 be 92 87 a0 3d 5e 70 80 3b
       -0.11028072 -0.14174737 0.07838358 0.003919645
000370 3f 27 a8 bd c3 c6 b1 bb f7 36 c7 3d e6 dc fe 3d
       -0.082106106 -0.0054253056 0.097272806 0.12444477
000380 af 0c 80 3d 2f df 50 bd ab 25 31 3d f6 1e e4 3b
       0.06252419 -0.050994094 0.043248814 0.0069616986
000390 aa fa 38 3e bf b4 85 3c 8e 20 92 bc e2 0e ed bd
       0.18064371 0.016321538 -0.017837789 -0.11575104
0003a0 0e b0 35 3d 48 16 d5 bd e7 68 82 bd 94 64 3b be
       0.044357352 -0.104046404 -0.06367665 -0.18300086
0003b0 ff 3e 08 3e cb 6f 05 be 3e eb 18 be aa 16 0f bd
       0.13305281 -0.13030927 -0.14933488 -0.034933724
0003c0 e0 32 c0 3c ab 7c 60 3d 94 c8 0d 3e 4b 94 49 3b
       0.02346176 0.054806393 0.13846046 0.0030758556
0003d0 17 7f 10 3d 9d 20 5e 3d b3 f9 ba 3d 55 e1 82 3d
       0.035277452 0.05423032 0.091296576 0.06390635
0003e0 5a 4d c3 bb d6 88 0a 3c 6c 2d 72 3e df a8 d3 3c
       -0.0059601488 0.008455476 0.2365014 0.02583736
0003f0 bd 04 9f be e4 ce 08 3c 2a e9 ba 3d 68 25 64 be
       -0.31058303 0.008350108 0.09126504 -0.22279894

nn.mlps.0.layers.2.bias f4 [50]
000000 ab fa c9 bc e8 9e 20 3c ab 65 2e bd dc 2a e2 3c
       -0.02465566 0.009803511 -0.042577427 0.027608328
000010 9c c4 81 bc 53 87 3d 38 bc ea 7e 3c c6 29 e0 bc
       -0.015840821 4.5187142e-05 0.015558895 -0.02736367
000020 9a 82 2c bc e3 f9 0c bd 31 22 84 3c 3a f6 8c 3c
       -0.010529185 -0.034417998 0.016129585 0.017207254
000030 c6 74 8d 3c 6b 88 6b bc 78 0e 6c 3c 58 d9 a2 bc
       0.017267596 -0.014375786 0.0144077465 -0.019879028
000040 49 d4 f3 bb 59 99 95 3c cc dd d0 3c ce ef 57 3d
       -0.007441078 0.018261598 0.025496386 0.05271893
000050 82 81 6d bc a3 ce 43 bc 28 ab 67 bc 8d ff 6a 3c
       -0.014496209 -0.0119511215 -0.014139928 0.014343155
000060 19 74 83 bc 50 d0 cc bb 71 6a 81 3c 9c f0 b1 3c
       -0.01604657 -0.0062504187 0.015797826 0.021721177
000070 a2 7a a9 bc fc f1 8a bc e6 7f 6e 3c 71 8b 08 3d
       -0.020688359 -0.01696109 0.014556861 0.033336107
000080 41 76 6c bc 57 1e 39 bc b0 bd 7f 3c a6 a3 96 3c
       -0.014432491 -0.0112987375 0.01560919 0.01838858
000090 54 61 97 bc 4e 82 85 3c 3d db 66 3c a0 2f 56 3b
       -0.018479027 0.016297486 0.014090356 0.0032682195
0000a0 3b 11 74 3c e6 d9 9d bd e6 f4 8c bc 96 0a 6b bc
       0.014896686 -0.077075765 -0.01720662 -0.014345786
0000b0 69 b5 a3 bc dd 7f 61 3b bb e9 5c 3c 95 10 7c 3c
       -0.019983964 0.0034408488 0.01348346 0.015384813
0000c0 c4 1e 36 3c 40 e9 a0 bc
       0.0111157335 -0.019642472

nn.mlps.0.layers.3.weight f4 [50, 50]
000000 88 bd ac be 71 eb bf 3d dd 65 e5 bc 41 62 86 3e
       -0.3373835 0.09371079 -0.028002674 0.26246837
000010 40 23 2b 3e c8 31 f1 bd 48 ba 24 bd 14 71 49 be
       0.16712666 -0.11777073 -0.040216714 -0.19672042
000020 40 47 83 bd f0 06 13 bc d0 11 40 3e 69 51 e3 bd
       -0.06410074 -0.008973822 0.18756795 -0.11099512
000030 de 7b be 3d 73 8d 8a 3d 9e 66 cd bd 33 0f 5c 3d
       0.093009695 0.067652605 -0.10029338 0.053725433
000040 1e ca 87 3e ef 26 81 3d 32 d4 f9 3d 74 f5 9c 3d
       0.2652139 0.06306254 0.12198676 0.07664004
000050 c2 63 98 3d 25 3f c7 bc 2d 50 22 be 7f eb 2e be
       0.07440902 -0.024322102 -0.15850897 -0.17082022
000060 74 a4 f6 3d 9e 73 f4 3d 15 43 0e bd 59 0d b1 bd
       0.12043086 0.11936115 -0.034731943 -0.08645124
000070 02 d7 54 be ad b4 89 be 14 e4 5b 3d 2b 94 13 3e
       -0.20785144 -0.26895657 0.05368431 0.1441199
000080 d5 9b 3f bd e5 dc 45 3c e4 20 91 bc 7c c3 a8 bd
       -0.046779472 0.012076591 -0.017715879 -0.08240411
000090 76 2d 87 bd 52 e8 b3 bd 4e 2d 7e 3d fb c7 b6 3d
       -0.06600468 -0.08784546 0.062054925 0.08924862
0000a0 e2 0c 2c 3e 94 46 be 3d be 4d 49 be a0 36 c0 bd
       0.1680179 0.092908055 -0.19658563 -0.09385419
0000b0 fd 1a c5 3c 4f ae ab bd 0f d3 96 3e ec 8d 8c bd
       0.02406072 -0.08382856 0.294579 -0.06863007
0000c0 0e 66 c4 3d 50 4d 86 3e fb 74 97 3a c4 b3 16 3e
       0.09589778 0.2623086 0.0011555249 0.14717013
0000d0 54 a6 0c bd 17 c7 3e 3d 05 71 14 be 9a f7 1d 3e
       -0.03433831 0.046576586 -0.14496239 0.15426484
0000e0 d5 a8 95 bc 86 b9 04 3e 70 e5 f2 bb 01 6b 9b bc
       -0.018268982 0.12961397 -0.007412605 -0.018971922
0000f0 49 34 3b be f8 57 6b bd 37 fa 08 3c eb af 45 3e
       -0.18281664 -0.05745694 0.008360437 0.19305389
000100 9f 3f 5d 3e 2f ac 9e 3d d0 ae 4c 3e 4a 35 c9 bd
       0.21606301 0.07747685 0.1998856 -0.09824617
000110 b1 f4 0e 3d 0f a3 7f 3e df 7d bb bd ce 5e 1a 3e
       0.034901325 0.24964546 -0.091548674 0.15075228
000120 a9 4c aa 3d 88 e8 a4 bd f7 4e 4b be ef d1 4f bd
       0.08315403 -0.08052164 -0.19854341 -0.050737318
000130 c5 37 6b be 41 5f 82 3d e0 d0 92 3e 94 a8 8d 3b
       -0.22970493 0.063658245 0.28674984 0.0043230746
000140 1f 51 8e 3e a9 4d d4 bd 0c a3 3b be 05 c5 07 3e
       0.27796265 -0.10366375 -0.18323916 0.1325875
000150 32 63 b2 3e 16 a8 bf bd fe 71 0a 3e cc 7e 06 3b
       0.34841305 -0.09358232 0.13520047 0.0020522354
000160 02 33 1a be 3e ee 56 be 3c 69 52 3e 1e 58 ac bc
       -0.1505852 -0.2098932 0.20547956 -0.021038111
000170 d5 58 57 be 25 b4 93 3d 2a 17 a7 bb a6 90 0e 3e
       -0.2102998 0.07212094 -0.005099197 0.13922366
000180 ff 3d 44 bd 51 64 b0 3d 84 dc bb bd 1e 4e 56 3d
       -0.047910687 0.08612884 -0.091729194 0.052320592
000190 31 58 2d be 84 16 b8 bd e3 57 80 3e 1e 89 cc bd
       -0.16928174 -0.089886695 0.25067052 -0.099870905
0001a0 21 96 1c be 03 d8 67 bd ac 53 58 3e d7 9d 01 3e
       -0.15291645 -0.05660249 0.21125668 0.12657867
0001b0 29 77 a7 bd 0b c0 aa bd 4e d6 06 3e c1 aa 1a be
       -0.08177025 -0.083374105 0.13167688 -0.151042
0001c0 c7 b4 66 bc ed a6 3a 3e 64 b3 81 bd ee f3 18 3d
       -0.014081187 0.1822774 -0.06333044 0.037342004
0001d0 48 d2 55 3e 62 10 65 3d 0f 88 13 bd 87 ab 0c be
       0.20880997 0.055923827 -0.036018427 -0.13737307
0001e0 17 ea 57 bd 8a 66 31 bd fa e9 20 3e b1 d8 b7 bd
       -0.05271348 -0.04331068 0.15714255 -0.089768775
0001f0 97 bf 82 3c d5 7a a9 bb 4e ba cd bd 27 c1 2a be
       0.015960498 -0.0051721134 -0.100453004 -0.16675244
000200 77 07 46 3d ac ad 39 bc 7d 2b 43 3e 48 99 4a 3e
       0.048346963 -0.0113329105 0.19059558 0.19785035
000210 f5 45 44 bd ac 65 29 be 2e 68 2b 3c 34 27 7f 3c
       -0.04791828 -0.16542691 0.01046185 0.015573312
000220 b3 bf 1e be 7a fd 7d bc 35 c4 a3 bd 37 96 21 3d
       -0.15502815 -0.015502328 -0.07996408 0.039449897
000230 1a cd 81 be a7 7b a7 3d 3b 4c 4f 3e 25 55 22 be
       -0.25351793 0.08177882 0.20243923 -0.15852793
000240 f7 95 7c bc 75 0d 38 3e 07 87 85 3e de e4 ec 3d
       -0.015416614 0.17973883 0.2607958 0.115670905
000250 4f c3 77 3e 7a 71 20 3e e2 6c 56 be 23 e5 05 3d
       0.24195598 0.15668288 -0.20939973 0.032689225
000260 2c 43 15 3e b8 6e cc 3d ca 94 8b bd 83 f3 4a be
       0.14576405 0.099820554 -0.06815489 -0.19819455
000270 ca bf 63 3e 31 54 0a 3d 3d 7a 5b be 49 da 24 3e
       0.2224113 0.033771697 -0.21433349 0.16098894
000280 cd d6 d2 bc 78 29 56 3e 00 38 82 3c 14 b6 10 3c
       -0.02573719 0.20914257 0.015895844 0.008832473
000290 05 de 95 bd 44 f4 da bd 58 93 fe 3d d7 8b 9b bd
       -0.073177375 -0.10691121 0.12430447 -0.07595032
0002a0 57 24 86 3e c0 95 77 3e ec 34 f8 3d ba da 24 3c
       0.261996 0.24178219 0.12119469 0.010061914
0002b0 74 df 09 3e 03 fd 33 bd 6f bb 6c bd 6a 1e 05 3e
       0.13464147 -0.043942463 -0.057795938 0.12999883
0002c0 1f 46 0a 3d 8c 5c c9 3c 9e 09 fa 3d 0c 83 6a 3d
       0.03375828 0.024580263 0.122088656 0.057253882
0002d0 40 a7 5e bc 17 cd 99 bd 94 c6 eb 3d 4b 62 14 3e
       -0.01358968 -0.07509821 0.11512485 0.14490621
0002e0 3d 3f 9a be 0f 2e bc bb 43 f8 8d 3d 75 44 c2 3d
       -0.30126372 -0.0057427953 0.06932118 0.094857134
0002f0 61 eb 36 be f4 88 26 be 21 04 48 3e 75 82 e8 3d
       -0.17863227 -0.16263181 0.19532825 0.11353008
000300 3a c9 9e 3d aa 7d 8c bd 4a 20 73 be 88 37 72 3e
       0.07753225 -0.06859906 -0.23742786 0.23653996
000310 02 39 50 3c b4 0d 7a be 78 ff 50 3e 88 2d 93 3d
       0.012708904 -0.2441929 0.20409954 0.07186419
000320 98 99 81 3c d4 96 98 be cf ed a2 bd 3c fd e4 3d
       0.01582031 -0.29802573 -0.07955515 0.11181113
000330 ac 53 13 3e 26 a2 ef bd 94 0c ef bb 0e d8 2a 3e
       0.14387387 -0.11700849 -0.0072952006 0.16683981
000340 c8 31 11 3d ae 59 0b be 1d fd d0 bd c0 6b 34 3d
       0.035447866 -0.13608429 -0.102045275 0.04404807
000350 ae d6 8c 3a c0 53 4f be 45 1d d7 bd 03 47 0c bc
       0.0010745132 -0.20246792 -0.105036296 -0.008561852
000360 db d4 fc bd 1b c9 39 be 52 cb c1 be a1 1b 75 3e
       -0.123452865 -0.18143122 -0.37850434 0.23936321
000370 0b 20 ce bd d6 b4 43 bd 32 6c 76 bd 85 39 d6 3d
       -0.100647055 -0.04777988 -0.060161777 0.1046019
000380 62 cc 0f bd 54 f6 3f 3e 9f 53 3f be 94 cc a6 bd
       -0.035107024 0.1874631 -0.18684243 -0.08144489
000390 ef 8a 29 3e 1b d6 4b bd 28 ec 12 be 61 e6 70 3e
       0.16556905 -0.049764734 -0.14347899 0.23525383
0003a0 72 91 c1 b9 c0 7c 6d 3d e6 31 ac bd 10 f6 c4 3e
       -0.00036920194 0.0579803 -0.08407955 0.3846898
0003b0 67 3f a8 b9 1a e4 f1 bd cc 7c 0a 3e 72 5c 56 3d
       -0.00032090695 -0.11811085 0.13524169 0.052334256
0003c0 d8 cf 37 3e 8c 13 d1 3e 0a 5e ad 3b 2d 65 db 3d
       0.1795038 0.40835226 0.0052907513 0.10712657
0003d0 02 3c 60 bd 35 ee 06 be 22 be de 3d 17 a8 7b be
       -0.054744728 -0.13176806 0.10876109 -0.2457584
0003e0 f4 7b 42 be a9 7b 96 3d dc 2d d8 3d 40 e2 ac 3d
       -0.18992597 0.07347805 0.10555622 0.08441591
0003f0 97 39 2b bd 49 19 84 3d b2 6e 67 be 63 42 24 3d
       -0.04180297 0.06450135 -0.2260082 0.040102374

nn.mlps.0.layers.3.bias f4 [50]
000000 6a 0f a2 3c 36 a1 44 bc 18 32 86 3c 24 01 8a bc
       0.01978274 -0.012001326 0.016381308 -0.016846247
000010 89 98 84 bc 2e 29 88 bc 1b 0f 8a 3c 9f 62 3e 3c
       -0.016186016 -0.016621199 0.016852906 0.011620193
000020 da a4 90 3c 3c 38 79 bc 51 a3 e7 bb 9e fc 70 3c
       0.017656732 -0.015211161 -0.0070690294 0.014708666
000030 24 df 09 3d 86 09 87 bc ec d3 67 3c 22 25 54 bc
       0.03366007 -0.016484033 0.014149647 -0.012948306
000040 36 8d 9b bc c6 ce 57 bc 31 0c 84 bc 5a 37 b4 bc
       -0.018988233 -0.013171857 -0.016119095 -0.02199905
000050 af 26 9b 3c 15 ee 99 bc 52 25 99 3c 2a 45 60 3c
       0.018939344 -0.018790284 0.018694554 0.013688365
000060 e7 69 83 bc df 68 24 3c ba 3c b4 3b 1c 94 c4 bb
       -0.01604171 0.010034769 0.0055004032 -0.0059991013
000070 2f 9c 8e 3c f1 eb 77 3c 8c 5d a2 bc 92 4e 89 3c
       0.017408459 0.015131936 -0.019819997 0.016761098
000080 ce 54 a9 bc 51 20 af bc d1 94 90 bc f2 d9 78 3c
       -0.02067032 -0.021377714 -0.017649086 0.015188681
000090 83 d7 65 bb 93 97 82 3c 98 c4 c1 bc 53 d7 89 3c
       -0.0035071082 0.015941417 -0.023653314 0.016826307
0000a0 42 9c a4 bc 37 21 96 3c da 16 fa 3b fb 3b 81 3c
       -0.02009404 0.018326385 0.0076321186 0.015775671
0000b0 e5 29 a7 3c 2c 93 90 3c d4 33 68 bc 0d 38 ae bc
       0.020405719 0.017648302 -0.014172513 -0.021266961
0000c0 15 7c 48 bc e4 2a 71 3c
       -0.012236615 0.014719699

nn.mlps.0.layers.4.weight f4 [50, 50]
000000 b5 1f 41 3e 08 ea 80 ba fe 5b fb 3d 1d 71 30 be
       0.18859752 -0.0009835372 0.122734055 -0.1723065
000010 47 86 08 3e c4 f9 a8 3d 11 96 a6 3e 12 8d 01 3e
       0.13332473 0.08250764 0.32536367 0.1265147
000020 ee 4c db 3d f2 1e 62 bc 92 78 0a 3e 87 56 ea 3d
       0.107080325 -0.013801323 0.13522556 0.11442285
000030 ed f8 40 3d b0 64 74 bc 74 5d 47 bc 52 82 bc bc
       0.047112394 -0.014916584 -0.012168277 -0.02301136
000040 d8 1b 59 bd 7a ba cb bd 66 85 c4 3d cb d6 3f 3d
       -0.05300507 -0.09947677 0.09595756 0.046835702
000050 e1 5a 31 3e 37 2e 04 be 4b 77 d1 bd 88 c1 dc 3d
       0.17319824 -0.12908255 -0.102278315 0.10779101
000060 cf 2a 08 be 19 73 57 be df 13 21 3c 84 3b eb bc
       -0.1329758 -0.2104 0.009831398 -0.028714903
000070 74 3b 35 be 2c 6a 63 3d 05 08 76 3d 4d f2 0b be
       -0.17698461 0.055521175 0.06006624 -0.13666649
000080 e2 ab 78 bc 51 03 48 be 2f 6a ea bd ae 41 23 bd
       -0.015177699 -0.19532515 -0.11446034 -0.03985756
000090 14 23 04 3e 68 0d a5 3e 47 9e 78 3e 7d dc 71 3c
       0.12904006 0.3223679 0.24279128 0.014762041
0000a0 3b a8 22 be 90 3c e9 3c 6b 32 2c 3e 22 bb 70 bd
       -0.15884487 0.028471261 0.16816108 -0.058772214
0000b0 3e f1 b6 3d c0 97 55 3d cc ba af bd 4c e0 e3 3d
       0.08932732 0.052146673 -0.085805506 0.111267656
0000c0 fb c4 7b be 1c d4 b1 3d a0 54 d3 3d d9 07 a6 3b
       -0.24586861 0.08683035 0.10318875 0.0050668535
0000d0 8c 0d 89 3e af 82 c2 be c0 42 5d be 99 70 8e 3c
       0.26768148 -0.3799033 -0.21607494 0.017387675
0000e0 3e dc a1 bd ed da 7d 3e 6f 13 7b 3e b1 a7 de bc
       -0.07903336 0.24790545 0.24519132 -0.02717957
0000f0 4f c5 63 3c ad 94 c9 bd a4 e1 e9 bd ef c9 df bd
       0.0139020225 -0.09842811 -0.11419991 -0.10927188
000100 04 fe 2c 3e 3e 6b a5 bd 7a 68 34 3e 5c 73 1c be
       0.16893774 -0.080770954 0.1761798 -0.15278381
000110 a5 a0 94 bd e1 93 c9 3d f4 98 8f 3b 85 9a 94 bc
       -0.07257203 0.09842659 0.004382247 -0.018140087
000120 51 a2 6a 3e df 51 72 3e df 4b 72 bd 23 55 d9 3c
       0.22913481 0.23664044 -0.059154388 0.026529854
000130 f5 1d f9 3d 1b a8 f9 bc ed 6e bf bc 43 3d 96 3e
       0.12163917 -0.030475667 -0.023368323 0.29343614
000140 36 fc 47 3b e8 ea 4f be ac 3d 4f be 0d 6d ca bd
       0.003051532 -0.20304453 -0.2023837 -0.09884081
000150 51 fe 6c bc dd 8e be 3d e5 2c 36 3e d5 52 bf 3c
       -0.014464931 0.09304593 0.17790563 0.023354927
000160 e3 c4 01 be 1f 93 79 3e a4 70 d9 bd f3 de 59 bd
       -0.12672763 0.24372528 -0.106171876 -0.053191137
000170 7e eb c3 bb 6a ca dc 3d 5b 42 2d 3e 26 07 af bd
       -0.0059790006 0.10780795 0.16919844 -0.08546285
000180 b0 05 03 3e a2 96 7a bc 33 20 d1 bd 59 b6 33 3e
       0.12795138 -0.015294703 -0.1021122 0.17550029
000190 8b be 59 be f6 d9 8d bc c3 dc a4 bc cf 6e 87 be
       -0.21264093 -0.017315846 -0.020124799 -0.26451728
0001a0 ce 08 95 3e 37 f9 34 be 6d 9a 3b bd 5f 0f c5 3d
       0.2910828 -0.17673193 -0.04580157 0.096220724
0001b0 49 d6 41 3e a8 46 d7 3d 40 a9 23 be 4c 04 da 3d
       0.189294 0.105115235 -0.15982533 0.10645351
0001c0 9c 8d a9 3c 69 ee 76 3e d7 e2 1f be ea ba 9d 3d
       0.020697407 0.24114384 -0.15613876 0.07701667
0001d0 4c 09 69 3e 74 ba d4 bc 2f 2b e5 3d 6b b9 59 3d
       0.22757453 -0.025967814 0.11189877 0.053155344
0001e0 2b d5 5e bd 44 d2 17 bc 4a 18 57 be 03 a5 94 3d
       -0.05440251 -0.00926644 -0.2100536 0.07258036
0001f0 3c a8 53 bd 85 9b 1b 3e 41 d0 21 3e 69 a4 26 be
       -0.051674113 0.15196045 0.15802099 -0.16273655
000200 d1 07 c3 bd 67 1b 0b 3d d8 71 91 bd 9e b3 89 3d
       -0.09522975 0.03396168 -0.07101792 0.067237124
000210 2f 27 98 bd c8 8b 14 3e 95 cc 4d be a5 2a 9a 3d
       -0.07429349 0.14506447 -0.20097573 0.07527665
000220 1e ce 67 be 53 0c 58 be d8 88 f9 3d e1 0f 94 bd
       -0.22637221 -0.21098451 0.12184304 -0.07229591
000230 00 f4 2a be 21 78 84 3c 35 5b 16 3c f1 93 b5 3d
       -0.16694641 0.016170563 0.009177019 0.08866108
000240 99 05 75 bd 38 24 19 be 5d 4f 54 3e d7 bc bc 3e
       -0.05981979 -0.14955223 0.207334 0.36862823
000250 24 ff 95 3d e9 2f 50 bd 12 78 52 3e 02 ec 68 bd
       0.07324055 -0.05082694 0.20553616 -0.0568657
000260 03 76 05 bd 06 9c d3 bd 0e 2c 20 3e 6b 5d 44 3c
       -0.032583248 -0.103324935 0.15641806 0.011985163
000270 16 46 22 3e 5c 00 0d 3e 7c 27 1c 3e 1a 80 c3 3d
       0.15847048 0.13769668 0.15249437 0.09545918
000280 7b 5c 79 3d 66 19 23 be 2a bb c1 be 3d ff 15 3d
       0.060879212 -0.15927657 -0.37838107 0.036620367
000290 d0 fa 81 be b9 f4 57 bc cc de 04 3e cb b4 91 3d
       -0.25386667 -0.013180905 0.12975615 0.07114562
0002a0 b6 57 be bd 90 55 af bc fa 50 ee bd b4 b3 13 3e
       -0.09294073 -0.021403104 -0.11636539 0.1442402
0002b0 d9 e3 0b be 40 10 a7 bd 64 48 64 3e b7 b1 a6 3c
       -0.13661136 -0.08157396 0.2229324 0.020348413
0002c0 40 15 96 bd 61 b1 88 bd eb cb 5e be 2d 91 0e be
       -0.07328272 -0.06674457 -0.21757476 -0.13922568
0002d0 ed eb b1 bc 6b 8f ae 3d 1a 54 3e be e0 98 57 be
       -0.021718943 0.085234486 -0.1858677 -0.21054411
0002e0 e8 7d 9f 3d ee 36 01 be 3f 70 88 bd 4e 28 e7 bd
       0.077876866 -0.1261861 -0.06662034 -0.112869844
0002f0 9a 97 0f be ff 93 b0 bd 2c 02 2f bb 7a b8 83 bd
       -0.14022675 -0.08621978 -0.0026704175 -0.064316705
000300 c5 ff 02 be 89 cd 77 be d4 78 28 3e e6 a1 a3 be
       -0.12792881 -0.24199499 0.16452342 -0.31959456
000310 30 ce dc 3d e3 45 1c 3e 5c 17 56 3e 68 d5 13 be
       0.10781515 0.15261035 0.20907348 -0.14436877
000320 03 6a 9c be b7 12 cc bd cc 48 94 be e3 ad a4 3d
       -0.3054963 -0.09964507 -0.2896179 0.08040979
000330 d2 f1 24 bd c4 75 38 3e 85 53 b1 bd 27 f8 a1 3d
       -0.04026968 0.18013674 -0.08658508 0.079086594
000340 09 41 6d 3c dc b8 52 3c 0f 10 a6 3c 08 cb c2 3c
       0.014480838 0.012861457 0.02027133 0.023778453
000350 8d 4e 01 be f1 bf 9e bd bb ad 85 bd 77 85 26 3e
       -0.12627621 -0.07751454 -0.06527277 0.1626185
000360 93 e1 45 3d 7e f7 b2 3d 71 20 a6 be f2 d5 3e bd
       0.048310827 0.08738612 -0.32446626 -0.046590753
000370 b0 4d 50 3e 30 0e 2d b9 b1 69 24 be 14 22 d9 bd
       0.20342135 -0.00016503851 -0.16055943 -0.10602203
000380 00 f7 a8 3d 48 48 97 bb ed 3d 87 3c 34 8a 06 be
       0.082502365 -0.004616771 0.01650902 -0.13138658
000390 de 58 b8 bd e4 66 c7 bb 15 84 82 be 35 35 f0 3a
       -0.09001325 -0.0060852636 -0.25491396 0.0018326404
0003a0 45 74 74 3e b3 72 94 3d 9d d6 08 3d 4b e0 d4 3d
       0.23872478 0.0724844 0.033407796 0.10394343
0003b0 49 25 46 bd 69 9a 18 3c bf fe 38 3e 44 5d a5 bd
       -0.0483754 0.009314158 0.18065928 -0.0807443
0003c0 d5 3c 31 3d 33 0d 3e be c2 bd 21 be 05 98 62 be
       0.043270905 -0.18559723 -0.15795043 -0.22128303
0003d0 5d 2b e0 3d af 99 4f 3c b9 a6 e3 3d 2d b3 9c bd
       0.10945771 0.012670918 0.11115784 -0.076513626
0003e0 46 ba 37 bc 91 e5 b8 bd 4b ae 3d 3e 5b aa 4d be
       -0.011213845 -0.09028161 0.18523519 -0.20084517
0003f0 37 1b 46 3d fd 22 be 3c 40 4c 93 3d 3a 4f 66 be
       0.048365798 0.023210043 0.07192278 -0.2249116

nn.mlps.0.layers.4.bias f4 [50]
000000 6b b4 e1 3c c1 d4 93 3c 84 20 b6 bc 0c e7 72 bc
       0.02755185 0.018045785 -0.022232302 -0.014825594
000010 32 63 9a bc dc 0d a6 3c c2 9c c1 bc 5a 13 6f 3c
       -0.018846128 0.02027028 -0.023634318 0.014592016
000020 3e 85 7b bc 13 bd 7e 3c bf af 8f 3c 6f 6b a8 bc
       -0.015351592 0.0155480085 0.017539857 -0.02055904
000030 23 4e b7 bc 06 59 08 3d ff e3 c4 bc 06 5f a1 3c
       -0.022376126 0.033288024 -0.024034498 0.019698631
000040 a2 9c f0 3c 86 af e8 3b 62 36 cd 3c 4b 4d 84 3c
       0.029371563 0.007101002 0.025050346 0.016150137
000050 0e 0f ae 3c 07 14 a4 3c 5d 3b a2 bc 48 27 ae bc
       0.021247413 0.020029081 -0.019803697 -0.021258965
000060 84 99 18 3d fb 5a d6 3c a5 c3 8b 3c 7a 43 66 3c
       0.03725578 0.02616643 0.017061064 0.014054174
000070 31 d3 8d bc 0c c8 13 bd 1c 1f d2 bc 72 6d b0 bc
       -0.017312618 -0.03607945 -0.0256496 -0.021536563
000080 9b 3f 8c bc 63 78 b9 bc fd 1b 92 3c 1a 73 e7 3c
       -0.017120173 -0.022640413 0.017835611 0.028253127
000090 40 36 8e 3c 16 96 d8 bc 4a 54 7f bc cc 97 ef bc
       0.017359853 -0.026438754 -0.015584061 -0.029247187
0000a0 61 22 bc 3c a2 9e 84 3c f6 cb b1 bc 8c 50 86 3b
       0.022965612 0.016188923 -0.021703701 0.0040989574
0000b0 d4 b7 c7 bc db 47 b0 3c bc 69 a2 bc ab e3 89 3c
       -0.024379648 0.021518638 -0.019825809 0.016832193
0000c0 14 45 58 bd f1 62 ab bc
       -0.052800253 -0.020921202

nn.mlps.0.layers.5.weight f4 [1, 50]
000000 3d 61 55 be 72 07 c7 be ae 97 83 3e f8 aa e4 3e
       -0.20837875 -0.38872868 0.2570166 0.4466169
000010 55 b2 7f 3e d1 4c 97 be e9 51 ad 3e a0 0c 92 be
       0.24970372 -0.29550794 0.33851555 -0.28525257
000020 2e 70 a8 3e ea 06 94 be 58 1a 95 be 59 b2 0a 3e
       0.32898086 -0.28911525 -0.2912166 0.13544597
000030 c3 fa 38 3e 8e 75 29 be bc 2d 8f 3e 03 5f dd be
       0.18064408 -0.1654875 0.2796458 -0.4323655
000040 2d 53 24 be 04 c0 de 3d 1c da 06 be 2a 8c 91 be
       -0.16047354 0.10876468 -0.1316914 -0.2842725
000050 58 71 96 be 79 5c 5e be 05 5a 2b 3e cc 58 52 3e
       -0.2938335 -0.21714963 0.16733558 0.20541686
000060 e9 ec 27 be fd 3f 65 be 9f 97 23 be 30 b2 c7 be
       -0.16398968 -0.22387691 -0.15975808 -0.39003134
000070 33 28 cc 3e ec f0 14 3e aa c4 33 3e fd b4 64 3e
       0.3987442 0.1454503 0.1755549 0.22334667
000080 9e c9 ab 3e e2 8d 30 3e fd 09 e5 be 6b cb 3e be
       0.3355226 0.17241624 -0.44734183 -0.18632285
000090 e6 9f 90 be 7b 81 9e 3d 9e 92 8a 3e 70 5a e2 3d
       -0.28246993 0.0773954 0.27064985 0.11052406
0000a0 45 38 bf be d4 11 66 be 76 c0 cc 3e 7f 3e a8 3d
       -0.37347618 -0.22467738 0.39990586 0.08215045
0000b0 71 71 7f 3e dc db be be eb 7b b6 3e 88 63 4d be
       0.24945618 -0.37277114 0.35641417 -0.200575
0000c0 46 3c ee 3d 9e fd 4c 3e
       0.1163259 0.20018622

nn.mlps.1.layers.0.weight f4 [50, 1]
000000 80 9a c4 bd c7 7a 3a 3e e4 e3 a4 3e a1 06 77 3e
       -0.09599781 0.18210898 0.32205117 0.24123622
000010 5d 9a 68 3d e9 0b 64 bd d9 f0 d7 bc 53 ba 51 bd
       0.056787837 -0.05567542 -0.026359962 -0.051203083
000020 3b 66 b4 3e 44 d4 74 3d 8d b4 cc 3e 4c c2 03 bd
       0.35234246 0.059772745 0.399815 -0.032167718
000030 fc 6e b8 3d 56 f7 b4 3e a8 12 fb bd 8e 82 32 3e
       0.090055436 0.35344952 -0.12259418 0.17432615
000040 a1 21 38 bc 08 ba c2 bb ad e0 a2 3c d9 63 32 3d
       -0.0112384865 -0.005942587 0.019882524 0.043552253
000050 48 50 a4 bd 5a 9b e1 be 9f 86 67 3e ab c5 47 be
       -0.08023125 -0.44063836 0.22609948 -0.19508998
000060 89 ea 41 bd ad fa 32 bd 12 53 65 bd e8 b3 57 3d
       -0.04734281 -0.043696094 -0.055987425 0.052661806
000070 24 e7 d2 3e da 59 4d bd b2 a9 c1 3e 29 2b 8c be
       0.4119197 -0.050134517 0.3782478 -0.2737668
000080 e8 4b 37 bd d2 f8 3f be 7e cc ed 3c 4a 43 c3 bd
       -0.044750124 -0.18747261 0.029028174 -0.09534319
000090 e5 01 93 3e fd 85 a3 3e 32 2d 6b be fa 9f 9f 3e
       0.28712383 0.31938162 -0.2296646 0.3117674
0000a0 4a 0c 53 3d d8 59 96 be d5 28 65 be 15 90 49 be
       0.05152539 -0.2936542 -0.22378857 -0.19683869
0000b0 e5 79 46 be 77 55 3e be 81 dc 8f 3d 6a 28 96 be
       -0.19382437 -0.1858729 0.0702448 -0.29327708
0000c0 cc 5e 55 3e be a5 6f bd
       0.20836943 -0.058507673

nn.mlps.1.layers.0.bias f4 [50]
000000 57 9e 6f bc 73 8e 88 3b c5 15 34 3c 81 c2 5d bc
       -0.0146251535 0.004167372 0.010991518 -0.013535143
000010 66 33 26 bc d6 7c 88 bc fa 80 43 3c a6 cc 56 bc
       -0.01014409 -0.016661089 0.011932606 -0.013110315
000020 a0 e1 03 3a 56 9a 5f bc 7a 3f 35 3c 96 08 70 bc
       0.0005030874 -0.013647636 0.011062497 -0.014650485
000030 59 98 48 bc 10 63 70 bc f5 e9 4e bc 3f 75 5e 3c
       -0.012243354 -0.014672056 -0.012629022 0.013577758
000040 ba a8 55 3c ef 15 5f 3c 63 de 62 3c 5c 20 84 3c
       0.013040716 0.013616069 0.013846966 0.016128711
000050 83 eb 12 3c dd 9d 53 3c b2 8b 78 bc 23 ad 6c 3c
       0.008967283 0.0129160555 -0.015170025 0.014445576
000060 40 d1 7f bc a2 68 6f bc 61 4a 91 bc 7c bf 64 3c
       -0.015613854 -0.014612349 -0.017735662 0.013961669
000070 62 78 76 bc b8 b1 89 bc 0b f9 51 bc e8 26 6f bc
       -0.01504335 -0.016808376 -0.012815724 -0.014596678
000080 38 ab 4c 3c 5a f6 6d 3c cc 56 5c 3c 55 bc 68 bc
       0.012491994 0.014524067 0.013448428 -0.014205058
000090 89 94 4e 3c 47 d9 19 bc ae cf 5a 3c 8b 92 73 bc
       0.012608656 -0.009390182 0.013355179 -0.014866482
0000a0 9b 45 93 3c 62 c2 3e bc 7f 2e 6f 3c cd 6d 65 3c
       0.017977526 -0.011643024 0.014598488 0.014003229
0000b0 9b 61 45 bc 7a c3 6d 3c 20 5e 61 3c 21 e7 06 bc
       -0.012047197 0.014511937 0.013755351 -0.008233816
0000c0 46 2e 64 bc 6b c8 5c bc
       -0.013927048 -0.013475518

nn.mlps.1.layers.1.weight f4 [50, 50]
000000 e5 6c 9d 3e 56 da f2 bd 8e fb 16 3e 00 b9 14 3e
       0.30747142 -0.118580505 0.14744398 0.14523697
000010 be de c6 bc 0a 0c 62 be 05 1e b0 bd 3c fe 85 3d
       -0.024276134 -0.22074905 -0.08599476 0.06542632
000020 64 db e7 3d 4d 0d d7 3c 02 66 9f bd 00 60 29 be
       0.11321142 0.02625146 -0.07783128 -0.16540527
000030 8e af fc bd f4 3b 0f 3e ee 99 ea 3d e9 26 43 3d
       -0.12338172 0.13987714 0.11455141 0.04764453
000040 2c 7e 86 3d 7c a9 66 bd 30 13 69 be 08 74 4f 3e
       0.06567034 -0.056313977 -0.22761226 0.20259106
000050 d4 22 82 3e 83 1e 8d be 66 cb e2 3d 8a 9d 6e 3d
       0.25417197 -0.2756234 0.110739514 0.05825571
000060 44 e9 5c bd 52 65 1c 3d c1 b4 c6 bb b7 ee 21 3e
       -0.053933397 0.038182564 -0.006064028 0.15813719
000070 c8 1c 90 be 62 e7 7b 3e 77 54 c0 3d da 8b 1f be
       -0.28146958 0.24599984 0.093911104 -0.15580693
000080 cd aa e5 bb 90 7b d6 bd 3b 6d 35 3e f7 2d 25 3e
       -0.0070088864 -0.104727864 0.1771745 0.16130815
000090 70 e6 40 3d 87 64 61 bc 33 e5 bb 3d 7a 85 3b 3c
       0.047094762 -0.013756878 0.09174576 0.0114453975
0000a0 83 38 61 bd ee a2 fc bd 30 38 49 3d be d0 67 be
       -0.054985534 -0.12335764 0.04912585 -0.22638223
0000b0 d2 91 63 be 06 17 0c 3c 69 b6 3e 3d 14 bc 91 3d
       -0.22223595 0.008550411 0.04656068 0.07115951
0000c0 43 80 a7 3d e4 f4 ea bc f4 0a d4 bd 49 0d 86 3e
       0.08178761 -0.028681226 -0.10353652 0.2618201
0000d0 0f 4f 78 3e e9 08 85 3e b5 4d 00 3c a2 d0 26 bd
       0.24248908 0.2598336 0.007831027 -0.04072631
0000e0 a5 2d ea 3c dd 91 06 3e e2 b9 ba 3d 94 05 d4 bd
       0.028586218 0.1314158 0.091174856 -0.103526264
0000f0 4a 9e 13 3d d6 d8 b6 bd 97 68 11 bd 54 d9 ff bd
       0.036039628 -0.08928077 -0.035500135 -0.12492624
000100 86 03 bb bd ab 0b 29 be 72 a2 30 bd b8 6b 36 be
       -0.091315314 -0.16508357 -0.04312367 -0.17814529
000110 c6 89 2d 3d 94 f9 99 3d 78 8f c9 3d 0f fc d6 3e
       0.04236772 0.075183064 0.098418176 0.4198918
000120 9b 0a 84 3e 53 66 a3 3c c7 90 ec bd cf 83 b6 bd
       0.2578934 0.019946253 -0.115510516 -0.08911859
000130 58 97 fa bd b0 58 03 be a5 f4 93 3b b4 20 a8 bd
       -0.12235898 -0.128268 0.004515248 -0.082093626
000140 95 56 86 bb 10 3f 08 bd 8b 0e 84 be f3 4c 09 be
       -0.004099677 -0.033263266 -0.25792345 -0.1340826
000150 71 fd b3 3d e3 f7 be bc b4 7a 61 be 73 47 6a bd
       0.087885745 -0.023311561 -0.22019464 -0.057197046
000160 79 9f 70 bd 5b 2e 42 3e c7 a7 fc 3d a4 07 2d 3e
       -0.058745835 0.18962996 0.123366885 0.16897446
000170 c4 37 89 3d e8 9e 10 be c2 da 60 3c 1c 56 c9 bb
       0.067000896 -0.14123118 0.013724031 -0.0061442982
000180 8c f2 9a bd 73 31 0c be 0f 76 89 be 89 b5 fd bb
       -0.075657934 -0.13690738 -0.26847884 -0.007742588
000190 1a 5b 27 be ee d5 c0 be a8 02 29 3e 9f da 99 3d
       -0.16343346 -0.37663215 0.1650492 0.07512402
0001a0 f2 80 c1 3d cc e1 88 3c 8b b5 84 be 3d 54 38 3e
       0.094484225 0.01670923 -0.25919756 0.18000884
0001b0 32 10 1c bd 7a fc b7 3c 4e 96 3f bb 83 d4 d2 3b
       -0.038101383 0.022459257 -0.0029233876 0.006434025
0001c0 95 db 05 3c c9 c1 86 bd 9d 2f b5 3d 61 f3 01 be
       0.008170028 -0.0657993 0.08846972 -0.12690498
0001d0 d1 42 8e bc e0 9c a9 bc ed b0 48 be b6 44 42 3e
       -0.017365845 -0.020704687 -0.19598742 0.18971524
0001e0 e1 e8 82 3e d9 34 07 3e 4a c2 5d be 0e b2 a9 bd
       0.25568298 0.13203754 -0.21656147 -0.08285914
0001f0 91 90 a0 3d 97 01 1f bd af 9f b3 3d f3 ce c4 bd
       0.07840074 -0.038819876 0.087706916 -0.09609785
000200 51 7d 22 be c2 20 cb bd 36 2a a4 3d 18 02 8a 3d
       -0.15868117 -0.099183574 0.080158636 0.067386806
000210 e1 f9 9b 3d fb 4c 34 3e d6 32 02 3e 50 52 af 3d
       0.0761602 0.1760749 0.12714705 0.08560622
000220 2c ab fd 3c 62 f5 ea bb 9c a7 54 3e 6c a9 69 be
       0.03096541 -0.007170365 0.20767063 -0.22818536
000230 d2 9d 18 be db dc b0 3d 08 e0 b4 bd b0 fd 5c 3e
       -0.14903954 0.08635875 -0.08831793 0.21581149
000240 69 90 ef bd ee 80 df bc fd 25 2c 3e c1 9d 88 bd
       -0.11697466 -0.027283158 0.16811366 -0.06670714
000250 53 ba d5 3d 04 7f 2a be 66 01 21 be 27 c8 dd bd
       0.10435929 -0.16650015 -0.1572319 -0.10829192
000260 ae 40 0f be 20 b1 49 bc fe 15 c3 bd 74 6c a9 3e
       -0.13989517 -0.012310296 -0.09525679 0.33090556
000270 9f 94 1d be a6 0c 2b 3e 16 d1 c8 bd c9 8a 3f bd
       -0.15388726 0.16704044 -0.09805505 -0.046763215
000280 05 8a 99 3d 52 a4 8b bd 95 7f c3 3d 38 40 24 be
       0.07497028 -0.06818451 0.09545819 -0.16040123
000290 02 70 83 3d 05 7c 04 3e 24 f4 5d 3c 6b ab f3 bd
       0.06417848 0.12937935 0.013546977 -0.1189793
0002a0 9f 10 45 3e 49 d3 02 bd 24 cb 99 bd 5c c6 30 bd
       0.19244622 -0.03193978 -0.07509449 -0.04315792
0002b0 a7 b9 17 3e 0f 3c 24 3e 0d 00 c7 3d c7 ac 3c 3e
       0.14816914 0.16038536 0.097168066 0.18425284
0002c0 b6 61 19 3d e3 38 96 3c 6d df 6f bd 24 bc 2a 3e
       0.0374467 0.018337673 -0.058562685 0.16673332
0002d0 c7 77 37 bd e3 de dc bd db 49 b6 3d c9 44 cb 3e
       -0.044791963 -0.107847 0.089008056 0.39700916
0002e0 13 07 43 3d 7b bd ce 3d ed e4 32 3e f6 43 2a 3d
       0.04761417 0.10094734 0.17470141 0.04156872
0002f0 07 54 b4 3d e9 95 c2 bd 56 c5 b2 3e 20 3a 0c 3e
       0.088050894 -0.09501249 0.3491618 0.13694048
000300 98 3a b4 3d ef 28 80 bd 66 ad 81 be e6 ba 31 3e
       0.08800238 -0.062578075 -0.25327605 0.17356452
000310 60 f1 8b 3e cf b4 d3 bd 23 cf be bd 1d f8 1f 3e
       0.27332592 -0.10337221 -0.09316852 0.15621991
000320 9d 80 c0 bd 30 2c 36 3c af 1f a3 3c 98 20 52 3d
       -0.09399531 0.011118934 0.019912569 0.051300615
000330 fc 69 9d 3c 74 85 46 be ca 69 49 3d d8 e3 96 3e
       0.019215576 -0.19386846 0.049173154 0.29470706
000340 c3 fc be 3c 3b 89 89 3d 41 a6 88 3b fe f1 6f bd
       0.023313886 0.06715628 0.0041702096 -0.05858039
000350 1a 5a 9a 3d 5e 5b 14 3e ad ee 0f 3d 33 91 be bc
       0.07536717 0.14487979 0.03513973 -0.023262596
000360 b7 c3 f0 bd 9f 46 cb bd c1 89 3b be e7 67 15 bd
       -0.1175608 -0.09925579 -0.18314268 -0.036476042
000370 55 94 d1 bd 5d 1d 88 be a0 f9 06 be cb 5b 0a 3d
       -0.1023337 -0.26584902 -0.13181162 0.033778947
000380 dd 9d 92 3d f9 3b 12 be b0 54 04 3e f9 8b a6 3e
       0.07159016 -0.1428069 0.1292293 0.32528666
000390 ec 76 82 3d 6a 84 86 3d 27 c1 56 3e 64 a0 02 be
       0.06370339 0.06568225 0.2097212 -0.12756497
0003a0 29 8e ab bd 22 e8 e0 bb 91 a6 76 bd ef f0 bd bd
       -0.08376724 -0.00686361 -0.060217444 -0.0927447
0003b0 2a 18 32 be da 23 c2 3d 7a a1 60 3d d0 f7 a8 3d
       -0.1739203 0.094794944 0.054841496 0.082503915
0003c0 a4 a9 10 3d 82 d2 c8 3d 33 7b 07 3d 3d 4b 10 be
       0.035318032 0.09805776 0.033076476 -0.14091201
0003d0 e6 4f 3a be bd 6b bb 3d ef 60 41 3e 93 62 75 3d
       -0.18194541 0.09151409 0.18884633 0.05990846
0003e0 00 0c 0a 3d 99 06 e8 bd 60 f1 1c be 0d 0c 6c be
       0.03370285 -0.113293834 -0.15326452 -0.23051472
0003f0 dd d2 a1 bd c5 4a c4 3c af 28 78 be fc 75 17 3e
       -0.07901547 0.023961434 -0.2423427 0.14791101
