output/Darcy_UQPINN/weight.pth (torch, 160737 bytes, 40 tensors)

P.mlps.0.layers.0.weight f4 [50, 3]
0	0x3d0c183a	0.03420279
1	0xbe0d2f40	-0.13787556
2	0x3e0184c3	0.12648301
3	0x3e877085	0.26453033
4	0x3ed50c19	0.41610792
5	0x3d985fb2	0.074401274
6	0x3dfffa07	0.12498861
7	0xbd641ad8	-0.055689663
8	0x3db53ee6	0.088498875
9	0xbcdb7bb2	-0.026792381
10	0xbea68e0c	-0.32530248
11	0xbcddf60f	-0.027094869
12	0xbf0c72aa	-0.54862463
13	0x3e41da34	0.18930894
14	0xbcca5454	-0.024698414
15	0x3e7f1adc	0.2491259
16	0xbd07ad2e	-0.03312414
17	0x3c080d71	0.008303986
18	0xbd543e71	-0.05181736
19	0x3ddcd612	0.10783018
20	0x3e16eb5f	0.14738224
21	0xbe8d1214	-0.27552855
22	0x3c91de10	0.017806083
23	0xbd323918	-0.04351148
24	0xbe38c15e	-0.18042514
25	0xbe08edf3	-0.1337202
26	0x3d5cd91a	0.05391798
27	0x3e3d7f32	0.18505552
28	0x3e08ca43	0.13358407
29	0xbd5a203f	-0.05325341
30	0x3e3293a3	0.17439131
31	0xbd871bc5	-0.065970935
32	0x3db0ef6d	0.08639417
33	0xbe74d034	-0.23907548
34	0xbe9e5b16	-0.30928868
35	0x3de21d3a	0.11040731
36	0x3e7e3d37	0.24828039
37	0x3eb44316	0.35207433
38	0xbccd004f	-0.025024561
39	0xbcbb77cb	-0.02288427
40	0x3d958cbf	0.07302236
41	0xbcb7c57e	-0.022433039
42	0x3c3205f0	0.010865673
43	0xbdecad47	-0.115564875
44	0xbd9ba151	-0.07599128
45	0xbe94add5	-0.29038873
46	0x3ea79a95	0.32735124
47	0x3d9df808	0.07713324
48	0xbedd6ec6	-0.43248576
49	0x3f033920	0.5125904
50	0xbdb37c09	-0.08763892
51	0xbc54cc76	-0.0129882
52	0x3ce1f82a	0.027584154
53	0xbd3c3d96	-0.04595717
54	0x3e7e5e30	0.24840617
55	0xbe37cc1b	-0.17948954
56	0xbd8c4a26	-0.0685008
57	0x3e6034cd	0.21895142
58	0xbe5a3cb4	-0.21312219
59	0x3d2b2fd1	0.04179365
60	0xbdf69e5a	-0.12041922
61	0xbe59a31b	-0.21253626
62	0xbdaf4b13	-0.08559241
63	0x3da8d5ca	0.08243902
64	0xbdbc4535	-0.09192888
65	0xbdc77d04	-0.09740642
66	0x3e754fb1	0.23956181
67	0xbe4128ea	-0.18863264
68	0x3b4ad02f	0.003094684
69	0xbe0e28d2	-0.13882759
70	0xbde2edef	-0.110805385
71	0xbd163855	-0.036674816
72	0x3e019a22	0.12656453
73	0xbc06177e	-0.008184312
74	0x3d6d4fc6	0.057937406
75	0xbd55fa78	-0.05224082
76	0x3ea4a6a7	0.32158396
77	0xbcc6b844	-0.024257787
78	0xbe9ee1e2	-0.3103171
79	0x3d9ad1d1	0.075595506
80	0xbcd0ef58	-0.025504753
81	0xbe0f8614	-0.1401599
82	0x3e159989	0.1460935
83	0x3b8c63d1	0.00428436
84	0xbe8387a9	-0.25689438
85	0x3e699df9	0.22814168
86	0x3dc3d38a	0.09561832
87	0xbe7c0b5d	-0.2461371
88	0x3e4b865b	0.19875471
89	0x3d93e1c8	0.07220799
90	0xbe3b0cad	-0.18266554
91	0xbe75f88b	-0.24020593
92	0x3df83f9c	0.121215075
93	0xbe51a71d	-0.20473905
94	0xbe224ae3	-0.1584888
95	0xbd48499f	-0.048898336
96	0x3cc8b742	0.024501447
97	0xbd72efc5	-0.059310693
98	0x3e1ea55a	0.15492764
99	0xbef3c492	-0.4761091
100	0xbdc3fc10	-0.095695615
101	0x3d7775fa	0.060415246
102	0x3db097f9	0.086227365
103	0xbe0f5c58	-0.1400007
104	0xbe0489f3	-0.12943248
105	0x3a920113	0.0011139236
106	0x3cafb7ac	0.021449886
107	0x3bfb08b9	0.007660952
108	0x3f14da89	0.5814596
109	0xbf0fd035	-0.56177074
110	0x3ca07529	0.019587116
111	0x3eb98654	0.36235297
112	0xbe2a450f	-0.16627906
113	0xbe32c68e	-0.17458555
114	0xbde7a6cb	-0.1131111
115	0x3de85d99	0.11345977
116	0xbcfdf2e0	-0.0309996
117	0xbe96e390	-0.2947049
118	0x3eb46c2f	0.35238788
119	0xbbb7b544	-0.0056063253
120	0xbe9bfb1f	-0.30465028
121	0xbdb03104	-0.08603099
122	0xbc8e9a9f	-0.017407713
123	0x3d0b31c8	0.033983022
124	0xbc9e90b2	-0.019356105
125	0x3c05c01b	0.008163477
126	0x3d9e53fd	0.07730863
127	0x3ea0bcb0	0.31393957
128	0x3dc6c24b	0.09705027
129	0x3e38c567	0.18044053
130	0x3cd69ff3	0.026199317
131	0x3c822599	0.015887069
132	0x3e2df69d	0.16988607
133	0x3e53e857	0.206941
134	0x3dc93f7a	0.0982656
135	0x3e3172dd	0.17328973
136	0xbe607941	-0.21921255
137	0xbc7d6f8b	-0.015468488
138	0xbdfab70a	-0.12241943
139	0xbe84e034	-0.25952303
140	0x3e0cbc4d	0.13743706
141	0xbe4127ef	-0.1886289
142	0x3de52d48	0.11190277
143	0xbdc280a5	-0.09497193
144	0xbd749384	-0.059710994
145	0xbe7e3096	-0.24823222
146	0x3d27d158	0.04097113
147	0x3eac78ec	0.33686006
148	0xbe87f8d3	-0.26557025
149	0x3d9a9cf2	0.07549466

P.mlps.0.layers.0.bias f4 [50]
0	0x3e7c5709	0.24642576
1	0x3c97599e	0.01847535
2	0x3e3c5250	0.18390775
3	0xbd9cacc1	-0.07650138
4	0xbdb0fd11	-0.086420186
5	0x3d4cda9d	0.050013173
6	0x3e14ffc5	0.14550693
7	0xbd4d0861	-0.05005682
8	0xbc853360	-0.01625985
9	0xbe7b45b0	-0.24538302
10	0x3e6693dc	0.22517341
11	0x3d3d80d6	0.046265446
12	0x3d59abc7	0.053142335
13	0x3e5030c1	0.20331098
14	0xbe0806aa	-0.13283792
15	0xbd072667	-0.032995608
16	0xbdcfbb43	-0.10143139
17	0x3e36c9cd	0.17850418
18	0xbe8b43d8	-0.27200198
19	0xbe72d313	-0.23713331
20	0x3e29864c	0.16555136
21	0xbe820b88	-0.25399423
22	0x3df00d37	0.117212705
23	0x3e752363	0.2393928
24	0xbc838fd9	-0.016059803
25	0xbedfea26	-0.4373333
26	0xbd5bdccd	-0.05367737
27	0x3e3d9561	0.18514015
28	0x3cc0d59c	0.023539357
29	0xbd6351a0	-0.055497766
30	0x3de21408	0.11038977
31	0x3e0be5f4	0.13661939
32	0xbe8b9cff	-0.27268216
33	0xbd5d5fc5	-0.05404641
34	0x3d968c2f	0.07350957
35	0x3e2db2d5	0.1696275
36	0x3cabb0e9	0.02095838
37	0x3d188562	0.03723658
38	0x3e65f4b7	0.22456633
39	0x3d218e25	0.0394422
40	0xbe61d322	-0.22053197
41	0xbe41e5d1	-0.18935324
42	0xbe0c2fe2	-0.13690141
43	0xbe094987	-0.13406955
44	0x3d9616c9	0.07328565
45	0x3e70b3be	0.23506066
46	0xbe1a4902	-0.15066913
47	0x3e77997e	0.24179646
48	0xbe3b0daa	-0.18266931
49	0x3e0a060f	0.13478874

P.mlps.0.layers.1.weight f4 [50, 50]
0	0x3e65db6a	0.22446981
1	0xbdab2939	-0.08357472
2	0x3d90dbba	0.070731595
3	0x3d4d76e4	0.05016221
4	0x3e416bd5	0.18888791
5	0x3d07a560	0.0331167
6	0xbe8ef653	-0.27922305
7	0xbd507f70	-0.050902784
8	0x3e52913c	0.20563215
9	0xbd6b94e8	-0.057515055
10	0xbda0b0c2	-0.07846214
11	0xbd83b1f1	-0.06430424
12	0x3d340ab6	0.043955527
13	0xbdb2e474	-0.0873498
14	0x3f2972e5	0.6619094
15	0xbe7e5cc8	-0.2484008
16	0x39a0ae5a	0.0003064748
17	0x3b932800	0.0044908524
18	0x3e36c12a	0.17847124
19	0xbc004bba	-0.007830555
20	0xbdca1704	-0.09867671
21	0x3e549e57	0.20763527
22	0x3e495e4d	0.19664879
23	0xbe5c8241	-0.21534063
24	0xbde7a68d	-0.11311064
25	0x3de4d75a	0.111738876
26	0xbe86d54c	-0.26334608
27	0xbe1c8dea	-0.15288511
28	0xbdeb7a09	-0.11497886
29	0x3cde0f62	0.027106944
30	0x3e4358a3	0.19076781
31	0xbc89aae7	-0.016805125
32	0xbd631f52	-0.05544979
33	0xbd1e7d3e	-0.03869366
34	0xbe1bcf67	-0.15215836
35	0xbed2f921	-0.41205695
36	0xbe182f1c	-0.14861721
37	0xbe55a12b	-0.20862262
38	0xbd2494d5	-0.040181
39	0xbe961832	-0.29315335
40	0x3da4b381	0.0804205
41	0x3e2ab95d	0.16672273
42	0xbcd0e03e	-0.025497552
43	0x3e005035	0.12530597
44	0xbceadec6	-0.02867068
45	0x3dcc1673	0.09965219
46	0x3dd6c57e	0.104868874
47	0xbcbfd74a	-0.023418088
48	0x3df746b7	0.12074035
49	0x3d38f55d	0.04515587
50	0xbd44d349	-0.04805306
51	0x3dc3be5e	0.09557794
52	0x3d67639c	0.05649148
53	0xbeec12af	-0.46108004
54	0xbd8c9fd1	-0.0686642
55	0x3d904909	0.0704518
56	0x3d8796dd	0.06620572
57	0xbdeb55e2	-0.1149099
58	0x3d438ff0	0.04774469
59	0xbc0b9d59	-0.008521401
60	0x3c95456e	0.018221583
61	0xbe43fc1d	-0.19139142
62	0x3db85257	0.0900008
63	0x3e1516b8	0.14559448
64	0x3dd2172d	0.10258327
65	0x3ceb7c3b	0.028745761
66	0xbd7281db	-0.05920587
67	0x3ea5067b	0.32231507
68	0x3d19c92d	0.03754537
69	0xbcab8892	-0.020939145
70	0xbc2dd84a	-0.010610649
71	0xbe5ac0ba	-0.21362582
72	0xbe64d6cb	-0.22347562
73	0xbe27573c	-0.16341871
74	0xbd93f05e	-0.07223581
75	0x3c13e206	0.009026056
76	0xbdf65d0e	-0.120294675
77	0x3dd95d82	0.10613538
78	0x3b3b4be6	0.0028579175
79	0xbc1ce0b8	-0.0095750615
80	0xbe826dcf	-0.25474402
81	0x3d9efff4	0.07763663
82	0xbc1b67f8	-0.009485237
83	0x3e6bc744	0.23025233
84	0xbe06c6c4	-0.1316176
85	0x3e55179d	0.20809789
86	0xbe494a10	-0.19657159
87	0xbafe262f	-0.0019390042
88	0x3d6f347c	0.058399662
89	0xbe95b792	-0.29241616
90	0x3dfcc0fa	0.12341495
91	0x3cbe7881	0.02325082
92	0xbe1d32af	-0.15351366
93	0x3da98e46	0.0827909
94	0xbd828221	-0.06372476
95	0xbe0b3556	-0.13594565
96	0x3c961469	0.01832028
97	0x3d483b2a	0.04888455
98	0xbe13a64f	-0.1441891
99	0x3df9b714	0.121931225
100	0xbe0dc5dc	-0.13845009
101	0x3a5f7404	0.00085240626
102	0x3c7269f3	0.014795768
103	0xbe233d00	-0.15941238
104	0x3e21f322	0.15815404
105	0xbd38131f	-0.04494011
106	0xbda9e708	-0.08296019
107	0xbea81b31	-0.32833245
108	0xbe9c70c9	-0.30554798
109	0x3eb26868	0.3484528
110	0x3d803438	0.0625996
111	0xbc1a4411	-0.009415642
112	0x3e14175b	0.14462034
113	0xbdb3769d	-0.08762858
114	0xbd22c051	-0.03973419
115	0x3c66d7c8	0.014089532
116	0x3dbb315c	0.09140274
117	0xbe5981a3	-0.21240859
118	0x3ea31ca2	0.31857783
119	0x3e970fb1	0.2950416
120	0xbdab256b	-0.08356746
121	0x3e248bb2	0.16068915
122	0xbc24e9c1	-0.010065497
123	0xbe520922	-0.20511296
124	0xbd4f08c0	-0.050545454
125	0x3dbf7907	0.09349256
126	0xbd262d3f	-0.040570494
127	0xbeae9efe	-0.34105676
128	0x3d927c5d	0.07152627
129	0xbcb75c35	-0.022382835
130	0xbe1486cb	-0.14504544
131	0x3e3e8df3	0.18608837
132	0xbdd96f09	-0.106168814
133	0xbdad1d44	-0.084528476
134	0x3db31a5a	0.087452605
135	0xbec6a76e	-0.38799614
136	0xbe354644	-0.17702585
137	0x3d3f6142	0.04672361
138	0xbf14c66a	-0.58115256
139	0xbdc8003b	-0.09765669
140	0xbd052521	-0.032506112
141	0x3e99245c	0.29910553
142	0x3d963f7b	0.07336327
143	0x3dd13338	0.10214847
144	0x3c0f467a	0.00874483
145	0x3da66092	0.08123888
146	0x3e5f368e	0.21798155
147	0xbe992703	-0.29912576
148	0xbe8434e4	-0.25821602
149	0x3db1508a	0.0865794
150	0x3ca93c74	0.02065871
151	0x3e4358ad	0.19076796
152	0x3e6281a6	0.2211977
153	0xbd0f40f4	-0.034974054
154	0xbb815bcf	-0.003947712
155	0xbe182b64	-0.14860302
156	0x3cbe9b30	0.023267359
157	0x3da201c6	0.079104945
158	0x3c9547e5	0.018222759
159	0xbe17ca21	-0.148232
160	0xbdd57da8	-0.10424358
161	0x39cb21c3	0.00038744332
162	0xbda9701d	-0.08273337
163	0x3e283313	0.16425733
164	0xbe033cd7	-0.12816177
165	0xbcbf5921	-0.02335793
166	0xbd8033f3	-0.062599085
167	0x3e9f8d30	0.31162405
168	0xbe5c4b1a	-0.21513024
169	0xbd56f6ac	-0.05248134
170	0x3def4231	0.11682547
171	0xbe89eb3e	-0.26937288
172	0x3d549fc0	0.051910162
173	0x3e930a03	0.28718576
174	0xbe18280f	-0.14859031
175	0x3e7b5cad	0.24547072
176	0xbe051af9	-0.1299857
177	0x3d753623	0.059866082
178	0x3de0f506	0.109842345
179	0xbe93909d	-0.2882127
180	0x3da4161e	0.08012031
181	0xbce535a5	-0.027979681
182	0xbd852fe1	-0.06503273
183	0x3e14a339	0.1451539
184	0xbdc871df	-0.09787344
185	0x3cb23fb6	0.021758895
186	0x3e8d19de	0.27558798
187	0x3cbb830a	0.022889633
188	0x3ecf3be7	0.4047539
189	0xbd7e605a	-0.062103607
190	0x3e938aba	0.28816777
191	0xbdf138c8	-0.11778408
192	0xbe570ffa	-0.21002188
193	0xbe1cd5bc	-0.15315908
194	0x3e1909ef	0.14945196
195	0x3eab6eb4	0.33482897
196	0xbea89b20	-0.3293085
197	0x3c3dd752	0.011586981
198	0xbe49583f	-0.1966257
199	0xbe8047fa	-0.25054914
200	0xbd560d67	-0.052258875
201	0xbe41456c	-0.18874139
202	0xbe52abe4	-0.20573384
203	0xbcb92b07	-0.022603525
204	0x3df6c774	0.120497614
205	0xbddbe619	-0.10737247
206	0x3e1c6b50	0.15275311
207	0xbeacd2d5	-0.33754602
208	0xbe8e8e1b	-0.27842793
209	0xbcbe5bf5	-0.023237208
210	0xbe4cf792	-0.20016316
211	0x3d85eb18	0.06538981
212	0xbd12667c	-0.035742268
213	0x3f058cac	0.52167773
214	0xbe745344	-0.23859888
215	0x3dfb79bd	0.12279079
216	0x3e8d068d	0.2754406
217	0x3e8b53fd	0.27212515
218	0x3c933fc4	0.017974742
219	0xbe8c786a	-0.2743562
220	0xbd108330	-0.03528136
221	0xbefae487	-0.49002478
222	0xbe9c1831	-0.30487207
223	0x3e03bf2d	0.12865897
224	0xbc9d5a93	-0.019208228
225	0xbe4af21c	-0.1981892
226	0xbe0ba616	-0.13637576
227	0x3e419c49	0.18907274
228	0x3e1d9e45	0.15392406
229	0x3e3f9327	0.18708478
230	0x3dcff9cc	0.10155067
231	0xbeae1adf	-0.34004876
232	0xbe1a2928	-0.15054762
233	0x3e0b3019	0.13592567
234	0xbdc064c3	-0.09394219
235	0x3ea999eb	0.33125243
236	0x3e5df10b	0.21673982
237	0x3e34b7f5	0.17648299
238	0x3d634fb8	0.055495948
239	0xbdf31100	-0.11868477
240	0xbec8ea6a	-0.39241344
241	0xbe2f3ae5	-0.1711231
242	0xbc9d0664	-0.019168086
243	0xbda26f57	-0.07931393
244	0x3d7dce4a	0.06196431
245	0x3d4d4d82	0.050122745
246	0x3de9e431	0.11420477
247	0x3e981d99	0.2971008
248	0x3e0a5b6b	0.13511436
249	0xbda585d6	-0.08082168
250	0x3e4c521d	0.19953199
251	0x3e7df79a	0.24801484
252	0xbe0821e0	-0.13294172
253	0x3e48d413	0.1961215
254	0x3ea156a7	0.31511423
255	0xbd448df9	-0.04798696

P.mlps.0.layers.1.bias f4 [50]
0	0xbd9c414c	-0.07629642
1	0x3e0c25a7	0.13686238
2	0xbe238079	-0.15966977
3	0x3daa2855	0.08308474
4	0x3e2591e7	0.16168939
5	0x3e6fc95d	0.23416658
6	0xbe31feea	-0.17382398
7	0x3db1a76f	0.086745135
8	0x3dcac777	0.09901326
9	0xbd79dd4b	-0.061002057
10	0x3e405bbb	0.18784992
11	0x3e0f192e	0.13974449
12	0x3dcd856c	0.10035214
13	0x3df97223	0.12179973
14	0xbcef2042	-0.029190186
15	0x3e68959c	0.22713321
16	0xbdf8de40	-0.12151766
17	0xbc18b69b	-0.00932088
18	0x3c156fb8	0.009120874
19	0xbe36e5fb	-0.17861168
20	0xbdd5b8d5	-0.104356445
21	0xbda8f715	-0.08250252
22	0xbd8145ee	-0.06312166
23	0xbd24bb11	-0.040217463
24	0xbea85166	-0.32874602
25	0x3e306c85	0.17228897
26	0x3dc77f72	0.09741105
27	0xbe0c1018	-0.13678014
28	0x3dd5c15e	0.104372725
29	0xbdc0f625	-0.09421948
30	0x3c3ea319	0.011635565
31	0xbda27c4a	-0.079338625
32	0xbe0473b5	-0.12934764
33	0x3e0eb883	0.13937573
34	0xbce2e104	-0.027695186
35	0x3d48537c	0.048907742
36	0xbc84dddd	-0.016219074
37	0x3a806620	0.0009796061
38	0x3df49591	0.1194259
39	0x3e007c7c	0.12547487
40	0x3da2c983	0.079485916
41	0x3eaae05f	0.33374307
42	0x3d6ccf49	0.05781487
43	0x3c7357f8	0.014852516
44	0xbe0ca394	-0.13734275
45	0xbdaaae93	-0.08334079
46	0x3eabcfc0	0.33556938
47	0x3d8d6970	0.06904876
48	0xbe626768	-0.22109759
49	0x3dd5293e	0.10408257

P.mlps.0.layers.2.weight f4 [50, 50]
0	0xbcf0e1dd	-0.029404575
1	0x3d4b9d76	0.049710713
2	0x3e49667c	0.19668001
3	0xbe093dc2	-0.13402465
4	0x3eab7181	0.33485034
5	0x3c839a88	0.016064897
6	0x3e0dbb59	0.13840999
7	0xbdb1634d	-0.08661518
8	0xbd9193ad	-0.07108245
9	0x3d242fef	0.040084776
10	0xbe625dd8	-0.22106111
11	0xbdfd2403	-0.12360384
12	0xbeb3fba8	-0.35152936
13	0xbdddbc97	-0.10826986
14	0xbe9473cc	-0.28994596
15	0xbd0efbd8	-0.034908146
16	0xbcd0087f	-0.025394676
17	0x3d399fbb	0.045318346
18	0xbe3a4cfb	-0.18193428
19	0x3da94d3a	0.08266683
20	0xbc8cb0d8	-0.01717417
21	0x3dd609b4	0.104510695
22	0xbce1e494	-0.027574815
23	0x3e0be129	0.1366011
24	0x3d5008ad	0.050789524
25	0xbddf19c2	-0.10893585
26	0xbbc25486	-0.005930486
27	0x3e99e52a	0.3005765
28	0x3e68deab	0.22741191
29	0xbd7d5a55	-0.061853725
30	0xbe5b9ae8	-0.21445811
31	0x3b43b68d	0.0029863447
32	0x3c2fccde	0.0107299965
33	0xbdfbfa2e	-0.12303577
34	0x3d028c37	0.031872
35	0xbde42e7f	-0.11141681
36	0xbdc28e4a	-0.09499796
37	0xbde791cf	-0.11307108
38	0xbe0d2b77	-0.13786112
39	0xbd95cee6	-0.07314853
40	0x3d3c160d	0.045919467
41	0x3e84bc33	0.25924835
42	0xbe14e645	-0.14540966
43	0xbec77b69	-0.38961342
44	0x3c23096d	0.009950978
45	0xbe1bbc3c	-0.15208524
46	0xbdd36400	-0.10321808
47	0xbdd77368	-0.10520059
48	0x3d985b89	0.07439334
49	0x3d8a76a7	0.067609124
50	0xbf06e2a2	-0.52689564
51	0x3d3751e7	0.044755843
52	0xbe6f1f57	-0.23351799
53	0x3ec6c245	0.3882009
54	0x3e4f9be8	0.20274317
55	0x3e705615	0.23470338
56	0xbdbdf14e	-0.09274541
57	0xbe165691	-0.1468146
58	0x3d6b4c3d	0.057445753
59	0x3e0f9e84	0.14025313
60	0x3e3d2288	0.18470204
61	0xbe29f934	-0.1659897
62	0x3e2bf9ee	0.1679456
63	0x3e9c01af	0.30470034
64	0x3ea20efd	0.3165206
65	0x3ced1284	0.028939493
66	0xbe8e49fa	-0.27790815
67	0x3e286da0	0.16448069
68	0x3e1a4289	0.15064444
69	0xbe960ede	-0.29308218
70	0x3c076d45	0.008265798
71	0x3deb36b8	0.11485046
72	0xbe268ae1	-0.16263916
73	0xbe6d6d3d	-0.23186202
74	0xbed9faa3	-0.42574033
75	0x3e94f837	0.29095623
76	0x3e7a9a66	0.24472961
77	0xbcf34898	-0.029697701
78	0xbe7b4c45	-0.24540813
79	0xbe078d1c	-0.13237423
80	0x3e98599a	0.2975586
81	0xbe368dd0	-0.17827535
82	0x3d7cde08	0.061735183
83	0x3e4e62b9	0.20154847
84	0x3e7e735f	0.24848698
85	0x3e5285b8	0.20558822
86	0xbdacfae1	-0.08446289
87	0x3cebc61d	0.028780991
88	0xbce39aba	-0.02778374
89	0xbb5c1f20	-0.0033587888
90	0x3e03875f	0.12844609
91	0x3e312b13	0.17301588
92	0xbe805206	-0.2506258
93	0x3d6ad575	0.057332475
94	0x3c81fef9	0.01586865
95	0xbcb4faea	-0.022092301
96	0xbddb1505	-0.106973685
97	0xbde62a60	-0.11238551
98	0xbdf3fc3f	-0.119133465
99	0x3e179270	0.14801955
100	0xbc3f9180	-0.011692405
101	0x3cb97080	0.022636652
102	0x3eeea6ff	0.46611783
103	0xbe5c1de5	-0.21495779
104	0xbe7a587d	-0.24447818
105	0xbe4f4de7	-0.20244561
106	0x3e25ee1b	0.16204111
107	0xbdc9cd62	-0.09853627
108	0xbe11c6fc	-0.14236063
109	0x3cf8af93	0.030357158
110	0xbdd10c2c	-0.102074
111	0x3e7fce50	0.24981046
112	0x3d677918	0.05651197
113	0xbebf467e	-0.3735847
114	0x3c91bb3b	0.017789474
115	0xbf07104a	-0.5275923
116	0x3e15066c	0.14553231
117	0x3e309685	0.17244919
118	0x3e10f2ed	0.14155169
119	0x3e8876fb	0.26653275
120	0x3f02a6ee	0.51035964
121	0x3e2c6dda	0.1683878
122	0x3c5e6474	0.013573755
123	0x3eb18173	0.34669074
124	0x3f2dd82c	0.6790798
125	0xbef76e66	-0.48326415
126	0xbe91a262	-0.284442
127	0x3a471561	0.0007594433
128	0x3c28f4c9	0.010312268
129	0x3e107b85	0.14109619
130	0xbe1d5497	-0.153643
131	0x3efc676d	0.49297658
132	0x3eead823	0.45868024
133	0xbeca24c8	-0.39481187
134	0xbe94b40b	-0.29043612
135	0x3e44a8a4	0.19204956
136	0x3d29f109	0.041489635
137	0x3e04edf6	0.129814
138	0xbef8a8a7	-0.48566172
139	0xbe63afbe	-0.22235009
140	0x3e5086bc	0.20363897
141	0xbecf1b61	-0.40450576
142	0x3e3579bb	0.17722218
143	0xbe6105fa	-0.21974936
144	0x3ec691dd	0.3878316
145	0x3d48a6fc	0.048987374
146	0xbd39b54d	-0.045338918
147	0x3de46937	0.11152881
148	0x3e0dea56	0.13858923
149	0xbe98e962	-0.29865557
150	0xbb321c12	-0.0027177376
151	0xbd961cdd	-0.07329724
152	0x3e377756	0.17916617
153	0xbb87b1c6	-0.0041410653
154	0xbe5d0f44	-0.21587855
155	0xbd811c21	-0.06304193
156	0x3f027bac	0.5096996
157	0x3e82eb69	0.2557023
158	0x3df96a3e	0.12178467
159	0xbca72c15	-0.020406762
160	0xbe0489b5	-0.12943156
161	0xbe848ecf	-0.25890204
162	0xbd0d7d1c	-0.03454314
163	0x3da42a90	0.08015931
164	0x3e0e3342	0.13886741
165	0xbdb29b2d	-0.08721004
166	0x3e0acde7	0.13555108
167	0xbdb4f49d	-0.08835719
168	0xbdca1f6b	-0.09869274
169	0x3e133cdd	0.14378686
170	0x3e16edcd	0.14739151
171	0x3d8111a2	0.06302191
172	0x3e3c1969	0.18369068
173	0x3cfb664f	0.030688433
174	0xbe43bb99	-0.19114532
175	0x3d72aa71	0.059244577
176	0x3cfefc58	0.031126186
177	0xbea4aedb	-0.32164654
178	0xbebe00ae	-0.37109894
179	0x3dc2da8c	0.09514341
180	0xbd95485a	-0.072891906
181	0xbe1fc983	-0.15604214
182	0x3db75e07	0.08953481
183	0xbe9cfb0f	-0.30660293
184	0x3dea7230	0.11447561
185	0xbe946d36	-0.2898957
186	0xbe8c9c15	-0.2746283
187	0x3eb62326	0.3557369
188	0xbe217b22	-0.15769628
189	0x3dbff5a3	0.09373023
190	0xbdd39fc1	-0.10333205
191	0xbecb0fed	-0.39660588
192	0x3aa280a4	0.0012397957
193	0x3b41e80b	0.0029587771
194	0x3a5d5645	0.0008443336
195	0x3e5660b0	0.20935321
196	0xbf1754b8	-0.59113646
197	0xbe9e464f	-0.30913016
198	0x3f0b7fb3	0.5449173
199	0xbdf6dfa1	-0.120543726
200	0x3e38a7a0	0.18032694
201	0x3d2be30b	0.041964572
202	0x3dbfa5bf	0.093577854
203	0xbe5d5c03	-0.21617131
204	0xbebd2961	-0.36945632
205	0xbe0bc9eb	-0.13651244
206	0xbe4d3bcc	-0.20042342
207	0xbc597155	-0.013271649
208	0xbe343adc	-0.17600578
209	0x3d428352	0.047488518
210	0xbe0d56d4	-0.13802654
211	0x3e258903	0.16165547
212	0xbdc8afa8	-0.09799129
213	0x3cd97431	0.026544662
214	0x3c8ddda7	0.017317606
215	0x3e8a7da6	0.27048987
216	0x3da0e7b4	0.07856694
217	0xbd9132da	-0.07089777
218	0x3e158a55	0.1460355
219	0x3d1960c5	0.037445802
220	0x3dea5ca9	0.11443455
221	0x3e68f4bf	0.22749613
222	0x3dc76dca	0.097377375
223	0xbe329c88	-0.17442524
224	0x3e3ca20c	0.18421191
225	0x3bbb2bba	0.0057119997
226	0xbe871d8e	-0.26389736
227	0x3e4800f7	0.19531618
228	0xbe1cf618	-0.15328252
229	0x3e4254c1	0.18977644
230	0xbc356183	-0.011070612
231	0x3cf99a88	0.030469194
232	0xbd7f6eb6	-0.06236144
233	0xbcc16a16	-0.023610156
234	0x3dea072b	0.114271484
235	0xbe3c7939	-0.18405618
236	0x3e629f31	0.22131039
237	0x3dbd3f0d	0.092405416
238	0xbd71784a	-0.058952607
239	0xbea458b9	-0.3209894
240	0xbe372b89	-0.17887701
241	0xbe0f5f51	-0.14001204
242	0xbe12ee74	-0.14348775
243	0x3e050ff3	0.12994365
244	0x3df6ac45	0.120445766
245	0x3e81c01a	0.25341874
246	0x3d8a42d0	0.06751025
247	0xbe8e2b7a	-0.27767545
248	0x3d744b72	0.059642263
249	0xbd761889	-0.060081992
250	0x3e5519aa	0.20810571
251	0xbed82f0a	-0.42223388
252	0x3d925e17	0.071468525
253	0xba9ea210	-0.0012102742
254	0xbdc6af4d	-0.09701405
255	0x3dfcff1e	0.12353347

P.mlps.0.layers.2.bias f4 [50]
0	0xbda8b015	-0.0823671
1	0x3d99a6c7	0.075025134
2	0xbe02ef10	-0.12786508
3	0xbd77adb0	-0.060468376
4	0xbdbd25c5	-0.092357196
5	0xbdc8aefe	-0.09799002
6	0xbe369f11	-0.17834117
7	0xbd8c77d2	-0.068587914
8	0x3d514b76	0.051097356
9	0x3b624d73	0.0034531027
10	0xbdabbda4	-0.083857805
11	0x3db8a507	0.090158515
12	0xbdd6e6a5	-0.10493211
13	0x3ce76c2d	0.028249824
14	0xbdd24fcc	-0.10269126
15	0xbd7063c5	-0.058688898
16	0x3da06986	0.07832627
17	0x3d1715bb	0.03688596
18	0x3daaf548	0.08347565
19	0xbd869990	-0.065722585
20	0xb88fcde9	-6.857125e-05
21	0x3c638e94	0.013888974
22	0x3cafe120	0.021469653
23	0x3da8b9bf	0.08238553
24	0xbddd0f28	-0.107939065
25	0xbdaee8aa	-0.08540471
26	0xbd36b310	-0.04460436
27	0x3d1e5a1f	0.038660165
28	0xbd1e127e	-0.038591854
29	0xbdba87ea	-0.09107955
30	0xbd5a89be	-0.053354017
31	0x3d388f3c	0.045058474
32	0xbdba4709	-0.0909558
33	0xbcebb699	-0.028773593
34	0x3d26bc74	0.040707067
35	0x3d859b2d	0.06523738
36	0x3d9b6cea	0.07589133
37	0xbdb85070	-0.08999717
38	0xbcca4ade	-0.024693903
39	0x3d5ab435	0.053394515
40	0x3dd33601	0.10313035
41	0x3e01f241	0.12690069
42	0x3d353310	0.04423815
43	0xbcaa66a4	-0.020800896
44	0xbd942247	-0.072331004
45	0x3d51f9ee	0.051263742
46	0x3d9706bf	0.073743336
47	0xbd8d8a44	-0.06911138
48	0xbd505c47	-0.050869253
49	0xbcb68e5f	-0.022284685

P.mlps.0.layers.3.weight f4 [50, 50]
0	0x3e9612dd	0.29311267
1	0x3cb0bf59	0.021575617
2	0x3e60ec67	0.2196518
3	0xbda12d3d	-0.07869957
4	0x3ed301d8	0.41212344
5	0xbcdcc813	-0.026950872
6	0x3dd18cbd	0.10231922
7	0x3e6eac46	0.23307905
8	0x3d991f35	0.074766554
9	0x3e1953cc	0.14973372
10	0x3e68aed6	0.22722945
11	0xbda1780d	-0.07884226
12	0x3ce1e4f8	0.027575001
13	0xbebc739f	-0.36806962
14	0xbbaaaf57	-0.0052088904
15	0x3d275420	0.040851712
16	0xbf1b6195	-0.60695773
17	0x3e50c99a	0.20389405
18	0xbe0ece52	-0.13945892
19	0xbd05fe21	-0.03271306
20	0x3e1e92a3	0.15485625
21	0x3d8a27b6	0.067458555
22	0x3c538adb	0.012911524
23	0x3dd7ccdb	0.1053712
24	0x3ddea338	0.10870975
25	0xbe1ec723	-0.15505652
26	0x3c9d60a1	0.019211115
27	0xbe919ea7	-0.28441355
28	0x3eaba539	0.33524492
29	0x3ec6cadc	0.38826644
30	0x3ef15d54	0.47141516
31	0x3ead4d59	0.33848074
32	0xbe9d699c	-0.30744636
33	0x3d52f32c	0.051501438
34	0xbd39ea94	-0.045389727
35	0xbc881730	-0.01661262
36	0xbdcf8e71	-0.101345904
37	0xbdabedde	-0.08394979
38	0xbd670773	-0.05640359
39	0x3db364a6	0.087594315
40	0x3e5a6963	0.21329264
41	0x3d3b3246	0.04570224
42	0x3e70afc8	0.23504555
43	0x3d705678	0.058676213
44	0x3e008fe1	0.12554885
45	0xbd4c4dec	-0.049879
46	0x3e3c3d57	0.18382774
47	0xbd846a09	-0.06465537
48	0x3d6a97e9	0.05727378
49	0x3ea41ad1	0.3205171
50	0xbe3b05ef	-0.18263982
51	0x3de74ad3	0.112935685
52	0x3cb59b83	0.02216888
53	0x3ec02051	0.37524655
54	0x3dba249d	0.09089015
55	0xbe31a2a4	-0.17347199
56	0x3e0f8769	0.14016499
57	0xbe768695	-0.24074776
58	0x3e10965b	0.14119856
59	0x3d09691d	0.03354751
60	0xbd1ac769	-0.03778783
61	0x3d204f44	0.039138094
62	0xbd80372b	-0.062605225
63	0x3dd2d52e	0.10294567
64	0xbe00b34c	-0.12568396
65	0xbde8f577	-0.11374944
66	0xbe7a2c8a	-0.24431053
67	0x3bc7c6aa	0.0060966806
68	0x3dd3b457	0.103371315
69	0xbed8d2ce	-0.4234833
70	0xbdd1f8f7	-0.102525644
71	0xbd852acb	-0.06502303
72	0xbeb755a6	-0.35807532
73	0x3c58c275	0.013229956
74	0x3f2266d0	0.6343813
75	0xbe088893	-0.13333349
76	0xbe306841	-0.1722727
77	0xbd90987c	-0.07060334
78	0xbd833728	-0.064070046
79	0xbe23b5ff	-0.15987395
80	0x3df1bf4a	0.118040636
81	0x3df14204	0.117801696
82	0x3e17b6bb	0.148158
83	0x3e51f8e3	0.20505099
84	0xbe165348	-0.14680207
85	0x3dd6d473	0.1048974
86	0x3e80cc91	0.25156072
87	0xbe255231	-0.16144635
88	0x3dc3d5f1	0.095622905
89	0x3d3a3b14	0.045466498
90	0xbe3f6d3e	-0.18694016
91	0x3c829e7b	0.01594471
92	0xbe07e729	-0.13271774
93	0x3dfe3e13	0.124141835
94	0x3cfc305f	0.030784784
95	0x3dcad137	0.09903186
96	0xb9f8fce2	-0.00047490658
97	0x3ef23aba	0.4731043
98	0x3ea5c758	0.3237865
99	0xbe1c9430	-0.15290904
100	0xbd05b5f3	-0.032644223
101	0xbdf3f4ed	-0.1191195
102	0xbdcb442d	-0.09925113
103	0x3c4d8666	0.01254425
104	0x3d47d165	0.04878368
105	0x3e562154	0.20911151
106	0x3ed1f8fe	0.41010278
107	0x3eda6404	0.4265443
108	0xbe38c96b	-0.18045585
109	0xbc11c461	-0.008896918
110	0x3e0e345d	0.13887163
111	0xbe1176b3	-0.14205436
112	0xbd931344	-0.07181409
113	0xbe94bee7	-0.29051897
114	0x3e47e1b7	0.19519697
115	0x3ee734af	0.45157382
116	0xbe3999bc	-0.18125051
117	0x3e9e9cbd	0.30978957
118	0xbdb752cc	-0.08951339
119	0x3e1a9731	0.15096737
120	0xbe2d2cbe	-0.16911599
121	0xbe996ab2	-0.29964215
122	0xbd3f2a1e	-0.046671025
123	0xbdc70a98	-0.097188175
124	0x3b7f3177	0.0038939395
125	0xbd0714cb	-0.032978814
126	0x3e203183	0.15643887
127	0xbd1634a2	-0.03667129
128	0x3c80ac00	0.015707016
129	0x3e416b93	0.18888693
130	0x3e0e2a49	0.13883318
131	0x3d14c80d	0.036323596
132	0xbd08ea7a	-0.03342674
133	0x3dc41934	0.095751196
134	0x3c01f2a0	0.007931381
135	0x3c7d787c	0.01547062
136	0xbdadef58	-0.08492917
137	0xbe1e2af7	-0.15446077
138	0xbde1e1e1	-0.11029411
139	0xbcf84634	-0.030306913
140	0x3d03eb04	0.03220655
141	0x3dc179c3	0.09447052
142	0xbea1e940	-0.31623268
143	0x3e254ff0	0.16143775
144	0xbe2b1714	-0.16708022
145	0xbecc950d	-0.39957467
146	0x3e3ee034	0.18640214
147	0xbd6e96df	-0.05824935
148	0x3d737e94	0.059446886
149	0x3e26986c	0.16269082
150	0xbe10d8a9	-0.1414515
151	0xbd89157b	-0.0669355
152	0x3d023bf8	0.031795472
153	0xbe11d132	-0.14239958
154	0xbe362e91	-0.17791201
155	0xbc866bfe	-0.016408917
156	0xbe38fb85	-0.18064697
157	0xbde108a4	-0.10987976
158	0x3e01dab8	0.12681091
159	0xbe48a8d0	-0.19595647
160	0xbe26a9e0	-0.1627574
161	0x3ebfc94d	0.37458268
162	0xbcc5bd70	-0.024138182
163	0x3e4135fc	0.1886825
164	0xbd395547	-0.045247342
165	0xbec5814d	-0.3857521
166	0x3e45da16	0.19321474
167	0xbdce63c7	-0.10077625
168	0x3e702ca2	0.23454526
169	0xbe091e4d	-0.13390465
170	0xbb94cf0a	-0.0045412825
171	0x3e9cfb45	0.30660453
172	0x3d949384	0.07254699
173	0x3daa48dd	0.08314679
174	0x3e13fce9	0.14451946
175	0x3e073c8a	0.13206688
176	0x3e039973	0.12851505
177	0x3e8e47f1	0.27789262
178	0xbe82dd6a	-0.2555955
179	0xbe05495b	-0.13016264
180	0xbe2b758c	-0.1674406
181	0x3c0edc44	0.008719508
182	0x3d2f637d	0.04281949
183	0x3dd7b0e4	0.10531786
184	0xbe0048c9	-0.12527765
185	0x3e939777	0.28826496
186	0x3e3b5a4e	0.18296167
187	0xbe0e70a4	-0.13910156
188	0x3dc2015c	0.094729155
189	0xbd54de93	-0.051970076
190	0x3aac9575	0.00131671
191	0xbdf82529	-0.12116463
192	0x3d86b993	0.06578364
193	0xba2d29dc	-0.0006605664
194	0x3e1fdffb	0.15612786
195	0xbd91c367	-0.07117348
196	0x3eb7242a	0.35769778
197	0x3cb469d1	0.022023113
198	0xbe7955b5	-0.24349101
199	0x3daa5756	0.08317439
200	0xbe82b255	-0.25526682
201	0xbe10a5a3	-0.14125685
202	0xbe81f9c7	-0.25385877
203	0xbd02b663	-0.03191222
204	0x3e1a773e	0.1508455
205	0x3dd9228f	0.10602295
206	0x3e820d3a	0.25400716
207	0x3de830b2	0.11337413
208	0xbda4e3e8	-0.08051282
209	0x3e26e8a0	0.16299677
210	0x3ded8f34	0.115995795
211	0x3db17128	0.08664161
212	0xbe3411bb	-0.17584889
213	0xbe28f32a	-0.1649901
214	0x3dce31be	0.10068081
215	0xbe25f044	-0.16204935
216	0xbcd746de	-0.02627891
217	0xbdac9fec	-0.0842894
218	0xbcc9f2a8	-0.02465184
219	0x3e23c2e9	0.15992321
220	0x3dc1f5c6	0.09470706
221	0x3dcf58ca	0.10124357
222	0xbdb12b13	-0.08650794
223	0xbde2fce2	-0.1108339
224	0x3ea5fc71	0.3241916
225	0x3bed69d0	0.00724528
226	0xbe1fd90c	-0.1561014
227	0xbd94c453	-0.072640084
228	0x3e245ded	0.16051455
229	0x3e9fe507	0.31229421
230	0x3e86c6ee	0.26323646
231	0x3e0a0c1e	0.13481185
232	0x3d3407cb	0.043952744
233	0x3ead3c17	0.33834907
234	0x3e8ac807	0.27105734
235	0x3d7e7662	0.062124617
236	0xbdcf1f24	-0.101133615
237	0xbd7f56e0	-0.06233871
238	0xbe06445c	-0.13112015
239	0x3b9fac64	0.0048728455
240	0xbe575d1d	-0.21031614
241	0xbdfac7c1	-0.12245131
242	0x3e06247d	0.13099857
243	0x3d796d56	0.060895287
244	0xbdeed24f	-0.11661207
245	0xbafd5d5e	-0.0019330194
246	0x3dbb6026	0.09149198
247	0xbdeac4b4	-0.114632994
248	0x3e9449d4	0.28962576
249	0xbd0fdbdc	-0.035121784
250	0xbcf1ffea	-0.029540975
251	0xbd8ab614	-0.0677301
252	0x3dcde7cc	0.10053977
253	0x3e003626	0.12520656
254	0x3e684081	0.22680856
255	0xbd45fc8a	-0.048336543

P.mlps.0.layers.3.bias f4 [50]
0	0xbd255f6c	-0.040374205
1	0xbcec6aab	-0.028859457
2	0xbd8ef859	-0.06980962
3	0x3d023f65	0.03179874
4	0xbc3b05ff	-0.011415004
5	0xbd04f0f5	-0.032456357
6	0x3b737c80	0.0037153065
7	0x3c5217e0	0.012823075
8	0x3d83079d	0.063979365
9	0x3da3f86c	0.08006367
10	0xbbdbec4c	-0.0067115184
11	0xbcd4fe69	-0.026000218
12	0xbda2f448	-0.07956749
13	0xbd2d3be4	-0.042293444
14	0x3d4546b4	0.04816313
15	0xbe1ce530	-0.15321803
16	0x3cfa4ece	0.030555155
17	0xbc3658a9	-0.011129537
18	0xbd622187	-0.055207755
19	0x3d172d98	0.036908716
20	0x3b9108d2	0.0044261003
21	0xbbc3075c	-0.005951805
22	0xbd6a8084	-0.05725147
23	0x3d7e5e1f	0.06210148
24	0xbe00e130	-0.12585902
25	0x3cb036d3	0.021510517
26	0x3ceadfa6	0.028671097
27	0x3d912cd1	0.07088626
28	0xbc9f69bb	-0.019459596
29	0xbcfe8070	-0.031067103
30	0x3dc3689f	0.09541439
31	0x3ce6a51e	0.028154906
32	0xbca6a16e	-0.020340648
33	0xbd879366	-0.06619911
34	0x3cdcb034	0.026939489
35	0xba8bbd9f	-0.001066137
36	0x3bcfb5a8	0.006338794
37	0xbc6851d6	-0.014179667
38	0xbd6222d4	-0.055208996
39	0xbcd8fed7	-0.026488705
40	0xbd7bc68c	-0.061468646
41	0xbd2264a8	-0.039646775
42	0xbad9c7c9	-0.0016615327
43	0x3c5f3dbd	0.013625559
44	0x3d1ceca6	0.038311623
45	0x3d184cd4	0.037182644
46	0xbda5a81a	-0.080887035
47	0xbd9293ac	-0.071570724
48	0x3d267cb8	0.040646285
49	0x3b729c96	0.0037019602

P.mlps.0.layers.4.weight f4 [50, 50]
0	0x3e426c7b	0.18986695
1	0x3db1565f	0.08659052
2	0xbe1fd55c	-0.15608734
3	0xbe04c2b2	-0.12964895
4	0x3e302cdb	0.17204611
5	0x3de45192	0.11148371
6	0xbdd282a1	-0.10278822
7	0x3e0a3f42	0.13500693
8	0xbe2a1e79	-0.16613187
9	0xbcf13334	-0.02944336
10	0x3da07f51	0.07836784
11	0x3e1b15bd	0.15145011
12	0x3e022bab	0.1271197
13	0x3e30adfe	0.17253873
14	0x3e8e606d	0.27807942
15	0x3f0ac410	0.5420542
16	0x3d7b77dc	0.061393604
17	0xbe5640fc	-0.20923227
18	0x3e605468	0.21907198
19	0x3e89a71d	0.2688531
20	0xbdf966da	-0.121778205
21	0x3eeac340	0.4585209
22	0x3bae9128	0.0053273626
23	0x3ebede11	0.37278798
24	0x3e220b5f	0.1582465
25	0xbd82a671	-0.063794024
26	0xbdd265cb	-0.10273322
27	0xbea143dc	-0.31497085
28	0x3dadd23c	0.08487365
29	0x3e1c2362	0.15247872
30	0x3cc2f42f	0.023798076
31	0x3e6cebb6	0.23136792
32	0xbebeddc7	-0.37278578
33	0x3d64f4cf	0.05589753
34	0x3d54f301	0.05198956
35	0xbd54b810	-0.05193335
36	0xbcfe33c0	-0.031030536
37	0x3e8b9da6	0.27268714
38	0xbdb316d2	-0.08744587
39	0x3db6df18	0.089292705
40	0xb8fe2859	-0.00012119179
41	0xbe6c7bc7	-0.23094092
42	0x3e81308c	0.2523235
43	0xbd791daf	-0.060819324
44	0x3ded0752	0.11573662
45	0xbd454d97	-0.0481697
46	0x3dc3f78b	0.095686994
47	0x3e3820bc	0.17981237
48	0xbc9f37b4	-0.019435741
49	0x3d9d14bd	0.07669971
50	0xbe291ff2	-0.16516092
51	0x3e255b50	0.16148114
52	0x3e1e6037	0.1546639
53	0x3d3b8904	0.045784965
54	0x3d74db0e	0.05977922
55	0xbd3d7d1e	-0.0462619
56	0xbe11b12e	-0.14227745
57	0xbd564ebc	-0.05232118
58	0xbe405960	-0.18784094
59	0x3e55bdf0	0.20873237
60	0x3e114846	0.14187726
61	0x3d0ecfd5	0.034866173
62	0xbd26388a	-0.040581264
63	0xbd2ea1ba	-0.042634703
64	0x3da7c374	0.081915766
65	0x3d0bc63b	0.034124594
66	0xbe6df3b6	-0.232375
67	0xbe34f1b8	-0.17670333
68	0x3b58ff2b	0.0033111076
69	0xbb8b5cb1	-0.004252993
70	0xbd056bfa	-0.032573678
71	0x3e863ece	0.2621979
72	0xbea51ea1	-0.3224993
73	0x3e35ea42	0.17765144
74	0x3eb40c61	0.35165694
75	0x3dbb34a8	0.09140903
76	0x3e5cf48c	0.21577662
77	0x395b79a3	0.00020930781
78	0x3e1e850f	0.15480445
79	0xbddc408e	-0.107545
80	0x3e81f1f6	0.25379914
81	0x3dd58232	0.104252234
82	0xbe1848a2	-0.14871457
83	0x3e246dcc	0.16057509
84	0x3d336fe0	0.043807864
85	0x3d2ad8a4	0.04171051
86	0xbd585a77	-0.05282065
87	0xbe1f3d06	-0.15550622
88	0xbe93fd12	-0.28904015
89	0x3d9b1e60	0.07574153
90	0x3e0bd8c1	0.13656904
91	0xbeca133e	-0.39467806
92	0xbe06d937	-0.13168798
93	0xbe138a7b	-0.14408295
94	0xbeaa83df	-0.33303735
95	0xbd33c45b	-0.04388843
96	0x3ecae12b	0.39624915
97	0x3dc4e302	0.09613611
98	0xbed7b92e	-0.42133468
99	0x3e24ae44	0.16082102
100	0xbd3c7bc7	-0.04601648
101	0xbd989e9a	-0.07452126
102	0x3e1d6835	0.15371783
103	0xbdc3e9e5	-0.09566096
104	0x3c1bdce1	0.009513111
105	0xbd960c8a	-0.073266104
106	0xbe13f0ff	-0.14447401
107	0xbd5a28fe	-0.05326175
108	0xbe80bb33	-0.25142822
109	0xbc58672b	-0.013208191
110	0x3e62d2c4	0.22150713
111	0x3e387fb5	0.18017466
112	0xbe227fbf	-0.15869044
113	0x3d840ca9	0.06447727
114	0xbde378f5	-0.11107055
115	0x3eaabd94	0.33347762
116	0xbea43957	-0.32074997
117	0xbe51e470	-0.20497298
118	0x3e5dc3de	0.21656749
119	0x3cd7e024	0.026351996
120	0x3de72351	0.11286033
121	0x3ce56464	0.028001972
122	0x3d3378f7	0.043816533
123	0x3c68b127	0.014202393
124	0x3e49293c	0.19644636
125	0xbe712a55	-0.23551305
126	0xbee1a361	-0.4406996
127	0xbd97d095	-0.07412831
128	0xbe617579	-0.22017469
129	0x3db7df1e	0.08978103
130	0x3f057b03	0.52140826
131	0x3cf9b36c	0.030481063
132	0xbde14e26	-0.11001234
133	0x3e864b68	0.26229405
134	0x3e403357	0.18769585
135	0xbd7178db	-0.058953147
136	0x3d52bd76	0.051450215
137	0x3b056562	0.0020354618
138	0xbc0d6bbf	-0.008631646
139	0x3c8d13f9	0.017221438
140	0x3d5b027c	0.053469166
141	0xbe3aab52	-0.18229416
142	0xbe113fb7	-0.14184462
143	0xbe26fa88	-0.16306508
144	0x3e6d7add	0.231914
145	0x3cdce189	0.026963012
146	0x3d9f5db4	0.07781544
147	0xba0dcebc	-0.0005409529
148	0xbe21cc24	-0.1580053
149	0x3e5d77a8	0.21627676
150	0xbb8905a9	-0.004181583
151	0x3e5e7e29	0.21727814
152	0xbe5c835a	-0.21534482
153	0xbe1e2c18	-0.15446508
154	0xbdcb8568	-0.099375546
155	0x3d032e16	0.032026373
156	0x3d8ef7c8	0.06980854
157	0xbe8127ed	-0.25225773
158	0x3c0d496c	0.008623462
159	0x3e665c36	0.22496113
160	0xbe2cbfaf	-0.16869996
161	0xbd8fbebc	-0.070188016
162	0x3c950a7f	0.018193481
163	0xbde31eb0	-0.110898376
164	0x3d8f4ff4	0.06997672
165	0xbe53ff2b	-0.20702808
166	0x3e648a70	0.22318435
167	0x3f302870	0.688117
168	0xbe19d841	-0.150239
169	0xbdc858f4	-0.097825915
170	0xbd21d005	-0.039505024
171	0xbc9c94a2	-0.019113842
172	0xbe60ab85	-0.2194043
173	0xbe91361c	-0.28361595
174	0xbe0cfc1e	-0.1376805
175	0x3df27c21	0.11840082
176	0xbd4f8d6a	-0.050671972
177	0x3dd43443	0.10361531
178	0xbd3091a4	-0.043107644
179	0xbdd374ac	-0.10324988
180	0xbf33445f	-0.700262
181	0xbe0078db	-0.12546103
182	0xbecca15e	-0.39966863
183	0xbe0eb2b9	-0.13935365
184	0xbe302a79	-0.17203702
185	0x3c285ae7	0.010275579
186	0xbdb96987	-0.09053331
187	0xbe5c0b77	-0.21488748
188	0xbe0b1b0a	-0.13584533
189	0xbe2dcd24	-0.16972786
190	0xbe743e8a	-0.23851982
191	0xbcf969b9	-0.03044592
192	0x3da0d3bd	0.07852886
193	0x3d07e779	0.033179734
194	0xbe1bd9c1	-0.15219785
195	0x3ccbe2ea	0.024888474
196	0xbdffc58d	-0.12488852
197	0x3dbf804a	0.09350641
198	0x3d1bba14	0.038019255
199	0xbe9a2d58	-0.3011272
200	0x3e2efbdc	0.17088264
201	0xbda4ee31	-0.08053244
202	0x3e4c8760	0.19973516
203	0x3dda0238	0.106449544
204	0x3ceaf9d4	0.02868358
205	0xbd61b1fd	-0.055101383
206	0xbddc344d	-0.10752163
207	0xbc671c6d	-0.014105898
208	0x3c345995	0.011007686
209	0x3e9e656b	0.3093675
210	0x3dbbac75	0.09163753
211	0xbe1672c5	-0.14692219
212	0xbdcad39f	-0.09903645
213	0xbcd7f4f3	-0.026361918
214	0x3de95937	0.113939695
215	0xbe46dd78	-0.19420421
216	0x3ec02a28	0.37532163
217	0x3db04deb	0.08608612
218	0x3cd93efc	0.026519291
219	0xbdb792d5	-0.08963553
220	0xbe49f5c2	-0.19722655
221	0xbeaee9ea	-0.34162837
222	0xbdb839cf	-0.08995401
223	0xbe03eba6	-0.12882861
224	0xbd5ba812	-0.05362708
225	0xbd1aa98d	-0.037759352
226	0xbe84b702	-0.25920874
227	0x3e43033d	0.19044204
228	0xbd9481b8	-0.072513044
229	0xbf1174ab	-0.56818646
230	0xbebe3e95	-0.3715712
231	0xbe6bf0a8	-0.23041022
232	0x3e22d5ca	0.15901867
233	0xbd9ecb78	-0.07753652
234	0xbcc085b7	-0.02350126
235	0x3eab2bd2	0.3343187
236	0x3dcc0e28	0.099636376
237	0xbc96dfd2	-0.018417273
238	0x3db1f409	0.08689124
239	0xbcf697e8	-0.030101731
240	0xbd2b7337	-0.041857924
241	0x3dfd5b81	0.123709686
242	0x3c745632	0.014913129
243	0x3ba1d164	0.0049382914
244	0x3e26a968	0.16275561
245	0x3e512265	0.20423277
246	0x3df09463	0.117470525
247	0xbde51185	-0.11184982
248	0x3e84358e	0.2582211
249	0xbdafac14	-0.08577743
250	0x3cd3be94	0.02584771
251	0x3e215c61	0.15757896
252	0x3dc47406	0.09592442
253	0x3e055e8e	0.13024351
254	0x3e56eeef	0.20989583
255	0x3dc0550a	0.0939122

P.mlps.0.layers.4.bias f4 [50]
0	0xbd920b6e	-0.07131086
1	0x3c8c4a94	0.017125405
2	0x3c68bf88	0.014205821
3	0xbc23b3f9	-0.009991639
4	0x3d9beb8b	0.07613286
5	0x3d16a138	0.036774844
6	0xbc2b566f	-0.010457619
7	0xbc098cdb	-0.008395399
8	0x3d304cd0	0.043042004
9	0xbca52f00	-0.020164013
10	0x3c1bc58d	0.009507549
11	0x3c0fa289	0.008766779
12	0x3ccb4c81	0.024816753
13	0xbd331801	-0.043724064
14	0x3de52d20	0.111902475
15	0xbd2897f6	-0.041160546
16	0x3d5d6e0f	0.05406004
17	0x3cf4f025	0.029899666
18	0xbd27b0f9	-0.04094026
19	0xbbe0a1c4	-0.0068552215
20	0x3ca70801	0.020389559
21	0xbca21e8c	-0.019789957
22	0xbcfff7e3	-0.031246131
23	0xbd92c77f	-0.07166957
24	0xbb74e645	-0.0037368697
25	0x3c858274	0.016297556
26	0x3bd96356	0.006634156
27	0xbd7f562d	-0.062338043
28	0xbc4bc9da	-0.012438262
29	0x3c6528d4	0.013986785
30	0xbc454fdd	-0.012042967
31	0x3d1a7192	0.037705965
32	0xbd5197fa	-0.051170327
33	0xbd25408e	-0.040344767
34	0xbd8408ec	-0.06447014
35	0xbd3b5f9a	-0.04574547
36	0xbd837665	-0.06419066
37	0xbc65e657	-0.014031968
38	0xbc56e05e	-0.013115017
39	0xbd493e99	-0.049131963
40	0xbd43b47e	-0.047779553
41	0xbd18d0c0	-0.037308455
42	0xbd0f3f9d	-0.034972776
43	0xbc84d499	-0.016214656
44	0xbc591303	-0.013249162
45	0xbb1d88ef	-0.0024037918
46	0x3ca27453	0.019830858
47	0x3c071098	0.008243702
48	0x3d5e3010	0.054245055
49	0xbd9810c7	-0.07425075

P.mlps.0.layers.5.weight f4 [1, 50]
0	0x3ee0f197	0.43934318
1	0x3ee5ddd0	0.44895792
2	0x3e6837ae	0.2267749
3	0xbf019158	-0.506124
4	0xbf0bf2e8	-0.5466752
5	0x3e887f85	0.2665979
6	0x3eace9a5	0.33772007
7	0x3e9bb3ad	0.3041052
8	0xbe5e8d78	-0.21733654
9	0x3f4b7d9c	0.7948854
10	0x3eb7d088	0.35901284
11	0xbf426aca	-0.759442
12	0xbe7c0d57	-0.24614464
13	0x3e82d8c0	0.25555992
14	0xbebae7a6	-0.3650486
15	0x3e246c8a	0.1605703
16	0xbe385bf3	-0.18003826
17	0xbe13e1a4	-0.14441544
18	0xbeb4a61c	-0.3528298
19	0x3db6aeef	0.08920085
20	0x3f081acf	0.53165907
21	0x3f092ed4	0.5358708
22	0x3e7ccb65	0.24686964
23	0x3f011b21	0.5043202
24	0x3e431b9a	0.19053498
25	0xbef53d83	-0.47898492
26	0x3e53a4b8	0.20668304
27	0xbe9ff0c2	-0.3123837
28	0x3e4c2ab1	0.1993816
29	0xbf3e96b9	-0.74448735
30	0x3f11e9aa	0.5699717
31	0xbeb337d2	-0.35003525
32	0x3f37da0c	0.7181709
33	0xbf448380	-0.76763153
34	0xbeca5d26	-0.39524192
35	0x3f251aeb	0.644942
36	0x3f1bb662	0.6082517
37	0x3e8b9f6d	0.2727007
38	0x3ec0a56f	0.37626216
39	0x3e9364f3	0.28787956
40	0x3e1a0239	0.1503991
41	0x3f11929e	0.56864345
42	0xbf172711	-0.59043986
43	0x3f421a87	0.7582173
44	0x3f147121	0.5798512
45	0x3ea53962	0.32270342
46	0xbf3a45b7	-0.72762626
47	0xbefa3c47	-0.48874113
48	0xbf60359b	-0.87581795
49	0x3f32cce1	0.6984387

P.mlps.1.layers.0.weight f4 [50, 1]
0	0x3dd350af	0.103181235
1	0x3e2fb47f	0.17158698
2	0x3d0ce80d	0.03440099
3	0xbe05d3fe	-0.1306915
4	0x3f0daf3a	0.553455
5	0x3e14a03c	0.1451425
6	0x3e26dbff	0.1629486
7	0x3dd04d24	0.101709634
8	0xbef9b557	-0.48771164
9	0x3f1538f6	0.5829004
10	0xbdaf98cd	-0.08574066
11	0xbebfaed7	-0.3743808
12	0x3e53410e	0.20630285
13	0x3dfea373	0.12433519
14	0xbdbff34b	-0.09372576
15	0x3e1c53a3	0.1526628
16	0x3df12bb9	0.117759176
17	0xbf4a8bbf	-0.79119486
18	0xbc9b81b5	-0.018982748
19	0x3d954d4c	0.07290134
20	0x3ea09aaf	0.31368014
21	0xbca279e9	-0.019833522
22	0xbcb0d399	-0.021585273
23	0x3dc4e4dc	0.09613964
24	0x3d538802	0.05164338
25	0x3d88fda0	0.06689
26	0xbea11a22	-0.3146525
27	0xbd463d5f	-0.04839837
28	0xbe249d4e	-0.16075632
29	0xbd901109	-0.07034499
30	0xbe0fb7ec	-0.14035004
31	0xbea1ee8c	-0.3162731
32	0xbd58cc7a	-0.05292938
33	0xbdea9b5a	-0.11455412
34	0x3dcba6f5	0.09943954
35	0xbf1aa925	-0.60414344
36	0xbe00e449	-0.12587084
37	0x3d5235f7	0.051320996
38	0xbde23a71	-0.11046303
39	0xbd8c1773	-0.0684041
40	0xbde86645	-0.11347631
41	0xbe1e768c	-0.1547491
42	0xbd92e285	-0.071721114
43	0xbe0d2514	-0.13783675
44	0x3ec68f35	0.38781133
45	0x3e7b215f	0.24524449
46	0xbe1c7b1a	-0.15281335
47	0xbeafd02a	-0.34338504
48	0xbe47b84a	-0.19503894
49	0x3e033ffc	0.12817377

P.mlps.1.layers.0.bias f4 [50]
0	0x3dcbeb85	0.09957031
1	0xbdf08de7	-0.11745816
2	0xbd2d5a0f	-0.042322215
3	0xbe3d7a8f	-0.18503784
4	0xbf0b3f3b	-0.5439336
5	0x3e69753e	0.2279863
6	0x3dd882e7	0.10571843
7	0x3dde023a	0.108402684
8	0x3eaf9cab	0.34299216
9	0xbea35c1f	-0.3190622
10	0xbe11716b	-0.14203422
11	0x3e494c3a	0.19657984
12	0x3e23ad69	0.1598412
13	0x3df5e0b9	0.12005753
14	0xbe0bb489	-0.13643087
15	0x3e3359b5	0.1751469
16	0x3e17bc69	0.14817967
17	0x3f2eee58	0.68332434
18	0xbd6dba1a	-0.05803881
19	0x3d93d832	0.0721897
20	0xbe73cf5f	-0.23809575
21	0xbc6afbf9	-0.0143423015
22	0x3d9f26ff	0.0777111
23	0x3e067634	0.13131028
24	0x3b130b57	0.002243718
25	0x3bf0a6dd	0.0073441104
26	0x3e7f7299	0.2494606
27	0xbc38103e	-0.011234341
28	0x3c9ae44e	0.018907692
29	0x3c9ed8c6	0.019390475
30	0xbe2e7362	-0.17036203
31	0x3e971d26	0.29514426
32	0x3afa6ea6	0.0019106462
33	0xbd7bdd5e	-0.06149041
34	0x3e13085c	0.14358658
35	0x3f1adeac	0.6049602
36	0xbe01167e	-0.12606236
37	0x3de286e9	0.11060888
38	0xbe056e48	-0.1303035
39	0xbdb48245	-0.088139094
40	0xbde11570	-0.10990417
41	0xbddd16b3	-0.10795345
42	0x3d8f7a26	0.0700572
43	0xbe2d6c86	-0.1693593
44	0xbea2be76	-0.31785935
45	0xbe1e611d	-0.15466733
46	0xbe00720f	-0.1254351
47	0x3e7ed406	0.24885568
48	0xbde765a1	-0.11298681
49	0x3e15978c	0.14608592

P.mlps.1.layers.1.weight f4 [50, 50]
0	0xbc6dec8c	-0.014521729
1	0x3dc1fcce	0.09472047
2	0x3e4452b2	0.19172171
3	0xbdaf844e	-0.08570157
4	0x3d7afc07	0.06127551
5	0x3e44170c	0.19149417
6	0xbd159a02	-0.036523826
7	0xbe853973	-0.26020393
8	0xbde1bd6e	-0.11022459
9	0x3d5c5f72	0.05380196
10	0x3d0dd329	0.034625206
11	0x3dcf9081	0.10134984
12	0xbe0b3e74	-0.13598043
13	0x3df8c110	0.12146199
14	0xbe23bf1c	-0.15990871
15	0xbe537edd	-0.20653863
16	0x3c836e73	0.016043877
17	0x3cc0dadb	0.023541858
18	0xbd1adfab	-0.037810963
19	0x3c2c56ed	0.010518772
20	0x3d7ed49f	0.06221449
21	0xbd113fce	-0.03546124
22	0x3de4cf16	0.11172311
23	0xbdfe84d7	-0.12427681
24	0x3ea43961	0.32075027
25	0xbc672fa9	-0.014110484
26	0x3d110178	0.03540179
27	0x3c6c1303	0.01440883
28	0xbcae50e8	-0.021278813
29	0x3d055093	0.032547545
30	0x3e676f58	0.22601068
31	0x3d1ba0f3	0.03799529
32	0x3c8e920a	0.017403621
33	0x3e37a565	0.17934187
34	0x3e12f3ab	0.14350764
35	0x3bdb0c2e	0.0066848015
36	0xbdac32fb	-0.08408161
37	0x3df2ee8e	0.11861907
38	0xbda6fae8	-0.08153325
39	0xbe39a301	-0.18128587
40	0x3e5a6d17	0.21330677
41	0xbda4d18a	-0.08047779
42	0xbe266884	-0.16250807
43	0x3de617d5	0.11235014
44	0xbd5337bf	-0.051566835
45	0x3dfcc6e5	0.123426236
46	0xbdd1936c	-0.102331966
47	0xbcab023d	-0.02087509
48	0xbe36b21e	-0.17841384
49	0xbe1a78c1	-0.15085126
50	0x3da654ca	0.08121641
51	0xbe314af3	-0.17313747
52	0xbe263b50	-0.16233563
53	0xbe98408d	-0.29736748
54	0x3c904e4d	0.017615462
55	0x3e04a009	0.12951674
56	0xbddb7853	-0.107163094
57	0x3b8fff86	0.0043944744
58	0x3e0654af	0.13118242
59	0x3d996b97	0.07491224
60	0x3d324cd2	0.043530293
61	0x3e3aece9	0.18254437
62	0xbe530f8b	-0.20611398
63	0x3de88f45	0.113554515
64	0xbe22a66b	-0.15883796
65	0x3e1b160d	0.1514513
66	0xbe2d80a7	-0.16943608
67	0x3ddd1d9c	0.10796663
68	0xbe0fca18	-0.14041936
69	0x3c2d78de	0.010587899
70	0xbd956853	-0.07295289
71	0x3e1923aa	0.14955011
72	0x3c10d696	0.008840224
73	0x3c80d515	0.015726605
74	0xbe44a107	-0.19202052
75	0xbdea1c12	-0.11431135
76	0x3e305605	0.17220314
77	0x3e243dd1	0.16039206
78	0xbe4ef777	-0.20211588
79	0x3ec6b6a9	0.38811234
80	0xbe188513	-0.14894514
81	0x3e0c85c8	0.13722908
82	0x3de92064	0.11383131
83	0x3d73e420	0.05954373
84	0xbe13b845	-0.14425762
85	0x3e940498	0.28909755
86	0x3c681bc7	0.014166779
87	0xbc2eeba2	-0.010676296
88	0xbe47f989	-0.19528784
89	0x3ceec5fb	0.029147139
90	0xbe4ac1b7	-0.19800459
91	0x3db7a12b	0.08966287
92	0x3e816b80	0.25277328
93	0xbe41e9eb	-0.18936889
94	0xbc6642fa	-0.014054054
95	0xbe8c3560	-0.27384472
96	0xbe801249	-0.2501395
97	0xbe38c49e	-0.18043754
98	0xbe864afa	-0.26229078
99	0xbd852cdd	-0.065026976
100	0xbd2a8dd6	-0.04163917
101	0xbc52b6df	-0.012860983
102	0xbd7d39c1	-0.061822657
103	0x3e5b6491	0.21425082
104	0x3cfd294a	0.030903477
105	0xbe9864c9	-0.29764393
106	0x3e163b7d	0.1467113
107	0xbe2ed0a9	-0.17071785
108	0xbe372f24	-0.17889076
109	0x3dfa0f0f	0.122099034
110	0x3e0033fd	0.12519832
111	0xbe49d0e1	-0.19708587
112	0xbdf10d0a	-0.11770065
113	0xbe8fc9b3	-0.28083572
114	0x3e4a9d7f	0.19786642
115	0xbec9aa1b	-0.39387593
116	0x3a560795	0.0008164582
117	0xbe635835	-0.22201617
118	0x3e2aae66	0.1666809
119	0xbcd47701	-0.025935652
120	0x3d1c1a32	0.03811092
121	0x3da83c96	0.08214681
122	0x3db28dba	0.087184384
123	0xbea0327c	-0.31288517
124	0xbdc541a2	-0.09631659
125	0xbd9e99c0	-0.07744169
126	0xbe69e21d	-0.22840162
127	0x3e70784c	0.2348339
128	0x3e0bda7b	0.13657562
129	0xbda4e930	-0.080522895
130	0xbc504aa5	-0.012713109
131	0xbd5df24d	-0.054186154
132	0x3e39d802	0.18148807
133	0x3c6d93c8	0.014500566
134	0xbde92422	-0.11383845
135	0xbee9979b	-0.45623478
136	0x3e900d40	0.2813511
137	0xbeabdb2c	-0.33565652
138	0x3e1917c0	0.14950466
139	0x3ddebfba	0.10876413
140	0x3e584692	0.2112067
141	0x3e243ee0	0.1603961
142	0x3d7a16ce	0.061056904
143	0x3e390572	0.18068483
144	0xbd5d603d	-0.054046858
145	0xbd8dc4f2	-0.0692233
146	0x3e00a6d9	0.12563647
147	0x3de395a9	0.1111253
148	0x3e2f814e	0.1713917
149	0xb9e99893	-0.000445549
150	0x3e15dd39	0.14635171
151	0xbd5d6f4a	-0.05406121
152	0xbd024523	-0.031804215
153	0x3e5a94fe	0.21345899
154	0x3e7572e4	0.23969609
155	0xbeaf48a6	-0.34235114
156	0xbe1264c1	-0.14296247
157	0xbe7034ca	-0.23457637
158	0xbde3c106	-0.11120801
159	0x3e945f68	0.2897904
160	0x3d5c5a8b	0.053797286
161	0xbe5331a9	-0.20624413
162	0xbdd79e5b	-0.10528251
163	0xbbe94264	-0.00711851
164	0x3e6e6be4	0.23283345
165	0xbd7035c7	-0.058645036
166	0x3c67e27a	0.014153117
167	0xbd79789a	-0.06090603
168	0xbd5f9537	-0.05458566
169	0x3e30f181	0.17279626
170	0x3da73f89	0.08166415
171	0xbe10b2c3	-0.14130692
172	0xbdfb5983	-0.122729324
173	0xbeb51748	-0.35369325
174	0xbe8c95e3	-0.27458104
175	0x3d734647	0.059393194
176	0xbc84f18b	-0.016228458
177	0x3d846e63	0.06466367
178	0xbdb2d3f8	-0.08731836
179	0xbe32d156	-0.17462668
180	0x3ddd4298	0.108037174
181	0xbcf24e8b	-0.029578468
182	0x3d9f1019	0.07766742
183	0x3ddb9f12	0.107237
184	0xbe59af75	-0.21258338
185	0x3d678683	0.056524765
186	0x3e702ba6	0.2345415
187	0xbee0e10c	-0.43921697
188	0x3d15dcba	0.036587454
189	0x3da355ad	0.07975326
190	0x3d871739	0.06596226
191	0x3ea239df	0.31684777
192	0x3e6db96e	0.23215267
193	0xbc3ec3ce	-0.011643363
194	0xbde5104f	-0.11184751
195	0x3e356f89	0.17718329
196	0xbb41bab9	-0.0029560758
197	0x3d144f14	0.036208227
198	0xbcfbb553	-0.03072611
199	0x3e3b1198	0.1826843
200	0x3e488fbc	0.1958608
201	0x3e19bfc0	0.15014553
202	0x3c1ccbec	0.009570103
203	0xbe74b1f3	-0.23896007
204	0xbe2a5868	-0.16635287
205	0xbb8b8df5	-0.004258866
206	0x3d780ff7	0.0605621
207	0x3e1b371d	0.15157743
208	0x3d36957b	0.04457615
209	0xbe803852	-0.2504297
210	0xbd36a7fb	-0.044593792
211	0xbdbc31ab	-0.09189161
212	0x390d6232	0.00013483388
213	0x3dcc06bf	0.09962224
214	0xbe761ce0	-0.24034452
215	0xbbe96a7d	-0.00712329
216	0x3d46293b	0.048379164
217	0x3e85ed1a	0.26157457
218	0xbd9fd7ab	-0.07804807
219	0xbd7645bd	-0.0601251
220	0xbcb8d40e	-0.022562053
221	0x3d993123	0.07480075
222	0x3d2ac273	0.041689347
223	0x3dbe7380	0.092993736
224	0x3eb9718b	0.3621944
225	0x3df180d5	0.11792151
226	0x3e31a598	0.17348325
227	0xbdebfee7	-0.11523228
228	0x3ce8d818	0.028423354
229	0xbe2fa5f3	-0.17153148
230	0xbba3c0a2	-0.004997329
231	0x3e074e90	0.13213563
232	0xbe85cbde	-0.261321
233	0xbe916040	-0.28393745
234	0x3dc97690	0.09837067
235	0x3d4f121c	0.05055438
236	0xbdf5b66c	-0.11997685
237	0x3db93b7b	0.09044548
238	0x3c0f864d	0.008760047
239	0x3dd4a065	0.10382155
240	0x3d4683a7	0.048465397
241	0x3d8d75e5	0.06907252
242	0xba9c6094	-0.0011930638
243	0xbeb652ce	-0.3561005
244	0x3d9e3bb1	0.07726229
245	0xbd67443b	-0.056461554
246	0x3b40ebda	0.0029437453
247	0xbe1eb7cc	-0.154998
248	0x3d4b5858	0.049644798
249	0x3e39a592	0.18129566
250	0x3d8c1129	0.068392105
251	0x3dd5b299	0.104344554
252	0x3c51f769	0.012815335
253	0xbde19018	-0.11013812
254	0x3ec0dca1	0.37668326
255	0xbdabb8ec	-0.083848804

P.mlps.1.layers.1.bias f4 [50]
0	0xbd90319a	-0.07040711
1	0x3e46670c	0.19375247
2	0xbda6b4cc	-0.08139953
3	0xbc481a6b	-0.01221333
4	0x3c8fd8d8	0.017559454
5	0x3d098b7e	0.033580296
6	0xbd043bbd	-0.032283533
7	0x3ecf1d05	0.40451828
8	0x3dc0d6fd	0.09416006
9	0x3dd9081c	0.1059725
10	0xbd1123c4	-0.0354345
11	0x3d510b6c	0.051036283
12	0x3d86b17e	0.06576823
13	0xbd78392e	-0.060601406
14	0xbd98ef9a	-0.07467575
15	0xbd07df83	-0.03317214
16	0xbd895a8c	-0.067067236
17	0xbd9480c5	-0.07251123
18	0x3d3d5d17	0.046231356
19	0x3d328999	0.043588255
20	0xbd966930	-0.07344282
21	0xbd5e9ddc	-0.054349765
22	0x3c2c6159	0.010521256
23	0xbd07251f	-0.032994386
24	0xbda959b6	-0.08269064
25	0x3d729ee5	0.059233565
26	0x3d87fd72	0.06640138
27	0xbd394fff	-0.045242306
28	0xbc9f025f	-0.01941031
29	0xbba28380	-0.0049595237
30	0x3d488901	0.048958782
31	0x3da62759	0.08112974
32	0xbd1b7147	-0.037949827
33	0x3e0d0590	0.13771653
34	0x3d952c85	0.07283882
35	0x3d6a1ff3	0.057159375
36	0xbd5dc8ee	-0.0541467
37	0x3ddce979	0.10786719
38	0x3d3143dc	0.043277606
39	0xbc9338eb	-0.017971477
40	0x3bc3e714	0.0059784744
41	0x3d563810	0.05229956
42	0xbd7a45b8	-0.061101645
43	0xbd822e4c	-0.06356487
44	0xbd66f5bc	-0.056386694
45	0x3ca5ca91	0.020238193
46	0x3ce0f87a	0.027462233
47	0xba834f19	-0.001001808
48	0xbd22b1d1	-0.03972036
49	0xbda5207b	-0.08062836
