output/Darcy_UQPINN/weight.pth (torch, 160737 bytes, 40 tensors)

P.mlps.0.layers.0.weight f4 [50, 3]
0	0x3b3be277	0.002866892
1	0xbde1893a	-0.11012502
2	0x3e1fb781	0.15597345
3	0x3e2fc2d0	0.17164159
4	0x3e7e9fab	0.24865596
5	0x3d04c5b5	0.03241511
6	0x3db0eb53	0.086386345
7	0xbb82db43	-0.003993423
8	0x3e26d89d	0.16293569
9	0x3c4c37c1	0.012464465
10	0xbe806b6d	-0.2508196
11	0x3ca5e96f	0.020252911
12	0xbecccc91	-0.39999822
13	0x3cb4731a	0.022027541
14	0x3d90c221	0.07068277
15	0x3e50a482	0.20375255
16	0xbd41f593	-0.04735334
17	0x3b492646	0.0030692979
18	0xbd9781a9	-0.073977776
19	0x3ddf6b17	0.10909098
20	0x3de8d0f1	0.113679774
21	0xbdd7df4f	-0.105406396
22	0x3d9d502e	0.07681309
23	0x3cb65355	0.022256533
24	0x3ca70633	0.020388698
25	0xbd959210	-0.0730325
26	0x3c9d0243	0.019166118
27	0x3dd9a179	0.106265016
28	0x3cc418e7	0.023937656
29	0xbdad6ca5	-0.08467988
30	0x39f13935	0.00046009725
31	0x3b7a5475	0.0038197313
32	0x3d81b8f8	0.06334108
33	0xbe60cec3	-0.21953873
34	0xbeaffd10	-0.3437276
35	0x3d5eccab	0.054394405
36	0x3e3f762a	0.1869742
37	0x3e8dbdf6	0.2768399
38	0xbd148518	-0.03625974
39	0xbd18fe54	-0.03735192
40	0x3cbad81f	0.022808133
41	0xbd0799c2	-0.03310562
42	0x3d954913	0.072893284
43	0xbd1a2cd8	-0.037640423
44	0xbd421ba2	-0.047389634
45	0xbe82c14b	-0.25538096
46	0x3e6d9d42	0.2320452
47	0x3dd20827	0.10255461
48	0xbe89a481	-0.2688332
49	0x3ee2bbf3	0.4428402
50	0xbe517070	-0.20453048
51	0xbc9ea632	-0.019366357
52	0xbd33f85b	-0.043938022
53	0xbdc8d734	-0.09806672
54	0x3e9364b9	0.28787783
55	0xbd953e79	-0.07287306
56	0xbde54298	-0.111943424
57	0x3e864674	0.26225626
58	0xbdd91d05	-0.10601238
59	0x3cbc9e23	0.023024624
60	0xbdd6966b	-0.10477909
61	0xbe2a5786	-0.1663495
62	0xbe0f3e6d	-0.13988657
63	0x3dc6c4fd	0.09705541
64	0xbcea82f7	-0.028626902
65	0xbdba898f	-0.091082685
66	0x3e1e968b	0.15487115
67	0xbe02dd5f	-0.12779759
68	0x3da4d6d4	0.08048788
69	0xbdeded46	-0.11617522
70	0xbe062812	-0.13101223
71	0xbc9e98d4	-0.019359984
72	0xbc9b8fdd	-0.018989498
73	0x3d921df6	0.07134621
74	0x3d761906	0.060082458
75	0xbda0b918	-0.07847804
76	0x3e955af2	0.29170948
77	0x3d41494f	0.047189053
78	0xbe8b149d	-0.27164164
79	0x3dd1ba60	0.10240626
80	0xbd2478d7	-0.040154304
81	0xbe146107	-0.14490138
82	0x3daa022c	0.083011955
83	0xbc36be05	-0.011153703
84	0xbe6d30fb	-0.23163216
85	0x3e6c1372	0.23054293
86	0x3d54faa9	0.05199686
87	0xbe235c4a	-0.15953174
88	0x3dc157a7	0.094405465
89	0x3d32b56b	0.043630045
90	0xbcd69e47	-0.02619852
91	0xbdfc325e	-0.12314294
92	0x3e3c2e18	0.18376958
93	0xbe876bb7	-0.26449367
94	0xbe7d4286	-0.24732408
95	0xbd3db622	-0.046316274
96	0x3d08b60b	0.033376735
97	0x3d075a95	0.03304537
98	0x3e59639b	0.21229403
99	0xbec1115e	-0.37708563
100	0xbdd332c1	-0.10312415
101	0x3e5bb945	0.21457393
102	0x3dff2efc	0.124601334
103	0xbe43331e	-0.19062468
104	0xbe279760	-0.16366339
105	0x3bbb5a32	0.005717539
106	0xbbf34619	-0.007424128
107	0xbc0338f7	-0.008009187
108	0x3eb069bc	0.3445567
109	0xbe435a7b	-0.19077484
110	0x3c9362f3	0.017991519
111	0x3e82570a	0.2545703
112	0xbe26665a	-0.16249982
113	0xbe5c1fcd	-0.21496506
114	0xbdc86d49	-0.097864695
115	0x3e02e99b	0.12784426
116	0xbd58a1fe	-0.052888863
117	0xbe836591	-0.25663427
118	0x3de9a011	0.11407483
119	0xbc1bae5b	-0.009502019
120	0xbe8239a3	-0.25434598
121	0xbba6d6ce	-0.0050915247
122	0x3d1c9b61	0.03823412
123	0x3d625811	0.055259768
124	0x3ba71e02	0.0051000128
125	0x3d3acbee	0.04560464
126	0x3d795056	0.06086763
127	0x3e7be6b8	0.24599731
128	0x3d812b19	0.06307048
129	0x3e10ebd9	0.14152469
130	0xbe190f29	-0.1494719
131	0x3c90e950	0.017689377
132	0x3daa91e0	0.08328605
133	0x3e1301cb	0.14356153
134	0x3e48967a	0.19588652
135	0xbc47acbb	-0.012187178
136	0xbe367dc8	-0.17821419
137	0xbdca1289	-0.098668166
138	0xbdc1fee9	-0.094724484
139	0xbe6796e5	-0.22616155
140	0x3e363b39	0.17796029
141	0xbe5df017	-0.21673618
142	0x3d9de8bd	0.07710407
143	0xbdcba872	-0.09944238
144	0xbbb07d30	-0.0053860173
145	0xbe6d401d	-0.23168989
146	0x3da17fcf	0.07885706
147	0x3f02bb62	0.51067173
148	0x3b486013	0.0030574843
149	0x3dd59b79	0.10430045

P.mlps.0.layers.0.bias f4 [50]
0	0x3e076821	0.13223316
1	0xbe3bcef8	-0.18340671
2	0x3e19061b	0.14943735
3	0x3e47f5b7	0.19527327
4	0x3e7e5c6f	0.24839948
5	0xbdb681cd	-0.08911476
6	0x3da98c35	0.082786955
7	0x3d9214c7	0.07132869
8	0xbe205eb9	-0.15661134
9	0xbded49bd	-0.1158633
10	0x3d2e071b	0.042487245
11	0x3e5b519f	0.21417855
12	0xbe7e19a6	-0.24814472
13	0x3e3f375b	0.1867346
14	0xbdbb77d4	-0.09153715
15	0xbde1ff3b	-0.110350095
16	0xbccd5ecf	-0.025069622
17	0x3e01988d	0.1265585
18	0xbe332c1c	-0.17497295
19	0xbe5dfe32	-0.21678999
20	0x3e449745	0.1919833
21	0xbe2991a0	-0.16559458
22	0x3e4ba58a	0.19887367
23	0x3e4a9967	0.19785081
24	0xbd6c6654	-0.057714775
25	0xbe1fca3b	-0.15604489
26	0x3e078d34	0.13237458
27	0x3e1352ee	0.14387104
28	0x3d99132c	0.0747436
29	0x3e444764	0.19167858
30	0x3e40c945	0.18826778
31	0xbd6e7fcf	-0.058227357
32	0xbdb639c9	-0.088977404
33	0x3e3ad8bd	0.18246742
34	0xbde07a5a	-0.10960837
35	0x3d7d03b5	0.061771113
36	0xbe06e261	-0.13172294
37	0xbdef1153	-0.11673226
38	0x3df9ba21	0.121937044
39	0x3e015b78	0.12632549
40	0x3e4c639e	0.19959876
41	0xbe260ccf	-0.16215824
42	0xbe30788e	-0.17233488
43	0xbdea2a91	-0.114339
44	0x3d98f966	0.07469444
45	0x3e2d9dc8	0.1695472
46	0xbe105c76	-0.14097771
47	0x3e49bca1	0.19700862
48	0xbe0111d3	-0.12604456
49	0x3e7b8f76	0.24566445

P.mlps.0.layers.1.weight f4 [50, 50]
0	0x3e60d214	0.21955138
1	0xbc669c93	-0.014075416
2	0x3c79e732	0.015252875
3	0xbce161b9	-0.027512418
4	0x3e0afb1f	0.13572358
5	0x3ca68943	0.020329123
6	0xbe1dbe5c	-0.15404648
7	0xbd6b2e27	-0.05741706
8	0x3e7d739a	0.2475113
9	0xbd53e52d	-0.05173223
10	0xbdd699cf	-0.104785554
11	0xbe2873bb	-0.16450398
12	0x3e0017bf	0.12509058
13	0xbe1dd02b	-0.15411441
14	0x3f00467a	0.5010754
15	0xbe278124	-0.16357857
16	0x3de0844a	0.10962732
17	0xbd2bc9c4	-0.041940466
18	0x3e278f69	0.163633
19	0x3c909491	0.017648967
20	0xbe12eb68	-0.14347613
21	0x3e4a6ac2	0.19767287
22	0x3d60f4fa	0.054921128
23	0xbe816f71	-0.25280336
24	0xbdc16b56	-0.09444301
25	0x3e088b54	0.133344
26	0xbe82fdf8	-0.25584388
27	0xbe353a1e	-0.17697951
28	0xbd6c840e	-0.057743125
29	0x3cde18bf	0.02711141
30	0x3e3805d1	0.17970969
31	0xbce751f2	-0.028237317
32	0xbe0bfa47	-0.13669692
33	0xbd86afa3	-0.06576469
34	0xbe1ab45a	-0.15107861
35	0xbef1b349	-0.47207096
36	0xbe2cc2ef	-0.16871236
37	0xbe2d2e5f	-0.1691222
38	0x3dc5dab6	0.096608564
39	0xbe8ee91e	-0.2791223
40	0x3c824d62	0.01590604
41	0x3e87b2f4	0.26503718
42	0x3d1ba2dc	0.03799711
43	0x3e195a04	0.14975744
44	0xbc005238	-0.0078321025
45	0x3db1b700	0.086774826
46	0x3d9a5aea	0.07536872
47	0x3d19ccbd	0.03754877
48	0x3d77a220	0.06045735
49	0xbc68b757	-0.014203868
50	0x3d1f9dea	0.038968958
51	0x3d31e6f4	0.043433145
52	0x3d0f496e	0.034982137
53	0xbeab632f	-0.3347411
54	0xbda49143	-0.08035519
55	0x3d9b053d	0.075693585
56	0xbca3c5eb	-0.019991836
57	0xbdd22af0	-0.10262096
58	0x3ded6d10	0.11593068
59	0xbc87238b	-0.01649644
60	0x3c705f18	0.01467111
61	0xbe007427	-0.12544309
62	0x3d067107	0.032822635
63	0xbd05371f	-0.03252327
64	0x3e7409e8	0.23831904
65	0x3d80e6f4	0.06294051
66	0xbd15a127	-0.03653064
67	0x3dcdf80c	0.10057077
68	0x3dc1cb6b	0.09462627
69	0x3dcc0d81	0.09963513
70	0xbd0571e7	-0.03257933
71	0xbd578850	-0.052620232
72	0xbe808a1e	-0.25105375
73	0xbe4f7c5e	-0.20262286
74	0xbdda34cd	-0.10654602
75	0x3bd7dfe5	0.0065879696
76	0xbe0a8521	-0.13527347
77	0xbd9d473c	-0.076796025
78	0x3b833dd3	0.0040051728
79	0xbc9dca63	-0.019261545
80	0xbe4c6166	-0.1995903
81	0x3e071081	0.1318989
82	0x3e1e4832	0.15457228
83	0x3e81c811	0.2534795
84	0xbdd0e1c1	-0.10199309
85	0x3d9a5501	0.075357445
86	0xbe690de7	-0.2275921
87	0xbd41258e	-0.047154956
88	0xbe5ea78d	-0.21743603
89	0xbea185f0	-0.315475
90	0x3ddb9eaa	0.10723622
91	0x3e660863	0.22464137
92	0xbe38f8b0	-0.18063617
93	0x3dd2e698	0.102978885
94	0xbdf82624	-0.1211665
95	0xbe1f622d	-0.15564795
96	0x3df5f456	0.12009494
97	0xbd7e5866	-0.062096022
98	0x3ba4826f	0.0050204317
99	0x3d668fce	0.056289487
100	0x3d1a3bf5	0.037654836
101	0x3c971cd6	0.018446367
102	0xbc87fd0d	-0.016600156
103	0xbd504722	-0.050849088
104	0x3dd5e67d	0.10444353
105	0xbdb129a9	-0.08650524
106	0xbd7937a7	-0.06084409
107	0xbe9c7ac0	-0.305624
108	0xbe631987	-0.22177707
109	0x3e81ade3	0.25327978
110	0x3d44d2b4	0.048052505
111	0xbd36a8ea	-0.044594683
112	0x3e31cb0a	0.1736261
113	0xbd2d9398	-0.042377084
114	0xbdf2683d	-0.11836288
115	0x3cf2dc79	0.029646145
116	0x3dded83f	0.108810894
117	0xbdedd1b0	-0.1161226
118	0x3e3f74a0	0.18696833
119	0x3e8eb263	0.27870473
120	0xbcf09456	-0.029367607
121	0x3da10205	0.07861713
122	0xbdb770b4	-0.08957043
123	0xbe10c17a	-0.14136305
124	0xbdde8ced	-0.10866723
125	0x3cc47d46	0.023985516
126	0xbc9d259b	-0.01918297
127	0xbe9cfb23	-0.30660352
128	0x3dcf5fd0	0.10125697
129	0xbc7ee5e2	-0.015557738
130	0xbcea957a	-0.02863573
131	0x3e5e562d	0.21712561
132	0xbe01141e	-0.1260533
133	0xbe05ebd4	-0.13078243
134	0x3e08e022	0.1336675
135	0xbe84d6e3	-0.25945196
136	0xbe14ee24	-0.14543968
137	0x3d63c39a	0.055606462
138	0xbee177cf	-0.4403672
139	0xbdf0c7b4	-0.1175684
140	0xbd557ffc	-0.05212401
141	0x3e8c62f0	0.27419233
142	0x3ce3ca36	0.027806383
143	0x3da69791	0.08134378
144	0xbc7239c6	-0.014784282
145	0x3dd9e4a5	0.106393136
146	0x3e842e64	0.25816643
147	0xbdcfeee2	-0.10152985
148	0xbe42ae8a	-0.19011894
149	0x3d8ced7c	0.06881234
150	0x3a50042d	0.00079351926
151	0x3e448acb	0.1919357
152	0x3e81c830	0.25348043
153	0xbd712f82	-0.058883198
154	0xbb8d66a8	-0.004315216
155	0xbe056b93	-0.13029318
156	0x3c8d23f2	0.017229054
157	0x3d9d8294	0.076909214
158	0xbcdcb8a8	-0.02694352
159	0xbdb02c48	-0.08602196
160	0xbde6d938	-0.112719
161	0xbc8bce36	-0.017066102
162	0xbd9d540c	-0.07682046
163	0x3e16905a	0.14703503
164	0xbd15e3ad	-0.03659408
165	0xbc97d937	-0.018536193
166	0x3ccbbbe3	0.024869865
167	0x3e7d904a	0.24762073
168	0xbe0b826b	-0.1362397
169	0x3db62415	0.08893601
170	0x3dcf7b70	0.10130966
171	0xbe3cdf56	-0.18444571
172	0x3daff352	0.085913315
173	0x3e871a69	0.26387337
174	0xbe104a5c	-0.14090866
175	0x3e79a704	0.24380118
176	0xbe12fd0e	-0.14354345
177	0xbddea63d	-0.10871551
178	0x3db3c863	0.08778455
179	0xbe9a7766	-0.3016922
180	0x3d4ab23c	0.049486384
181	0xbc86c9be	-0.01645362
182	0x3cb97c15	0.022642175
183	0x3e1a99fe	0.15097806
184	0xbdb53859	-0.08848638
185	0xbd0242a1	-0.031801824
186	0x3e5ec000	0.2175293
187	0xbc896905	-0.01677371
188	0x3e66bc95	0.22532876
189	0xbdae8194	-0.08520809
190	0x3e808d5d	0.25107852
191	0xbdc57eba	-0.09643312
192	0xbe567ca7	-0.20945989
193	0xbdfb3b56	-0.12267177
194	0x3e108fa2	0.14117292
195	0x3ec970aa	0.39343768
196	0xbea4f613	-0.3221899
197	0xbdbc3a2a	-0.091907814
198	0xbe3cebe6	-0.18449363
199	0xbe909c08	-0.28244042
200	0xbc8af2af	-0.016961424
201	0xbe440cbd	-0.19145484
202	0xbe4da7fd	-0.20083614
203	0x3be1f26c	0.006895354
204	0x3e1d828f	0.15381835
205	0xbdff5d28	-0.1246894
206	0x3db39d7d	0.08770273
207	0xbea3d3dc	-0.31997573
208	0xbe99b462	-0.30020434
209	0xbd0b4f57	-0.03401121
210	0xbe612025	-0.21984918
211	0x3db91b16	0.09038369
212	0xbd3ffa1e	-0.04686939
213	0x3f026a90	0.5094385
214	0xbdee6e04	-0.116420776
215	0x3d9c0993	0.07619014
216	0x3e5df04e	0.216737
217	0x3e3fc576	0.18727669
218	0x3dc01d10	0.09380543
219	0xbe93fc6c	-0.2890352
220	0x3c18016e	0.009277685
221	0xbf0d033a	-0.5508305
222	0xbe83d849	-0.2575095
223	0x3e3e3f54	0.18578845
224	0xbcb3c47b	-0.021944275
225	0xbe90fe47	-0.28318998
226	0xbdf2765a	-0.1183898
227	0x3e17d3a6	0.14826831
228	0x3ddbdd4a	0.10735567
229	0x3e498c52	0.19682434
230	0x3e0d5c67	0.1380478
231	0xbeb31b22	-0.34981638
232	0xbdf2369c	-0.11826822
233	0x3e1b9557	0.15193687
234	0xbde06894	-0.10957447
235	0x3e4963c8	0.1966697
236	0x3e36ec5a	0.17863598
237	0x3e050df7	0.12993608
238	0xbd065323	-0.03279413
239	0xbdc84e02	-0.09780504
240	0xbeb2fb2e	-0.3495726
241	0xbe744cdf	-0.23857449
242	0xbd8b958d	-0.06815634
243	0xbda3c63b	-0.07996794
244	0x3d9fce7e	0.07803057
245	0x3e4e4261	0.20142509
246	0x3dd13249	0.10214669
247	0x3e7bf938	0.24606788
248	0x3e1a4ea0	0.15069056
249	0xbdaf9d8b	-0.08574971
250	0x3e0559b0	0.13022494
251	0xbb57b4b8	-0.0032914113
252	0xbec61e3d	-0.38694945
253	0x3ebca638	0.36845565
254	0x3f0789ad	0.5294445
255	0xbe76a04a	-0.24084583

P.mlps.0.layers.1.bias f4 [50]
0	0xbe8c908a	-0.27454025
1	0xbd2a98c9	-0.041649614
2	0xbe2a6bdf	-0.16642712
3	0x3dbf956c	0.09354672
4	0x3e590a49	0.2119533
5	0xbdb2d7cb	-0.087325655
6	0xbe344c6e	-0.1760728
7	0xbd5e7ac8	-0.054316312
8	0x3dac3303	0.08408167
9	0x3942b181	0.00018567407
10	0xbce116ce	-0.027476694
11	0x3c37fd0d	0.011229766
12	0x3e3a2847	0.18179427
13	0x3ddda1ec	0.108219
14	0x3df6c5eb	0.120494686
15	0x3e436c13	0.19084196
16	0xbcc3ab6a	-0.023885448
17	0xbe314731	-0.17312314
18	0x3dc87c09	0.09789283
19	0xbe167b6a	-0.14695516
20	0xbe02df00	-0.1278038
21	0x3c95c7d3	0.01828376
22	0xbdc237eb	-0.09483322
23	0xbe0887d2	-0.13333061
24	0xbe53b455	-0.2067426
25	0x3d76425d	0.060121883
26	0xbda3a394	-0.079901844
27	0x3d8e3701	0.06944085
28	0x3c84d180	0.016213179
29	0xbd8392e6	-0.06424503
30	0x3d85cf25	0.0653365
31	0x3d0fb3f3	0.035083722
32	0xbe1e6bc6	-0.154708
33	0xbe476383	-0.19471554
34	0x3df119f8	0.11772531
35	0xbd25a90d	-0.040444423
36	0xbd4a306b	-0.04936258
37	0xbe001569	-0.12508167
38	0xbd6a00a8	-0.057129532
39	0x3e3cf624	0.1845327
40	0xbdd0e5d7	-0.102000885
41	0x3db81ad6	0.089894935
42	0xbc55c747	-0.013048
43	0xbdd6c5f5	-0.10486976
44	0xbe16936b	-0.14704673
45	0x3d6c4030	0.0576784
46	0x3d17b5f0	0.037038743
47	0x3d89bd83	0.067255996
48	0xbc71bfea	-0.014755229
49	0x3c9caa15	0.01912407

P.mlps.0.layers.2.weight f4 [50, 50]
0	0xbd7e1ad9	-0.062037323
1	0x3d845cb2	0.06462993
2	0x3dbeb2bb	0.09311434
3	0x3b8bb3e3	0.0042633875
4	0x3ece61a0	0.40308857
5	0x3dc05584	0.09391311
6	0x3d838ee6	0.0642374
7	0xbce6c30f	-0.028169183
8	0x3bb44eac	0.0055025425
9	0x3dddf031	0.108368285
10	0xbdcc4558	-0.09974164
11	0xbe57e1e6	-0.21082267
12	0xbea41b24	-0.32051957
13	0x3dc6878f	0.096938245
14	0xbe83174e	-0.25603718
15	0x3ddd60e5	0.10809497
16	0xbc10f13e	-0.008846579
17	0xbd3b6f9d	-0.04576074
18	0xbe164dc0	-0.14678097
19	0x3d458c8c	0.04822974
20	0xbe3a2afb	-0.18180458
21	0xbd4793b0	-0.04872483
22	0xbdcc7721	-0.099836595
23	0x3e1db4bb	0.15400974
24	0x3cb30671	0.021853657
25	0xbd623d1b	-0.055234056
26	0x3dab6747	0.08369308
27	0x3e7f9898	0.24960554
28	0x3eeaea7c	0.45882022
29	0xbe7cc23f	-0.24683474
30	0xbe61dc87	-0.22056781
31	0xbd18f558	-0.037343353
32	0xbc69ee9e	-0.014278082
33	0xbca3ffb5	-0.020019392
34	0x3d0e77aa	0.03478209
35	0xbd2ae092	-0.041718073
36	0xbe1454b0	-0.1448543
37	0xbdc52608	-0.096263945
38	0xbe851792	-0.25994545
39	0xbdb5690d	-0.088579275
40	0x3db507ce	0.08839379
41	0x3ecdeab5	0.4021813
42	0xbdc01ba6	-0.093802735
43	0xbed3568e	-0.41276973
44	0x3cb37b74	0.021909453
45	0xbe659b16	-0.22422442
46	0xbd992b05	-0.074789084
47	0x3e1d6ec9	0.15374292
48	0xbdd959c8	-0.106128275
49	0x3db4f255	0.08835284
50	0xbedd513f	-0.43226048
51	0x3cff20f0	0.031143636
52	0xbe0682da	-0.13135853
53	0x3e89d5fa	0.26921064
54	0x3de3026b	0.110844456
55	0x3e255baf	0.16148256
56	0xbe1dd668	-0.1541382
57	0xbe0e7d49	-0.1391498
58	0xbce4dec7	-0.02793826
59	0xb9194bed	-0.00014619502
60	0x3d87bda5	0.06627969
61	0xbdcca749	-0.099928446
62	0x3e850d9e	0.25986952
63	0x3e786457	0.24257027
64	0x3e84f97c	0.2597159
65	0xbc39786d	-0.011320216
66	0xbe8f67a1	-0.2800875
67	0x3d679912	0.056542464
68	0x3e503a8a	0.20334831
69	0xbe63822e	-0.22217628
70	0x3d0e8d80	0.034802914
71	0x3dcb02fa	0.09912677
72	0xbe6f91ae	-0.23395416
73	0xbe19f6fe	-0.15035626
74	0xbe71b3a7	-0.23603688
75	0x3e562f8e	0.20916578
76	0x3e492e27	0.19646512
77	0xbdc911d5	-0.09817854
78	0xbe5d0627	-0.21584378
79	0xbdffefc6	-0.12496905
80	0x3e0fd7d2	0.14047173
81	0xbe05b0df	-0.13055752
82	0x3e7188c6	0.23587331
83	0xbc8aced8	-0.016944334
84	0x3e3775a2	0.17915967
85	0x3eadd3c5	0.3395063
86	0x3d334a41	0.043771986
87	0x3d12ac55	0.03580888
88	0xbe25ceb1	-0.16192128
89	0x3cf776b3	0.030207967
90	0x3e415c0c	0.1888277
91	0x3e47d94d	0.19516487
92	0xbe5aa062	-0.21350244
93	0xbdadb9e4	-0.084827214
94	0x3ce28d9c	0.027655415
95	0xbd584e7c	-0.052809224
96	0xbde7170f	-0.11283695
97	0xbe043fb2	-0.12914923
98	0xbd552180	-0.0520339
99	0x3d3f635d	0.04672562
100	0xbdbb7106	-0.09152417
101	0xbcf03e0d	-0.029326463
102	0x3e1890dd	0.14899011
103	0xbbbd289d	-0.0057726637
104	0xbe1e3398	-0.15449369
105	0xbe7ae651	-0.24501921
106	0x3dd43ee4	0.10363558
107	0xbd40e216	-0.047090612
108	0x3ce3fb67	0.027829839
109	0x3e3d5046	0.18487653
110	0x3d7e440e	0.06207662
111	0x3db9cb4b	0.09071978
112	0x3ceb81b2	0.028748367
113	0xbde16305	-0.110052146
114	0x3dd04410	0.10169232
115	0xbea1f02d	-0.31628552
116	0x3da7cead	0.08193717
117	0x3e8d3a1d	0.275834
118	0x3e0ee1ba	0.13953295
119	0xbdb5aae2	-0.08870484
120	0x3e5e1986	0.21689424
121	0x3dd736b5	0.105084814
122	0x3b8c3eaf	0.0042799334
123	0x3e5185fc	0.20461267
124	0x3efd9d83	0.49534234
125	0xbe879ee2	-0.26488405
126	0xbd065de3	-0.03280438
127	0x3dd58106	0.10425
128	0xbc857e1a	-0.016295481
129	0x3b352742	0.0027641808
130	0xbdc7c263	-0.09753873
131	0x3eb7db67	0.35909578
132	0x3e938fc8	0.28820634
133	0xbe0ab510	-0.13545632
134	0xbe4a21d5	-0.19739468
135	0x3db3ca2a	0.08778794
136	0xbdb80f79	-0.08987326
137	0x3dcad6d2	0.09904255
138	0xbec7ecb8	-0.3904779
139	0xbe8a59a9	-0.2702153
140	0x3e4a40d4	0.19751292
141	0xbea0b7db	-0.3139027
142	0x3e368441	0.17823888
143	0xbb30393b	-0.002688958
144	0x3eb0ca69	0.34529427
145	0xbc0aa2b0	-0.008461639
146	0x3d3f640b	0.046726268
147	0x3e83dfdc	0.2575673
148	0x3dd5fc83	0.104485534
149	0x3d0f82dd	0.03503691
150	0x3a8bd26c	0.0010667569
151	0xbdd080c3	-0.10180809
152	0x3bbd499f	0.0057765986
153	0x3d69d95b	0.057092052
154	0xbd943234	-0.07236138
155	0xbe3ef56b	-0.18648307
156	0x3e8d0e9c	0.2755021
157	0x3e902bd3	0.28158435
158	0xbd2e59a6	-0.042565964
159	0x3da5eebc	0.081021756
160	0x3d5453dc	0.051837787
161	0xbc86d84c	-0.01646056
162	0x3d435ccb	0.047695916
163	0x3e429812	0.19003323
164	0x3e5666b1	0.20937611
165	0xbd0f213d	-0.034943808
166	0xbd2c744b	-0.042103093
167	0xbe884162	-0.26612383
168	0x3e1f8538	0.15578163
169	0x3c8c6c1a	0.01714139
170	0x3de23ce0	0.11046767
171	0xbda81a8b	-0.08208188
172	0x3d889b87	0.066702895
173	0xbb9bc233	-0.004753375
174	0xbe5f6004	-0.21813971
175	0x3e2e6fb8	0.17034805
176	0xbd39b336	-0.045336924
177	0xbe2631f7	-0.16229998
178	0xbe9241c5	-0.28565803
179	0x3d702d0f	0.05863672
180	0xbcc7fa34	-0.024411298
181	0xbb36a29a	-0.0027867914
182	0x3d29d281	0.041460518
183	0xbe73615b	-0.23767607
184	0x3dcf2360	0.10114169
185	0xbded4214	-0.11584869
186	0xbe309d8b	-0.17247598
187	0x3e9e66e9	0.3093789
188	0xbe47e053	-0.19519167
189	0x3d8db07e	0.06918429
190	0xbdf027b0	-0.1172632
191	0xbe02fcd2	-0.12791756
192	0xbd454ecc	-0.04817085
193	0xbcfd9e65	-0.030959317
194	0xbe0af689	-0.13570608
195	0xbce96517	-0.028490586
196	0xbe3899b1	-0.18027379
197	0xbe703958	-0.23459375
198	0x3ed07b94	0.40719283
199	0xbdcc3d42	-0.099726215
200	0x3da21164	0.07913473
201	0x3ddb73bd	0.10715435
202	0xbcc1c8e8	-0.02365537
203	0xbdf36615	-0.11884705
204	0xbe083c52	-0.1330426
205	0xbe0f6282	-0.14002421
206	0xbe60b198	-0.21942747
207	0x3e08f535	0.13374789
208	0xbe059f48	-0.13049042
209	0xbc8d651d	-0.017260129
210	0xbdd0c7f2	-0.101943865
211	0x3df1bdac	0.11803755
212	0x3db9eff4	0.090789706
213	0x3e136334	0.14393312
214	0x3d2df431	0.042469207
215	0x3eb2e6e0	0.3494177
216	0x3da8c026	0.082397744
217	0xbd21f322	-0.03953851
218	0x3de4ea01	0.11177445
219	0xbcfac7ba	-0.030612815
220	0x3d85dc41	0.06536151
221	0x3e480098	0.19531476
222	0x3d51ca32	0.05121822
223	0xbe2f13a5	-0.17097338
224	0xbe09f8e6	-0.13473853
225	0x3c4d2f90	0.012523547
226	0xbdad97f9	-0.08476252
227	0x3e3fdea6	0.18737277
228	0xbdc62bdf	-0.096763365
229	0x3de5c620	0.1121943
230	0xbdc625a9	-0.09675152
231	0xbd0b8b0f	-0.034068163
232	0xbda92dd7	-0.082606964
233	0x3de15111	0.1100179
234	0x3dde482a	0.10853608
235	0xbe0f9493	-0.1402152
236	0x3e44549a	0.19172898
237	0x3d48e6bb	0.049048167
238	0xbd79af07	-0.060957935
239	0xbe579efc	-0.21056741
240	0xbdc92186	-0.09820847
241	0xbdc924c8	-0.098214686
242	0xbe0ae8d5	-0.13565381
243	0x3dc98ecd	0.0984169
244	0x3d66865e	0.056280486
245	0x3e3dd003	0.18536381
246	0x3e1ac145	0.15112789
247	0xbdddcef7	-0.10830491
248	0x3bff66cc	0.0077942368
249	0x3abb327f	0.0014282017
250	0x3e097873	0.13424854
251	0xbec83c31	-0.39108422
252	0x3e16ae01	0.14714815
253	0x3de02f7a	0.109465554
254	0xbce3dba3	-0.027814692
255	0x3d72f563	0.05931605

P.mlps.0.layers.2.bias f4 [50]
0	0xbd645235	-0.05574246
1	0x3e0fc52a	0.14040056
2	0xbd768603	-0.060186397
3	0x3cb3fd40	0.021971345
4	0x3c536768	0.012903072
5	0xbc53b4d9	-0.012921535
6	0xbdf17d77	-0.11791509
7	0xbd3abf97	-0.04559287
8	0x3b93a2c6	0.004505488
9	0xbcd5e85a	-0.02611177
10	0xbdd5e7f4	-0.10444632
11	0xbc8167f8	-0.015796646
12	0xbda0cd22	-0.07851626
13	0x3cf796af	0.030223219
14	0xbdaf7063	-0.08566358
15	0x3d0080c3	0.031372797
16	0x3d113ec9	0.035460267
17	0xbdaa6262	-0.08319546
18	0x3d76f36b	0.060290735
19	0xbd9a9797	-0.07548445
20	0xbd437e1e	-0.047727697
21	0x3dad6857	0.08467167
22	0x3de69f19	0.11260814
23	0x3d91ec63	0.07125165
24	0xbc5aee09	-0.013362416
25	0xbdaa8ca7	-0.083276086
26	0x3e14e695	0.14541085
27	0x3d1c5fc4	0.038177267
28	0xbd386980	-0.045022488
29	0xbdcb90ae	-0.09939705
30	0xbc37c24c	-0.011215758
31	0xbd35cc5a	-0.044384338
32	0xbd90901c	-0.07058737
33	0xbd264aec	-0.040598795
34	0xbe81784b	-0.2528709
35	0xbdb108c3	-0.08644249
36	0x3df1c657	0.118054084
37	0x3c855ce1	0.01627964
38	0xbcfc0ba4	-0.03076727
39	0xbd7f91b0	-0.062394798
40	0xbd50d044	-0.050979868
41	0x3de9a7e2	0.11408974
42	0xbb82bdc6	-0.003989908
43	0xbce7ec58	-0.02831094
44	0x3d1bad3d	0.03800701
45	0x3b4ec0f1	0.0031548108
46	0x3d178d88	0.03700021
47	0x3bc338dc	0.005957706
48	0xbd13c187	-0.036073234
49	0xbd920be8	-0.07131177

P.mlps.0.layers.3.weight f4 [50, 50]
0	0x3e406b6f	0.18790983
1	0x3e3b8392	0.18311909
2	0x3dbf7693	0.09348788
3	0xbe17fb5e	-0.14841983
4	0x3ea16dcc	0.3152908
5	0xbe6a3672	-0.22872332
6	0x3d02d164	0.03193797
7	0x3e591485	0.21199234
8	0x3e0727ae	0.1319873
9	0x3db9d1ef	0.09073245
10	0x3d6e0b27	0.058116104
11	0x3cdcdd46	0.02696098
12	0xbdd661f6	-0.10467903
13	0xbee4b548	-0.44669557
14	0xbe797306	-0.24360284
15	0xbe066490	-0.13124299
16	0xbef00737	-0.46880504
17	0x3e2c0550	0.16798902
18	0x3d9526f6	0.07282822
19	0xbdf543d7	-0.1197583
20	0xbdec45b5	-0.11536733
21	0x3dffd355	0.1249148
22	0x3e490add	0.1963305
23	0x3e8bac99	0.2728012
24	0x3e2203d1	0.15821768
25	0xbe3ab64e	-0.18233606
26	0x3d7d5f2e	0.06185835
27	0xbda75b08	-0.0817166
28	0x3e4fd02a	0.20294252
29	0x3e07ffac	0.13281125
30	0x3ec706a9	0.3887227
31	0x3e9b5e25	0.30345264
32	0xbecbfd84	-0.39841855
33	0xbd8c24b0	-0.06842935
34	0xbe478e1e	-0.19487807
35	0xbdca05d0	-0.0986439
36	0x3e493430	0.19648814
37	0x3d1fa1c8	0.038972646
38	0xbe72094d	-0.2363636
39	0x3d087d58	0.033322662
40	0x3e30d0a5	0.17267092
41	0x3e8ead95	0.27866808
42	0x3eadf8a0	0.33978748
43	0xbdad601b	-0.08465596
44	0x3e0b7c2f	0.13621591
45	0xbe21c304	-0.15797049
46	0x3eaf1f8c	0.34203756
47	0xbe02d70f	-0.12777351
48	0xbd3d5e70	-0.04623264
49	0x3e3feb2d	0.18742056
50	0xbae105fb	-0.001716792
51	0x3dff77c9	0.12474019
52	0x3d342e47	0.043989446
53	0x3eb77292	0.35829598
54	0x3df2b7d6	0.1185147
55	0xbe838d07	-0.25693533
56	0x3d04d306	0.03242781
57	0xbe5143a8	-0.20435965
58	0x39fea25c	0.00048567622
59	0x3d03237a	0.032016255
60	0xbd48a759	-0.04898772
61	0x3e35fdf9	0.17772664
62	0xbd9cb426	-0.07651548
63	0x3c5ca3cc	0.013466787
64	0xbe168cca	-0.14702144
65	0xbe3b4b58	-0.1829046
66	0xbe53191f	-0.20615052
67	0x3e645bfb	0.22300713
68	0x3e003049	0.1251842
69	0xbed294eb	-0.4112924
70	0xbdbdc199	-0.092654414
71	0xbd01f29b	-0.031725507
72	0xbe8d49f3	-0.2759548
73	0x3c8289ee	0.01593491
74	0x3ee14475	0.4399754
75	0xbdd86359	-0.10565824
76	0xbe058a06	-0.13040933
77	0xbdc67cc5	-0.09691767
78	0xbdb43c5f	-0.08800577
79	0xbe410e6b	-0.18853156
80	0x3d6a053e	0.057133906
81	0xbdd3d9f8	-0.103443086
82	0x3dfc49d9	0.12318773
83	0x3cfebc5f	0.031095682
84	0x3d27cb22	0.040965207
85	0xbd8bf306	-0.068334624
86	0x3e8d2883	0.2756997
87	0xbc9f39b6	-0.019436698
88	0x3cbd033b	0.02307283
89	0xbcb164b2	-0.02165446
90	0xbe174649	-0.14772905
91	0xbd625458	-0.055256218
92	0xbb885772	-0.004160815
93	0x3d74856a	0.059697546
94	0x3dc234bf	0.09482717
95	0x3c94b26b	0.018151483
96	0x3d30b895	0.04314478
97	0x3f03b84f	0.5145311
98	0x3eaddb12	0.339562
99	0xbdd5a6d3	-0.1043221
100	0xbcbc7aab	-0.023007711
101	0xbdf8eae3	-0.12154176
102	0x3d1f821f	0.038942453
103	0xbd38043b	-0.04492591
104	0xbcca3f06	-0.024688255
105	0x3e1fdd97	0.15611874
106	0x3ea70063	0.32617483
107	0x3e9fd1cc	0.3121475
108	0xbe309be1	-0.17246963
109	0xbda69af7	-0.08135026
110	0x3dcf0c94	0.10109821
111	0xbd0a456e	-0.03375762
112	0xbd0d9de9	-0.034574423
113	0xbe4d1fba	-0.20031634
114	0x3e17f3f7	0.14839159
115	0x3ec05bce	0.3757004
116	0xbdf37f51	-0.11889518
117	0x3e3946fe	0.18093488
118	0x3de49c55	0.111626305
119	0x3d949348	0.07254654
120	0xbe37f61e	-0.1796498
121	0xbe6284d3	-0.22120981
122	0x3c025693	0.007955211
123	0x3c44292a	0.011972705
124	0xbd07e032	-0.033172794
125	0xbde301f1	-0.11084355
126	0x3e445948	0.19174683
127	0x3d46bc3f	0.04851937
128	0xbc83756c	-0.016047202
129	0x3e057d54	0.1303609
130	0x3d4dfd9a	0.05029068
131	0xbcb04b68	-0.021520332
132	0xbdd48177	-0.10376256
133	0x3d2fa8c5	0.04288556
134	0x3c1c9a03	0.009558204
135	0xbc3ebf48	-0.011642285
136	0x3c1f6b30	0.009730145
137	0xbe086bd6	-0.13322386
138	0xbde50c86	-0.11184029
139	0xbd16c38a	-0.036807574
140	0xbc30c62b	-0.010789434
141	0xbd6fba26	-0.058527134
142	0xbeaefabc	-0.3417567
143	0x3d9d3111	0.07675374
144	0xbdccadf8	-0.099941194
145	0xbec602ef	-0.38674113
146	0x3e31a8bc	0.17349523
147	0xbce1529f	-0.027505217
148	0x3ce5494e	0.027989056
149	0x3df197d1	0.11796535
150	0xbe1f3f05	-0.15551384
151	0xbd88ed56	-0.06685893
152	0x3c86d20f	0.016457586
153	0xbddfdf23	-0.10931232
154	0xbde68675	-0.112561144
155	0x3dd0fb39	0.10204167
156	0xbe354b32	-0.17704466
157	0xbd6450e7	-0.055741217
158	0x3db0a73c	0.086256474
159	0xbdc5ea41	-0.09663821
160	0xbdac0d49	-0.084009714
161	0x3e87a6fb	0.26494583
162	0xbd4b748f	-0.049671706
163	0x3e17499e	0.14774176
164	0x3d9bffeb	0.07617172
165	0xbe58848a	-0.2114431
166	0x3dce4475	0.10071651
167	0xbd3bbcc5	-0.04583432
168	0x3e0f1b79	0.13975324
169	0xbdcf4997	-0.10121458
170	0x3ceee564	0.029162116
171	0x3e758be7	0.2397915
172	0x3ca3f4b2	0.02001414
173	0xbcb08ed5	-0.021552483
174	0x3e0e7ce3	0.13914828
175	0x3e1b4607	0.15163432
176	0x3df4108c	0.119172186
177	0x3e465e6d	0.19371958
178	0xbe19cb94	-0.15019065
179	0x3cbc9077	0.023018105
180	0xbdac5460	-0.08414531
181	0xbbf01c7c	-0.0073276144
182	0x3d62b72d	0.05535047
183	0x3e4c7178	0.1996516
184	0xbd6a1e5f	-0.05715787
185	0x3e9ef844	0.31048787
186	0x3d5acf67	0.05342045
187	0xbdbdeb7b	-0.0927343
188	0x3e050fd0	0.12994313
189	0xbdcb6b60	-0.099325895
190	0x3d1bfe23	0.03808416
191	0xbdc01905	-0.09379772
192	0x3b6eb010	0.003642086
193	0x3e015012	0.126282
194	0x3dc717ad	0.09721313
195	0xbd973b6a	-0.07384379
196	0x3e226ff1	0.15863015
197	0xb9822023	-0.00024819476
198	0xbe810be6	-0.2520439
199	0x3df414ab	0.119180046
200	0xbe225295	-0.15851815
201	0xbe6581a9	-0.22412743
202	0x3daafd3e	0.08349083
203	0xbdffb151	-0.12484992
204	0x3da1282d	0.07868991
205	0x3d2ef44f	0.04271346
206	0x3dc38931	0.095476516
207	0x3db23046	0.08700614
208	0xbd81aef6	-0.06332199
209	0xbceaee64	-0.028678127
210	0x3deabacd	0.11461411
211	0x3d92ef67	0.071745686
212	0xbcd7b7c0	-0.026332736
213	0xbe4ff4c9	-0.20308222
214	0x3c9c4f37	0.019080741
215	0xbe8a4458	-0.27005267
216	0x3cd23265	0.025658796
217	0xbcc2bdc1	-0.023772122
218	0x3d4e5d13	0.05038173
219	0x3e2a139b	0.16609041
220	0x3e114458	0.14186227
221	0x3e10a517	0.14125477
222	0xbd8f1fe3	-0.06988504
223	0xbd47c576	-0.048772298
224	0x3e3e92c2	0.18610671
225	0x3d77ff53	0.06054623
226	0xbe2d48dd	-0.16922326
227	0xbc18780d	-0.009305966
228	0x3e3494d2	0.17634895
229	0x3e708f69	0.23492207
230	0x3e8a5e1c	0.27024925
231	0x3daa4b58	0.08315152
232	0x3d9d3b44	0.0767732
233	0x3e0c836f	0.13722013
234	0x3cce22c3	0.02516306
235	0x3c8268af	0.015919058
236	0xbca7b776	-0.020473223
237	0x3d335588	0.04378274
238	0xbdb160dd	-0.08661053
239	0xbbebc4b4	-0.0071950797
240	0xbe133ba2	-0.14378217
241	0xbe200d09	-0.15629973
242	0x3e0c8378	0.13722026
243	0xbc1b19dc	-0.009466615
244	0xbcde4a06	-0.027134907
245	0x3d749c2d	0.059719253
246	0x3d9ecc6c	0.07753834
247	0xbde2caff	-0.11073875
248	0x3e8c86d5	0.2744662
249	0xbd86ffb5	-0.06591741
250	0xbe4213a0	-0.18952799
251	0xbe35bba6	-0.17747363
252	0x3e37c751	0.17947127
253	0x3da9a371	0.08283127
254	0x3e0b13a6	0.13581714
255	0xbdf43d34	-0.11925736

P.mlps.0.layers.3.bias f4 [50]
0	0x3d71983e	0.05898308
1	0xbb97056a	-0.0046087997
2	0xbc293dc0	-0.010329664
3	0x3b62f53b	0.0034631032
4	0xbc7a3a75	-0.015272726
5	0xbe167dc5	-0.14696415
6	0xbca99e7f	-0.02070546
7	0x3e1d1913	0.15341596
8	0x3db87729	0.09007103
9	0x3c351ec7	0.011054701
10	0xbe092f2e	-0.13396904
11	0xbc447280	-0.01199019
12	0xbcc0a1d0	-0.023514658
13	0xbd1da80f	-0.03849035
14	0x3d84c0bd	0.064820744
15	0xbbe0836a	-0.0068516033
16	0xbbdd0e59	-0.006746095
17	0xbcfaec97	-0.030630393
18	0xbd6c72d3	-0.057726692
19	0x3d7e5825	0.06209578
20	0xbe89d9d2	-0.26923996
21	0x3cf8cb96	0.030370515
22	0xbdc7eb62	-0.097616926
23	0x3d292dc0	0.041303396
24	0xbc2c5e76	-0.010520568
25	0x3c144d53	0.009051639
26	0xbcc254d6	-0.023722094
27	0x3e460eec	0.1934163
28	0x39a3ef05	0.00031267866
29	0xbdc5d59a	-0.09659882
30	0xbcf1b82b	-0.029506763
31	0xbe043b2d	-0.12913199
32	0xbd63ed88	-0.05564645
33	0xbd937d46	-0.072016284
34	0x3dd44915	0.10365502
35	0x3d15cce2	0.036572345
36	0xbc6a7290	-0.01430954
37	0x3cb5e151	0.022202166
38	0xbd0c9fff	-0.03433227
39	0xbb0b59eb	-0.0021263312
40	0xbe08303d	-0.13299651
41	0xbd1f1ce1	-0.0388459
42	0x3da5ef33	0.08102264
43	0x3d5eb114	0.054368094
44	0x3d95898f	0.07301628
45	0x3da56daf	0.08077561
46	0xbccdb120	-0.025108874
47	0xbd6e20c0	-0.0581367
48	0x3d21c708	0.03949645
49	0x3bf19e36	0.0073735965

P.mlps.0.layers.4.weight f4 [50, 50]
0	0x3ecce0cc	0.40015256
1	0x3e2ad560	0.16682959
2	0xbe336a2e	-0.17520973
3	0xbcf2426b	-0.029572686
4	0x3debc932	0.11512984
5	0x3dd23d9f	0.102656595
6	0xbe3c3c4c	-0.18382376
7	0x3e07d000	0.1326294
8	0xbde0f395	-0.109839596
9	0x3a8c0d9b	0.0010685207
10	0x3d291929	0.04128376
11	0x3e9a72ec	0.30165803
12	0x3de6a4c2	0.11261894
13	0x3e8b67e9	0.27227715
14	0x3e93050b	0.28714785
15	0x3e48109a	0.19537583
16	0xbcfbfc89	-0.030760067
17	0xbe625113	-0.2210124
18	0x3e3faed2	0.18719032
19	0x3e93e611	0.28886464
20	0xbe3ab89f	-0.1823449
21	0x3d01a082	0.031647213
22	0x3dbd180a	0.09233101
23	0x3e3b94a0	0.18318415
24	0xbb9c6916	-0.0047732694
25	0xbdc0e6cb	-0.0941902
26	0xbdaf91bc	-0.085727185
27	0xbe7f0553	-0.24904375
28	0x3df86afe	0.12129782
29	0x3e3d2383	0.18470578
30	0xbde80e60	-0.11330867
31	0x3e3ca593	0.18422537
32	0xbed7e3cd	-0.42165986
33	0xbc9ee88e	-0.019398
34	0x3d908c31	0.070579894
35	0x3bd0d0ab	0.0063725314
36	0x3ccea1e1	0.025223674
37	0x3ea98f73	0.33117256
38	0xbe16ea2d	-0.14737768
39	0x3e0484d5	0.12941296
40	0x3c2d4d6a	0.010577539
41	0xbe29e193	-0.16589956
42	0x3e8fc6c7	0.28081343
43	0x3bd5de3f	0.006526738
44	0x3e04ccef	0.12968801
45	0x3b8b119e	0.0042440435
46	0x3d67e97f	0.056619164
47	0x3e508d10	0.20366311
48	0xbe3345a6	-0.17507038
49	0x3e01c2d4	0.12671977
50	0xbe0b8653	-0.1362546
51	0xbd1ab71a	-0.037772276
52	0x3e511a7a	0.20420256
53	0xbc402109	-0.011726626
54	0x3e302dea	0.17205015
55	0x3d344891	0.044014517
56	0xbddb5dd3	-0.10711255
57	0xbe468dbb	-0.19390003
58	0xbe933c36	-0.28756875
59	0x3e504347	0.20338164
60	0x3e7f290c	0.24918002
61	0xbd583b50	-0.05279094
62	0xbd6b8772	-0.057502218
63	0x3db4f0fc	0.088350266
64	0x3d55ff4b	0.05224542
65	0xbdc1be72	-0.09460153
66	0xbe5db0af	-0.2164943
67	0xbd2365b6	-0.03989192
68	0x3da516a3	0.08060958
69	0xbd742280	-0.059603214
70	0x3d87dcfa	0.06633945
71	0x3d7af080	0.061264515
72	0xbe724931	-0.23660733
73	0x3da2d9ac	0.07951674
74	0x3e5a3d9c	0.21312565
75	0x3e347a4b	0.17624776
76	0x3e0723d6	0.13197264
77	0xbde89f36	-0.11358492
78	0x3e0061be	0.12537286
79	0xbd4fa07d	-0.050690163
80	0x3da27ff4	0.07934561
81	0xbc0a2461	-0.008431525
82	0xbde54ab5	-0.1119589
83	0x3e801e63	0.25023183
84	0xbdd7734c	-0.10520038
85	0x3cd01632	0.025401209
86	0xbda890b8	-0.08230728
87	0xbe124ee7	-0.14287911
88	0xbe424eb3	-0.18975334
89	0xbdbabd2f	-0.09118115
90	0x3e8755e0	0.26432705
91	0xbe806abd	-0.25081435
92	0xbe0190bc	-0.12652868
93	0xbe3e96db	-0.18612234
94	0xbecbb24a	-0.3978446
95	0xbe0433f3	-0.12910442
96	0x3ef527f0	0.47882032
97	0x3dd54f21	0.10415483
98	0xbd52cd45	-0.05146529
99	0x3c5567e7	0.0130252605
100	0x3ca67eba	0.0203241
101	0xbe79aa46	-0.2438136
102	0x3deb0afd	0.11476705
103	0xbd1f6f9d	-0.038924802
104	0x3d5a3ba0	0.05327952
105	0xbc852893	-0.016254699
106	0x3beef4fc	0.007292388
107	0xbe3b4bbb	-0.18290608
108	0xbe968a71	-0.29402497
109	0xbcbafcd7	-0.022825642
110	0x3e928192	0.2861448
111	0x3d262d0e	0.04057031
112	0xbe6faf7f	-0.2340679
113	0x3d7053e3	0.05867375
114	0xbd6e0cf0	-0.058117807
115	0x3cad1624	0.021128722
116	0xbe93b1fe	-0.28846735
117	0x3d9d647a	0.0768518
118	0x3e82b24b	0.25526652
119	0xbdd7a6d2	-0.10529865
120	0x3e377314	0.17914993
121	0xbe879a47	-0.26484892
122	0xbc0e04fb	-0.00866818
123	0xbdc10dfb	-0.09426495
124	0x3d2e371a	0.042533018
125	0x3ca926ed	0.020648444
126	0xbebf37d9	-0.37347296
127	0xbdbd0abc	-0.09230563
128	0xbe453f7f	-0.19262503
129	0xbd2fad41	-0.042889837
130	0x3e88c5f1	0.26713517
131	0x3d874a88	0.066060126
132	0x3c251fa9	0.010078349
133	0x3e872280	0.2639351
134	0x3d422443	0.047397863
135	0xbd0f87ce	-0.035041623
136	0x3c6086ed	0.013704044
137	0xbdb32130	-0.087465644
138	0xbab6d72d	-0.0013949625
139	0xbe144e91	-0.14483096
140	0x3d8a4491	0.06751359
141	0x3dd1e51b	0.102487765
142	0xbe35e77f	-0.1776409
143	0xbe10f2d7	-0.14155136
144	0x3e5c75b7	0.2152928
145	0xbd33ee70	-0.043928564
146	0x3df1769d	0.11790202
147	0xbd43f70a	-0.047843017
148	0xbe0a7b92	-0.13523701
149	0x3e085139	0.13312234
150	0xbd99d382	-0.07511045
151	0x3e575383	0.21027951
152	0xbe74a82a	-0.23892274
153	0xbe00049f	-0.12501763
154	0xbe2835c4	-0.1642676
155	0xbd83fa0a	-0.064441755
156	0xbc17981f	-0.009252577
157	0xbc62b6a3	-0.013837489
158	0x3d6db8a0	0.0580374
159	0x3e542b1e	0.20719573
160	0xbe6c1049	-0.23053087
161	0x3e2c5e72	0.16832903
162	0x3d88aeaa	0.066739395
163	0xbe0eca82	-0.13944438
164	0x3d4e9a03	0.050439846
165	0xbd6aa23e	-0.057283632
166	0x3e8a8965	0.2705795
167	0x3e2abfa3	0.16674666
168	0xbe464c32	-0.19365004
169	0x3db2001c	0.08691427
170	0xbdcc4107	-0.099733405
171	0x3e368fe8	0.17828333
172	0xbe699b19	-0.22813071
173	0x3d6edffa	0.05831907
174	0xbdb66f40	-0.08907938
175	0xbd656176	-0.05600115
176	0x3c2ce52b	0.010552685
177	0x3e16480a	0.14675918
178	0x3daf52dd	0.08560727
179	0xbce9eb15	-0.028554479
180	0xbe9b5b54	-0.30343115
181	0xbd0ea04f	-0.03482085
182	0xbee57549	-0.44816044
183	0xbe422deb	-0.18962829
184	0x3e226d31	0.15861966
185	0xbc1f5608	-0.009725101
186	0xbd7d3d9b	-0.06182633
187	0xbb3376d0	-0.002738405
188	0xbe379667	-0.17928468
189	0xbbfb5498	-0.0076699965
190	0xbea10e45	-0.314562
191	0xbe860ad9	-0.2618015
192	0x3dbf5d26	0.093439385
193	0x3ce28ace	0.027654078
194	0xbdf10229	-0.1176799
195	0x3db1d101	0.086824425
196	0xbe31b2bf	-0.17353342
197	0x3db23423	0.087013505
198	0xbe0ee4f7	-0.1395453
199	0xbe5f03b4	-0.21778756
200	0x3dacab7d	0.08431146
201	0xbde29a5a	-0.110645965
202	0x3eaec6bc	0.34135997
203	0xbd3422c7	-0.04397848
204	0x3d8bb9fa	0.068225816
205	0xbdcbb0e8	-0.099458516
206	0xbc4ad0b9	-0.012378865
207	0x3d9413cc	0.072303385
208	0xbdb03274	-0.08603373
209	0x3ecd81f7	0.40138218
210	0x3de43482	0.111428276
211	0xbebaf86e	-0.36517662
212	0xbe2e01d0	-0.16992879
213	0xbdd6224b	-0.104557596
214	0x3da59924	0.0808585
215	0xbdfdff87	-0.124022536
216	0x3f156dd8	0.58370733
217	0x3e0b583a	0.13607875
218	0x3e487ace	0.19578096
219	0xbe3cc793	-0.18435507
220	0xbe36a28c	-0.17835444
221	0xbe1c71ab	-0.15277736
222	0xbead32b5	-0.3382775
223	0xbdeb79c8	-0.11497837
224	0xbed77500	-0.4208145
225	0x3d9b40f6	0.0758075
226	0xbe8b7921	-0.27240852
227	0x3e5d8660	0.21633291
228	0xbe1f3570	-0.15547729
229	0xbf799d8f	-0.9750604
230	0xbf016572	-0.5054542
231	0xbe63b003	-0.22235112
232	0x3e5aeb1a	0.21378747
233	0xbd225d8d	-0.03964
234	0x3d21b121	0.039475564
235	0x3e93d27f	0.28871533
236	0x3e171614	0.14754516
237	0xbdf0a8ca	-0.11750944
238	0x3e579029	0.21051086
239	0xbdf393bf	-0.11893415
240	0xbda059a7	-0.078296
241	0x3e966366	0.2937271
242	0x3cc2e4f0	0.023790807
243	0xbce728ff	-0.02821779
244	0x3e17254f	0.14760326
245	0x3e5f2652	0.21791962
246	0x3e303a21	0.17209674
247	0xbeb208f1	-0.34772447
248	0x3ecff4af	0.40616366
249	0xbddfa3bb	-0.10919901
250	0x3dc8ed27	0.09810858
251	0x3d57137a	0.05250881
252	0x3dbfd0dd	0.093660094
253	0x3bac6c7d	0.0052619562
254	0x3e46962f	0.19393228
255	0x3ddbf322	0.10739733

P.mlps.0.layers.4.bias f4 [50]
0	0xbbf30765	-0.007416653
1	0xbdea3d24	-0.11437443
2	0xbd8524a0	-0.06501126
3	0x3d732359	0.059359882
4	0x3d9227f8	0.0713653
5	0xbd0e8475	-0.03479429
6	0xbd43fc3d	-0.047847975
7	0xbd2f551f	-0.042805787
8	0x3d56f139	0.05247614
9	0xbce3a1c5	-0.027787099
10	0xbd5d32c6	-0.0540035
11	0x3d8ca846	0.06868033
12	0xbc82aeb3	-0.015952444
13	0xbd8126d9	-0.06306238
14	0x3cbcb660	0.023036182
15	0xbdba9cd7	-0.09111946
16	0x3dba83d1	0.09107173
17	0x3d72d781	0.05928755
18	0xbc83489d	-0.016025836
19	0xbd958504	-0.07300761
20	0xbca7da9b	-0.020489981
21	0xbd8af8f1	-0.06785763
22	0xbc0da513	-0.008645314
23	0xbb9f7899	-0.0048666713
24	0xbd0683b9	-0.032840464
25	0x3d2270c4	0.039658323
26	0xbc89945b	-0.016794374
27	0x39d6f3f1	0.0004099901
28	0xbdbe36e1	-0.09287811
29	0x3d4bdaf3	0.049769353
30	0xbd385b2f	-0.045008834
31	0x3b929b08	0.0044740476
32	0xbd72648a	-0.059177913
33	0x3d884858	0.066544235
34	0x3d69f683	0.057119858
35	0xbca77373	-0.020440793
36	0xbd462d1a	-0.048382856
37	0x3c864a89	0.016392963
38	0xbdc42fc0	-0.0957942
39	0xbcb054eb	-0.021524867
40	0xbdac80ec	-0.084230274
41	0xbd65526f	-0.055986818
42	0x3d61428e	0.054995112
43	0xbd53a674	-0.051672414
44	0xbd9519bb	-0.07280298
45	0xbd8bb562	-0.068217054
46	0x3cce0f2a	0.025153715
47	0xbce5af6a	-0.028037746
48	0xbc7fbc2d	-0.015608829
49	0xbd396efb	-0.045271855

P.mlps.0.layers.5.weight f4 [1, 50]
0	0x3e782695	0.24233468
1	0x3e24e2a4	0.16102082
2	0x3e2121c7	0.15735541
3	0xbed9ee60	-0.42564678
4	0xbef3c19e	-0.47608656
5	0x3e5983b4	0.21241647
6	0x3ea2cc50	0.31796503
7	0x3e66defd	0.22546001
8	0xbe637df5	-0.22216018
9	0x3e7a5f2c	0.24450368
10	0x3e336ff6	0.17523178
11	0xbf1790a0	-0.59205055
12	0xbdf4e829	-0.119583435
13	0x3e82bcaa	0.25534564
14	0xbec1ece1	-0.37876037
15	0x3e319a70	0.1734407
16	0xbe47fc54	-0.1952985
17	0xbdf1c3a7	-0.11804896
18	0xbe5400a9	-0.20703377
19	0x3de05469	0.109536
20	0x3e8d07d6	0.2754504
21	0x3f043405	0.51641876
22	0x3e3ba2ea	0.18323866
23	0x3e925b4f	0.28585288
24	0x3d639737	0.05556413
25	0xbee3997f	-0.44453046
26	0x3e1e4652	0.15456513
27	0xbe6f6375	-0.23377784
28	0x3e41ba88	0.18918812
29	0xbf310b72	-0.6915809
30	0x3ec1b6bf	0.37834737
31	0xbea8ee38	-0.32994246
32	0x3e53ad19	0.206715
33	0xbf2c5788	-0.6732106
34	0xbea40435	-0.3203446
35	0x3f0279c4	0.5096705
36	0x3f118184	0.5683825
37	0x3e5549cc	0.20828933
38	0x3eb3a321	0.35085395
39	0x3df7b2db	0.12094661
40	0x3e26365d	0.16231675
41	0x3e4a1577	0.1973475
42	0xbf0bb1fc	-0.5456846
43	0x3e5effa7	0.21777211
44	0x3ea7c27a	0.3276556
45	0x3ea6178f	0.3243985
46	0xbe275353	-0.1634038
47	0xbd9f832d	-0.07788692
48	0xbe97b8ab	-0.29633078
49	0x3e722a22	0.23648885

P.mlps.1.layers.0.weight f4 [50, 1]
0	0x3e2f1bad	0.17100401
1	0x3e0b5701	0.13607408
2	0x3d59cadb	0.053171974
3	0xbe08934f	-0.13337444
4	0x3eab31e9	0.33436516
5	0x3e6cec0c	0.2313692
6	0x3e4c8441	0.19972326
7	0x3d725b92	0.05916936
8	0xbe6ea7b6	-0.23306164
9	0x3eaa23b3	0.3323036
10	0xbd89b25e	-0.06723474
11	0xbe60b094	-0.21942359
12	0x3e79983e	0.24374482
13	0x3dc07e3c	0.09399077
14	0xbd816023	-0.06317165
15	0x3e4b3846	0.19845685
16	0x3de9eb2f	0.11421811
17	0xbeba12b6	-0.363424
18	0x3ca3bfe2	0.019988958
19	0x3d76dfa1	0.060271863
20	0x3e4cd689	0.20003714
21	0x3cbd3a0f	0.023098974
22	0xbd2f03e0	-0.042728305
23	0x3d746b2d	0.059672523
24	0x3d02b896	0.031914316
25	0x3d344bf4	0.044017747
26	0xbe533421	-0.20625354
27	0xbd55be89	-0.05218366
28	0xbe3b1654	-0.18270236
29	0xbd5bc94d	-0.053658772
30	0xbe4aefba	-0.19818011
31	0xbe2ea862	-0.1705642
32	0xbd405225	-0.04695334
33	0xbdae5df4	-0.08514014
34	0x3d939703	0.072065376
35	0xbed4ad72	-0.41538578
36	0xbdf41d54	-0.119196564
37	0x3cecae1e	0.02889162
38	0xbdd50c28	-0.10402709
39	0xbd6f3d12	-0.05840785
40	0xbe08fd48	-0.13377869
41	0xbe58253b	-0.21107952
42	0xbdc00ef1	-0.0937785
43	0xbe43ce2b	-0.19121616
44	0x3e54515a	0.20734158
45	0x3e2671ee	0.16254398
46	0xbe4e5f05	-0.20153435
47	0xbe590000	-0.21191406
48	0xbe841452	-0.25796753
49	0x3e0801c3	0.13281922

P.mlps.1.layers.0.bias f4 [50]
0	0x3bc5de27	0.0060384455
1	0xbd29d902	-0.04146672
2	0xbdda90cf	-0.10672151
3	0xbcb686de	-0.022281107
4	0x3d633c08	0.055477172
5	0x3b7443e9	0.0037271923
6	0xbd244db1	-0.040113155
7	0x3d8256e4	0.06364229
8	0xbd117d8f	-0.035520133
9	0x3d0e264c	0.03470449
10	0xbd07a321	-0.033114556
11	0xbc2bdf0a	-0.010490188
12	0xbd87dd40	-0.06633997
13	0x3ce7d42c	0.028299414
14	0xbd753dab	-0.059873264
15	0x3b4ae8d2	0.0030961526
16	0x3d5d0b95	0.053966124
17	0xbd3e4825	-0.04645552
18	0x3d0d2561	0.034459475
19	0x3d15d52c	0.03658025
20	0xbceccea7	-0.028907133
21	0xbd752aa7	-0.05985513
22	0x3d43d4d5	0.047810394
23	0x3de8745c	0.11350319
24	0xbc7f920b	-0.015598784
25	0x3d268a0f	0.040659007
26	0x3bbfefdb	0.0058574504
27	0xbd93d45d	-0.072182395
28	0x3ca15eae	0.019698467
29	0x3d017fa8	0.031615883
30	0xbaff0c70	-0.0019458663
31	0x3d846840	0.064651966
32	0xbd80b3f7	-0.062843256
33	0xbcab3740	-0.020900369
34	0x3ddd569c	0.10807535
35	0xbd583b55	-0.05279096
36	0xbd0b3741	-0.03398824
37	0x3dc3725f	0.09543299
38	0xbc972ed9	-0.018454956
39	0xbdc15104	-0.09439281
40	0xbc1a4ed4	-0.009418208
41	0x3d1db69d	0.03850423
42	0x3d19a37d	0.03750943
43	0xbcc9fc0a	-0.024656314
44	0xbc51ebbe	-0.012812553
45	0xbd5ed072	-0.054398008
46	0xbbea07e4	-0.007142054
47	0x3c28b9fe	0.01029825
48	0xbb85281e	-0.00406362
49	0x3cf52c3d	0.029928321

P.mlps.1.layers.1.weight f4 [50, 50]
0	0xbcf3b41d	-0.02974897
1	0x3d5445aa	0.05182425
2	0x3df7a214	0.12091461
3	0xbdac82e8	-0.08423406
4	0x3d454948	0.04816559
5	0x3e446e7c	0.19182771
6	0xbd8c0cb2	-0.06838359
7	0xbe86da36	-0.26338357
8	0xbdb2e90a	-0.08735855
9	0x3d2c020e	0.041994147
10	0x3d03fa8f	0.032221373
11	0x3e0013d5	0.12507565
12	0xbe1f3472	-0.1554735
13	0x3dd489c4	0.10377839
14	0xbe20ed2f	-0.15715478
15	0xbe599e18	-0.21251714
16	0x3be51b3d	0.0069917724
17	0x3d0ee6f0	0.034888208
18	0xbdc8cf86	-0.09805207
19	0x3a794515	0.000950889
20	0x3cd8ab51	0.026448878
21	0xbd8d1d6d	-0.06890378
22	0x3e4826e7	0.1954609
23	0xbdf76ae0	-0.12080932
24	0x3e7b6ad7	0.24552475
25	0xbdb423cc	-0.0879589
26	0x3d90a6d6	0.070630714
27	0x3dae8ff9	0.08523554
28	0xbabb3b3d	-0.0014284622
29	0x3dddfc90	0.10839188
30	0x3e6cae82	0.23113444
31	0x3d9de907	0.07710462
32	0x3dc5cae8	0.09657842
33	0x3e6a3da0	0.2287507
34	0x3e0c9977	0.13730417
35	0x3cc13b25	0.023587773
36	0xbd93fbcb	-0.0722576
37	0x3dde6bf6	0.10860436
38	0xbd9ebdc7	-0.07751041
39	0xbe3bab2e	-0.18327019
40	0x3e60bb35	0.21946414
41	0xbd8ea187	-0.06964403
42	0xbdc39e14	-0.095516354
43	0x3dfa6de9	0.12227995
44	0xbdab8fa1	-0.083770044
45	0x3dad7546	0.08469634
46	0xbdbda5b9	-0.09260125
47	0x3c49c61b	0.012315298
48	0xbe2c061c	-0.16799206
49	0xbe214362	-0.15748361
50	0x3d8f994f	0.07011663
51	0xbd771b9c	-0.060329065
52	0xbcde0616	-0.027102511
53	0xbe859c2e	-0.26095718
54	0x3cd27aa3	0.025693243
55	0x3da8dbbb	0.08245035
56	0xbd863c04	-0.06554416
57	0xbc8baedb	-0.017051151
58	0x3dd65d6e	0.10467039
59	0x3d86c94d	0.06581364
60	0x3dc2e163	0.09515645
61	0x3e155b87	0.14585696
62	0xbe38638d	-0.18006726
63	0x3ddd1706	0.10795407
64	0xbded1699	-0.11576576
65	0x3df536af	0.11973321
66	0xbe472fa7	-0.19451772
67	0x3dfa236d	0.12213788
68	0x3dbd6f2d	0.09249721
69	0xbb3d7d66	-0.0028913855
70	0x3c3fe94b	0.011713336
71	0x3e738b61	0.23783638
72	0xbe6fe116	-0.23425707
73	0xbcc127b7	-0.023578508
74	0xbdbea503	-0.09308817
75	0xbcb8fc8e	-0.022581365
76	0x3db96679	0.09052748
77	0x3dae7620	0.08518624
78	0xbe7092fd	-0.23493572
79	0x3e89b63d	0.2689685
80	0xbdee9957	-0.11650341
81	0x3d42516b	0.047440927
82	0x3cc88946	0.02447952
83	0xbbd0428f	-0.0063555907
84	0xbe3e3135	-0.18573458
85	0x3e93adb1	0.28843454
86	0x3ccf706d	0.025322163
87	0xbdb8ad2c	-0.09017405
88	0xbe3349b6	-0.17508587
89	0x3d7d6169	0.061860476
90	0xbe41d92b	-0.189305
91	0x3dbd8de5	0.0925558
92	0x3de95a85	0.11394218
93	0xbe2858f9	-0.1644019
94	0x3d6de6c4	0.058081403
95	0xbe3b98f2	-0.18320063
96	0xbe73e3c1	-0.2381735
97	0xbe81ebf4	-0.2537533
98	0xbe8a46a9	-0.27007034
99	0xbdadaf0f	-0.084806554
100	0x3d1b35c9	0.03789309
101	0x3ca81ec9	0.020522492
102	0xbb93c09b	-0.0045090443
103	0x3dfa5371	0.122229464
104	0xbb3c0bbe	-0.0028693522
105	0xbe601522	-0.21883062
106	0x3e3e2dfe	0.18572232
107	0xbd934ad0	-0.07192004
108	0xbe19c9ef	-0.15018438
109	0x3db1fe0c	0.08691034
110	0xbbd354d9	-0.0064493236
111	0xbe3b533a	-0.18293467
112	0xbdc01e43	-0.09380772
113	0xbe4e80f1	-0.20166375
114	0x3dbac1c3	0.09118988
115	0xbea5c884	-0.32379544
116	0x3dbacf92	0.09121622
117	0xbe352bb4	-0.17692453
118	0xbd89256d	-0.066965915
119	0x3d9a5400	0.07535553
120	0x3d224c32	0.039623447
121	0x3e04b8fd	0.12961192
122	0x3d311eee	0.043242387
123	0xbe493967	-0.19650804
124	0xbd2ebffa	-0.042663552
125	0xbd03edbc	-0.032209143
126	0xbe679e4c	-0.22618979
127	0x3e4f50f0	0.20245719
128	0x3db4ec5a	0.08834143
129	0xbe0a686e	-0.135164
130	0xbdbc1ae9	-0.0918482
131	0xbd59f6f6	-0.053214036
132	0x3e2e08cc	0.16995543
133	0xbd0ea373	-0.034823846
134	0xbc51d252	-0.012806492
135	0xbed46ef7	-0.4149091
136	0x3e55958a	0.20857826
137	0xbdcf9632	-0.10136069
138	0x3d1fa5f7	0.038976636
139	0xbc558916	-0.013033172
140	0x3e03d65f	0.12874745
141	0x3dc7ee0f	0.09762203
142	0x3c20c369	0.009812214
143	0x3dccda83	0.10002615
144	0xbd85075d	-0.06495545
145	0xbd5ccf8e	-0.053908877
146	0x3d8e0414	0.069343716
147	0x3df27439	0.11838574
148	0x3e176821	0.14785816
149	0x3d9b3faa	0.07580502
150	0x3e3f4069	0.18676914
151	0xbb1dad3b	-0.0024059552
152	0x3d227d66	0.03967037
153	0x3e2df6c2	0.16988662
154	0x3e798aba	0.24369326
155	0xbe8f4771	-0.27984193
156	0xbd9e1bf3	-0.07720175
157	0xbe74fa6d	-0.23923655
158	0xbde495e5	-0.111614026
159	0x3e98ad05	0.29819503
160	0x3cd3b9d9	0.025845455
161	0xbe562469	-0.20912327
162	0xbd1e6b3e	-0.038676493
163	0x3cbb7bb8	0.022886142
164	0x3e624865	0.22097929
165	0xbc51ff28	-0.012817182
166	0x3d367e93	0.044554304
167	0xbd87d487	-0.06632333
168	0xbe587bc6	-0.21140966
169	0x3e2bf6b4	0.16793329
170	0x3de9fc69	0.114250965
171	0xbd8fd067	-0.070221715
172	0xbe39e13f	-0.18152331
173	0xbeb484c8	-0.35257554
174	0xbe54b673	-0.20772724
175	0x3deb1977	0.114794664
176	0xbd43e33f	-0.04782414
177	0x3ce4c617	0.027926488
178	0xbdd1aa09	-0.1023751
179	0xbe7ab04b	-0.24481313
180	0x3d7c3c95	0.061581213
181	0xbd5f41a3	-0.054505955
182	0x3d423c74	0.047420934
183	0x3d2f85d4	0.042852238
184	0xbe481213	-0.19538145
185	0x3d0085bc	0.03137754
186	0x3e56793b	0.20944683
187	0xbec1c7b1	-0.37847665
188	0x3bf9f42e	0.0076279854
189	0x3d9ec00c	0.07751474
190	0x3d2d5a19	0.042322252
191	0x3e934fef	0.28771922
192	0x3e2c9f0a	0.16857544
193	0xbd89aa89	-0.0672198
194	0xbdb40db5	-0.08791677
195	0x3e5f0d99	0.21782531
196	0xbd110f38	-0.035414904
197	0x3be7920e	0.0070669716
198	0xbd7e6fc9	-0.062118325
199	0x3e5a9372	0.21345308
200	0x3e065bea	0.13121
201	0x3dc95be8	0.09831983
202	0xbd38171d	-0.044943918
203	0xbe2fce74	-0.171686
204	0xbe284a14	-0.16434509
205	0xbdaa2187	-0.08307176
206	0xbb4709ab	-0.0030370753
207	0x3e2225d0	0.15834737
208	0x3d629cd3	0.05532534
209	0xbe804fc5	-0.2506086
210	0xbc92e926	-0.01793344
211	0xbd930ecc	-0.07180557
212	0xbd69acfc	-0.057049736
213	0x3d69f7b8	0.05712101
214	0xbe69502a	-0.22784486
215	0xbd97a342	-0.07404186
216	0x3a1b730c	0.0005929924
217	0x3e82d823	0.25555524
218	0x3da2f282	0.07956411
219	0xbd51a4ab	-0.05118243
220	0xbd65e7fa	-0.056129433
221	0x3c97d4db	0.018534115
222	0x3da9e738	0.082960546
223	0x3dc624e9	0.09675009
224	0x3ea029d5	0.31281915
225	0x3daad7a3	0.08341911
226	0x3e529c49	0.2056743
227	0xbdbaa3c6	-0.091132686
228	0x3d8dc1fa	0.06921764
229	0xbdf77f93	-0.1208488
230	0x3d841b6e	0.06450544
231	0x3e22c706	0.15896234
232	0xbe7b8d98	-0.24565732
233	0xbe710bd7	-0.23539673
234	0x3d98cbf9	0.0746078
235	0x3d5d87da	0.054084636
236	0xbd9b4b48	-0.07582718
237	0x3ca2fe77	0.019896729
238	0x3d59e904	0.053200737
239	0x3dc47847	0.095932536
240	0x3dc1f800	0.0947113
241	0x3df7810d	0.12085161
242	0x3d43fd49	0.047848973
243	0xbe8fd82d	-0.28094617
244	0x3d588ba9	0.052867565
245	0xbdcb3c3c	-0.09923598
246	0x3d6c7b22	0.057734616
247	0xbe0104b4	-0.1259945
248	0x3dbc7e8a	0.09203823
249	0x3e03db58	0.12876642
250	0x3d902288	0.07037836
251	0x3e07c8f2	0.13260248
252	0x3d3e8f7e	0.046523564
253	0xbde17f9e	-0.11010669
254	0x3ea6f8bb	0.3261164
255	0xbdd87d28	-0.10570747

P.mlps.1.layers.1.bias f4 [50]
0	0xbc916b54	-0.017751373
1	0xbbee024c	-0.0072634574
2	0xbd2981bb	-0.041383486
3	0xbd8718fb	-0.065965615
4	0x3d31a472	0.043369718
5	0x3bc3089e	0.005951955
6	0x3c07b827	0.008283651
7	0x3d5aff47	0.053466108
8	0xbdafd60a	-0.085857466
9	0x3d9102be	0.07080601
10	0x3a1c2a48	0.0005957228
11	0x3d2cf2d7	0.042223778
12	0x3d34cfb8	0.04414341
13	0xbd144909	-0.036202464
14	0xbb83b94a	-0.004019891
15	0xbc55f566	-0.013058996
16	0xbd860a3c	-0.06544921
17	0xbd07b5b9	-0.03313229
18	0x3bc475ba	0.0059954794
19	0x3d485e95	0.048918325
20	0xbd3ae0d0	-0.045624554
21	0xbd84fcc0	-0.06493521
22	0xbac902fe	-0.0015335975
23	0x3c0f58e4	0.0087492205
24	0xbd6b1053	-0.057388615
25	0x3bbc571c	0.005747689
26	0x3d32143c	0.04347633
27	0xbd7cdc4f	-0.06173354
28	0xbcfc0e8e	-0.030768659
29	0xbd8305cb	-0.06397589
30	0x3d1704c2	0.03686977
31	0x3d5a25a7	0.053258564
32	0xbc6b095a	-0.014345491
33	0x3c2b985c	0.010473337
34	0xbb563d4f	-0.0032690351
35	0x3d63deb0	0.055632293
36	0xbd4121b6	-0.04715129
37	0x3d3e0544	0.04639174
38	0x3d4ac8ff	0.04950809
39	0x3c86e2b4	0.016465522
40	0xbd14f45d	-0.036365855
41	0x3d0bbc72	0.034115262
42	0xbbb754f2	-0.005594843
43	0xbd1869e7	-0.03721037
44	0xbc57e411	-0.013176934
45	0x3ce514d4	0.027964033
46	0x3c349a8e	0.011023177
47	0xbcffe94e	-0.031239178
48	0xbd3aad6a	-0.045575537
49	0xbd5b413b	-0.053529005
