output/Darcy_UQPINN/weight.pth (torch, 160307 bytes, 40 tensors)

P.mlps.0.layers.0.weight f4 [50, 3]
00000000: 35ee bc3d a0d5 603e eb22 43be 2ae0 24be
00000010: 6981 41be cb5a 6f3e 32c4 75be 2fa8 1f3d
00000020: 32b2 1d3d 9275 df3d 46c9 95be 9561 33be
00000030: 82a8 cf3d f0b8 13be 4120 343e 110d 2c3e
00000040: 122d 8b3e b761 093c 2236 6d3e 4214 403e
00000050: 33d2 d7bd 0eb9 c03d ed33 8f3d 03ab 9c3d
00000060: e87f b93a 243c 8abe ef7f 7f3e 0476 72bc
00000070: a127 1a3e f863 3d3e dd3d 343e 36af 9d3e
00000080: 2d84 0d3e 0579 f83e 81a1 2abe 5687 8fbd
00000090: 4f2b 103e 211b a9be fb12 36be 3760 643e
000000a0: e35a 3cbe b1ec 793d c37d 32be 4068 1dbd
000000b0: 9f92 cc3d 50d3 843d f0ba 06be b7a5 cb3e
000000c0: 644c 813d 7d13 76be 1fd1 2d3d 8d49 d83d
000000d0: 6dae 803d 2b99 48be 2c85 6e3d 7488 273e
000000e0: a297 4abe 9ed4 ba3d fcf4 9bbe 1f35 a4bb
000000f0: 157c 5bbd 5098 093d 15e4 d13d e128 58be
00000100: 6a2c b13d 3e22 603c 7f14 213e 6edd 55be
00000110: 1200 7a3d 7974 d0bc ca41 69be 57d2 ecbd
00000120: 8425 e73c 416e 7a3e 896c 81be cd14 dd3d
00000130: 9ded 5abe cff7 ec3b 4c3e cebd a6cf 93be
00000140: 5681 79be cae2 dcba 26ba 21be a06b b93d
00000150: fd77 693d 241e 8fbe ab20 25be 9591 e6bd
00000160: 262a acbd e1a7 783e 46ba be3c acf3 8c3e
00000170: 4c25 bc3c 7899 d2bd a3c4 cabc f6d0 f4bc
00000180: 1b43 4f3e eaa5 f43d 1ba9 9a3d b3a8 8f3e
00000190: 8e68 8ebe ec9b c7bd 0f64 2a3e 09ff 96be
000001a0: 6d8e 2e3d a25f 063e dda9 8dbd 865f 7f3e
000001b0: 70d9 9a3d 86ed 29be e57f afbe 06c0 82bb
000001c0: 55c1 373d e69b 8abe 6c9b e43d d7fc 6b3d
000001d0: ec44 7cbe 483d 61bd 5e75 053c 3105 8dbd
000001e0: 96d8 1dbe 344f dbbd 676d 83bd bb13 e9bc
000001f0: 6664 e83c bfb2 243e 29a2 113e 951d cbbd
00000200: 6b20 c23d fc88 f6bd fdbe 02be 131a dbbd
00000210: 9f22 40be f550 a63c b844 0bbe 4f9a 8c3c
00000220: 2a76 18bd 66df 26be 3334 4fbe 35a6 0f3f
00000230: 0251 553d 7ad2 0a3f 50ba 963d b2ce bb3c
00000240: c421 10bd 6bb6 353e 8b18 e83c 640e efbc
00000250: 96f5 01bf f493 9f3d
0.09225122 0.21956491 -0.19056289 -0.16101137 -0.18897022 0.23374479 -0.24000624 0.03897875
0.03850002 0.10911097 -0.29255122 -0.17517693 0.10139562 -0.14426017 0.17590429 0.1680186
0.27182823 0.008385113 0.23165181 0.18757728 -0.10538139 0.094102964 0.06992326 0.076498054
0.0014152499 -0.2699901 0.24951147 -0.014798645 0.1505418 0.18495166 0.17601724 0.30797738
0.13819952 0.4852983 -0.16663171 -0.07008235 0.14079021 -0.3302851 -0.17780678 0.22302328
-0.18394046 0.061016742 -0.17430787 -0.0384295 0.09988903 0.06485617 -0.13157248 0.39774868
0.063133985 -0.24030872 0.04243576 0.10560904 0.06283269 -0.19589679 0.05823247 0.16360646
-0.19784406 0.09122585 -0.30460346 -0.0050112153 -0.05358513 0.033592522 0.10248581 -0.21109344
0.086510494 0.013680039 0.15730475 -0.2088525 0.061035223 -0.025446163 -0.22779003 -0.11563557
0.028216131 0.24456121 -0.25278118 0.10794983 -0.21379705 0.0072316895 -0.10070476 -0.2886936
-0.24365744 -0.0016852256 -0.15793666 0.09053731 0.056999195 -0.27952683 -0.16125743 -0.11258236
-0.08406477 0.2428279 0.023282181 0.27529657 0.022967003 -0.10283178 -0.024751967 -0.029884797
0.20240442 0.11945708 0.075517856 0.28058395 -0.27814144 -0.097465366 0.16639732 -0.2949145
0.042616297 0.13122419 -0.069171645 0.24938783 0.07561004 -0.16594514 -0.34277263 -0.003990176
0.04486211 -0.27072066 0.11162457 0.057614174 -0.24635667 -0.054990083 0.008145658 -0.06885756
-0.15414652 -0.10708466 -0.06417351 -0.028451791 0.028368186 0.16083811 0.14222015 -0.09917752
0.094788395 -0.120378464 -0.12768169 -0.10698333 -0.18763207 0.020302275 -0.13600433 0.017163424
-0.037222065 -0.16296157 -0.20234756 0.56112987 0.05207921 0.5422741 0.07359755 0.022925708
-0.03518845 0.17745368 0.028332015 -0.029181667 -0.5076536 0.07791892

P.mlps.0.layers.0.bias f4 [50]
00000000: 76f6 a93b 5550 2e3d 1987 bf3b 8298 87bc
00000010: 2bd0 173c 4676 a1bb 9c6d aabb d8e4 10be
00000020: 2772 88bd 2062 d13c e1ca d7bd 8d48 16bc
00000030: 2969 1dbc 172c 7e3d bb65 da3d 3f78 d5bc
00000040: d077 903d f947 c6bd 2e61 413d 30dd 5e3d
00000050: 3d90 c33c 6188 81bc ec2c 7cbd 8eab 2ebd
00000060: d228 143b a535 6dbd 6c42 463d e430 083d
00000070: 51c0 59bd 236a 99bd 6ac6 4b3c e93f 23bc
00000080: 51a9 08be 1318 b6bd 18d8 90bd 9af4 18be
00000090: b804 25bb 1bd3 bcbd 7b0f b8bc 1c3b 90bc
000000a0: 6d2e c53d b7d9 12bb e350 b03c ff74 493d
000000b0: 246d 50bd 7388 d83d dec4 643e 57d8 fa3c
000000c0: df9c c63d cff3 193d
0.005186851 0.04255708 0.0058449623 -0.016552214 0.00926594 -0.0049274294 -0.0052010547 -0.14149797
-0.06662398 0.025559485 -0.10536743 -0.009172571 -0.009607592 0.062053766 0.10663935 -0.026058314
0.070541024 -0.096816964 0.04721182 0.05441016 0.02387249 -0.0158121 -0.06156628 -0.042644076
0.0022607339 -0.057912488 0.04840319 0.03324975 -0.053161923 -0.07490947 0.012437442 -0.009963968
-0.13345839 -0.088913105 -0.070724666 -0.14937058 -0.0025179815 -0.09219953 -0.02246832 -0.01760631
0.09627996 -0.00224076 0.021522945 0.04918384 -0.050885335 0.105729006 0.22340724 0.030620737
0.096978895 0.03758603

P.mlps.0.layers.1.weight f4 [50, 50]
00000000: 45eb 9b3d 22d8 f03d bddd ae3d c8d7 a6bd
00000010: 1e57 a0bc 83e6 ef3d fe46 ea3d d431 1b3e
00000020: 42ad 84be 254e 2bbe 21e1 643e 9049 593e
00000030: 1c98 933e 68ab b83e 12d0 403d cd7e 143d
00000040: 824c be3d 64bd 9cbc d966 1f3e 3e9c 333e
00000050: 71ff e93c 6feb 3d3e 0718 12be e050 19be
00000060: a24e dc3d 0a07 603d caaf d73d 525e a1be
00000070: 7442 a2bc 3cf3 4abd 9147 5ebe ff5f 353e
00000080: 7e87 d23d 7106 67bc 5f71 273e ffa8 043e
00000090: e33b f33d c8f2 75bd 12df 243d 1141 09be
000000a0: 0524 83bc bd79 6ebd 8e47 e03c c2b4 9cbe
000000b0: 020d cebd 9d3f 4dbd 7206 5a3e 2957 0abe
000000c0: c61a 37bd b791 863c 37aa 173e 3c6a d43b
000000d0: ddbb 2bbc cad0 0d3d b83b b9bd a5b5 d2ba
000000e0: 8b83 9d3e f7ab 65bd 333e 9fbd b947 38be
000000f0: dcbf a33e 93d0 98bd d8e7 b63d 3a4b babd
00000100: 4e43 d53d ab53 f23c 15d7 733e f3ad 6dbd
00000110: e5d5 cc3d 19cc 903d abbd b83b d6a8 01be
00000120: 4b04 da3c 86b8 5f3e a242 1bbd 52da 863e
00000130: dbb5 22bd 6e93 1cbd fac8 2f3e 0eb7 af3e
00000140: ccb7 713e 8a35 3f3d 88ac 9a3e 5d24 733d
00000150: 9d05 e7bd 15a8 943c a5fe cdbe 0b64 b5bd
00000160: b123 793e 152f 7abc 1ac4 79be 2fa9 e1ba
00000170: bb38 553e 11db 943e a10d ccbc 2eac d73d
00000180: cc28 0abe 5d6a aa3d ec06 60be 76ec 2dbd
00000190: 6ddd dc3d ac3a f23c 0cc9 aabe be45 253d
000001a0: e9ef a83d 8f6b 83bb 5659 2c3e e0ec 7cbe
000001b0: a134 8d3d 5682 5d3e f4ce 463d 3fc7 093b
000001c0: dedd 2cbc ec68 25bd 5278 09be 9da9 bd3c
000001d0: 95e6 7c3e 52ad b03d a822 b63d d777 5dbe
000001e0: 1c91 60bd 70ad 18be 495a 7e3d 7b54 643e
000001f0: 9098 c3bd 6a3f 773d c129 2bbd 1923 2bbd
00000200: 42b1 713e 52a7 6a3d 0dcd 2abe 99d1 873d
00000210: dc26 b73d ec14 91bc 8ade 8a3e 2e38 163e
00000220: a894 b2bd b09f bdbd 9bc3 913e c4c1 dcbd
00000230: 35b8 ce3d 030f 843c ea60 17be f498 b2be
00000240: a944 073e ad98 1bbe cbe4 c63d 6f02 d43c
00000250: 33f8 ffbc d87c 4ebd aaef 0abe fb25 0abd
00000260: 89e9 b53d 93e6 15bc 2331 0f3e cb07 5dbe
00000270: 45a9 a3bd e738 c13e fb7b 9b3e c8a0 2dbe
00000280: f701 e43c 4535 8b3d d8d0 02bd 0324 403e
00000290: c591 453e 16e3 0ebe ed75 b7bc 6ad0 03be
000002a0: 3383 c93d 3aa5 83be 27f9 b73d 72ff a03d
000002b0: 3ece 24be 0c42 f63c b2b5 d03e b86f 3bbe
000002c0: b88a 973d 0403 0e3e 7ae2 333d 53a2 1e3d
000002d0: 9602 39be 61fa e43d 13e0 113e 85bb e53d
000002e0: 7972 81be 2a2e 163d 9c83 a53d bb8f 553e
000002f0: dfd6 aa3d bb4d babd 2da6 0e3e a927 803d
00000300: 7f0b aabc 8464 32be 6c26 ee3d 54f4 adbe
00000310: 9b07 803d 6188 323d a1ac e0bb a529 07bd
00000320: ca86 dbbc 6ba6 893d eb78 873d f969 453e
00000330: 531a 20be 7744 a8bd 38ac 393e fa35 aabc
00000340: fea1 ffbd 3aeb 503e e0f0 f63d 189e d23c
00000350: 865c f03d a468 ddbd 73bb 493d ce9c 8dbd
00000360: 3a3f 5a3c 2fbc 083e ed80 1bbd c59b 86bd
00000370: 16c8 77bd e2f3 643d ae87 a53e 9a5b 303d
00000380: 3c63 913e c7ef 553e dfb2 fdbd a75b bcbd
00000390: 59e0 6abe d2b3 8d3d 1f58 fbbd 4405 f73d
000003a0: e33c 3e3e 5806 d33c 7a25 bf3c 7ea3 3abe
000003b0: f7e3 19be 7ea5 d93d 5ec1 babe ff39 6f3e
000003c0: 093f 263d 2273 efbc 59c3 87be 92fe b6bd
000003d0: 4ad6 d63d 0536 9ebc 6291 c4be 3d8e 363e
000003e0: 3cd0 5bbe 10ba 60be 404e 9bbc 9a82 80bd
000003f0: be5a 413d 46bd 223e 001e 9bbd 7f85 613e
0.076132335 0.11759974 0.08538387 -0.08146626 -0.01957279 0.117138885 0.11439322 0.15155727
-0.25913435 -0.16729029 0.22351505 0.21219468 0.28826988 0.36068273 0.04707343 0.03625374
0.092919365 -0.019133277 0.15566577 0.1754007 0.028564187 0.18546842 -0.14266978 -0.14972258
0.107571855 0.054694213 0.10531576 -0.31517273 -0.019807078 -0.049548373 -0.21706988 0.17712401
0.10279749 -0.014100657 0.16351841 0.12955092 0.11876657 -0.060045987 0.0402518 -0.13403727
-0.016008386 -0.058221567 0.02737787 -0.30606657 -0.10061075 -0.050109494 0.21291521 -0.13509811
-0.044703268 0.016426904 0.14811026 0.0064823907 -0.010481802 0.034622945 -0.090445936 -0.0016075863
0.30764422 -0.0560722 -0.077755354 -0.1799611 0.31982315 -0.074616574 0.089309394 -0.090963796
0.10413228 0.029580912 0.23812516 -0.05802722 0.10001735 0.070701785 0.0056378446 -0.12662062
0.026613375 0.21847734 -0.037905343 0.2633844 -0.039724212 -0.038226537 0.1716651 0.34319347
0.23605269 0.04668192 0.30209756 0.05936085 -0.112803675 0.018146554 -0.4023334 -0.08856972
0.24330021 -0.015270014 -0.24391213 -0.0017216558 0.20822422 0.29073384 -0.024908843 0.105308875
-0.13492125 0.083210684 -0.2187764 -0.042461835 0.10784421 0.029568993 -0.33356512 0.040349714
0.08248884 -0.0040106247 0.16830954 -0.24699736 0.06894804 0.2163175 0.04853721 0.00210233
-0.010550944 -0.040383264 -0.13424805 0.023152167 0.24697335 0.08626808 0.08893329 -0.21627747
-0.054825887 -0.14909911 0.06209782 0.22297852 -0.09550583 0.06036321 -0.041787867 -0.04178152
0.23602775 0.057288475 -0.16679783 0.066317745 0.08942959 -0.017710172 0.2712291 0.14669868
-0.0871976 -0.092589736 0.28469548 -0.10779145 0.100937285 0.01612044 -0.14783064 -0.3488232
0.13209786 -0.1519496 0.097116075 0.025880067 -0.03124628 -0.05041203 -0.13567987 -0.033727627
0.08882434 -0.009149211 0.13983588 -0.21585004 -0.0799127 0.37738726 0.30368027 -0.16955864
0.027832968 0.0679727 -0.03193745 0.18763737 0.19293888 -0.13953814 -0.022395099 -0.12872472
0.098394774 -0.25711995 0.08983069 0.07861222 -0.160943 0.03006079 0.40763623 -0.18304336
0.073995054 0.13868338 0.043917157 0.038729023 -0.18067393 0.111805685 0.14245634 0.11217407
-0.25282648 0.03666512 0.08081743 0.2085561 0.08341765 -0.09096857 0.13930579 0.062575646
-0.020757435 -0.17421156 0.11628422 -0.3397547 0.06251451 0.043587092 -0.0068565165 -0.0329987
-0.02679767 0.06721195 0.0661486 0.19278707 -0.15635042 -0.08216184 0.18132102 -0.020777691
-0.124820694 0.20402232 0.12057662 0.02571015 0.117363974 -0.10810974 0.04925103 -0.06914674
0.013320738 0.13353036 -0.03796475 -0.065726794 -0.06049355 0.055896647 0.32330078 0.043056108
0.28396022 0.20892249 -0.123876326 -0.09197169 -0.22937144 0.06919064 -0.12272667 0.12061551
0.18577914 0.02575986 0.0233333 -0.1822643 -0.15028368 0.10627268 -0.36475652 0.23361968
0.04058746 -0.029229704 -0.26516226 -0.08935274 0.10490091 -0.019312868 -0.38392168 0.17827697
-0.21466154 -0.21945977 -0.018958211 -0.0627491 0.04720568 0.15892515 -0.075740814 0.22023581

P.mlps.0.layers.1.bias f4 [50]
00000000: 9d9e a93c ac6d b83c 6263 2abd 65b4 7ebd
00000010: e83d abbd f0d5 c63c 3bd8 bbbd 6584 193d
00000020: 3c47 263d 6f5c adbb cb0f 533d d497 da3c
00000030: 4041 2a3d 05c6 403d 1fec b03c 1df7 12bd
00000040: 20fd 21bd ae06 e23b e1fb 4f3d 52ac 7b3c
00000050: e8fc 833d 52c6 433c 913c 5ebd 1c11 943b
00000060: d507 afbd 2795 303d 1f70 1cbc 12e6 78bd
00000070: 2526 bebc 8bbc c0bc 3147 503d 5edc 623a
00000080: 0e6a aabc db7b 8dbb 96ca 023e 02ed 3bbc
00000090: cdbd cfbd 4a98 bb3d b690 5f3d 099a 7c3c
000000a0: 4bfb 003e 42e9 013d c717 303d e9c1 d6bd
000000b0: 8d0e 933d 02f3 8a3d 54e9 f2bd 4370 6c3b
000000c0: c23d 99bd 8f08 bdbc
0.020705516 0.022513233 -0.041598685 -0.062183756 -0.08361417 0.024271935 -0.09172102 0.037479777
0.04059528 -0.00529056 0.051528733 0.026683725 0.041566133 0.047063846 0.021596966 -0.035880197
-0.03954804 0.006897769 0.05077732 0.015360909 0.064447224 0.011949139 -0.05425698 0.004518641
-0.08546416 0.043110993 -0.009548216 -0.060766287 -0.023211548 -0.023527404 0.050849143 0.0008654053
-0.020802524 -0.0043177432 0.12772593 -0.011470081 -0.101436235 0.09159906 0.054581366 0.015417584
0.1259586 0.031716593 0.042991426 -0.10486204 0.0718051 0.06784631 -0.1186091 0.0036077655
-0.074824825 -0.02307537

P.mlps.0.layers.2.weight f4 [50, 50]
00000000: 6444 a8bc e823 16be e187 0abd 710a a5be
00000010: c588 b3bd 0fcb ac3e 4431 36be 46c0 283e
00000020: d548 963c 5e18 fa3d a17a 5c3c 1a77 cdbe
00000030: 407d b93a c2d2 803d 8069 3c3e dcd2 053d
00000040: 13ca cd3c 6055 a43d d3a2 73be aff8 4c3e
00000050: 3910 b8bd c485 30be d73d f33c 0a34 4f3e
00000060: 58d6 0abe 279d 5b3e 5c73 d3bd 44b2 4a3d
00000070: 12a3 2dbe b227 023e a43c a9bd 04f7 133e
00000080: 173c 46bd 341a 993d e8e5 1b3e 8945 983d
00000090: 1258 413d d99f 46bd 6b91 353e 2098 04be
000000a0: 0446 6bbd 15b0 5cbd 891a 583d 8573 4f3e
000000b0: 2047 29bd cf83 173d 6310 0fbe c470 043e
000000c0: 53d4 27be 3c4c fabd bf9b 88bd 389a c8bd
000000d0: 5ca8 99bc c5d8 aabe 30a9 873d 0399 d0bd
000000e0: 835a b3bb e365 e4bd 7b96 7fbe 1a79 3dbe
000000f0: 8a2a d73d 7e88 0c3e ce76 c5bd e594 bd3d
00000100: 2508 96bd 6a4a a73d fcef ea3b 09c0 abbc
00000110: c04d 7cbe 3217 813d 9811 c0bc 0013 073d
00000120: 0b45 e83c 4847 d7bd e49c 443e 7682 24bd
00000130: e035 4a3e 6702 f93d 2fe1 92bd c060 1c3c
00000140: b510 483e 0068 913e 2d20 2cbe 93dd 6b3e
00000150: 73ec 163e c925 753e 92b3 a4bc b5c1 5a3e
00000160: d0cb f93d 8d5b 113e 936b 923d 99a0 593d
00000170: 221b 123d d763 4f3d 619b cb3d 4399 c2bd
00000180: 6352 8f3c cddd 423d 941e cdbd a9ae 043e
00000190: dd95 a2bd bd15 c4bd 243e 503e c022 c7bc
000001a0: c6c6 393d 26d0 ab3d 24a2 45be 8af1 973e
000001b0: 7529 043e e24a 57be e2e6 53bd 309c 993e
000001c0: b588 7dbc 7dda 7fbe 2634 75be d880 01be
000001d0: 8954 1f3e 92d8 303d 9a84 a63d 9362 b6be
000001e0: a13f 91bd deb6 1cbd a5a4 eb3d a2da ae3d
000001f0: a0c8 033e fc57 873e cc10 063e ccfb 83be
00000200: 1629 4e3e 4d3f 90bc 94a7 0bbc 8ee8 9dbd
00000210: c82d c03d 8558 393e 3cfe dc3d 7678 573e
00000220: 4ee0 1e3e db4d 23be 13b5 24be c460 87ba
00000230: 459c f63c 3dfe 043d 6bb1 9cbe 809d c83d
00000240: 98b8 713d 54d8 8d3d 0311 3f3e fe80 b33d
00000250: de0e 8b3e fb0f 843e e92a b2bd 59ca 773d
00000260: cf47 96be c784 a93d 30b1 b43d ec09 60be
00000270: e5e6 c5bd 19e5 93be c87f 5bbd 424b 3bbd
00000280: 2d13 6e3d 7519 c43d 6bbf f5bd 1598 0bbe
00000290: 5a77 793c 01ac 8bbb b388 fb3c d366 84be
000002a0: e896 3c3d 905b 433e f728 9bbd 1575 c3bc
000002b0: 6a61 8cbd 7e58 8a3d 5335 88bc 743e 553c
000002c0: cba4 dabd 888d 6abd a27b c3be 4f10 d23c
000002d0: 5515 d73c 9d94 1bbe 63a0 27be 4e5f ef3d
000002e0: cc3e a53d 81fa fd3c 97e1 1d3e f345 f2bd
000002f0: 7f05 61be e7b7 d7bd 732e 2fbe 3e01 52bb
00000300: 4c31 923c 123f 473e bb68 abbd 656b cdbc
00000310: aef2 573e f156 a5bd 5ff4 5cbd 6408 353e
00000320: f6d5 d1bd 34bb 6dbd be17 5dbe 29d1 46be
00000330: f738 813d 4a41 a63d 358c a13d d7e7 c2bd
00000340: b162 0a3e 4c4c bcbd 027f 093e de75 7b3d
00000350: ffa1 2f3d d324 683e c4ce 473d 366f b6be
00000360: 4a9c ac3d d832 143e a0ca 6d3d 5151 0bba
00000370: 698c 91bc 5cfb 343d 5f57 b13d b354 c93d
00000380: dd93 44bd 917e e9bd 3536 893d e0b0 c1bd
00000390: 0b3d c43d 5732 c1be 9c50 7e3e 53eb babd
000003a0: e751 443d e9fc 31be e2e8 78bd a1cc a1bd
000003b0: 7af6 323d 7045 9abe 2fce 8ebe 31e3 8b3d
000003c0: 8e0b fcbb 04f4 603b 8ca6 3a3e fcc2 f43c
000003d0: 49b0 0f3b 46ad 013e b779 78be 9a15 e6bd
000003e0: f82f 66be 3b5a 813d 0baf 78be fdfd ba3c
000003f0: 1a49 7abc 44f6 c4bd c865 efbb 1783 983e
-0.020540424 -0.14662135 -0.03382099 -0.3223453 -0.08766321 0.3374867 -0.17792231 0.16479596
0.018345276 0.12211679 0.013456971 -0.4012993 0.0014151707 0.06290199 0.1839962 0.032671794
0.02512077 0.080240965 -0.23792581 0.2001674 -0.08987469 -0.17238528 0.029692573 0.20234695
-0.13558328 0.21446668 -0.103247374 0.049486414 -0.16956738 0.12710455 -0.082635194 0.14449698
-0.04839715 0.07475701 0.15224421 0.07435138 0.04720313 -0.048492286 0.17731254 -0.12948656
-0.05743982 -0.053878862 0.05275968 0.20258911 -0.041327596 0.036990937 -0.13971095 0.12933642
-0.16389589 -0.12221572 -0.06670331 -0.0979504 -0.018757038 -0.33368507 0.06624067 -0.10185435
-0.0054734363 -0.11152246 -0.24959747 -0.18503228 0.105061606 0.13723943 -0.09641801 0.09256915
-0.07325772 0.0816849 0.0071697216 -0.020965593 -0.24639034 0.06303252 -0.02344589 0.032977104
0.028353235 -0.10511643 0.19200474 -0.04016348 0.19747114 0.12158661 -0.071718566 0.009544551
0.19537623 0.28399658 -0.16809149 0.23033743 0.14738636 0.23940195 -0.020105157 0.21362956
0.12197077 0.1419508 0.071494244 0.053131673 0.035670407 0.050632324 0.099417455 -0.095018886
0.01749534 0.047574807 -0.10015598 0.12957253 -0.079387404 -0.09574459 0.20336205 -0.024308562
0.04535558 0.083893105 -0.19300133 0.29676467 0.1290644 -0.2102466 -0.05173386 0.30001974
-0.015474488 -0.2498569 -0.23945674 -0.12646806 0.15559591 0.043175288 0.081307605 -0.3562208
-0.070922144 -0.038260333 0.11506013 0.08537795 0.12869501 0.26434314 0.13092345 -0.25778043
0.2013286 -0.01760831 -0.00852384 -0.07710372 0.09383732 0.18100174 0.10790679 0.21042046
0.15515253 -0.15947668 -0.160847 -0.0010328521 0.030103812 0.032469023 -0.3060411 0.09795666
0.059013933 0.06926027 0.18658833 0.08764838 0.2715978 0.25793442 -0.08699591 0.06049571
-0.2935166 0.082772784 0.08822858 -0.21878785 -0.0966318 -0.28885725 -0.05358866 -0.04572607
0.058123756 0.09575168 -0.11999401 -0.13632233 0.01522621 -0.004262448 0.030704832 -0.258597
0.046042353 0.19077897 -0.07576173 -0.02385954 -0.06854518 0.0675516 -0.01662699 0.013015378
-0.10675963 -0.05726388 -0.38180262 0.025642542 0.02625529 -0.1519341 -0.16369776 0.116881
0.08068618 0.031003239 0.15418087 -0.11829748 -0.21974753 -0.105331235 -0.17107563 -0.0032044197
0.017845772 0.19457653 -0.08369585 -0.025075624 0.21088669 -0.080732234 -0.053943988 0.17678982
-0.10245888 -0.05803986 -0.21591088 -0.19415726 0.06309693 0.08117922 0.078880705 -0.09516876
0.1351421 -0.0919424 0.13427356 0.061391704 0.0428791 0.22670297 0.04878117 -0.35631722
0.08428247 0.1447252 0.058054566 -0.0005314546 -0.017767148 0.044185027 0.08659243 0.09830608
-0.047992576 -0.11401094 0.06699792 -0.09457564 0.095819555 -0.3773372 0.24835438 -0.09126916
0.04792967 -0.17381634 -0.06076897 -0.07900358 0.04369209 -0.30131102 -0.2789168 0.06830443
-0.007691807 0.0034325132 0.18227595 0.029878132 0.0021925143 0.12663755 -0.2426518 -0.11234589
-0.22479236 0.06316038 -0.24285524 0.02282619 -0.015276218 -0.09617284 -0.0073058344 0.29787514

P.mlps.0.layers.2.bias f4 [50]
00000000: 9914 493b 8a46 353d 4aca 803c 3aa1 f0bc
00000010: 9e2b e03c 2147 a53d b429 7ebd 02ac 9e3d
00000020: 99fe 95bd b3d9 b33c d455 a23c aaa0 32bd
00000030: b73a b5bd b5e1 ccbb 94b8 e13c d2b1 1f3d
00000040: 05b5 adbd 74fe c1bd d209 103d 4f34 1539
00000050: eea2 e43d 6f58 bdbb 5ab2 66bd 960a 873d
00000060: 93dd a8bc 6c26 38bd 651a 3e3d 241b b63c
00000070: 7f35 7fbd 82d0 ac3c 8424 c43b 0353 c2bd
00000080: 2319 a9bd 0437 b03c 8b2f f8bb ff9e cd3c
00000090: 5768 083d 6451 3f3d ff81 92bc 026e 86bc
000000a0: 7261 14be c5ef b03b 1f90 503d 02de 083e
000000b0: 29d3 2c3d 37d9 02bd 184e 853c 976c dbbd
000000c0: 0a6f 033d 8d14 1ebd
0.0030682443 0.044256724 0.015721459 -0.029373754 0.027364548 0.080702074 -0.06205149 0.07747652
-0.07323951 0.021954393 0.019816317 -0.043610252 -0.088490896 -0.0062524923 0.027553834 0.038987942
-0.08481792 -0.09472361 0.035165615 0.00014229234 0.11163889 -0.0057783644 -0.056322433 0.06593816
-0.020613467 -0.044958517 0.04641189 0.022229739 -0.062306877 0.021095518 0.0059857983 -0.094884895
-0.082567476 0.021510608 -0.007574027 0.02510023 0.03330263 0.04670848 -0.017884253 -0.016409878
-0.14490297 0.0053996765 0.050918695 0.1336594 0.042193566 -0.031945433 0.01627259 -0.10714071
0.032088317 -0.038593818

P.mlps.0.layers.3.weight f4 [50, 50]
00000000: 3e38 b8bd fe5d 14be 28c0 b83d b3ac d1bd
00000010: 2104 373e cb03 c03c 5f74 67bd 0572 923d
00000020: 4e03 72bb 2729 37be dfd7 b13d 15a9 27be
00000030: 0d38 cf3d a55e 8abe bcf2 833d ba1a 2c3d
00000040: 8113 8c3e 06d2 03bc 0268 95bd 31b3 4ebe
00000050: 327c 18be 97c0 04bd 021d 48be d8dc 90be
00000060: a242 a23d 1202 b13c a5ef 33be 35a4 c1bd
00000070: cea0 c03d 6ba5 34bd aa72 2dbd fab0 b2bd
00000080: 1bb8 ff3c b768 2bbe e0c1 56bd 67bc aa3c
00000090: fd93 e5bd 2a9b 81be 0af3 1abc 7abd de3d
000000a0: 0db3 4ebe 3345 4e3e 4313 853e 6fd4 cfbd
000000b0: 381e 7d3e b543 0abd ca44 a3be e7f9 d2be
000000c0: 8a71 283e 2824 a73d 9c15 3cbe e27f 1dbb
000000d0: cf0c 6a3d e020 ef3d ada0 32be a173 893e
000000e0: 6f57 3f3e 18e4 8e3c fc37 29be 2d03 c13d
000000f0: 5713 ddbd 06e1 363c 3e04 bd3e 1118 4a3e
00000100: 7d45 0cbe bb5b d9bd 289e 233e 7cbe bcbd
00000110: 95a7 a33d fd52 8e3c 3a82 d6bd 07e1 b43c
00000120: aa20 073e 104e f6bc e215 3e3d d7ab e83d
00000130: 8658 d5bd 406f 963c 8c2c 2e3d 1337 e13c
00000140: 0500 0b3d dad2 27bd 15f5 2d3e a656 e83d
00000150: e29a 763d da51 d03a b0f6 67b9 b057 ad3b
00000160: 1a22 34be a140 01be 80d2 873e b018 253e
00000170: 95d2 2b3e 34a6 b6bd 7255 a3bd e583 26bd
00000180: 2483 2bbd 5d2a 84be e54e bd3d 313f 40bd
00000190: f049 94be 7139 2abe d8f4 013e 9078 923d
000001a0: a1e8 d83d 7a13 a1bd 5fa3 54bc 3c8a 0e3e
000001b0: 5af4 513e 14d5 37be d57f 53bd 6faf abbc
000001c0: ff46 0b3d ca3a 31be 81d0 0bbe 590d 64bd
000001d0: 8729 423e ccd4 51be c385 5abe d9f4 7d3d
000001e0: 66db fcbd 121d b8bd 2974 7bbd e11c b33d
000001f0: 60cb 463e e2b4 00bd ef87 343b dc54 b1bc
00000200: 9c59 1f3e be5e d9bd aab0 d9bd a1b8 8a3e
00000210: a2b4 fab9 c17d 673c cd77 aabd d508 e1bd
00000220: 3db8 a4bc a14f b1bd 000f 3c3e 2412 ee3d
00000230: 0f9b 07be 59ed 1e3d 88e7 273e bb11 843d
00000240: 01bf aebd ec3b bcbd 8824 ca3d 0c45 6dbe
00000250: 38a5 a2be 197e c3bc 2ded a8bc 0f45 873d
00000260: 34e0 1abe 08cb a23d 2da1 67be 50c9 bc3d
00000270: 1524 1cbe 91b7 303d 6afe d33d 9ed7 9e3c
00000280: 39ee f03d 02e0 813d 85c1 953d 6474 783d
00000290: 8dce 9f3d e83f d43e 6b45 83be a053 9e3d
000002a0: b980 d1bd 395d dfbd 7238 113e ee0a debd
000002b0: 6a85 3ebe 9c95 253e 13df 69bd 9000 05be
000002c0: c76b 1ebe 3510 19be 85fb 483e 939f e53d
000002d0: 37e8 1ebe b311 07be 9bdb d53d 660c 6e3d
000002e0: 6f23 bebb 0ef5 55be c283 c53e 5788 f1bd
000002f0: d536 a7bd 2143 6abd 5bb7 3fbe 500d 723e
00000300: 0eab 4dbd df50 5e3e e48c e6bd 3d35 71bc
00000310: 1b87 22bd 09e2 80bc 2033 4ebe c04a 9fbe
00000320: 4534 59bd 2e92 15be 2516 8a3e 818d b6bd
00000330: a335 8d3e 0de4 7bbe 19f3 383e ffd2 473e
00000340: b170 08bd f6a6 4e3c cb57 ecbd 58e3 903d
00000350: b6f8 d53c 588c 62bd 9375 32bd 4e5e d8bd
00000360: a135 babc 5d1d 943d b459 3c3d b882 1a3e
00000370: 5234 863e a901 f2bc 0dce 233d 20b9 01bd
00000380: 8915 15be e61c 3dbe c2a5 4d3e c131 293e
00000390: d5bc 823e 2372 4bbd 5def 8ebe ab92 0fbe
000003a0: fb4b 6cbd dae0 0e3e a08e 2f3e 6a32 86be
000003b0: 6129 edbd 4a9c b2bd 36f3 8d3d 7b13 863d
000003c0: 4f2c 0c3e 8592 0cbd 58eb 1b3c 6826 94be
000003d0: 5596 51be 21c1 28be fcf8 ed3d 29e3 f9bd
000003e0: 6bea 3e3e 66ab 3d3e 20e8 313e f187 98bd
000003f0: 1af3 993e 0ae1 67bd d4b4 2a3e aec2 873d
-0.08995102 -0.1448898 0.09021026 -0.10238018 0.17872669 0.023439309 -0.056507464 0.07150654
-0.003692824 -0.17886792 0.08683752 -0.16373093 0.10118113 -0.27025333 0.06442782 0.042017676
0.2735863 -0.008045679 -0.072952285 -0.20185544 -0.14891127 -0.03241023 -0.19542316 -0.2829349
0.079228655 0.021607433 -0.17571886 -0.09455148 0.09405671 -0.044103067 -0.04234568 -0.08725162
0.031215718 -0.16739164 -0.052430987 0.02084179 -0.11209867 -0.25313693 -0.009457359 0.108759835
-0.2018549 0.20143585 0.25991258 -0.1014794 0.24718559 -0.033755977 -0.3188842 -0.41206285
0.16449562 0.08161193 -0.18367618 -0.0024032523 0.05714112 0.11676192 -0.17444105 0.2684603
0.18685697 0.017442748 -0.16525263 0.09424434 -0.107947044 0.011162048 0.369173 0.19735743
-0.13698383 -0.10613199 0.159783 -0.092160195 0.07990948 0.017373556 -0.104740575 0.022079958
0.13196054 -0.03006652 0.046407588 0.11360901 -0.10417275 0.018363595 0.042522952 0.027492082
0.033935566 -0.040972568 0.16988023 0.11344652 0.0602063 0.0015893534 -0.00022121775 0.005289994
-0.17591134 -0.1262231 0.26527786 0.16122699 0.1677955 -0.089184195 -0.07975282 -0.04065313
-0.041873112 -0.2581357 0.092435636 -0.046935264 -0.2896266 -0.16623475 0.12691057 0.07151902
0.105912454 -0.07865043 -0.012978404 0.1391992 0.20503369 -0.17952377 -0.051635582 -0.020957677
0.034003254 -0.17307582 -0.13653757 -0.05567679 0.18961154 -0.20491332 -0.21340089 0.062001083
-0.123465344 -0.0898992 -0.061390076 0.087457426 0.19413519 -0.031422503 0.0027546843 -0.02164691
0.15561527 -0.10613774 -0.10629399 0.27093986 -0.00047818298 0.014129103 -0.083236314 -0.10988013
-0.020107383 -0.08657766 0.18365097 0.11624554 -0.13242744 0.03880057 0.16396916 0.06448694
-0.08532525 -0.09191117 0.09870249 -0.2317087 -0.31766677 -0.023863839 -0.020620907 0.06604969
-0.15124589 0.079488814 -0.22620077 0.09218085 -0.15248139 0.043143813 0.1035126 0.019389924
0.11764187 0.06341554 0.073123015 0.060657874 0.07803068 0.41455007 -0.256389 0.07730794
-0.1022963 -0.10906453 0.14181688 -0.108419284 -0.18605581 0.16170353 -0.057097506 -0.12988496
-0.15470801 -0.14947589 0.19627197 0.11212077 -0.1551827 -0.13190345 0.10442277 0.058117293
-0.005802564 -0.20894262 0.38577086 -0.11793583 -0.08164755 -0.057192925 -0.18722288 0.23637891
-0.05021196 0.21710537 -0.112573415 -0.014722166 -0.039679628 -0.015732782 -0.2013669 -0.31111717
-0.053028364 -0.14606544 0.2697002 -0.089137085 0.27579984 -0.24598713 0.18061484 0.19514082
-0.033310596 0.012613049 -0.11540183 0.070746124 0.026119571 -0.055309623 -0.04356916 -0.10564862
-0.02273065 0.07232163 0.045983985 0.15088928 0.26211792 -0.029541807 0.039991427 -0.03167069
-0.14558996 -0.18468055 0.20082763 0.16522886 0.25534692 -0.049669396 -0.27916995 -0.14020793
-0.057689648 0.13952962 0.17144251 -0.26210338 -0.11580158 -0.08721216 0.069311544 0.06546684
0.13688777 -0.03431942 0.00951656 -0.28935552 -0.20467503 -0.16479923 0.116197556 -0.122015305
0.18644111 0.18522415 0.17373705 -0.07447804 0.30068284 -0.0566111 0.16670543 0.06628929

P.mlps.0.layers.3.bias f4 [50]
00000000: a6c8 d9bc fda2 2cbd 10f8 15bd 2e85 28bc
00000010: c107 c03c 9164 bebd 7c39 96bd 3e6b c83c
00000020: 3b35 a8bd dd96 1e3b ff69 6a3d 9b98 f73c
00000030: 421d 2f3d 0330 7ebc 5b04 163d c028 753d
00000040: d09e 50bc 0f1e b8bd 010e 403d 53ab ca3c
00000050: 57f5 8fbd 3aa6 8b3d 5f2e 8e3d 9927 023b
00000060: 8a00 02bd e5ad 2ebd fc4c 743d 8ad9 b2bd
00000070: b1d3 023d 39dc 003d e42f 493d b3ae 00bd
00000080: 1646 343d 7217 943c 71d4 d6bc 4117 a33c
00000090: 03ce ab3b f599 acbc fdbf 31bd a9e0 fb3b
000000a0: bca4 2cbd 37ad ffbc b2a3 373d 0977 1c3d
000000b0: 27ed d83c 6d0e 833c 2ccd 79bd c88d a03d
000000c0: fe58 f4bd a760 f0bb
-0.026584934 -0.042147625 -0.036613524 -0.010285659 0.023441197 -0.09296525 -0.07335183 0.0244652
-0.08213278 0.0024198808 0.057229992 0.030224135 0.04275251 -0.015514377 0.036625247 0.059853315
-0.012733176 -0.08990108 0.046888355 0.024739897 -0.07029217 0.068188146 0.06942438 0.0019860028
-0.031738795 -0.042646307 0.05964373 -0.087328985 0.031940166 0.03146002 0.049117938 -0.031416606
0.04401215 0.018077586 -0.026224347 0.01990855 0.0052430644 -0.021069506 -0.043395985 0.0076866937
-0.04214929 -0.031210525 0.044833846 0.03819946 0.02648027 0.01599809 -0.060986683 0.078395426
-0.119310364 -0.0073357406

P.mlps.0.layers.4.weight f4 [50, 50]
00000000: 4741 41be 9e45 023d 1ca6 dc3d 151a c6bd
00000010: 4094 dbbd df6c 28be 40fd 86bd d0c2 dcbd
00000020: 283c 5f3e c078 4e3e ce16 763b 99c6 ab3d
00000030: 4328 133d a822 b7be af8d 1fbe 1a57 023d
00000040: 8c56 7d3e 6c3a ccbc fbe7 a43d 9b40 7e3e
00000050: 271c d4be aa9a 8cbe 9464 4dbe 5d3a f3bd
00000060: 5196 c0bc 291e e93d 9bed c63d 8ba7 84be
00000070: d9d8 cebd 9f54 97be 9e7c b13d 6c38 633e
00000080: b95e 20be 574d 4e3e ebd8 a3bd a87f a03d
00000090: 1ca0 fd3d 89be abbe 39e8 d5bc c7d7 ea3e
000000a0: 023a 6dbe 699a e93d 6348 0ebd 299e 9d3d
000000b0: 909a bcbd e24f 883e 570b e8bd 582c 8abd
000000c0: d4c5 bf3c 0d1a 2a3e 50fc 853e 7d8f 0ebd
000000d0: f03c 0fbd 4bed 91be 3b5a 223e bfb1 28be
000000e0: af0a 133e 6e10 433e 4b86 513e 1309 32bd
000000f0: d7ad eb3d 5972 403e a328 9e3a 4e4a 153f
00000100: 1cac 55be 0501 21bd 139d 953d b747 0a3d
00000110: b66c 343d e2ee 57be 4d60 0dbe ed12 02be
00000120: 9961 9bbd 499e 8b3b 691e 263e f344 17bc
00000130: 1317 a03e ebdd 8f3e 3823 07be 0bb6 d23d
00000140: bfd4 7ebc 632b e23c 08bc 50be 8499 a1be
00000150: e2f3 6dbc b11d 793b 6200 423e 4272 553e
00000160: 4dce 45be 9032 20be 7d8e 77bc d83c a0bd
00000170: a08c 92bd 86d4 3abe f020 64bd b125 8ebe
00000180: bd9d ba3d c3e0 793d 1982 5b3e d0a1 5abe
00000190: c356 2d3e 4f9b 453e 2a27 853e 6f44 093e
000001a0: cfb3 1abe 0815 433e 8c9a b03c 8c8c 6c3d
000001b0: 2bcc 233e 042b e53d 5144 5dbe 086e 9b3d
000001c0: 0323 cebd 6264 0bbe c075 bbbd e404 823d
000001d0: 550b e23c 9174 2d3e fabc 373e 3ba7 91be
000001e0: 126a a33e 7984 6ebd cee7 54be 0ebf 60bd
000001f0: 6eca 213d 498a 163e 35ce 47bd 8f9f 86bd
00000200: 4dba 40bd 6813 45bd 5206 c1be 213a ca3d
00000210: d4f2 ed3c 1c08 05be a4b8 1cbe 4ed4 9a3d
00000220: ee6e a4bc 7fb6 683d 0310 6f3e e331 b6bc
00000230: 6efe c5bb 4e9b e23d a18a 01be 10ae 2fbe
00000240: f658 d03d b88c bb3d 2c8e ec3d 6aeb f6bd
00000250: bb8e 40be 8b23 11be 0bf5 4b3c 1533 7bbc
00000260: 10ad af3d 2a81 f53e d75d bc39 6cd5 92be
00000270: c44f c1bd a04e 0fbd 76d1 2fbe 12d7 f73e
00000280: 843f bf3e 2415 8dbc 9f73 27be de28 1abf
00000290: 967b 2c3e 4b53 9c3e 9f58 003e 12be 6bbe
000002a0: 7807 35be bcc1 fe3e 72c2 1fbe 6f57 643e
000002b0: bd82 d8bd ad59 a1be 5765 5a3e 5fd2 2b3b
000002c0: c3a3 8abe 5643 17bf 62db fa3d da87 c33c
000002d0: 9e87 36be 72bf 783e d190 c3bd d8af fc3e
000002e0: 00cb 153e 0b68 22be 5768 a9be 7ffe 23be
000002f0: 15b4 a8ba af4c b03e 2f2b 643d 217e 3f3e
00000300: ccfb 77bd 5143 48be 719e be3a e8a0 ba3e
00000310: 868b 8fbd 860c b53e d012 cbbe 5cda 573e
00000320: d542 07bd 9af7 3a3d d537 a83e a9e0 803e
00000330: 525c ddbe 8974 a9bd 696e cd3d 1d3b 1abd
00000340: 4692 42bd bd7c c13e acd2 983e 99e3 223e
00000350: 3cf7 c93d d658 10bf ae35 60be dd41 fb3c
00000360: c9c3 8d3d 0543 cbbe f26b 9a3b 172b 043f
00000370: bf0d 42be 63f2 623e d81e f43b 9db7 82be
00000380: ca00 ef3e 2895 2fbe 9650 1c3d 5cbd a4be
00000390: d44c 973d c8eb 01bd e266 5abe 481a db3d
000003a0: a358 a3bd 30e3 c83e 35b9 973e 0137 9ebe
000003b0: 363a 353d 6414 a93d 2451 953d 4be8 913e
000003c0: 5ff6 1d3e dee5 da3c 84d7 2cbb 60b4 e4bc
000003d0: b090 493e c6b1 d43d ccd1 62be 2c6a 093e
000003e0: fc3b aebe d82d 043e 1d68 db3c 66c7 b6be
000003f0: 6ebe 80bc 9d25 7abe f7cb d13e 61ac f23d
-0.18872558 0.031804673 0.1077387 -0.096729435 -0.10721636 -0.16447781 -0.06591272 -0.10779345
0.21800292 0.2016325 0.0037550214 0.08387489 0.03592707 -0.35768628 -0.15581392 0.031821348
0.24740046 -0.024930201 0.08052059 0.24829333 -0.4142773 -0.2746175 -0.20057899 -0.11876366
-0.023509176 0.11382706 0.097132884 -0.25909075 -0.10099954 -0.29556748 0.08666347 0.22189492
-0.15661134 0.2014669 -0.08000358 0.078368485 0.12384054 -0.33543804 -0.026111709 0.4586775
-0.2316666 0.114064045 -0.034737002 0.07696182 -0.09209168 0.26623446 -0.11330288 -0.06746739
0.023409761 0.166115 0.26169062 -0.03480481 -0.034970224 -0.28501353 0.15854733 -0.16474055
0.14359544 0.19049236 0.20461385 -0.043465685 0.11507767 0.1879362 0.0012066554 0.58316505
-0.20866436 -0.039307613 0.0730535 0.0337598 0.044048987 -0.2108722 -0.13806267 -0.12702532
-0.07586975 0.0042608124 0.16222538 -0.009232747 0.31267604 0.28098997 -0.13197029 0.10288628
-0.015553652 0.027608579 -0.20384228 -0.31562436 -0.014523478 0.0038012082 0.18945459 0.20844367
-0.19316979 -0.15644288 -0.015109655 -0.07824105 -0.07155728 -0.18245134 -0.055695474 -0.2776313
0.091121174 0.061005365 0.21436347 -0.21350789 0.16927628 0.19297527 0.26006442 0.13405012
-0.15107654 0.19050992 0.021558069 0.057751223 0.15995853 0.11189845 -0.21608092 0.07589346
-0.10065272 -0.13612512 -0.091533184 0.06348589 0.027593294 0.16938998 0.17943183 -0.284479
0.31916863 -0.058231805 -0.20791551 -0.054869704 0.039499693 0.14701189 -0.04878064 -0.06573402
-0.04705267 -0.04811421 -0.37700135 0.098743685 0.029046454 -0.12991375 -0.1530481 0.07560025
-0.020072427 0.056814667 0.23345952 -0.022240585 -0.0060422933 0.11064778 -0.12650539 -0.17156243
0.10173218 0.09157699 0.11550555 -0.120566204 -0.18804447 -0.14173715 0.0124485595 -0.015332003
0.08577931 0.47950107 0.0003592807 -0.28678453 -0.09439042 -0.034987092 -0.17169747 0.48406273
0.37353146 -0.017221995 -0.163527 -0.6021861 0.1684402 0.30532297 0.12533806 -0.23021725
-0.1767863 0.49757183 -0.15601519 0.22298978 -0.10571811 -0.3151373 0.2132772 0.002621792
-0.27078065 -0.5908712 0.12248875 0.02386849 -0.17825171 0.2429178 -0.09549106 0.49352908
0.1462822 -0.15860002 -0.33087417 -0.16015051 -0.0012871051 0.34433505 0.055705246 0.18700458
-0.060542867 -0.19556929 0.0014543069 0.36450887 -0.07009034 0.35361117 -0.3966279 0.21079391
-0.03302272 0.045646288 0.32855096 0.25171402 -0.43234497 -0.082741804 0.10030825 -0.03765403
-0.04750278 0.3779048 0.2984823 0.15907134 0.09861609 -0.5638555 -0.21895477 0.030671054
0.06922109 -0.3969957 0.004712575 0.5162825 -0.18950556 0.22162776 0.007449966 -0.2553071
0.4668029 -0.17146742 0.03816279 -0.3217572 0.07387701 -0.031719 -0.21328309 0.10698372
-0.079758905 0.3923583 0.2963349 -0.3090134 0.044244967 0.08255842 0.07290867 0.28497538
0.15426014 0.026720937 -0.0026373575 -0.02791804 0.196841 0.1038547 -0.22150344 0.13419408
-0.3403014 0.12908113 0.026783044 -0.35699004 -0.015715804 -0.24428411 0.40975925 0.11849285

P.mlps.0.layers.4.bias f4 [50]
00000000: 4b77 c1bc 5c06 073c 9e30 71bd 56ad e53b
00000010: 3719 283c 9787 433c 6b4f 71bd 1447 4d3d
00000020: 9cb6 033d 5c28 373d dfc1 3d3d c270 76bd
00000030: b170 ccbc 06cc 3fbd 53af 0b3d ab4a fd3b
00000040: 76d2 55bd 5d9e 4fbd 5e92 4ebd d33e 76bd
00000050: a4bd 6f3d 9017 6a3c 1259 103d f7d1 77bd
00000060: 00c4 393d 9efa 893d 4231 5e3d 6dec 94bd
00000070: b309 913d 14e5 9cbd 276e 8bbb c92c 4abd
00000080: 6b31 973d da8a 113c a632 32bd b87a 49bd
00000090: 257f 503d ef33 18bc 1999 573d 9a8d 3f3d
000000a0: b3b0 583d a1bd dcbc fdc0 5dbd 8c94 483d
000000b0: 0ff2 44bd b565 7bbd d088 bc3c f992 5e3c
000000c0: 70f8 813d 59c9 1ebd
-0.023616454 0.008241262 -0.058884256 0.0070091886 0.010259918 0.011934183 -0.05891363 0.050116614
0.03215657 0.044716224 0.046327468 -0.060166128 -0.02495608 -0.04682543 0.03410275 0.0077298484
-0.052202664 -0.050688136 -0.050432555 -0.060118508 0.058530465 0.014287844 0.035241194 -0.060502972
0.045352936 0.067372546 0.054246195 -0.07271657 0.07081928 -0.07660881 -0.0042550745 -0.049359117
0.073824726 0.008883202 -0.043505333 -0.0491893 0.050902504 -0.009289726 0.05263624 0.0467659
0.05290289 -0.02694589 -0.054139126 0.04896979 -0.048082408 -0.061376292 0.023014456 0.013584846
0.06346214 -0.03876624

P.mlps.0.layers.5.weight f4 [1, 50]
00000000: cec0 2e3e 4061 d3be 8cd6 cd3e 1df4 a73e
00000010: 8535 993e c2b1 27be 78d7 683e f5a2 e9be
00000020: 8c6a b7be e8e1 21bd 01bb 253e 9aaf 6e3e
00000030: 7052 853e 20ba 043f f3b2 a3be 7799 f93e
00000040: b613 013f 7df7 eb3e 8f27 b33e b56f 5c3e
00000050: 5a05 07bf d6b8 a6be 0338 0dbf f2b9 503e
00000060: ef1d 2ebf 3df3 59be 9f93 97be 56b6 203e
00000070: 1f1d 3fbe 80ae 793e 3f2a fcbe fbf8 0b3f
00000080: 012a 90be 3d14 7dbe 0dd6 3a3e 2de8 503e
00000090: 93b1 c0be 47e2 e03e fa5c 0dbf 37f1 32bf
000000a0: c0d0 dcbe 339b 4c3e 7371 763e e01b ddbe
000000b0: b2b2 083f 0528 1a3e 2cc2 24be a096 d8be
000000c0: 71c8 52be ab61 453e
0.17065737 -0.41285133 0.4020275 0.3280343 0.29923645 -0.16376403 0.22738445 -0.4563214
-0.35823476 -0.03952208 0.16184618 0.23309174 0.26039457 0.51846504 -0.31972465 0.48749897
0.504207 0.46087256 0.34991118 0.21526988 -0.5274254 -0.32562894 -0.5516359 0.20383433
-0.68014425 -0.21284194 -0.29604813 0.15694556 -0.18663453 0.24382973 -0.4925098 0.5467679
-0.28157046 -0.24714752 0.18245716 0.20401068 -0.37635478 0.43922636 -0.55219996 -0.69899315
-0.43128014 0.19981079 0.24066715 -0.4318533 0.5339767 0.15054329 -0.16089696 -0.42302418
-0.20584275 0.19275539

P.mlps.1.layers.0.weight f4 [50, 1]
00000000: 00b9 b13e 1645 a43e fe40 823d 615b 6ebd
00000010: 85bc 013e ac3f 813b a444 903e 724f 12ba
00000020: 8ae6 c13d 8550 adbe d9fd a6be e34c 0abc
00000030: 3163 85ba 1704 de3d f7cd 223e f3dd a0be
00000040: cb53 cabd b2bd c73e 7547 cc3e e834 c93e
00000050: f9a5 09bc ec1e 923d fdb7 973d 2e29 e6bd
00000060: 8c29 dd3d bd2b fbbd eee7 3d3b 6cbd 203c
00000070: d378 90bd 6cdb c8bd fd77 133b e5d9 f6bb
00000080: 3cba a4bd 2302 a7be 13e4 dcbb fbb1 8a3c
00000090: 9748 c4be 4b31 93bd c045 babe b1c7 5bbe
000000a0: 3ca1 af3e 29d6 0abe 2ebc a43d e526 1dbe
000000b0: 8c9c 23ba 8ae9 32bd d2f1 603d c231 a3bb
000000c0: 3b0b 3dbd 205e 0fbb
0.34711456 0.32083958 0.063600525 -0.058192614 0.1266957 0.003944358 0.2817737 -0.0005581296
0.094678 -0.33850494 -0.32615545 -0.008441183 -0.0010176656 0.10840624 0.15898882 -0.31419334
-0.098792635 0.39011914 0.39898267 0.39298177 -0.008401387 0.07134804 0.0740814 -0.11238323
0.1079894 -0.12264202 0.0028977352 0.009810787 -0.070542954 -0.098074764 0.0022501939 -0.0075332993
-0.08043334 -0.32618818 -0.0067410558 0.01693057 -0.38336632 -0.07187136 -0.3638134 -0.21462895
0.343027 -0.13558258 0.08043705 -0.15346868 -0.0006241284 -0.04367975 0.054918118 -0.004980297
-0.04615329 -0.0021876171

P.mlps.1.layers.0.bias f4 [50]
00000000: 52a1 903c 92ec b4bc 5eb9 68bd 7300 7b3d
00000010: 1455 abbd be2f 0cbd e8ab 783c 6d29 7abc
00000020: 62ad 97bc 0a10 433c 4eed cdbc 56cc 393d
00000030: 539b 61bc 0b47 35bd 10cd 11bd 1a67 fd3b
00000040: 5470 3d3d 3a02 493d e64a 95bd 6ec0 853c
00000050: 9798 1c3d 13ad 34bd dc04 b2bc 9f74 cf3c
00000060: 6672 163d ea74 cc3c 0814 e9bc 4ca8 bbbd
00000070: 51f8 5b3d e14d 263c eb03 89bc 903d e23c
00000080: d4a8 4c3c 1a46 793b 0d10 1d3d f64c 05bd
00000090: 9e5e c33d 1955 373d 6284 40bd 0e64 b73b
000000a0: 1372 c1bd 13a5 573d 409b 3dbd 62ae c73c
000000b0: ff04 c8bc b172 3f3d e5e6 20bd ad2e 343d
000000c0: d583 50bc 51c9 303d
0.017655049 -0.022085462 -0.056817405 0.061279725 -0.08365837 -0.034225218 0.015177704 -0.015268666
-0.018515293 0.0119056795 -0.02513757 0.045360886 -0.013769942 -0.044257205 -0.035595953 0.007733238
0.046249703 0.04907439 -0.07289676 0.01632711 0.03823146 -0.04411037 -0.021730833 0.025324164
0.036730193 0.024958093 -0.028451934 -0.091629595 0.05370361 0.010150404 -0.016725501 0.027617246
0.012491424 0.0038036169 0.038345385 -0.0325441 0.09539531 0.04475889 -0.04700125 0.0055966442
-0.09445586 0.05264766 -0.046290636 0.024375144 -0.024416445 0.046740238 -0.0392827 0.043989826
-0.012726744 0.04316074

P.mlps.1.layers.1.weight f4 [50, 50]
00000000: 13b8 8abe 3652 d7be 0fd4 f23d 889c 483e
00000010: 1fe0 d5bd d559 03bd 611b 78be ac5b 24bd
00000020: 01e7 babd 165e 033e 7958 e23d 5569 153c
00000030: a6a9 63be e0aa 923d 64cc 55be b8e7 ef3d
00000040: d55a 713d 3bac f7bd e017 97be a19e 083e
00000050: cdd0 b2bc f76f 08be 4075 5cbe a3f4 6fbd
00000060: 1c38 8cbb cc71 2c3d 91b7 c9bc 3c1d 0ebd
00000070: 7792 183e ff50 363e 646f 26be 9d30 1abe
00000080: deaa 053e 1c61 643e c6f7 f13d 5ff7 743d
00000090: 1a8c a83b b48b 5d3e 20d6 2b3d f5e2 9e3e
000000a0: 8a1b 5cbe 2eb1 143e 834f 5abe c1e6 8c3e
000000b0: cbbe 55be 607d 263e 2152 0dbe fa0f abbc
000000c0: c825 ff3d 64d5 d6bd 7c1c 13be 9d66 edbd
000000d0: 4cf4 39be 11fa f73d d0e2 3fbe a580 afbd
000000e0: 3783 23be 9ef8 703e 0304 efbd 64e9 26bd
000000f0: 9f11 00be 8f4a f33d a14b 703e f266 103b
00000100: 0e38 a03d 519a f43d dcb0 9c3c 0951 07be
00000110: 5777 b13d 1721 cabc f010 95be fdfe 0dbe
00000120: 6a4b 0a3e 5555 2e3e 7e9d d53d d3f0 613e
00000130: c4c5 a0bc 1f3e 5f3e 3d5e a8bd 712d efbd
00000140: f4b5 4e3d 7146 0bbe 36e8 d23d e356 c63e
00000150: f8ea 55bd e386 143e fd36 b93c 25e6 2abc
00000160: 97b6 a03d 320f 96bd de3e ac3e 236a 0d3e
00000170: 7453 da3c b4cb 863d 6205 c4bd 925d 663c
00000180: ed44 7d3e 6c8d e6bd c80f 2cbd 41c1 2c3e
00000190: 5026 a13d 16eb 973d cafe 1cbe fe0f 183c
000001a0: 2bbf da3c 20cf 18be 6f6a d73d 9df6 923e
000001b0: 6c56 953e 1472 fb3d e5c6 42bd 938d 6f3c
000001c0: e18c 893d a825 0d3e d863 b13d 5ddf aabd
000001d0: a485 b13d c3cc 62be 3524 1dbe e41c 5c3e
000001e0: 4c58 c1bd cd38 72be 8d44 12be 5c4c 2e3d
000001f0: 76d9 5e3e 0e43 f73c 9d44 f93d 920b 32bd
00000200: 9373 0f3d f4c6 413d f223 713e 3770 04be
00000210: 8287 893e 4869 53be ccbf b8be 722e 6c3e
00000220: 1294 71be 7e86 873d ca78 f63c 83e0 293d
00000230: 489a d63d a632 8abc 13b6 193e 649a b4be
00000240: e293 e8bd 4392 c63d 23ca 593e 66c9 6b3d
00000250: 4e60 e2bc faaf 3bbe e312 4c3e 692c 283d
00000260: a351 a8bc 77bf 63bc dde3 59be 4e8c 4c3e
00000270: 8954 fa3c bcaa 88be 4f66 fbbd 7178 513e
00000280: c818 82bd 594c 09be 5abd 893e bc2b db3d
00000290: 0aa9 523c 09fa 3c3d 45c5 14be 8393 ef3d
000002a0: c9b5 3e3e 140c aabe 4bb9 10be 35cf 5ebc
000002b0: 961c b13d 0a17 713d 8525 9b3d a57b 62bd
000002c0: 659d 00be a876 97be d614 783d 2bee 2a3d
000002d0: 32cc 463e 30bb 833b 9c5d 0abe c7c6 613c
000002e0: f697 fe3d a638 58be 305c 743c 679f 853e
000002f0: ae39 23bd d996 fc3d 20f8 9fbc edc8 993d
00000300: 6d7c 4fbd e21a 4b3c 203b ad3c b50d 083c
00000310: f6d3 993e f501 043e 03a4 91be 0b8c 453d
00000320: cc15 acbd 4540 bc3e 7f53 573e 4a73 34be
00000330: 8c4a cb3e a0db 813d b5f3 c8bd 9d17 a2be
00000340: b8fa a43e 537a c9be a54d 063d e23b 103d
00000350: f500 43bd b170 5c3d 2ae6 a23e c476 203c
00000360: 7895 28be 3c81 953e 728b 513d 5858 ccbc
00000370: f0e8 13be 66f5 32be 9c50 303d dadd 2fbe
00000380: 6bdc 3b3d acbc 243d 237a c2bd 332e cfbc
00000390: 0525 06be 0746 6e3b eb36 56be 6eac 4b3d
000003a0: 104a 8ebe 05a9 f43c 5b6e 853e a400 96bc
000003b0: 5e2f dbbd fdf0 9cbd 51ce 793d cf30 443e
000003c0: f8c1 2f3e fda3 6e3c dffb d53d c087 b63d
000003d0: 4e00 07be 2d03 95bc 7300 993c 7e9d 513e
000003e0: 04bb d8bc 0939 30be 313c 043b e198 79be
000003f0: 5b9d 243e d070 3f3d 7b5e 6d3e 0488 9bbd
-0.27093562 -0.4205491 0.11856853 0.19590962 -0.10443138 -0.032068092 -0.24229194 -0.040126488
-0.09126092 0.1282886 0.11052031 0.009119351 -0.22232684 0.07161498 -0.2087875 0.11714119
0.058924515 -0.12093397 -0.29510403 0.13341762 -0.02182808 -0.13323961 -0.21529102 -0.058582913
-0.0042791497 0.042100713 -0.024623664 -0.03469585 0.14899622 0.17804335 -0.1625343 -0.15057607
0.13053462 0.2230267 0.11814837 0.059806224 0.0051436545 0.21635324 0.041952252 0.3103253
-0.2149488 0.14520714 -0.21319394 0.275198 -0.20873563 0.16258764 -0.13800861 -0.020881642
0.12458378 -0.1048992 -0.14366335 -0.115918376 -0.18159598 0.12108243 -0.18738866 -0.08569459
-0.15968023 0.2353234 -0.11670687 -0.040749922 -0.12506722 0.11879455 0.2346635 0.0022034016
0.078231916 0.11943496 0.019127302 -0.13214506 0.086653404 -0.024673982 -0.29114485 -0.13866802
0.1350533 0.17024739 0.1043043 0.22064523 -0.019625552 0.21801041 -0.082210995 -0.11678589
0.050466493 -0.1360109 0.10298197 0.38738164 -0.052226037 0.1450458 0.022609228 -0.010430847
0.07847326 -0.07327117 0.33641714 0.13810019 0.026651122 0.06581822 -0.09571339 0.014060395
0.24733324 -0.11257443 -0.042007238 0.16870596 0.07868636 0.07417886 -0.1533157 0.009281157
0.026702484 -0.14922762 0.105183475 0.28703776 0.29167497 0.12277618 -0.04755296 0.014621156
0.06716324 0.13783896 0.08661622 -0.083433844 0.08668068 -0.22148423 -0.15345843 0.21495396
-0.094406694 -0.2365448 -0.14283963 0.04255329 0.21762642 0.030183341 0.1217129 -0.043468066
0.03502233 0.047308877 0.23548868 -0.12933432 0.26861197 -0.2064563 -0.3608383 0.23064592
-0.2359164 0.06617449 0.030086894 0.041473877 0.104786456 -0.016869854 0.15010862 -0.3527404
-0.113563314 0.09695866 0.21268515 0.057565115 -0.027633812 -0.18328848 0.1992908 0.041057978
-0.02054674 -0.013900629 -0.21278329 0.19975397 0.030557888 -0.2669276 -0.12275373 0.20456101
-0.06352383 -0.1340803 0.26902276 0.10701701 0.012857685 0.04613689 -0.14528377 0.116980575
0.18624033 -0.3321234 -0.14133184 -0.013599207 0.086480305 0.058859862 0.07575516 -0.055293698
-0.12560041 -0.29582715 0.060566746 0.04173104 0.19413832 0.004020117 -0.13512272 0.013780302
0.12431328 -0.2111536 0.014914557 0.26098177 -0.03984993 0.123334594 -0.019527495 0.07509027
-0.05065577 0.012396546 0.021146357 0.008304049 0.30044526 0.12891372 -0.28445444 0.04822926
-0.08402595 0.36767784 0.21027945 -0.17622104 0.39705312 0.06340718 -0.098121084 -0.3165864
0.32222533 -0.39351138 0.03278889 0.03521336 -0.047608335 0.05381841 0.31816226 0.009793941
-0.16463268 0.2920016 0.051158376 -0.02494447 -0.14444327 -0.17476425 0.043045625 -0.17174473
0.045864504 0.040218994 -0.09495952 -0.025290584 -0.1310006 0.0036357658 -0.20919387 0.04972499
-0.2779088 0.029865751 0.26060757 -0.018310852 -0.10702394 -0.07663152 0.060987774 0.19159244
0.17163837 0.014565465 0.10448431 0.08912611 -0.1318371 -0.01818999 0.018676972 0.20470235
-0.026456363 -0.17209257 0.0020177478 -0.24374725 0.16075651 0.046738446 0.23180573 -0.07594302

P.mlps.1.layers.1.bias f4 [50]
00000000: 13b1 573d da57 c53b c824 1bbd 13cf 97bc
00000010: 7e49 9fbd 5be4 c3bc 9695 163d 3ba1 c33c
00000020: 41cc 30bd 8c86 3fbd bdad 003d 8f51 95bd
00000030: e611 3c3c 1c58 a43d cb2d 0e3c 3849 6e3c
00000040: c6bf 60bd 65a9 5b3d f9a6 0d3d 608f 4bbd
00000050: b175 cf3d 0187 5b3d 8af2 763d 7a68 77bd
00000060: 93d0 9abd 5b9f 593d 3e81 1cbd e5d5 b43c
00000070: b17d 7d3d 2120 a83b 6cf3 eebc 5460 363d
00000080: c085 36bd 4c3f 70bd 2348 863d be30 1f3e
00000090: 7f1b 8d3d 8685 2abd 9817 aabc c566 1f3d
000000a0: 3dff ee3c 33f9 5abd aebd a53d 955a 243d
000000b0: 5f31 39bd add0 84bd 6c64 b4bc d4fb 49bb
000000c0: c309 15bd 09bd 103d
0.052659106 0.0060224356 -0.037876874 -0.018531358 -0.077776894 -0.0239126 0.03676375 0.023880592
-0.04316354 -0.046759173 0.03141569 -0.07290947 0.011478877 0.08024618 0.00867791 0.014543824
-0.05487039 0.053628344 0.034583066 -0.04969728 0.1012987 0.053595547 0.060289897 -0.06040237
-0.075593136 0.05313049 -0.038209192 0.02207465 0.061887447 0.005130783 -0.029168807 0.04452546
-0.044561148 -0.058654115 0.06556728 0.15545937 0.0689001 -0.041631244 -0.020763204 0.038916368
0.029174441 -0.05346031 0.08092819 0.04012545 -0.0452131 -0.06485114 -0.022020541 -0.0030820267
-0.036386263 0.035336528
