output/Darcy_UQPINN/weight.pth (torch, 160499 bytes, 40 tensors)

P.mlps.0.layers.0.weight f4 [50, 3]
000000 a4 44 b8 3c 3c 52 63 3e 7c cf 55 be dc ca cd bd
       0.022493668 0.22199339 -0.2087993 -0.10048458
000010 1d 56 6e be e9 f3 83 3e b1 ac 30 be 6c e8 ca 3c
       -0.23275037 0.25772026 -0.17253377 0.02476903
000020 f6 0a 29 3d 41 34 ae 3d 79 7a 9f be 30 b0 1a be
       0.04127022 0.085060604 -0.31148127 -0.15106273
000030 f7 77 cc 3d 4b d4 14 be 40 a2 2a 3e e7 0b 16 3e
       0.09983819 -0.14534108 0.16663456 0.14652978
000040 8a 0c 8d 3e 5f 4a f8 3c 57 86 4a 3e 5c df 5a 3e
       0.2754863 0.0303089 0.19777809 0.21374267
000050 3e 76 c8 bd 82 bc 36 3e 35 c0 46 3d 5e cc ec 3c
       -0.09788178 0.17845348 0.048523147 0.028906044
000060 35 ae 05 3d 5e 8f 6f be 94 df 92 3e 45 75 1b bd
       0.03263684 -0.23394534 0.28686202 -0.037953634
000070 fc 5a 10 3e a7 56 40 3e 66 33 20 3e b1 b7 b4 3e
       0.14097208 0.18783055 0.15644607 0.35296395
000080 13 73 4c 3e c2 82 ff 3e 31 c2 db bd 66 f0 25 bd
       0.19965772 0.49904448 -0.107303984 -0.040512465
000090 d5 58 b8 3d 7f 68 85 be 45 f4 ff bd 53 21 c6 3d
       0.09001318 -0.26056287 -0.124977626 0.09674325
0000a0 b7 16 4f be ac 57 82 3d 56 5c 98 bd 1a 3c 9b bc
       -0.20223509 0.06364378 -0.07439487 -0.018949557
0000b0 a2 e7 9c 3d 4d 56 a1 3c 36 51 8d be c5 69 c6 3e
       0.07661368 0.019694472 -0.27601022 0.3875257
0000c0 9b 53 2a 3d bb df 4d be 49 05 e0 3c 6e 37 0a 3e
       0.04158364 -0.20104878 0.02734627 0.13497707
0000d0 e3 38 93 3d 8c db 3c be 3c ef a7 3c 34 ed 49 3e
       0.07188585 -0.18443125 0.020499818 0.19719392
0000e0 40 8e 60 be e8 4c f2 3d aa 1c 9c be d6 a2 5e bd
       -0.21929264 0.11831075 -0.3049062 -0.05435451
0000f0 26 ce 9c bd 91 bc 33 3d b4 6d e7 3d 6d 83 4f be
       -0.07656507 0.043881003 0.11300221 -0.20264979
000100 d0 98 84 3d e3 34 b4 bb ea 22 49 3e 76 59 1b be
       0.06474459 -0.0054994687 0.19642225 -0.15170845
000110 e7 29 98 3d f6 7a 40 bc 0c c0 77 be d6 75 57 bd
       0.07429867 -0.011748066 -0.24194354 -0.05260261
000120 6b 9f c6 3b 02 60 8c 3e 61 20 64 be 9f b0 de 3d
       0.0060614846 0.27416998 -0.22277977 0.108735316
000130 bc aa 2f be 5e d3 9b bc db d4 80 bd 67 25 95 be
       -0.17154974 -0.019021686 -0.06290599 -0.29130098
000140 10 46 88 be ff c8 53 bd 0d cc 28 be dc ce fb 3d
       -0.26615953 -0.051705357 -0.16484089 0.12295315
000150 5b 1a 06 3e 02 6f 97 be 39 54 08 be bb 76 e2 bc
       0.13095991 -0.2957688 -0.13313378 -0.027644506
000160 4c bf ed bd 39 ce 84 3e 97 59 b5 bc 49 fb 94 3e
       -0.116087526 0.25938585 -0.022137446 0.29097965
000170 14 97 bc 3c ee 35 ce bd 5a 7e ac bc 61 22 b4 bc
       0.023021258 -0.1006888 -0.021056343 -0.02198905
000180 11 13 88 3e c6 95 91 3d fa c1 ba 3d fd c5 9e 3e
       0.26577047 0.07108645 0.09119029 0.31010428
000190 6e 90 96 be e7 97 64 bd 6f 97 c5 3d 47 aa 95 be
       -0.29407066 -0.055808928 0.09648024 -0.29231474
0001a0 58 1d 7d 3b 29 21 89 3d 65 4a 2f bd 6c f0 37 3e
       0.0038622227 0.06695778 -0.042795558 0.17962807
0001b0 a2 b7 1c 3d b0 29 ee bd a0 de a5 be 0c 5c ed 3c
       0.038261063 -0.11629045 -0.32396412 0.028974555
0001c0 bb fd c7 3c 51 33 8b be 11 76 b5 3d f7 8e e9 3c
       0.02441298 -0.2718759 0.0886041 0.028510554
0001d0 8e b8 55 be b2 b4 e8 bc 9c 80 8b 3c 74 4f 9a bd
       -0.20871183 -0.028406475 0.0170291 -0.07534686
0001e0 2c d5 99 bd 5e 40 a7 bd 54 10 b0 bd 80 d2 3d bd
       -0.075113624 -0.08166574 -0.08596864 -0.046343327
0001f0 3f 74 0b 3c cf 37 29 3e 7c 6a e5 3d f7 5d ad bd
       0.008511602 0.16525196 0.11201951 -0.08465188
000200 9c e4 92 3d 74 ea 29 be 59 49 1c be 44 b9 08 be
       0.0717251 -0.16593343 -0.15262355 -0.13351923
000210 fb 10 35 be 14 c6 b1 bb 05 e3 ee bd d6 af 08 3b
       -0.17682259 -0.005425224 -0.11664394 0.002085676
000220 9c 0a 11 bd d9 11 1f be 1a 00 5f be 38 1d 1e 3f
       -0.03541051 -0.15534152 -0.21777382 0.61763334
000230 aa 54 04 bd 54 f2 0b 3f 78 66 aa 3d a1 1c 9f 3c
       -0.032307304 0.5466664 0.083203256 0.019422831
000240 ef ad 96 bd 39 34 65 3e b8 a6 f3 3b e6 d0 7c bd
       -0.07357394 0.22383203 0.007435646 -0.06172266
000250 a8 03 dc be d7 ae 09 3e
       -0.4297154 0.13445602

P.mlps.0.layers.0.bias f4 [50]
000000 9a 5f 77 3d 9c ca 17 3b 7d c4 87 bd 2c 9c d6 3c
       0.060393907 0.0023161536 -0.06629274 0.026197515
000010 db 75 9d 3b 04 a3 3b 3c aa 15 06 3d 1f 09 38 be
       0.004805309 0.01145244 0.032735504 -0.1797223
000020 17 57 90 bd 83 e7 30 3c ce 5c a0 bc 5f 6c 8f bc
       -0.07047861 0.010797384 -0.019575503 -0.01750773
000030 11 8c 7f be 90 84 aa 3d 20 c1 03 be f2 7f 23 3d
       -0.24955775 0.083260655 -0.1286664 0.03991694
000040 40 e0 dc 3c 72 f6 cc bd a8 d5 08 bc 78 d5 d2 3c
       0.0269624 -0.10007943 -0.008351721 0.025736555
000050 7e 41 23 3e a5 56 98 bc 3f 21 35 be e2 3d b5 3d
       0.15942952 -0.018596003 -0.17688464 0.08849694
000060 1f da d9 bc 62 a7 f9 3c 56 5a 2a 3d 91 2f 95 3d
       -0.026593266 0.030475322 0.041590057 0.07284463
000070 73 8a 6a 3c 57 83 ce bc a9 67 53 3d 13 6c 48 bc
       0.014315235 -0.025209112 0.05161253 -0.012232798
000080 19 7a 29 be 1f b2 11 be e9 8c b5 3d ec 25 2f 3d
       -0.16550483 -0.14228104 0.08864767 0.042760774
000090 60 a9 98 3c 35 e6 cd bd 1a f0 23 3d 4f 73 78 bd
       0.018635452 -0.10053674 0.0400239 -0.06065684
0000a0 7e 46 bd bc 79 1f 1f 3d ba 44 48 3d 99 45 96 bc
       -0.023104902 0.038848374 0.048893668 -0.018343734
0000b0 57 0b 7d bd 55 df f9 3d df 71 82 bd c5 af 0f bd
       -0.061778393 0.122008 -0.063693754 -0.035079736
0000c0 c9 ce 49 3e 64 a0 58 3d
       0.19707789 0.052887335

P.mlps.0.layers.1.weight f4 [50, 50]
000000 70 53 6a 3d fe ba 07 3e 40 d3 b0 3d bb 64 c0 bd
       0.05720848 0.13254926 0.08634043 -0.09394213
000010 99 d1 0d bc d3 94 ca 3d 8f 25 d4 3d 1c e5 15 3e
       -0.008655929 0.09891667 0.10358726 0.1463818
000020 06 90 76 be 9e 86 2b be 57 ab 5b 3e 34 98 3b 3e
       -0.24078378 -0.16750571 0.2145208 0.1831978
000030 e0 11 92 3e 5b 47 ab 3e 1b 80 83 3d c5 d5 28 3d
       0.28529263 0.33452877 0.064209186 0.04121949
000040 c6 1d 9a 3d b3 c1 d0 bc d9 ea 00 3e e3 05 2d 3e
       0.0752521 -0.025482988 0.12589587 0.16896777
000050 cb 18 28 3d b5 2e 42 3e a1 28 2c be 89 df 05 be
       0.04103927 0.1896313 -0.16812374 -0.13073553
000060 72 4f d5 3d d8 ad 1b 3d e2 f7 e3 3d 31 ca 9a be
       0.104155436 0.038007587 0.11131264 -0.30232385
000070 a9 6e da bc 52 78 16 bd 3d 48 7a be 5e 89 2a 3e
       -0.026664095 -0.03673584 -0.24441619 0.16653964
000080 18 d5 c1 3d b9 1f 72 bd 59 7f 09 3e e3 63 12 3e
       0.094644725 -0.059112284 0.13427486 0.14295916
000090 0c 1a ff 3d f0 fe 84 bd ed 81 de 3c f4 08 19 be
       0.1245614 -0.06493938 0.027161563 -0.14944822
0000a0 8c 17 a7 ba d6 df 38 bd 81 73 11 3d 08 7f 99 be
       -0.0012748106 -0.04513534 0.035510544 -0.2997973
0000b0 b5 f0 e9 bd 46 84 6c bd cb df 5e 3e 4a ef 11 be
       -0.11422864 -0.057743333 0.21765058 -0.14251438
0000c0 6f e3 5f bd 89 05 47 3c 52 ef 06 3e db e3 93 3c
       -0.054660257 0.012147316 0.13177231 0.018052986
0000d0 1a 57 d7 bb 34 a7 c3 3c c4 6d d0 bd 35 6b 9d bc
       -0.0065716626 0.02388344 -0.10177186 -0.01921616
0000e0 1b 12 96 3e 70 5e 5a bd de 5c 8c bd dc 49 38 be
       0.29310688 -0.05331272 -0.068536505 -0.17996925
0000f0 74 9c 9f 3e b4 03 bc bd 23 7c ac 3d 5a c7 e8 bd
       0.31174052 -0.09180394 0.08422115 -0.11366148
000100 2f 43 e8 3d cd bb 83 3c 17 58 5a 3e b9 b1 44 bd
       0.11340939 0.016080761 0.21322666 -0.048021052
000110 40 10 a7 3d 0c 78 77 3d f1 59 14 ba d5 16 ec bd
       0.08157396 0.06041722 -0.0005659154 -0.11527792
000120 dd 0f 35 3c 9e c1 66 3e 39 e3 8d bc ef 6e 7d 3e
       0.011051145 0.22534797 -0.017320262 0.24749349
000130 40 ff d3 bc 24 b8 46 bd f8 6d 24 3e 65 7b b3 3e
       -0.025878549 -0.048515454 0.16057575 0.3505508
000140 5b 0e 5b 3e 65 49 39 3d d8 99 99 3e 5e c0 b1 3c
       0.21392195 0.04523601 0.30000186 0.021698173
000150 17 b6 0c be e8 1a 01 3c f9 7c c4 be 35 5c a1 bd
       -0.13741337 0.00787995 -0.38376597 -0.07878915
000160 e2 d2 78 3e 8d aa 96 bc fe 29 64 be d4 63 ed bb
       0.24299195 -0.018391872 -0.22281644 -0.0072445665
000170 10 73 51 3e 57 e0 9b 3e fb 91 18 bd 06 cb d0 3d
       0.20454049 0.30444595 -0.037248593 0.10194974
000180 c2 51 f9 bd f3 df bc 3d 78 19 62 be f7 cf 55 bd
       -0.12173797 0.092224024 -0.22080028 -0.052200284
000190 6c 93 ea 3d d7 d7 b3 3c 27 69 af be 37 f6 17 3d
       0.114539 0.021953506 -0.34259912 0.037100043
0001a0 f2 da a4 3d 6f 25 0c 3b e3 31 36 3e 5d 19 8b be
       0.08049573 0.0021384617 0.17792468 -0.27167788
0001b0 9a d3 80 3d 6a 98 5c 3e 0f 99 8d 3d f0 84 1a 3a
       0.0629036 0.21542516 0.06913959 0.0005894443
0001c0 07 8f 3c bc 97 5b 3a bd 5b 7d 03 be 39 67 8e 3b
       -0.01150871 -0.045497503 -0.12840788 0.004345801
0001d0 28 52 87 3e 0e 5c d2 3d 4d 68 cb 3d 73 3b 53 be
       0.26429868 0.10271464 0.09932003 -0.20628147
0001e0 4e bc 4b bd 74 e5 1b be f3 4c 1f 3d 11 36 5a 3e
       -0.04974013 -0.15224248 0.038891744 0.21309687
0001f0 b0 ab a4 bd 31 f9 4c 3d 6e 54 70 bd 6c 0a 65 bd
       -0.08040559 0.050042335 -0.05867427 -0.055918142
000200 87 de 6a 3e 0f 22 30 3d 44 4d 23 be 0d 05 18 3d
       0.2293645 0.04300123 -0.15947443 0.03711419
000210 cc 4b cf 3d ab e6 24 bd d6 cb 81 3e 89 67 0b 3e
       0.10121879 -0.040259045 0.25350827 0.13613714
000220 aa 17 a2 bd 93 fa b6 bd f5 6e 9a 3e bb 6c 0d be
       -0.0791467 -0.08934512 0.30162778 -0.13811009
000230 c0 86 dd 3d 3a c0 03 bb fa 4b 0d be 28 a6 b7 be
       0.10816717 -0.002010359 -0.13798514 -0.35868955
000240 34 07 b9 3d 17 ca 0c be 80 15 d2 3d 65 99 8a 3d
       0.09034577 -0.13748966 0.10258007 0.06767539
000250 93 1e ab bc 6a 84 72 bd a0 1f 23 be 7e 63 2d 3c
       -0.020888602 -0.05920831 -0.15930033 0.010582803
000260 da 6c 8a 3d 0a 04 0f bc 98 6a 32 3e 02 64 43 be
       0.06759043 -0.00872899 0.17423475 -0.19081119
000270 61 08 ba bd 34 33 d7 3e 74 f7 a4 3e 45 f5 26 be
       -0.090836294 0.42031252 0.32220042 -0.163045
000280 07 5a 5a 3d b8 d9 c1 3d fc a1 b9 bb 59 e4 67 3e
       0.053308513 0.09465355 -0.005665062 0.22645701
000290 a8 15 88 3e dc c9 d3 bd 56 0b 24 3c 5e ed 12 be
       0.26579022 -0.10341236 0.010012468 -0.14348361
0002a0 e5 28 bf 3d d5 36 79 be c6 39 1c 3d 2e 84 4f 3d
       0.09333972 -0.24337323 0.038141035 0.050663166
0002b0 55 af f7 bd 7c cd 8e bc 0f 3d bf 3e e3 22 3d be
       -0.12093989 -0.017431967 0.37351272 -0.1847034
0002c0 0b d7 31 3d ad a2 00 3e b2 c4 1e 3d 70 f0 82 3d
       0.04341797 0.12562056 0.038761802 0.06393516
0002d0 15 1a 13 be 1a 3b a9 3d 62 a6 3d 3e 77 da ec 3d
       -0.14365418 0.08263226 0.18520501 0.11565106
0002e0 40 92 80 be 32 77 53 3d 46 e6 85 3d 4e 2b 3d 3e
       -0.2511158 0.051627345 0.06538062 0.1847355
0002f0 fd fa 4c 3d 8a 81 8c bd c3 1c 01 3e c4 f6 38 3d
       0.05004405 -0.06860645 0.12608628 0.04515721
000300 7f 67 21 3a b5 fa 49 be 4b 66 b8 3d 05 e8 b7 be
       0.0006157085 -0.19724543 0.09003886 -0.35919204
000310 48 34 62 3d 07 da 95 3d ba b0 5f bb 90 8e 23 bd
       0.05522564 0.07316976 -0.0034132437 -0.03993088
000320 91 13 b5 bc 85 1a a8 3d 65 09 a8 3d c0 b3 46 3e
       -0.022104057 0.08208183 0.08204917 0.19404507
000330 99 a9 2a be 82 2d ac bd a2 37 2a 3e 5a 5e 8e bd
       -0.16666259 -0.084071174 0.16622785 -0.0695159
000340 9f fc 16 be 9c 01 58 3e 5f 4a f9 3d ed 1c f5 3c
       -0.14744805 0.21094364 0.12172388 0.02992102
000350 51 ec 0e 3e 3b c7 fa bd 50 70 ee 3d 7a 0a b8 bd
       0.13957335 -0.122450314 0.11642516 -0.08986373
000360 54 d3 f5 3c fa 55 fa 3d c4 1c 14 bc 7c 5f 29 bd
       0.030007996 0.1222343 -0.009040061 -0.041350827
000370 08 cd eb bd 89 4f 87 3d e3 be 97 3e d5 61 1f bb
       -0.11513716 0.06606967 0.29637823 -0.0024319787
000380 80 23 9c 3e 1c ae 37 3e 33 9f 06 be 22 c3 0b be
       0.30495834 0.17937511 -0.13146667 -0.13648656
000390 a3 b9 78 be 10 87 66 3d 38 61 b9 bd 7e cf fe 3d
       -0.24289565 0.05628115 -0.09051746 0.1244192
0003a0 bb 80 2d 3e f3 ec c1 3c 31 b6 62 bc 7a 8d 5e be
       0.16943638 0.023672557 -0.013837383 -0.21733657
0003b0 33 46 0f be 0e 34 e2 3d c0 53 c0 be cb 06 83 3e
       -0.13991623 0.11045085 -0.37563896 0.2559112
0003c0 e6 1b 93 3d 64 9e 48 bd b2 de 8d be 45 29 a2 bd
       0.071830556 -0.048979178 -0.27708966 -0.07918028
0003d0 8b d3 be 3d 1e bc 2e bc 3f 0a bf be da bb 37 3e
       0.09317692 -0.010664968 -0.37312505 0.17942753
0003e0 9d 36 4b be d6 4c 6d be fc 1f 93 bc af 39 8b bd
       -0.19845052 -0.23173842 -0.017959587 -0.06798112
0003f0 01 9e 80 3d 41 ee 14 3e dc b2 c7 bd 04 55 57 3e
       0.06280137 0.14544012 -0.097509116 0.21028525

P.mlps.0.layers.1.bias f4 [50]
000000 16 84 6b 3d 42 ec 05 3d d2 65 eb 3c 86 f6 ff bd
       0.057499014 0.032696016 0.028735075 -0.124981925
000010 75 19 be bd c4 a3 5e 3d aa 53 b7 bd af d8 38 be
       -0.09282199 0.054355398 -0.089515045 -0.18051408
000020 76 87 42 bd d7 03 a5 bd 25 a4 21 3c ed 5a 83 3d
       -0.047492467 -0.08057373 0.009865795 0.06413827
000030 22 ab 46 3d 68 6f c7 bd ec d8 bd bd 35 2a a4 3d
       0.04850305 -0.09738046 -0.0926989 0.08015863
000040 cc 83 7b bc 0e b5 ca 3c 29 06 7d bd 6d 74 f0 bc
       -0.015351247 0.024744537 -0.061773453 -0.029352391
000050 c3 c0 c0 3c 07 93 e7 bc c9 c3 a9 bd d7 af 9f bd
       0.023529416 -0.02826835 -0.08289296 -0.07797211
000060 6f 59 23 be 97 9c 5f 3e 3c 19 8b bc fd 7e e8 bc
       -0.15952085 0.21837078 -0.016979806 -0.028380865
000070 c4 85 90 bd bd 21 37 bc 4d b8 16 3d 2f 33 2a 3d
       -0.07056764 -0.011177477 0.036796857 0.04155272
000080 fa 6c ac bd 92 6a 21 3c bb 53 22 bd b9 5b 95 bd
       -0.08419223 0.0098520685 -0.039630633 -0.07292885
000090 02 40 52 bd bc b1 c3 3d c7 4f 22 3e b3 0e ff 3c
       -0.051330574 0.095553845 0.15850745 0.031134939
0000a0 46 4c ad bd 4d 76 83 bd 69 0b 88 3d c3 89 91 3d
       -0.08461814 -0.064190485 0.06642801 0.07106354
0000b0 76 cc 32 3d 1d 87 c2 3d 17 d9 0b bc 2c 76 48 3d
       0.04365202 0.09498427 -0.008535645 0.048940822
0000c0 f2 31 3d bc 1f 98 21 3e
       -0.011547552 0.15780686

P.mlps.0.layers.2.weight f4 [50, 50]
000000 41 38 c7 bc 6a a8 2f be 6d 5b a6 3c 66 83 01 bf
       -0.024318816 -0.17154089 0.020307267 -0.50591123
000010 8e a0 66 be 5d c7 b0 3e 29 c2 7b be 83 41 57 3d
       -0.22522184 0.34527102 -0.24585785 0.05255271
000020 ea 8e 01 3c 27 8b 2d bd 81 73 c5 bb f2 b1 95 be
       0.0079076085 -0.042369034 -0.006025732 -0.29237324
000030 3f c4 ac 3d 17 99 8d bd 32 fa b7 3c f3 db 3e 3e
       0.084358685 -0.06913965 0.02245817 0.18638591
000040 5e 1e 04 be ec ca bc 3c aa 08 5c be d6 5d 48 3e
       -0.12902209 0.02304598 -0.2148768 0.19567046
000050 39 b6 a3 bd bc 34 24 be 03 e6 2a 3b 03 31 f0 3d
       -0.079937406 -0.16035742 0.002607704 0.11728098
000060 a8 f9 8f be ee 17 a0 3e 2b a8 fb bd 21 08 a1 bc
       -0.2812016 0.31268257 -0.12287935 -0.019657196
000070 38 15 94 be e2 bc b8 3d f9 ec 98 bd 75 0b 33 3e
       -0.2892244 0.090204015 -0.07467074 0.1748484
000080 ac 71 29 bd 3a 44 ed 3d 86 22 2f 3e 06 cb 59 3c
       -0.04136817 0.11585279 0.17103013 0.0132930335
000090 04 cb 86 3d e8 c5 50 3d 79 ef 76 3e 47 5a 2c be
       0.06581691 0.050969988 0.24114789 -0.16831313
0000a0 0d c9 21 be 10 ef 11 be af 2e 93 3d c3 26 7e 3e
       -0.15799351 -0.14251351 0.071866386 0.24819474
0000b0 94 6f 11 3d 7a 06 20 3e 61 13 a9 bc 98 ec 60 3e
       0.0355068 0.1562747 -0.020639123 0.21965253
0000c0 f5 c4 20 be 60 4b 5f bd 78 0d 41 bd f1 e8 8f bd
       -0.15700133 -0.054515243 -0.047131985 -0.07026852
0000d0 75 6f 59 3d 6f 6c c2 be b6 d2 3b 3d 7b 3a 9a bd
       0.05308481 -0.37973353 0.045855246 -0.075306855
0000e0 76 e9 c0 3c 76 08 14 be ed 0b 8b be 19 ff 90 be
       0.023548823 -0.14456353 -0.27157536 -0.28319624
0000f0 56 22 d7 3d 24 a6 51 3e 98 b5 f7 bc 79 6b a3 3c
       0.10504596 0.20473534 -0.030237958 0.019948708
000100 aa 49 e9 bd 27 ee de 3d d4 e1 18 bd 99 6f d8 bc
       -0.113910034 0.10885268 -0.03732474 -0.026420401
000110 b3 1b 80 be 15 d6 f4 3c 85 0a 00 3c 33 88 8f 3b
       -0.25021133 0.029887239 0.007815008 0.00438025
000120 35 fb 94 bc 1d 80 1a be 84 40 2b 3e 41 4d 20 bd
       -0.018186191 -0.15087934 0.1672383 -0.039136175
000130 d6 85 2a 3e e6 e7 d3 3d d5 28 94 bd f5 7a 89 3b
       0.16652617 0.103469655 -0.072343506 0.004195566
000140 67 08 48 3e 2e ab a0 3e 49 b7 2c be 60 b8 6e 3e
       0.19534455 0.313806 -0.16866793 0.23312521
000150 51 87 5e 3d b8 83 4e 3e 85 92 b1 bd 0c d4 2a 3e
       0.054328267 0.20167434 -0.086705245 0.16682452
000160 88 5f 23 3d 09 41 16 3e d1 21 65 3d b7 8e 8d 3b
       0.039886028 0.14673246 0.055940453 0.0043199915
000170 d5 ef 4b 3c 9e 61 6d 3d ac 63 1c 3e 91 d1 b9 bd
       0.012447317 0.057954423 0.15272397 -0.09073175
000180 57 93 05 3e 01 5f 8d 3d 3f 79 80 bd 52 0c 40 3e
       0.13044487 0.06902886 -0.06273126 0.187547
000190 13 c4 a3 bd 8b b9 cc bd b5 a5 22 3e 62 4b 9d bc
       -0.079963826 -0.09996327 0.15883525 -0.019200984
0001a0 34 a0 3f 3d 77 f4 9b 3d 6b e7 78 be 5d 3c 9d 3e
       0.04678364 0.07614987 -0.24307029 0.30710116
0001b0 dd 34 e8 3d 1e 95 3a be 84 18 4d bd 68 4b 95 3e
       0.11338208 -0.18220946 -0.050072208 0.29159093
0001c0 25 a8 b9 bc 1c 4f 64 be af 07 81 be ad c7 15 be
       -0.022663185 -0.22295803 -0.25201175 -0.14626952
0001d0 9e 3d e1 3d 38 4e 24 3d 3c ff ad 3d ea 7d b4 be
       0.10998081 0.040113658 0.08495948 -0.35252315
0001e0 60 3b 8b bd 3d 3c ea bc 08 28 f2 3d 88 cc bf 3d
       -0.06798434 -0.028593177 0.118240416 0.09365183
0001f0 a9 ab 1e 3e 20 1b 8d 3e 6f d8 07 3e f9 54 79 be
       0.1549517 0.27559757 0.13266157 -0.24348821
000200 23 dc 2a 3e dc df 25 bb 66 6d 05 bc cd f9 b4 bd
       0.16685538 -0.0025310433 -0.008143758 -0.08836708
000210 eb fd a3 3d 3f cd 3e 3e bf a9 b5 3d 1e 45 5a 3e
       0.080074154 0.18632983 0.08870267 0.21315429
000220 b2 cf 07 3e 4c b1 0a be e9 b5 fc bd 47 19 97 bc
       0.13262823 -0.13544196 -0.12339384 -0.01844467
000230 a2 1f e6 3b 00 90 4c 3d 4b d3 89 be 78 da c7 3d
       0.007022814 0.049942017 -0.26919016 0.097584665
000240 60 a5 74 3d e3 75 73 3d 5e c6 e0 3d 89 0f 69 3d
       0.059728026 0.059438597 0.109753355 0.05689958
000250 65 8b 80 3e 91 dd 86 3e 81 8d b5 bd 55 e0 48 3d
       0.2510635 0.26340917 -0.0886488 0.049042065
000260 90 2f 92 be 6e 1a a4 3d f7 69 c2 3d 00 f5 7a be
       -0.28551912 0.080128536 0.094928674 -0.24507523
000270 a5 f7 b1 bd bd 72 8e be 36 65 0a bd d0 11 54 bd
       -0.086898126 -0.27821913 -0.03378793 -0.0517748
000280 87 33 5d 3d 43 49 c4 3d 5d fd ec bd c9 8a 08 be
       0.05400422 0.09584286 -0.11571763 -0.13334192
000290 d2 d7 c2 3b 8f c9 96 3b e7 28 41 3d e3 4b 82 be
       0.005946138 0.0046016644 0.04715815 -0.25448522
0002a0 f0 26 3a 3d a7 f9 53 3e 09 2f 96 bd 4f 40 dd bc
       0.04544729 0.20700704 -0.0733319 -0.027008204
0002b0 03 f3 8a bd 78 e9 7e 3d a6 cb 30 bd a6 9d 21 3c
       -0.06784632 0.062234372 -0.043162964 0.0098642465
0002c0 81 9b cd bd 40 a7 73 bd 5a c4 b6 be 0e 17 6e bb
       -0.10039426 -0.059485674 -0.3569668 -0.003632966
0002d0 86 89 e7 3c 65 4e 1b be 47 ac 16 be 16 65 e1 3d
       0.028263818 -0.15166624 -0.14714156 0.11005609
0002e0 aa 2d 07 3e 69 eb f8 3c 36 d8 24 3e a6 6e e3 bd
       0.13201013 0.03038569 0.16098103 -0.11105089
0002f0 4b 76 72 be b1 c9 ba bd db a0 19 be c7 ce 7d bc
       -0.23677938 -0.09120501 -0.15002768 -0.015491194
000300 a9 3a a8 3c a9 3c 45 3e d5 40 ac bd 64 c4 b8 bc
       0.020535784 0.19261421 -0.08410803 -0.022554584
000310 87 70 76 3e ba 51 97 bd c2 9d 66 bd 3c 07 28 3e
       0.24066363 -0.07388635 -0.056302793 0.1640901
000320 4b 26 65 bd 7b 78 f6 3c 09 35 14 be a7 83 02 be
       -0.055944722 0.030086746 -0.14473356 -0.12745534
000330 1e aa 36 3e 61 3b e4 3d 07 2b 0d 3e 68 67 f7 bc
       0.17838332 0.11144138 0.13785945 -0.030200675
000340 38 9c 43 3e 25 aa 37 bd 96 8f 10 3e 04 eb c2 3d
       0.19102561 -0.044839997 0.14117274 0.09517482
000350 95 8d ba 3d 23 1f 42 3e be 7a be 3c 68 19 bb be
       0.09109036 0.1895719 0.023251887 -0.3654282
000360 cd 6a ba 3d 72 15 46 3e e3 85 4c 3c 0b 34 ce bd
       0.09102402 0.19344118 0.012483093 -0.1006852
000370 46 51 5d 3c e1 0b 12 3c 07 1b 84 3d 14 27 8f 3d
       0.013508147 0.008913965 0.064504676 0.069898754
000380 9b c6 f4 3c 5b a3 6a be 23 8b 07 3d 52 6d d7 bd
       0.029879859 -0.22913878 0.033091675 -0.10518898
000390 f1 f3 63 3e 7d da ac be 49 6d 90 3e 9f 3f a6 bd
       0.22261025 -0.33760443 0.28208378 -0.081176035
0003a0 5e 60 0b bd 23 44 77 be 1f c2 b9 bd a2 c8 da bd
       -0.03402745 -0.24147086 -0.09070229 -0.10682799
0003b0 1e 81 b0 3d d5 ec 8e be e9 4b 2c be a6 40 0d 3e
       0.08618377 -0.27915064 -0.16825832 0.13794193
0003c0 cc 2e 15 3c e1 3c 7b bd 84 d9 99 3d 6f cf 7c bb
       0.0091053955 -0.061337356 0.07512191 -0.0038575788
0003d0 67 a8 9b 3c 58 13 6f b9 99 02 52 be 58 2a 27 be
       0.019001199 -0.00022800022 -0.20508803 -0.16324747
0003e0 f1 be c3 bd 53 ae 02 3e 0e 8d 83 be a1 26 e6 3c
       -0.095579036 0.12761812 -0.25693554 0.028094592
0003f0 22 86 05 3d 2d 3f e7 bd b1 9b 21 bc 9a 97 8f 3e
       0.032598622 -0.11291347 -0.00986378 0.2804535

P.mlps.0.layers.2.bias f4 [50]
000000 39 b0 42 3e 40 95 f5 3d 63 55 3a 3d 2c a5 7a bd
       0.19012536 0.11991358 0.045491587 -0.061192676
000010 75 05 4a bd 27 20 ab 3d e2 97 4c be 76 ba 1d 3d
       -0.04932161 0.08355742 -0.19979814 0.0385079
000020 33 1a a7 bd 22 cd 55 3d a6 c1 11 3d 4f c9 21 bd
       -0.08159294 0.052197583 0.03558507 -0.039498623
000030 63 a1 b7 3c 9d 9e 08 bc 30 3a c2 3d 66 84 06 3d
       0.022415822 -0.008338598 0.09483755 0.03284111
000040 61 37 3b bd b1 4d cb bd c0 1d 52 bd b1 92 a5 3c
       -0.04570711 -0.09926928 -0.051297903 0.02021155
000050 45 75 8f bd 63 40 b8 bc ad ea e4 bc 12 bc 5e bb
       -0.07004789 -0.02249164 -0.027943933 -0.003398661
000060 8a 91 e3 bd b9 13 9c bd dc d2 cc 3d dc a6 e9 3d
       -0.11111744 -0.07620949 0.10001156 0.11408779
000070 bb eb f6 bd d4 9f 20 3d 4b 0a eb bd 94 5d b3 bd
       -0.12056681 0.039214924 -0.114765726 -0.08758083
000080 52 6c 79 bd e5 be 5a 3d 46 49 55 3c 7e b2 8a 3d
       -0.060894318 0.053404707 0.013017958 0.06772326
000090 15 52 ae bc c5 5d 0c 3d 70 cb e3 bd 6b 16 35 bd
       -0.021279374 0.034269113 -0.11122787 -0.044210833
0000a0 55 4c a8 bd cd ad 83 bd 80 fb 08 bd c2 1b 69 3d
       -0.08217684 -0.06429634 -0.033442974 0.056911238
0000b0 5a e8 97 3d ae 47 dd bc ce 61 69 3d 5b 72 af bc
       0.074173644 -0.027011719 0.05697804 -0.021416834
0000c0 fc c3 f3 bd cd 60 3c 3d
       -0.119026154 0.045990754

P.mlps.0.layers.3.weight f4 [50, 50]
000000 6e 17 69 be a9 67 56 be 83 21 04 3e d4 e0 04 be
       -0.22762844 -0.2093798 0.12903409 -0.1297639
000010 4f ad 61 3e ed 2e 0c bd 12 87 cb 3b ac 90 cd 3c
       0.22038768 -0.03422444 0.00621117 0.025093399
000020 67 ce 7c 3d a9 3c 49 be c0 05 b3 3d 26 40 28 be
       0.061720278 -0.19652046 0.08741331 -0.1643072
000030 ec fa c9 3d 58 bc a0 be 8c 78 0f 3c 12 ba ba 3d
       0.09862313 -0.31393695 0.008756768 0.09117521
000040 20 ea 89 3e 5f 8e db 3d b9 82 df bc a8 fc 2d be
       0.26936436 0.107205145 -0.027284013 -0.16990912
000050 9c 84 10 be e8 92 ff 3c 61 0e ef bd 47 3f a4 be
       -0.14113086 0.03119798 -0.116726644 -0.32079527
000060 c9 20 c3 3c 9a 0a 25 bb 67 63 67 be 01 c9 19 be
       0.023819344 -0.002518332 -0.22596513 -0.15018083
000070 e1 c5 27 3e cd ff 01 bd cd c0 a5 bd b8 f2 74 bd
       0.16384079 -0.03173809 -0.080934145 -0.059801787
000080 88 03 ef 3c 5a 6d 23 be a5 77 d6 be 84 90 2d bc
       0.029176489 -0.15959683 -0.41888157 -0.010593537
000090 19 0a 12 be 1d c5 79 be fb 57 7f 3c 1b 48 10 3e
       -0.14261664 -0.24391599 0.015584941 0.14090006
0000a0 4d b7 14 be 2b 31 1d 3e 39 02 a5 3e c1 fc 29 be
       -0.14523049 0.15350787 0.32228258 -0.16600324
0000b0 6c 8d 30 3e ff ca 82 bd 1f 70 a5 be 2b 65 c9 be
       0.17241448 -0.06386375 -0.32312104 -0.39334998
0000c0 04 a6 89 3e 8f b2 99 3d 9d 80 77 be 07 d4 f8 bc
       0.26884472 0.075047605 -0.24170156 -0.03037454
0000d0 fa dc c5 3c 33 b5 94 3d 3b f6 f8 bd 9e b0 76 3e
       0.024153221 0.072611235 -0.1215634 0.24090812
0000e0 67 97 56 3e a4 e2 b2 bb 49 f1 12 be be 83 ae 3d
       0.20956193 -0.0054591466 -0.14349855 0.085212216
0000f0 6a 4c c4 bd b6 59 58 3b b5 84 b6 3e 0f a4 b2 bb
       -0.09584887 0.0033012456 0.35648122 -0.005451686
000100 10 cd 0e be 37 be 3c bd a2 1d 25 3e 3e 25 56 bd
       -0.13945413 -0.04607984 0.16124585 -0.05228161
000110 9d d2 f2 3d 3e 36 9e 3d 68 4d 8c bd 13 ae 8f 3d
       0.118565775 0.077251896 -0.068507016 0.07015624
000120 0e ba e3 3d 1b 15 0a bd d4 c6 ad bc 24 e9 c4 3d
       0.111194715 -0.033711534 -0.021212973 0.096147805
000130 08 88 c6 bd ac 52 32 3c 6d 46 bb 3d 68 41 1e 3b
       -0.09693915 0.010883968 0.09144292 0.0024147872
000140 ac 4e c5 bb da ff 7e bd 80 56 2a 3e 5a bb 03 3e
       -0.0060213413 -0.062255718 0.1663456 0.12864438
000150 cd 0f 8f 3d 22 1b 5a bc 69 4b f2 3b a6 6a c9 3c
       0.06985436 -0.013312133 0.0073942435 0.024586987
000160 74 8f 43 be cb cc 0f be 71 4b 78 3e 09 c4 ea 3d
       -0.19097692 -0.14042966 0.24247529 0.11463172
000170 f4 09 81 3e c1 43 5b bb d5 9e 9f bd 94 45 b7 bd
       0.25202906 -0.0033457133 -0.07793967 -0.08948818
000180 2f 9a 24 bc 91 22 84 be 4b de 3a 3e db 6b cd 3c
       -0.010046526 -0.25807622 0.1824886 0.025075844
000190 f9 7b a4 be 87 2c 5b be 79 c9 da 3d 3d 8b 93 3d
       -0.32125834 -0.21403705 0.10682959 0.07204292
0001a0 4c 15 e5 3d b8 71 94 bd 67 d9 d5 3c ab 7c 12 3e
       0.11185703 -0.07248253 0.026104642 0.1430537
0001b0 66 e9 7b 3e 5d db 61 be bc a8 49 bd c5 04 91 bc
       0.24600753 -0.22056337 -0.049233183 -0.01770247
0001c0 5c 57 66 3c 06 95 65 be 12 3b 22 be 15 52 64 bd
       0.014058914 -0.22420129 -0.15842846 -0.055742342
0001d0 e0 3b 4f 3e 30 da 55 be 3c 83 44 be 50 86 58 3d
       0.20237684 -0.20884013 -0.19190687 0.052862465
0001e0 99 10 97 bd ba 71 8f bd 46 47 d2 bc 93 3d c1 3d
       -0.073762126 -0.070041135 -0.025668751 0.094355725
0001f0 50 7a 47 3e e4 5f e1 bc 95 a6 27 bc 6e fe 0b bd
       0.19480252 -0.027511545 -0.010232587 -0.03417819
000200 e3 71 46 3e f4 1f f7 bd 6b 22 f5 bd dd d8 87 3e
       0.19379382 -0.120666414 -0.11969455 0.2653264
000210 75 0a 92 bb 80 4d c4 3c cb a9 05 bd d0 50 07 be
       -0.004456813 0.023962736 -0.03263263 -0.13214421
000220 57 05 85 3b ba 1f 98 bd cf bc 26 3e f6 24 e8 3d
       0.0040594744 -0.07427926 0.16282962 0.11335175
000230 1c b3 0f be cb f6 0b 3d 1a 11 0d 3e b4 c5 70 3d
       -0.14033169 0.034170907 0.13776055 0.058782294
000240 d7 d7 aa bd 5c 08 db bd 7a be de 3d bc 53 7a be
       -0.083419494 -0.10694954 0.10876174 -0.24446005
000250 49 25 8f be c7 d3 65 bc dc 3b eb 3c 10 1c 0e 3e
       -0.27958134 -0.014027542 0.028715067 0.13877892
000260 52 d9 2a bd 20 67 30 3d 91 49 90 be 65 9a b6 3d
       -0.04171116 0.043067098 -0.28181127 0.08916167
000270 f0 02 fa bd 89 fb f6 3d e7 d5 8e bc bf e5 1e 3e
       -0.122075915 0.12059695 -0.017435981 0.15517329
000280 18 0c 26 3e 4a d6 41 3c 96 a7 c7 3d 56 4c 32 3d
       0.16215551 0.011830876 0.09748761 0.04352983
000290 11 b1 63 3e 7d 72 c9 3e fc 23 97 be 26 ae 07 3e
       0.22235514 0.3934516 -0.2951964 0.13250026
0002a0 8d c6 69 be b1 63 ed bc 65 be 81 3c c5 15 09 be
       -0.22829647 -0.0289782 0.015837857 -0.1338721
0002b0 64 0b 31 be d0 7d b4 3d f0 a5 3b be ff 94 34 be
       -0.17289501 0.08813059 -0.18325019 -0.17634962
0002c0 05 81 85 bd 16 0e 9d bd 3e 27 bd 3d e6 c1 73 3e
       -0.06518749 -0.07668702 0.092360005 0.23804435
0002d0 64 94 7e be 57 42 ca bd 92 fb a4 3d a7 98 b1 3d
       -0.24861294 -0.098759346 0.08055796 0.08671694
0002e0 e6 8b 4d 3d 8f 7e db bd dd 69 82 3e e2 1a 8b be
       0.050182246 -0.107174985 0.25471392 -0.27168947
0002f0 a5 5a 20 be ec 49 33 be 2c 44 86 be a3 e0 9b 3d
       -0.15659578 -0.17508668 -0.26223886 0.076112054
000300 f0 56 f8 bc c2 74 27 3e 0f 86 42 bd a9 02 b1 bc
       -0.030314893 0.16353133 -0.04749113 -0.021607714
000310 f3 82 f1 3c 7c 3b a4 3d 11 38 5c be ed 9b 21 be
       0.029481387 0.08019158 -0.21505763 -0.15782137
000320 b8 e8 22 be 30 15 50 be 0b f2 23 3e 38 b8 80 bd
       -0.15909088 -0.20320582 0.16010301 -0.06285137
000330 fa 0b 97 3e 41 dd 8a be a7 dd 7d 3e 1e 69 46 3e
       0.29501325 -0.27121928 0.24791585 0.19376037
000340 46 3a bc 3d 1a 38 fa bd 62 43 0d be 55 61 00 3e
       0.09190802 -0.12217732 -0.13795236 0.12537129
000350 00 bd 0e 3b a9 8b 2e bd 3a 5c 3f be db 95 ce bd
       0.0021780133 -0.04261366 -0.18687525 -0.100871764
000360 ff 89 c1 3b b4 8e ad 3d 3f 96 d4 3d d1 d5 bc 3d
       0.005906343 0.08474484 0.1038022 0.0922047
000370 fa fa a7 3e 4b b3 ac bc 39 76 5c bc 33 cb 76 bc
       0.32808667 -0.021081587 -0.013455921 -0.015063095
000380 fc 30 81 bd 3d 31 11 be 40 bf be 3d 7c ed e2 3d
       -0.06308171 -0.14178939 0.09313822 0.11080453
000390 8c 32 bc 3e 5a 16 05 be c5 39 4f be 5c a2 f3 bd
       0.36757314 -0.12996808 -0.20236881 -0.11896202
0003a0 57 f8 10 bc 1f e8 92 3d 15 6c 1a 3d 37 85 cc be
       -0.008848271 0.0717318 0.03770073 -0.39945385
0003b0 ae 3d 61 bd 00 01 a1 bd 98 9e 38 3e b4 e7 29 3e
       -0.054990463 -0.07861519 0.18029249 0.16592294
0003c0 1b 5e 6e 3e c6 0e 8d 3d 4e 32 1c 3d 1d ed 9a be
       0.23278086 0.068875834 0.03813391 -0.30259028
0003d0 f8 8b 99 be ed 00 27 be dc ba 60 3d 74 f9 26 be
       -0.299896 -0.16308947 0.054865703 -0.16306096
0003e0 40 13 65 3e 73 21 30 3d 2e 41 43 3e e8 40 6a bc
       0.22370625 0.04300065 0.19067833 -0.014297701
0003f0 e9 7b 8e 3e d6 10 05 be 01 3d 02 3e b7 89 dc 3d
       0.2782891 -0.12994704 0.12718584 0.107684545

P.mlps.0.layers.3.bias f4 [50]
000000 da 23 8a bd 85 1b 86 bd f6 26 8a bd fe cd bb 3d
       -0.067451194 -0.06548218 -0.067457125 0.09170149
000010 82 45 83 bd 7b bf 4d 3d 7c 66 3b bd 53 38 c2 3c
       -0.06409742 0.050231438 -0.045752034 0.023708498
000020 54 2e 80 bc 43 4e 0d 3b aa e0 13 3d 25 59 82 3d
       -0.015647091 0.002156154 0.03610293 0.06364659
000030 68 d5 a5 3d a9 3f c0 3d b3 d0 fc 3c 31 a4 a5 3c
       0.08097345 0.09387142 0.030861234 0.020219894
000040 cd d3 93 bd d2 eb 58 bd c2 62 84 3d 50 46 76 bd
       -0.07218132 -0.05295927 0.06464149 -0.06012565
000050 63 ff 7d bd 19 0b 88 3c a0 ac 7e 3d bf 9b 18 bd
       -0.062011134 0.016606854 0.062176347 -0.037257906
000060 c4 48 44 bd 1f 9c a5 bd 7d 18 b6 3d 51 64 c4 bc
       -0.047920957 -0.08086418 0.088913895 -0.023973616
000070 15 9c a6 3d 5c 6b 60 3d 92 20 ba 3d 06 10 26 bd
       0.08135239 0.054789886 0.090882435 -0.040542625
000080 04 e3 83 3d c0 a3 ce bd 6d 96 c8 3c 19 3d 98 3d
       0.06439784 -0.100898266 0.024485791 0.074335285
000090 fc 34 8a 3d b9 2a 9c bd c1 72 a6 bd e9 f7 07 3d
       0.06748387 -0.07625336 -0.08127356 0.03319541
0000a0 7f 35 83 bd 60 5f aa bd 6a f2 3a 3d 94 81 af 3d
       -0.06406688 -0.083189726 0.04564134 0.08569637
0000b0 11 f5 95 3c d4 68 a9 3c b6 96 16 bd 56 40 a7 bc
       0.018305333 0.020679869 -0.036764823 -0.02041642
0000c0 2d 92 89 bd 01 96 64 bd
       -0.06717334 -0.055807117

P.mlps.0.layers.4.weight f4 [50, 50]
000000 bb c7 bc be cf 25 4e bc e7 f0 6b 3c 07 43 8a be
       -0.36871132 -0.012582256 0.014400697 -0.27004263
000010 24 c9 1d bd 5b 78 f4 bd 42 e1 96 bd fd 0f b0 bd
       -0.0385219 -0.119370185 -0.07367183 -0.085967995
000020 fd 57 a1 3e 71 b4 8e 3e 99 57 5e 3e f8 db ca 3d
       0.31512442 0.2787204 0.21713103 0.09905237
000030 3e dd df 3d 3c 9f 24 be 30 ad 6c be 66 76 3f 3c
       0.109308705 -0.16076368 -0.23112941 0.011685943
000040 f9 30 22 3e 40 83 a1 bd cf 5e 9b 3d 82 0f fb 3d
       0.15838994 -0.07886362 0.07586443 0.12258817
000050 2f 79 f3 be 31 17 d5 be a8 c4 44 be 00 8c 99 be
       -0.47553393 -0.41619256 -0.19215643 -0.29989624
000060 26 9f 47 bd e3 aa 94 3d 91 50 f6 3d 7c fa 61 be
       -0.04873576 0.072591566 0.120270856 -0.22068208
000070 98 46 8b bc 12 40 46 be 74 6d 39 3e c0 c0 7c 3e
       -0.017001435 -0.19360378 0.1810816 0.24682903
000080 d6 53 c3 bd 00 97 9e 3d ab e9 41 be ac a1 42 3e
       -0.09537475 0.07743645 -0.18936794 0.19006985
000090 8d cb 6b 3e 3d b0 bd be ab 8f f5 bd a7 f8 f6 3e
       0.23026867 -0.37048522 -0.11990293 0.48236582
0000a0 4c 01 aa be 65 d3 dc 3c e0 59 1a 3d 92 c2 26 3e
       -0.33204114 0.02695627 0.037683368 0.1628516
0000b0 74 bb 38 be 90 14 33 be 34 dc 49 bd 0a 10 ac bd
       -0.18040258 -0.17488313 -0.049282268 -0.08401497
0000c0 94 b8 aa bb 01 ac 2e bc 00 81 83 3e 14 bd b6 bd
       -0.0052099917 -0.010661126 0.25684357 -0.089227825
0000d0 ea dc 44 bd 90 24 74 bd 38 86 dd bc ff 8e 0d be
       -0.048062243 -0.05960518 -0.02704154 -0.1382408
0000e0 42 e6 e0 3d 76 a6 5b 3e c7 8a 23 3e 59 cf 89 3c
       0.10981418 0.21450219 0.15970908 0.016822504
0000f0 19 97 16 3e e5 e7 75 3e aa b0 ed 3c fc 9b fa 3e
       0.14706077 0.24014242 0.029014904 0.48947132
000100 07 94 3d be 69 35 0f bc 27 aa 57 3d e3 81 65 bc
       -0.18513499 -0.008740761 0.052652504 -0.014008018
000110 91 6f 72 3d 86 67 bd bd f5 45 51 be 2c 86 fc bd
       0.05918843 -0.09248261 -0.20436843 -0.12330279
000120 54 13 15 bd 4d a2 04 bd 30 6b 10 3e 39 71 d2 bd
       -0.036395386 -0.032381345 0.14103389 -0.10275502
000130 34 4e b2 3e 33 cc 3e 3e 16 da bf bd b5 05 fc 3d
       0.3482529 0.18632583 -0.093677685 0.12305776
000140 eb 04 15 3d c4 1a 12 3d c2 a3 2b be c5 a0 9c be
       0.036381643 0.035670057 -0.16761687 -0.30591407
000150 73 3b 0f 3e a0 ec f3 bc 0c 0e 51 3e 06 19 d3 3d
       0.13987522 -0.029775918 0.20415515 0.10307507
000160 50 ba 77 be 26 e7 df bd 93 f3 2c bc a9 51 f6 bd
       -0.24192166 -0.1093276 -0.0105561195 -0.12027294
000170 24 92 84 bd 5a dd f2 bd 4c 83 9a bd 1d a1 82 bd
       -0.064731866 -0.11858626 -0.07544574 -0.06378386
000180 d1 ef 6d 3d e2 bd f3 3d d5 7e ef 3d 70 91 41 be
       0.058090035 0.11901452 0.11694113 -0.18903136
000190 c6 b8 1a 3e a4 08 51 3e 95 e9 7c 3e 75 42 f0 3c
       0.15109548 0.20413452 0.2469848 0.029328564
0001a0 a2 3f b1 3c 2f 42 94 3d a2 d4 9a 3c fc c7 4f 3d
       0.021636788 0.07239186 0.01890022 0.05072783
0001b0 de e5 1f 3e a9 26 19 3e 6f fc 2a be 12 75 6a 3d
       0.15615031 0.14956154 -0.16697858 0.057240553
0001c0 ec 67 d5 bd d9 8f 34 be ef 25 a0 bd f4 cc 8d 3d
       -0.10420212 -0.17632999 -0.07819735 0.06923857
0001d0 94 fa 17 3d 6a 3b 24 3e 36 8a 30 3e 8e cc 5c be
       0.037104204 0.1603829 0.17240223 -0.21562406
0001e0 7e b8 a5 3e bb 01 94 bb aa 97 46 be 1b bf a8 bd
       0.3236732 -0.004516808 -0.19393793 -0.082395755
0001f0 07 e6 43 3d 22 93 39 3e 89 50 8e bc a3 cf df bd
       0.047826793 0.18122533 -0.017372387 -0.109282754
000200 5d ca 9a bd d1 a8 58 bd a8 5b c2 be a2 30 02 3e
       -0.07558129 -0.05289537 -0.37960553 0.12713864
000210 c6 fd 40 3d 56 ef 73 bd da 1e 5c be 80 18 ed 3d
       0.047117017 -0.05955442 -0.21496144 0.11576939
000220 d6 6d 97 bd bd a3 db 3d 3d ae 5f 3e af 16 58 ba
       -0.073939964 0.1072459 0.2184381 -0.0008243126
000230 cb a2 88 3c 94 31 ea 3d 7f e7 02 be 52 30 3e be
       0.016679188 0.114352375 -0.12783621 -0.1857312
000240 78 fd e7 3d 87 28 a8 bb db b4 df 3d 3d 3a c8 bd
       0.11327642 -0.0051317844 0.10923167 -0.09776733
000250 3b 74 09 be 94 02 d0 bd 71 c6 a8 bd 4b a6 46 bd
       -0.13423245 -0.10156742 -0.08240975 -0.048498433
000260 38 51 d3 bc 5b b0 bf 3c 76 36 15 3e 83 e7 67 be
       -0.025795564 0.023399523 0.14571556 -0.22646908
000270 f1 cd 61 bd 49 dc 27 3c 0d 17 b4 bd f6 30 8c 3e
       -0.05512804 0.010245391 -0.08793459 0.27381104
000280 53 c5 3b 3e ab d9 71 bb 54 ad aa bd e6 06 80 be
       0.18336992 -0.0036903422 -0.08333841 -0.25005263
000290 0b 7f 0f 3e 61 2c 87 3e 53 72 f4 3c ff 9d 6c be
       0.14013307 0.26401046 0.02983967 -0.23107146
0002a0 7e 5c 48 be d0 d6 4a 3e 42 86 0c be 25 18 1b 3e
       -0.19566533 0.19808507 -0.1372309 0.15145929
0002b0 cd 08 07 be ad ac a7 bd 12 86 2a 3e 5d 25 4c 3d
       -0.13186951 -0.08187232 0.16652706 0.04984032
0002c0 97 5a 97 be 93 fe a0 be 27 59 c4 3d 68 43 d8 3d
       -0.29561302 -0.31444225 0.09587317 0.10559732
0002d0 dd b6 1a be e7 71 17 3e db fb e2 bd 42 29 93 bd
       -0.1510882 0.14789544 -0.11083194 -0.07185604
0002e0 7e ab 98 bc 7a fc 0c 3e 61 dd 0c be 74 f3 f1 bd
       -0.018636461 0.13768187 -0.13756324 -0.11814013
0002f0 ac 6a a4 bd 54 a7 12 3e ff eb 20 3d 67 40 18 3e
       -0.080281585 0.14321643 0.039287563 0.14868318
000300 7e ef 5a 3c 13 e4 1c be 5a b5 48 bb b7 f4 15 bc
       0.013362763 -0.15321378 -0.0030625672 -0.009152583
000310 c6 6c 4a bd 1e e6 29 3e e2 fb 53 be d4 48 50 3d
       -0.04942014 0.16591689 -0.20701554 0.050850704
000320 7f d2 eb bd 1b 28 78 3d 1f 52 89 3e 43 43 09 be
       -0.11514758 0.060585123 0.26820466 -0.13404565
000330 f0 2b 95 be 7f a8 f9 bc 20 6b 11 3e 22 1b 26 bd
       -0.29135084 -0.030475853 0.14201021 -0.04055322
000340 b0 d8 38 3d 70 45 83 3e 7c 80 50 3e a2 52 00 3e
       0.045128524 0.25638914 0.20361513 0.12531522
000350 f8 9d fa 3d c5 d6 91 be 01 1a 82 be f3 20 d7 bc
       0.122371614 -0.2848417 -0.25410464 -0.026260829
000360 fa 18 45 3c b6 7b bd be ec fc a6 bc 11 d5 8d 3e
       0.012029881 -0.37008446 -0.020384274 0.2770162
000370 cc c5 23 be a4 23 23 3e 2c 2e 16 bd 97 fb 07 be
       -0.15993422 0.15931565 -0.036665127 -0.13279568
000380 c1 79 eb 3e 38 5d e8 bd a2 98 d2 bb 79 ae 06 be
       0.45991328 -0.11345905 -0.0064268867 -0.13152494
000390 91 fb ba 3d 5b 68 a5 39 bc 68 5b be 36 50 b8 3d
       0.09130014 0.00031549003 -0.21426672 0.08999674
0003a0 90 c2 d2 bd 51 5c 43 3d 77 76 ee 3d ea fa eb bd
       -0.10291016 0.04769546 0.11643689 -0.115224674
0003b0 ce e0 2d 3e da 45 01 3e 6a 56 13 3d 5f 1a 2a 3e
       0.16980287 0.12624303 0.035971083 0.16611622
0003c0 b7 50 ac 3d c6 47 9e 3c 4f 89 e8 3c 66 26 ba bc
       0.08413833 0.019321334 0.028385786 -0.022723388
0003d0 66 4b 29 3e 78 1d 8a be 92 f1 2c be ff 70 f2 3c
       0.16532668 -0.26975608 -0.16889027 0.029594896
0003e0 58 29 3a be 6d 75 92 ba cb 99 2d 3e 0c 56 b6 be
       -0.18179834 -0.0011173912 0.16953199 -0.35612524
0003f0 7a c1 88 3d 24 29 33 bc d7 49 a9 3e 4a fa 96 3d
       0.06677528 -0.010935102 0.33064148 0.073719576

P.mlps.0.layers.4.bias f4 [50]
000000 be da ac bc 46 0d 8b 3d 80 ca 8e bd ae 5f 74 bd
       -0.021100398 0.06789641 -0.069722176 -0.05966156
000010 f9 78 3d bd 40 7b 32 3c 62 57 91 bd 63 6f 63 3d
       -0.046257947 0.010893643 -0.07096745 0.05552615
000020 8c e9 52 3d 0f 4a 4f 3d 96 85 ca bd 05 0b b1 bd
       0.05149226 0.050607737 -0.09888761 -0.0864468
000030 41 bd 81 bd 80 68 66 bd ef bb 99 3c 78 6b 67 bd
       -0.063349254 -0.056252003 0.018766372 -0.056498975
000040 9f 8e 6e bd f2 51 84 bd 66 81 81 bd 79 38 bd bd
       -0.058241483 -0.06460942 -0.06323509 -0.09239287
000050 b6 54 5a 3c 04 8c 41 3d be a6 81 3d 01 24 96 bd
       0.013325861 0.04725267 0.06330632 -0.07331086
000060 6a 65 51 3d d1 8d 90 3d 9e a1 78 3d e0 22 b3 bd
       0.051122107 0.07058299 0.060701005 -0.08746886
000070 06 28 ad 3d c0 1f 2b bd e9 e2 60 3d cd 42 5b bd
       0.084548995 -0.041778326 0.0549039 -0.053530503
000080 d3 a6 a7 3d 7b 93 10 3d 95 9c 5f bd 57 37 8e bd
       0.08186116 0.0352969 -0.054592688 -0.06944149
000090 38 f6 7d 3d 8b 21 72 bd e0 8f 79 3d c3 c4 0d 3c
       0.06200239 -0.05911402 0.060928226 0.008652869
0000a0 21 ba 1b 3d 90 d1 02 bd ed 2a 98 bd 41 67 82 3d
       0.038019303 -0.031938136 -0.074300624 0.0636735
0000b0 27 43 64 bd 2c cc b2 bd 13 6b 3f 3d 93 2b 25 3d
       -0.055728104 -0.08730349 0.046732973 0.04032476
0000c0 14 5c 8d 3d fe 77 a6 bd
       0.06902328 -0.081283554

P.mlps.0.layers.5.weight f4 [1, 50]
000000 d0 33 25 3e d7 d4 98 be 6c 16 c3 3e 1d b7 38 3e
       0.16133046 -0.29849884 0.38103044 0.18038602
000010 b0 9f 28 3e ea 01 1d be e1 83 4a 3e 50 d7 d1 be
       0.16467166 -0.15332761 0.1977687 -0.40984583
000020 7a d5 a7 be 7a 02 a9 bd 6f 59 bb 3d d7 0c 51 3e
       -0.32780057 -0.082524255 0.091479175 0.20415054
000030 36 1f 2f 3e ec 42 f1 3e ce 37 97 be af e4 b9 3e
       0.1710175 0.4712137 -0.29534763 0.36307284
000040 48 7c ea 3e bc 1f d6 3e c6 11 96 3e e2 56 e8 3d
       0.45797944 0.41821086 0.29310435 0.113446966
000050 82 58 f9 be 9f 7b 86 be 3b 83 00 bf 29 c3 28 3e
       -0.4870034 -0.2626619 -0.5020024 0.16480698
000060 6d ad 27 bf 7c 2a 58 be b3 e0 8a be 3f 1c ea 3d
       -0.65499 -0.21109957 -0.27124557 0.11431169
000070 21 d0 ea bd 35 ff 1c 3e 04 97 dc be 35 bb 06 3f
       -0.11465479 0.15331729 -0.43083966 0.52629405
000080 70 4a 27 be bc 74 1c be db ed 1c 3e 15 09 18 3e
       -0.1633699 -0.15278906 0.1532511 0.14847215
000090 f0 93 b9 be df 9c d5 3e a6 dc 06 bf 3e 47 30 bf
       -0.3624568 0.41721246 -0.5268043 -0.68858707
0000a0 57 b1 ca be af df 2f 3e 5b 8a 38 3e 5b 38 cb be
       -0.39588425 0.17175172 0.18021528 -0.39691433
0000b0 a8 79 f8 3e 7a 9c d4 3d 16 ee 32 bd a9 5c cc be
       0.48530316 0.10381408 -0.043684088 -0.39914444
0000c0 67 9a 1b be b6 1c 39 3e
       -0.15195619 0.18077359

P.mlps.1.layers.0.weight f4 [50, 1]
000000 b5 89 90 3e b8 bf 52 3e 29 a0 2b 3d e0 e7 4a bd
       0.28230062 0.20580947 0.041900788 -0.04953754
000010 1f 8a e9 3d ea dd d0 bb 50 60 61 3e 0e be 07 be
       0.11403298 -0.0063741105 0.22009397 -0.13256094
000020 4e 24 bc 3d 6f b7 8c be 80 18 8a be 78 8b 6d 3d
       0.09186612 -0.274837 -0.26971817 0.057994336
000030 c0 f1 a1 3d be e1 d9 3d 60 77 46 3e 7a 02 6f be
       0.07907438 0.1063876 0.19381475 -0.23340788
000040 37 f6 e5 bd bd 1d c6 3e 85 e2 ce 3e 13 52 aa 3e
       -0.112286024 0.38694564 0.40407196 0.33265743
000050 21 b3 31 3c e7 a1 45 3d d0 d1 47 3d f8 3e 01 be
       0.01084593 0.048250105 0.048784077 -0.12621677
000060 12 36 1b 3e b4 60 10 be 70 78 a5 3d e9 9d e4 bc
       0.15157345 -0.1409939 0.08079612 -0.027907329
000070 92 d5 5e bd 0d 59 23 be e9 f4 40 bd ac ba 64 3d
       -0.054402895 -0.15951939 -0.047108565 0.055842087
000080 4d 2a 68 bd 98 e2 74 be a3 ed 19 3d 1a 2b 5f bb
       -0.056680966 -0.23914564 0.037580144 -0.003405279
000090 4a 59 9a be 9b 55 5c bd 2b a2 9c be d8 2a 27 be
       -0.30146247 -0.053792577 -0.30592474 -0.16324937
0000a0 e4 02 75 3e 6b 33 36 be a4 22 82 3d 18 2c 6b be
       0.23926884 -0.17793052 0.063542634 -0.22966039
0000b0 30 4e f3 3b ce af 2d bd bf be 1b 3d f5 d3 5f 3d
       0.007425092 -0.04240399 0.038023707 0.054645497
0000c0 08 00 89 bd 69 05 fb 3b
       -0.06689459 0.007660557

P.mlps.1.layers.0.bias f4 [50]
000000 dd 42 f6 3c 89 5e 11 3d 82 dc 24 bd ba d8 07 3d
       0.03006118 0.035490546 -0.040249355 0.03316567
000010 1f 90 af 3c c2 8f 0f bd c5 e3 13 3d aa d4 03 bd
       0.021431027 -0.035049208 0.03610589 -0.032185234
000020 7a 82 c0 bc 3c d1 73 bc b5 1e 13 bd 29 5d 0d 3d
       -0.023499716 -0.014881428 -0.035917956 0.034512673
000030 88 31 11 bd 7b 90 72 bc 4f 09 87 bc 2e a4 13 bd
       -0.035447627 -0.014804955 -0.01648393 -0.036045246
000040 e6 4b ad bc 95 28 3d 3b 17 55 12 bd c3 5e a9 3d
       -0.021154355 0.00288633 -0.03572568 0.082700275
000050 65 cb 27 3d c3 2c 17 bd bd 91 50 3c 4f 54 3d 3d
       0.040965457 -0.036907922 0.012730059 0.04622298
000060 c3 9d 20 3d d8 ab 01 3d 39 b1 ac bc ec 5e 63 bd
       0.039212953 0.031658024 -0.0210806 -0.055510446
000070 c4 01 19 3d 1d 16 2d bd 93 61 38 bd b5 57 34 3d
       0.0373552 -0.042257417 -0.04501493 0.044028956
000080 f6 e1 80 3b e6 25 1e bd 10 19 31 3d f2 62 2f bd
       0.0039331866 -0.03861036 0.043236792 -0.04281897
000090 b4 44 a7 3c 1c 54 2d 3d 2a f6 82 bd 79 7f 14 bd
       0.020418502 0.04231654 -0.06394608 -0.03625438
0000a0 0d 6d cf bc 9c 8e 0a 3d a4 44 13 bd f4 29 d6 3c
       -0.025320554 0.03382741 -0.035954133 0.026143052
0000b0 5b 47 25 bd 84 bd f4 3c 48 6c 23 bd 5a 19 c4 3c
       -0.040351253 0.029875524 -0.039898187 0.02393787
0000c0 20 3d 7f bc df 6d 67 3d
       -0.015578538 0.056501266

P.mlps.1.layers.1.weight f4 [50, 50]
000000 5f 53 37 be 21 33 a6 be b2 9c 66 3e 38 fd ad 3d
       -0.17902897 -0.32460883 0.22520712 0.08495563
000010 fa b1 0d 3c ba 56 29 3d ec 86 1a be 3f 14 d1 bd
       0.00864839 0.041342475 -0.15090531 -0.1020894
000020 83 aa 97 3c a6 10 04 3d 21 08 97 3c d3 a5 19 3d
       0.018513924 0.03224244 0.018436493 0.037511658
000030 21 b6 e9 bd 11 c0 3e 3e 67 1c cd bd 0d 41 e5 3c
       -0.114116915 0.18627955 -0.10015183 0.02798512
000040 72 86 5a bd 1c 9d e2 bc db 9c 45 be 9f cd 69 3e
       -0.053350873 -0.027662806 -0.19298117 0.22832344
000050 4b 77 89 bd e5 83 cc bc 6c 9d ed bd b4 00 2b be
       -0.067122065 -0.024965236 -0.116022915 -0.16699487
000060 04 79 93 3d 95 49 8b bd 3d 2b b2 3d 85 72 a5 bd
       0.07200816 -0.06801144 0.08699653 -0.080784835
000070 a5 9c 17 3d a3 91 bc 3d 7d e5 6e be da 89 ed bd
       0.037014622 0.092074655 -0.2332973 -0.11598559
000080 c9 91 04 3d e0 de 03 3e 08 06 29 3e 09 2d 42 3d
       0.032365594 0.12877989 0.16506207 0.04740623
000090 1a 48 c7 bd 9e 1f df 3d a5 44 4f bd 3d df 65 3e
       -0.09730549 0.108947024 -0.050602574 0.2244844
0000a0 63 3b e2 bd 5c fe 09 3d 35 49 cb bd 46 ec 2a 3e
       -0.11046483 0.03368984 -0.099260725 0.16691694
0000b0 6e 0e e1 bd 29 1e 6c 3d 73 0d 3e bd 19 b4 b5 bc
       -0.1098908 0.05764595 -0.046399545 -0.022180604
0000c0 2e 2a eb 3d 36 3e 45 be ee 80 05 be 39 5a d7 bd
       0.114826545 -0.19262013 -0.13037464 -0.105152555
0000d0 7b 73 04 be 3e aa 8b 3d 62 42 2c be e6 08 d3 bd
       -0.12934677 0.068195805 -0.16822198 -0.103044316
0000e0 a6 cf 18 be 7e 9f 3b 3e d7 dd 90 bd 27 6f 67 bd
       -0.14922962 0.1832256 -0.070735626 -0.056502488
0000f0 6b 55 0b be d4 9e 1b 3e 64 12 96 3e e9 6e 10 3d
       -0.13606803 0.15197307 0.29310906 0.035262022
000100 05 16 b4 3d 58 c0 dd 3d c2 88 62 bc 28 38 df bd
       0.087932624 0.10827702 -0.013826551 -0.10899383
000110 26 5c de 3d b4 8e ea 39 aa 41 8f be 65 b8 b1 bd
       0.1085742 0.0004473828 -0.27979785 -0.086777486
000120 ea ac 34 3e ab 23 0b 3e 59 ba 14 3e 57 44 46 3e
       0.17644086 0.13587825 0.14524211 0.19362007
000130 82 1e 48 3d 18 ef 41 3e 76 05 0a be 8c 3c 1c be
       0.04885722 0.18938863 -0.13478646 -0.15257472
000140 18 9d 4c bd 3c 33 bc bd 5d f1 71 3d 80 2a c0 3e
       -0.049954504 -0.0918946 0.059068073 0.37532425
000150 7a 7c 91 ba 7a cd f0 3d cb 5e 0b 3c 2f 1e 7b bd
       -0.0011099719 0.117579415 0.008506487 -0.061308082
000160 43 1a 80 3d a6 a8 cf bd 47 d8 b2 3e 93 fe fa 3d
       0.06255009 -0.10139589 0.34930632 0.122555874
000170 e9 35 a0 3d 40 7a 60 3d 23 d3 75 bd fd 03 f5 bc
       0.078227825 0.054804087 -0.06001581 -0.029909128
000180 67 b0 95 3e b1 86 b3 bd 31 0b d2 bd b2 88 1b 3e
       0.29236147 -0.08765925 -0.10256041 0.15188864
000190 08 ca 2f 3d a6 bf 36 3d f9 3a 19 be 46 02 42 3b
       0.04291728 0.044616364 -0.14963903 0.0029603406
0001a0 22 51 7e 3c 99 bf 5d be 94 51 9b 3d a0 34 8d 3e
       0.015522273 -0.2165512 0.07583919 0.27579212
0001b0 c9 88 99 3e 7c 44 1f 3e c8 10 40 bc 90 fc 15 3d
       0.2998717 0.15553468 -0.011722751 0.036617815
0001c0 b5 22 94 3d 3e 7a 0e 3e 31 72 7c 3d ed d2 4d bd
       0.07233182 0.13913819 0.06163234 -0.050249983
0001d0 90 9d ae 3d c0 dc 82 be 24 84 43 be 0e 4c 39 3e
       0.085261464 -0.25559044 -0.19093376 0.18095419
0001e0 62 6a 9c bd 1c d0 6a be 1a 70 0e be 53 7f 2a 3d
       -0.076374784 -0.2293095 -0.13909951 0.041625332
0001f0 23 b1 68 3e ad e9 07 3d cf 24 02 3e bd c3 83 bd
       0.22723822 0.033181835 0.12709354 -0.064338185
000200 bc c4 e0 3c 00 90 2c 3d 11 8a 36 3e a2 c7 ca bd
       0.02743756 0.042129517 0.17826106 -0.09901358
000210 15 65 84 3e 83 c3 31 be 04 4f 9d be 81 79 3a 3e
       0.2585837 -0.17359738 -0.30724347 0.18210413
000220 56 99 51 be 38 49 76 3d 54 f5 89 3d 30 e7 49 3d
       -0.2046865 0.06012842 0.06736246 0.049292743
000230 c7 a6 9b 3d 2d 01 7f 39 55 17 23 3e 74 f1 a8 be
       0.0760017 0.00024319133 0.15926869 -0.32996714
000240 e4 c6 05 be 7f ae c4 3d d8 d5 53 3e d7 e2 b4 3d
       -0.13064152 0.09603595 0.20687044 0.08832329
000250 5d 82 59 bd 7f 35 2b be 2e b0 4e 3e 4c 08 38 3d
       -0.05310284 -0.16719626 0.20184395 0.044929788
000260 5b 7b 65 bd 36 3a 9e 3c 7a fd 67 be e3 89 4d 3e
       -0.056025844 0.019314867 -0.22655287 0.20072131
000270 85 58 d2 3c a7 19 73 be 82 18 1e be af 6f 4f 3e
       0.025676975 -0.23740254 -0.15439036 0.20257448
000280 6d a6 83 bd dc ce fb bd fa 07 76 3e 07 02 ae 3d
       -0.064282276 -0.12295315 0.2402648 0.084964804
000290 c6 ac fb 3b 19 74 3f 3d 41 3d ee bd 74 66 f6 3d
       0.0076805083 0.04674158 -0.11632777 0.1203126
0002a0 7b 81 46 3e 1c c3 a7 be b2 f0 1a be d6 12 44 bd
       0.1938533 -0.32766044 -0.1513088 -0.047869526
0002b0 6c 8b 3c 3d ab 0d ab 3d 12 9d 41 3d cd 3b 0d bd
       0.0460314 0.08352216 0.047268935 -0.03448086
0002c0 91 0a 09 be 41 ff 95 be 62 63 c0 3d 11 83 99 3d
       -0.13382937 -0.29296306 0.09393956 0.07495702
0002d0 02 38 88 3e bc cc 53 3a a2 f2 c5 bd f4 89 38 3c
       0.2660523 0.0008079519 -0.09665419 0.011263359
0002e0 3b 2a c6 3d 96 08 44 be 26 44 40 3c 16 37 97 3e
       0.096760236 -0.191439 0.011734998 0.29534215
0002f0 65 a8 32 bd 44 63 14 3e dc 08 9a bc 47 61 ab 3d
       -0.043617625 0.14490992 -0.018803053 0.083681636
000300 66 e0 a9 bd cc d2 9a 3c 5b 83 82 3d 40 e6 14 3d
       -0.08294754 0.018899344 0.0637271 0.036352396
000310 fc 9a 8a 3e 90 89 02 3e 65 1c 85 be 6c c5 18 3d
       0.2707137 0.12747788 -0.25998226 0.03729765
000320 07 5c 1a be a7 25 9d 3e df 01 02 3e b9 64 d0 bd
       -0.15074168 0.3069279 0.12696026 -0.10175461
000330 bd c3 ab 3e 94 bb 83 bd f1 9b 23 be a9 a3 7f be
       0.33547774 -0.06432262 -0.15977456 -0.24964775
000340 50 d0 83 3e 1b c4 a7 be e2 6e cb 3d dd c7 96 3d
       0.25744867 -0.32766804 0.099332586 0.0736234
000350 11 3f f2 bd 2c bd 15 bc e4 eb 7f 3e 61 06 90 3d
       -0.11828435 -0.00913934 0.24992329 0.07032467
000360 fb 57 d9 bd c5 25 63 3e 68 f6 bb bc a7 41 c8 bd
       -0.10612484 0.22182377 -0.022944644 -0.09778147
000370 45 8d 15 bd 69 c9 81 be d0 3a a6 bc f1 4f d5 bd
       -0.03651168 -0.25348976 -0.020291716 -0.10415638
000380 25 cd 02 bb ee 57 db 3d 5e c4 0d be c7 97 9a 3b
       -0.0019958701 0.10710131 -0.1384444 0.0047178003
000390 06 08 62 bd 5b 2e 68 3d 8d 79 36 be da 47 1e 3c
       -0.055183433 0.056684833 -0.17819805 0.009660685
0003a0 17 a1 5f be ec f4 bd 3d 1b e3 97 3e 8a 36 1f be
       -0.21838795 0.09275231 0.29665455 -0.15548149
0003b0 12 d0 13 bd 10 9b 40 3b ac 11 06 3e 93 64 75 3e
       -0.036087103 0.00293893 0.13092679 0.23964147
0003c0 52 ff d5 3d 99 4e a5 3d b9 7c 08 3d f2 77 21 3e
       0.10449089 0.08071632 0.03332207 0.15768412
0003d0 09 be 63 be db 60 78 3d 7d a0 8b bd b8 c4 8a 3e
       -0.22240461 0.060639244 -0.0681772 0.2710321
0003e0 9f 2f 22 bc af 5b 96 bd ab ab 90 bc a7 01 87 be
       -0.009899049 -0.07341706 -0.017659983 -0.26368448
0003f0 47 9c 19 3e a4 8d 61 3d db 24 5e 3e 06 9c fe bd
       0.15001021 0.05506672 0.21693747 -0.12432103
