output/Darcy_UQPINN/weight.pth (torch, 160307 bytes, 40 tensors)

P.mlps.0.layers.0.weight f4 [50, 3]
000000 3a 77 14 3d 8e b0 76 3e 5a 19 43 be 88 3d 98 bd
       0.036246516 0.24090788 -0.1905264 -0.07433611
000010 60 55 60 be 18 8c 65 3e 01 36 6f be 04 49 22 3d
       -0.21907568 0.22416723 -0.23360445 0.039620414
000020 e1 5d 26 3d 41 9b 7f 3d 8f ec 92 be 5c 9b 32 be
       0.040616874 0.06240392 -0.28696105 -0.17442077
000030 17 d8 fd 3d 14 a0 1c be 1b 1a 2a 3e 8b 6a e1 3d
       0.123947315 -0.1529544 0.16611521 0.110066496
000040 b6 93 9f 3e 02 e2 80 3c 30 fe 2d 3e 8c 1e 61 3e
       0.31167382 0.015732769 0.16991496 0.21984309
000050 4a c1 db bd 08 39 10 3e a3 60 58 3d a5 85 80 3d
       -0.10730226 0.14084256 0.052826535 0.06275491
000060 fa d8 18 3d 82 1d 87 be 77 26 79 3e b2 f3 d7 bb
       0.0373163 -0.263897 0.2433108 -0.00659033
000070 f7 50 14 3e 2a da 3a 3e 47 ad 2d 3e 48 47 88 3e
       0.1448401 0.18247285 0.16960631 0.26616883
000080 eb 00 5c 3e 6a d6 d4 3e 5d 75 1c be 63 1d 91 bd
       0.21484725 0.41569835 -0.15279146 -0.07085683
000090 de 8b 08 3e cc 6c cf be 8b c7 6b be be 10 16 3e
       0.13334605 -0.40512693 -0.23025338 0.14654824
0000a0 7c b7 4e be e4 4b 9c 3d 74 5d 87 bd 59 21 52 bc
       -0.20187181 0.076316625 -0.06609622 -0.0128253335
0000b0 4f 2b 05 3e 8e 9d 8d bb ca ee 12 be 79 f9 b6 3e
       0.13004802 -0.0043217605 -0.14348903 0.35737208
0000c0 d5 1e d0 3c eb ef 5a be 76 83 52 3d 2b f8 b3 3d
       0.025405327 -0.21380584 0.051394902 0.08787569
0000d0 2d f6 8b 3d 08 bc 4a be 8c c6 80 bd 46 30 1e 3e
       0.06834064 -0.1979829 -0.0628787 0.15448102
0000e0 bd 91 52 be 56 8b b5 3d 88 04 ac be 08 71 d7 bc
       -0.20563407 0.08864467 -0.33597207 -0.026299015
0000f0 c5 20 c4 bd 92 d9 72 3d df fd c9 3d 03 f2 55 be
       -0.09576563 0.059289522 0.09862875 -0.20893101
000100 a7 3c a9 3d cb 03 95 3c 8c 69 28 3e e1 13 50 be
       0.08263522 0.018190285 0.16446513 -0.20320083
000110 08 96 32 3d 73 d7 86 bd 5c e0 84 be 33 e9 9c bd
       0.043600112 -0.065840624 -0.25952423 -0.07661667
000120 2a 8a 84 3d d3 fc 64 3e cc 6b 68 be 24 8e 01 3e
       0.06471665 0.2236207 -0.22697371 0.12651879
000130 ae b5 3a be 9f a2 f9 bc 92 30 e9 bc ee a9 95 be
       -0.18233368 -0.030473052 -0.028465543 -0.2923121
000140 a1 22 6a be c2 53 d1 bb b4 20 19 be 74 74 06 3e
       -0.22864772 -0.0063881585 -0.14953882 0.13130361
000150 69 2a e0 3c 64 ae 85 be 8f 27 2e be a1 05 85 bd
       0.027363973 -0.26109612 -0.17007278 -0.06495214
000160 5c 65 c0 bd 25 ed 84 3e 22 44 03 bd 8e 60 97 3e
       -0.09394333 0.25962177 -0.0320474 0.29565853
000170 40 fe d9 3c ab 83 e4 bd 01 b7 a3 bc fa 43 74 bc
       0.026610494 -0.11157926 -0.019984724 -0.014908785
000180 14 99 4b 3e fc 5f f2 3d d0 6a a3 3d 83 bb 9e 3e
       0.19882613 0.11834714 0.07979357 0.31002435
000190 72 57 a3 be ed fd c5 bd c4 c2 e4 3d d3 92 9a be
       -0.31902653 -0.09667573 0.11169961 -0.30190143
0001a0 eb ec 1c 3d af 2d 0e 3e 75 f5 90 bd 6e e4 8c 3e
       0.03831188 0.13884614 -0.07078067 0.27518028
0001b0 87 bb fd 3d 13 ea 47 be f5 7c a7 be 6e 9b 61 3d
       0.123892836 -0.19522886 -0.32712522 0.05507987
0001c0 ed 4c 91 3d f9 e6 8e be 38 4c ac 3d f0 99 9b 3d
       0.070947506 -0.27910593 0.08412975 0.075977206
0001d0 ba 49 70 be 74 81 50 bd a4 c7 b7 ba 2f 5e 4c bd
       -0.23465624 -0.050904706 -0.001402129 -0.049894508
0001e0 05 7d de bd ec 8e db bd ea e9 a7 bd 65 fe 0b bc
       -0.10863689 -0.107206196 -0.081989124 -0.008544539
0001f0 f2 b2 d7 3c 4f ca 25 3e 71 b2 04 3e e2 dc c7 bd
       0.026330445 0.16190456 0.12958695 -0.09758927
000200 61 c4 cd 3d 5e d2 db bd 6b 5a 12 be 29 9b e7 bd
       0.10047222 -0.10733484 -0.14292304 -0.11308891
000210 b6 8a 05 be 09 3e b6 3c ba 12 f4 bd 67 3e 8c bb
       -0.13041195 0.022246378 -0.11917634 -0.0042799
000220 0f 6a 23 bd a1 15 2d be 14 ce 64 bd f7 53 0f 3f
       -0.039896067 -0.16902782 -0.055860594 0.55987495
000230 b7 fc 29 3d c6 90 d5 3e 0e 8c 95 3d 4e ed 17 bd
       0.041500773 0.41712016 0.07302104 -0.037091546
000240 26 6b 63 bd 07 aa 4c 3e eb 1a eb 3c ee b4 ef bd
       -0.055522107 0.19986735 0.028699359 -0.117044315
000250 13 4f fa be 02 e0 fe 3d
       -0.48888454 0.1244507

P.mlps.0.layers.0.bias f4 [50]
000000 ac ab df 3c a3 53 81 3c 16 dc 48 3c 8d ba 74 3a
       0.02730354 0.015786951 0.012259504 0.00093356596
000010 c8 e8 6e bd ef 0d 51 3b 8c 44 06 3d e6 6d 42 be
       -0.058327466 0.0031899174 0.032780215 -0.18987235
000020 db a7 b8 bd 24 9e 0b 3d fd 53 3a bd 07 32 83 3b
       -0.09016391 0.03408636 -0.045490254 0.0040037665
000030 ab 21 a3 3c 5f 42 a3 3d 0f 00 87 bd 12 4f d7 bd
       0.019913515 0.07971644 -0.06591808 -0.10513128
000040 a5 4f 92 3d 7d 61 9b bd 4d de 9f 3d 0e 17 cd 3d
       0.07144097 -0.07586954 0.078060724 0.10014163
000050 36 23 cb 3d 6b 78 b5 ba 1e 33 6d bd 56 b6 88 3d
       0.09918825 -0.0013845091 -0.057910077 0.06675403
000060 c6 b9 16 bd 31 28 ae bd d2 a5 55 3d 92 2f 59 bd
       -0.03679826 -0.0850376 0.05216009 -0.053023882
000070 30 76 6b 3d e7 5e a7 bd b4 71 cd 3c 53 45 93 bc
       0.05748576 -0.08172398 0.025078632 -0.017977392
000080 55 d0 c2 bd a4 b3 92 bd 0c 7b e3 3c bc b9 08 bd
       -0.095123924 -0.0716317 0.027768634 -0.033380255
000090 bc 24 4e 3d 03 c0 b3 bd a5 96 eb bc 40 5e 7c bc
       0.050328 -0.08776858 -0.028758356 -0.01540333
0000a0 31 87 89 3b 66 bc 1e bc cd 6a 5d 3c 53 9a fc 3c
       0.0041970243 -0.009688472 0.013514233 0.030835306
0000b0 45 89 08 bd bb d7 76 3d 0c 8d fe 3d 2b 75 05 3c
       -0.033334035 0.06026433 0.12429246 0.008145611
0000c0 7b 87 4a 3d 5d dc ae 3c
       0.04944561 0.021345312

P.mlps.0.layers.1.weight f4 [50, 50]
000000 57 39 94 3d cb b4 05 3e 16 29 00 3e 17 51 ae bd
       0.07237499 0.13057248 0.12515673 -0.085115604
000010 17 d6 b9 bc a9 14 f6 3d 82 36 e0 3d 2f 9b d2 3d
       -0.022685094 0.12015659 0.109478965 0.10283505
000020 8f a4 82 be 87 23 20 be b0 c8 6d 3e 4e 64 3b 3e
       -0.25516173 -0.15638553 0.23221087 0.18299982
000030 fc 02 8e 3e d6 7e b4 3e c6 38 9f 3d 49 09 a1 3d
       0.27736652 0.35253018 0.077745005 0.07863099
000040 f8 f3 0a 3e 12 80 55 bd c1 4d 1e 3e 41 b9 36 3e
       0.13569629 -0.05212409 0.15459348 0.17844106
000050 1d 17 9b 3d 80 9d 69 3e ac 39 4a be a3 ba 2d be
       0.07572768 0.22813988 -0.19748563 -0.16965728
000060 7a d4 ad 3d 63 1d 7d 3b 99 7f c4 3d 0f 08 a1 be
       0.08487792 0.0038622252 0.0959465 -0.3145146
000070 ed c6 c7 bc a4 b5 2a bd 5f 12 4e be 9d a8 3e 3e
       -0.024386847 -0.041677132 -0.20124196 0.18619008
000080 4b 2f a8 3d 21 2f bb bd 33 5c 1e 3e 27 3b 02 3e
       0.082121454 -0.091398485 0.15464859 0.12717877
000090 f8 03 b0 3d 15 c5 91 bd 66 87 cc 3c 37 f8 0c be
       0.08594507 -0.071176685 0.024966907 -0.13766561
0000a0 4a 0c 0e bc 05 3b 41 bd 18 bc b4 3c c5 61 9c be
       -0.008669922 -0.047175426 0.022062346 -0.30543342
0000b0 17 dd d2 bd cf be 72 bd 5d 5a 56 3e 43 07 00 be
       -0.10296076 -0.059264 0.20932908 -0.1250277
0000c0 a1 d3 19 bc 3b c8 a7 3c ec cf 1c 3e 5a 3d 0c 3b
       -0.009388835 0.02048122 0.15313691 0.0021398873
0000d0 23 5a c7 3b 11 23 2f 3d 88 e2 c8 bd 7e 13 10 bb
       0.006083743 0.04275805 -0.098088324 -0.0021984274
0000e0 19 71 9b 3e 5b a0 84 bd fa 7b ba bd af 0d 3e be
       0.30359724 -0.06475898 -0.09105678 -0.18559907
0000f0 5f 46 a4 3e eb 41 a9 bd 03 ca bf 3d fd 57 c8 bd
       0.3208494 -0.08264526 0.093647026 -0.097824074
000100 05 5b eb 3d ff 76 f5 3c 57 51 76 3e 51 a4 44 bd
       0.1149197 0.029963968 0.24054466 -0.048008267
000110 3f 56 e5 3d fd 05 b3 3d 22 47 fb ba e4 32 de bd
       0.11198091 0.087413765 -0.001917098 -0.1084955
000120 ac 28 42 3d 0d 5b 4c 3e cf 31 11 bd d2 2e 85 3e
       0.04740207 0.19956608 -0.03544789 0.26012284
000130 fc 65 30 bd 75 97 50 bd b0 52 34 3e a4 93 ac 3e
       -0.04306601 -0.05092569 0.17609668 0.3370639
000140 bd 56 79 3e b3 ee 58 3d 41 91 94 3e 21 db 7e 3d
       0.24349494 0.052962016 0.2901707 0.062220696
000150 33 28 e7 bd e5 0c 1c 3c a3 fe ce be a1 3f b2 bd
       -0.11286964 0.009524559 -0.40428647 -0.087035425
000160 fb ea 80 3e 95 4a 07 bc 72 76 6e be 3e c1 72 bc
       0.25179276 -0.008257528 -0.23287371 -0.01481658
000170 f2 15 4d 3e e3 88 97 3e ab 71 ab bc f9 44 f3 3d
       0.20027903 0.29596624 -0.020928225 0.1187839
000180 64 a7 14 be 7c d7 88 3d c5 07 53 be c1 f1 2e bd
       -0.1451698 0.066817254 -0.20608433 -0.042711023
000190 76 38 ee 3d 5a 26 d8 3c 5e b4 a8 be 1e 9f 4a 3d
       0.11631863 0.026385475 -0.3295011 0.049468152
0001a0 06 c4 ac 3d 22 30 78 3b 84 3d 31 3e 32 32 8b be
       0.08435826 0.0037870486 0.17308623 -0.27186733
0001b0 b4 6e 7d 3d e3 58 55 3e de 99 5b 3d 31 0b 7d 3b
       0.061873153 0.20834689 0.053613536 0.0038611407
0001c0 55 1b e1 bb 89 7a 18 bd 6d e9 e2 bd 9a 63 ec 3c
       -0.0068697133 -0.037226234 -0.11079679 0.028856087
0001d0 e3 5f 8a 3e 6e 7b ac 3d 44 b8 c6 3d e4 cf 5d be
       0.2702628 0.0842198 0.09703115 -0.21661335
0001e0 c9 05 5a bd 7e 3c 1b be d6 d9 8f 3d f8 14 5a 3e
       -0.053228173 -0.15159795 0.07023971 0.21297061
0001f0 f9 a7 c9 bd 1f a0 6f 3d 0c 1e 62 bd bd cf 34 bd
       -0.09846491 0.058502313 -0.055204436 -0.044143427
000200 d6 04 72 3e 65 d3 51 3d 7d 8a 1e be 0d df 73 3d
       0.23634657 0.051226992 -0.15482517 0.05953889
000210 bc 09 a5 3d 7c cc a6 bc 2e 96 84 3e 2b b1 0e 3e
       0.08058497 -0.020361178 0.25895828 0.13934772
000220 72 35 ad bd 20 fb c0 bd 60 22 95 3e 15 98 f9 bd
       -0.084574595 -0.09422898 0.2912779 -0.121872105
000230 1b c0 df 3d 6f 85 af 3b e0 4c 11 be c4 d4 b5 be
       0.10925313 0.0053564827 -0.14189482 -0.3551389
000240 69 41 f6 3d ff a6 0a be 36 73 b7 3d 86 2d b3 3c
       0.12024195 -0.13540266 0.089575216 0.021872293
000250 ef eb c9 bc 45 e1 40 bd 02 1a 2a be 65 7a 85 3c
       -0.024648635 -0.047089834 -0.16611484 0.016293714
000260 6f 4e 2d 3d 67 55 12 bc bf 20 24 3e 94 a2 5c be
       0.04231113 -0.008931494 0.16028117 -0.21546394
000270 1d 04 bb bd 13 84 e9 3e 72 08 a8 3e 80 df 28 be
       -0.09131644 0.45608577 0.32818943 -0.16491508
000280 62 7b ad 3c 3a ea be 3d 33 87 b4 bc 0d ff 3f 3e
       0.021176998 0.09322019 -0.022037124 0.18749638
000290 28 64 81 3e f9 22 25 be 40 55 bf bd 02 38 22 be
       0.25271726 -0.16126622 -0.09342432 -0.15841678
0002a0 f3 fb 82 3d 53 bf 88 be 1c 1c 85 3d 4d f8 6b 3c
       0.06395712 -0.2670847 0.06499502 0.014402461
0002b0 ec 5e d1 bd 9c 2f 2c 3d 03 b9 ca 3e fe 1d fe bd
       -0.10223183 0.04203759 0.39594278 -0.12408064
0002c0 c5 2c 9d 3d 3a 39 25 3e 65 ac 17 3d 9c 36 91 3d
       0.07674555 0.16135111 0.037029643 0.07090494
0002d0 fe 78 51 be 71 12 d2 3d 8e c7 1a 3e 89 6f 06 3e
       -0.20456311 0.10257424 0.15115187 0.13128485
0002e0 54 5b 85 be fe b2 34 3d 87 00 aa 3d 24 ec 43 3e
       -0.2604624 0.044116013 0.08300882 0.19133049
0002f0 2e 40 40 3d d4 8f c1 bd b3 4d 19 3e ea 18 9f 3d
       0.046936207 -0.09451261 0.14971046 0.07768424
000300 96 f3 1a bc 4f 94 34 be 19 b3 dd 3d cd 08 b1 be
       -0.0094574895 -0.176347 0.10825176 -0.34577027
000310 fb 40 6b 3d 05 a1 bd 3d 44 e4 de bc b4 43 a7 bd
       0.057435017 0.09259228 -0.027208455 -0.0816721
000320 bf 14 1e bd a3 62 ba 3d 10 d7 25 3d ff 24 35 3e
       -0.038594004 0.09100845 0.040488303 0.17689894
000330 1a 89 09 be 66 da 93 bd ea 6e 34 3e 1b e7 08 3d
       -0.13431206 -0.072193906 0.17620435 0.033423524
000340 bf 7c eb bd b1 bf 65 3e 78 1c 07 3e c0 88 1b 3d
       -0.11498403 0.22436406 0.13194454 0.03797221
000350 ad 3a d2 3d c2 f1 f1 bd 89 84 de 3d b5 54 b0 bd
       0.10265098 -0.1181369 0.10865123 -0.086099066
000360 63 f5 c1 bc 60 fd d4 3d ac 54 74 bd ee 0b b1 bd
       -0.02367658 0.1039989 -0.059651062 -0.086448535
000370 82 d4 a1 bd fd 55 db 3c 9f a2 c5 3e eb 89 b1 3c
       -0.07901861 0.0267744 0.38600633 0.02167221
000380 61 1e 92 3e e1 2f 84 3e b7 c5 14 be b4 5b 9d bd
       0.28538802 0.2581778 -0.14528547 -0.076835066
000390 e3 f0 85 be ea 56 a3 3d 3d c8 03 be 88 8a e3 3d
       -0.26160344 0.07975562 -0.12869354 0.11110407
0003a0 4b 29 45 3e 4f 43 1f 3d 06 2d 01 3a 5b 85 46 be
       0.19254033 0.03888255 0.00049276685 -0.19386809
0003b0 d2 39 22 be c6 52 a7 3d 55 9a c5 be 7b ae 62 3e
       -0.15842369 0.08170085 -0.38594308 0.22136872
0003c0 04 75 63 3d 3d 43 6f 3b ec 38 84 be 5f 1a cd bd
       0.055531517 0.0036508583 -0.25824678 -0.100147955
0003d0 02 c6 be 3d 67 45 8f bc f9 40 c1 be 89 92 47 3e
       0.09315111 -0.017489148 -0.37744883 0.19489492
0003e0 76 2f 53 be 41 99 7a be ad 30 7c bc 0d 51 8a bd
       -0.20623574 -0.24472524 -0.015392465 -0.067537405
0003f0 15 d9 62 3d bb e5 25 3e 7a 1b 9e bd 99 09 64 3e
       0.055382807 0.16200916 -0.077200845 0.22269286

P.mlps.0.layers.1.bias f4 [50]
000000 4b 4c 60 3d c6 e0 d2 3c a5 f0 99 3b ea 3b ee bd
       0.05476026 0.025741946 0.0046978765 -0.116325215
000010 f7 9e d5 bd fc be 58 3c 77 fe f0 bd b5 6e 21 bd
       -0.10430711 0.013229128 -0.11767285 -0.03941222
000020 63 a1 12 3d be d4 de bb 28 f5 b6 bc 96 9b ea 3c
       0.03579844 -0.006800263 -0.022333696 0.028638642
000030 0d b2 14 3d e9 55 2a 3d 2b 70 00 3d 0a a8 60 3d
       0.036302615 0.041585837 0.03135697 0.054847755
000040 72 88 05 3d 8d 97 1b 3c 72 44 78 3b 50 45 13 bd
       0.032600828 0.009496582 0.0037882593 -0.035954773
000050 75 cf 3b 3d 73 47 7d bd ab f1 44 bd e9 c4 98 bd
       0.045852143 -0.061835717 -0.048082035 -0.07459433
000060 17 e9 af bd e9 3a bb 3d 75 0c 62 bd 45 d4 a0 bd
       -0.0858938 0.091420956 -0.05518766 -0.07852987
000070 6d a8 1f bd fd ca 83 3c 2c 72 8d 3c f4 4a 4c bc
       -0.038978983 0.016088003 0.017266355 -0.012469042
000080 23 a5 af bc 50 5a b0 3a 2d 98 99 3c 36 3e 0a bd
       -0.021441048 0.001345465 0.01874932 -0.033750735
000090 7f 0e 83 bc 15 f1 bb 3d 6c d9 b0 3c 7d d7 3a 3d
       -0.015998123 0.09176842 0.02158805 0.045615662
0000a0 39 7f 86 bc 5b 39 97 bc 57 62 30 3d ba d7 6f bd
       -0.016418086 -0.018459966 0.043062534 -0.058555342
0000b0 df 21 73 3d 43 a3 e4 3c c8 97 c9 bd 7e 06 f0 3c
       0.059358474 0.02790988 -0.09843403 0.02929997
0000c0 cd c6 90 bc 15 90 18 3c
       -0.01767292 0.009311696

P.mlps.0.layers.2.weight f4 [50, 50]
000000 a8 77 9c 3c 2b 26 17 be f7 b1 43 bb db d4 d6 be
       0.019100025 -0.14760654 -0.0029860714 -0.4195927
000010 fe c0 ec bd 5d 50 a9 3e d3 9f 7e be 90 69 b4 3d
       -0.11560248 0.33069125 -0.24865656 0.08809197
000020 2f 53 6b 3d 7d ee c3 3d 01 18 15 bd e4 63 bf be
       0.057452377 0.095669724 -0.036399845 -0.37380898
000030 7b 78 3a 3d bc 7c 1d 3e cd 03 4e 3e 85 4a 2a 3e
       0.045525055 0.15379614 0.20118637 0.1662999
000040 70 ed ed 3d 82 a0 96 3d f2 78 53 be 93 f8 20 3e
       0.11617553 0.07354833 -0.20651606 0.15719824
000050 2e 86 b6 bd 3d 9f 75 be b1 3e 56 3c 93 9f 4c 3e
       -0.089123115 -0.23986526 0.01307647 0.19982748
000060 78 6b 28 be a2 05 67 3e cb 8a df bd 81 49 92 3b
       -0.16447246 0.22560742 -0.109151445 0.0044643288
000070 04 7e 93 be 12 80 c2 3d da fe b8 bd e2 b8 27 3e
       -0.2880708 0.09497084 -0.09032984 0.16379121
000080 e6 1a 75 bd 07 05 85 3d b1 af 0e 3e 49 8a ee 3c
       -0.059840105 0.064950995 0.13934208 0.029118674
000090 69 d2 99 3d 0f b6 b3 bc 58 55 25 3e 89 a1 d4 bd
       0.07510836 -0.021937398 0.16145837 -0.10382373
0000a0 57 68 b5 bd e4 c3 f3 bd 2b 33 e1 3d 83 cd 61 3e
       -0.08857792 -0.119025975 0.10996088 0.22051053
0000b0 19 d4 e5 ba 48 2f cd 3c e2 44 36 be 56 e3 2c 3e
       -0.0017534524 0.02504696 -0.17799714 0.16883597
0000c0 63 e8 00 be 7a f0 b8 bd 2f 95 81 bd 4e 98 c5 bd
       -0.12588648 -0.09030242 -0.06327283 -0.096481904
0000d0 f3 6d bb 3c d2 a9 a7 be ff 42 5d 3d d3 ec c5 bd
       0.022879576 -0.3274675 0.05401897 -0.09664311
0000e0 61 3b 54 3d c9 49 e7 bd 1c 53 8c be 14 fd 5c be
       0.05181444 -0.1129337 -0.27407157 -0.21580917
0000f0 ca 78 bd 3d 85 bf 09 3e 4f 8c af bd 78 8f 51 3d
       0.09251554 0.13451965 -0.085716836 0.051162213
000100 22 c8 99 bd 96 5c e6 3d df a6 b0 3c 70 c8 0f bc
       -0.075088754 0.11248128 0.021563945 -0.008775815
000110 46 b9 7d be 80 b4 4c 3d 7b ca 66 bc 43 b1 c8 3c
       -0.24777707 0.049976826 -0.014086361 0.024498587
000120 d0 b6 ac 3c 7b ea fb bd 5d 59 18 3e 53 02 5a bd
       0.021083266 -0.12300583 0.1487784 -0.053224873
000130 a0 44 40 3e 90 8d eb 3d 02 6d 33 bc c0 a3 55 bc
       0.18776178 0.1150161 -0.010951282 -0.013039529
000140 6d b9 41 3e 4a 96 9a 3e 9b c6 21 be 25 67 6a 3e
       0.1891839 0.30192786 -0.15798418 0.22890909
000150 a3 6d 53 3d 51 85 72 3e 08 df 50 bc 10 24 1f 3e
       0.05161823 0.23683669 -0.012748487 0.155411
000160 36 24 e5 3c 91 af 10 3e 9f be ae 3d 0f d1 fd 3c
       0.027971368 0.14129473 0.08532452 0.030983476
000170 99 1d 31 3c 86 a8 92 3d ee d9 d3 3d fb 8e bb bd
       0.010810279 0.071610495 0.10344301 -0.09158131
000180 05 8f fa 3d 00 dc 97 3d 99 23 b0 bd 6e e0 12 3e
       0.1223431 0.074150085 -0.0860054 0.14343426
000190 2c e6 00 be 35 bf 06 be 60 d3 37 3e d6 cb fa bc
       -0.12587804 -0.13158877 0.17951727 -0.030614775
0001a0 56 1b 56 3d bb 34 c5 3d 41 29 23 be 82 c2 96 3e
       0.052272163 0.09629198 -0.15933706 0.29445273
0001b0 23 c8 06 3e 8b 22 4b be d9 52 05 bd d3 09 9e 3e
       0.13162284 -0.19837396 -0.032549713 0.3086687
0001c0 72 f7 4f bc 40 35 7a be d2 5f 71 be 50 7a 20 be
       -0.012693273 -0.24434376 -0.23571709 -0.15671659
0001d0 66 85 2b 3e d8 3f 63 3d d0 63 ab 3d 50 4a b9 be
       0.16750106 0.055480808 0.08368647 -0.36189508
0001e0 e2 1b 48 bd b0 56 3e bc d0 16 e9 3d ac bc a6 3d
       -0.048854716 -0.011617348 0.11381304 0.08141455
0001f0 c3 5f e2 3d 29 cb 88 3e e3 a8 fd 3d 7e 3b 87 be
       0.11053421 0.267175 0.12385728 -0.26412576
000200 9d 67 80 3e 31 92 a4 bc aa fc 1b 3c dc eb 92 bd
       0.2507905 -0.02008924 0.009520689 -0.07173893
000210 75 71 96 3d fc 40 2e 3e 11 ff 68 3d 7a 49 4e 3e
       0.07345859 0.17016977 0.056883875 0.20145217
000220 19 54 12 3e 32 9a 15 be 29 9c f2 bd 88 33 99 bb
       0.14289893 -0.14609602 -0.118461914 -0.0046753325
000230 f4 a1 28 3d 6c 22 f0 3c 72 aa 9a be 8a 89 df 3d
       0.041170076 0.029313289 -0.30208164 0.10914905
000240 0f 18 88 3d a6 62 7d 3d 74 c5 23 3e d7 69 b4 3d
       0.06645214 0.061861657 0.15993291 0.0880925
000250 16 73 86 3e 27 21 8b 3e 66 14 1c bd 60 d5 b1 3d
       0.2625968 0.2717373 -0.03810539 0.08683276
000260 3c c1 8f be fe c8 a7 3d 72 05 b8 3d 89 e8 5d be
       -0.28077114 0.08192633 0.089854136 -0.21670736
000270 2d 6d da bd 1a 39 90 be 20 99 2e bd d5 77 55 bd
       -0.10665355 -0.28168565 -0.0426265 -0.052116234
000280 7b a8 87 3d 6d d0 cc 3d 40 61 e0 bd 22 27 17 be
       0.06623932 0.100006916 -0.10956049 -0.14761022
000290 55 d0 a1 3b f4 61 31 bc 14 78 10 3c bb d6 85 be
       0.004938165 -0.0108265765 0.008817691 -0.2614039
0002a0 09 01 25 3d ce 40 3a 3e cb a9 98 bd c6 22 33 bd
       0.04028419 0.18188784 -0.074542604 -0.043734334
0002b0 f9 0f aa bd 76 2f 89 3d 4d aa 11 bc e9 b1 81 3b
       -0.08303828 0.066985056 -0.0088907005 0.003957976
0002c0 71 0e d4 bd b3 02 77 bd eb ab d1 be 5f 78 e5 3c
       -0.10354317 -0.06030531 -0.40951476 0.028011499
0002d0 1e c8 db 3c 2a a2 1d be ba 0f 2a be 9f 20 e8 3d
       0.026828822 -0.15393892 -0.16607562 0.11334347
0002e0 0c 20 12 3e 72 5d e8 3c 9d f2 21 3e f4 f1 df bd
       0.14270037 0.02836487 0.15815206 -0.10934821
0002f0 69 9d 74 be 7f 27 be bd 9e 68 2d be 77 cd 2d bc
       -0.23888172 -0.09284877 -0.1693444 -0.010608069
000300 a4 a8 c9 3c e4 72 37 3e d6 1b a1 bd 32 aa ce bc
       0.024616547 0.17914921 -0.078666374 -0.02522764
000310 dd 46 5b 3e 43 81 c2 bd da ef 20 bd 45 57 35 3e
       0.21413751 -0.09497311 -0.03929124 0.17709072
000320 47 2c 12 be fd 76 c7 bd fc 56 45 be 56 94 3a be
       -0.14274703 -0.09739492 -0.19271463 -0.18220648
000330 97 b8 04 3e 0d 54 eb 3d 6d 8b 28 3e 79 1c 89 bd
       0.1296104 0.11490641 0.16459437 -0.06694884
000340 a8 55 3c 3e 2a 68 cb bd 72 09 fa 3d 93 c3 f9 3d
       0.1839205 -0.09931977 0.12208833 0.12195506
000350 78 83 f0 3d 97 10 25 3e 3c f6 99 3b 15 88 b5 be
       0.11743826 0.1611961 0.004698543 -0.35455385
000360 8a cb ab 3d 5b 6f 2f 3e 5c e1 dd 3c ff 48 c3 bd
       0.08388431 0.17132322 0.027084999 -0.09535407
000370 d4 f3 33 3c 7b ef b5 3d c0 db 87 3d 39 e6 20 3d
       0.010983426 0.08883568 0.06633711 0.039282057
000380 37 b7 83 bd 7e 8e 52 be f1 83 23 3d d4 b6 f4 bd
       -0.0643143 -0.20562169 0.03992075 -0.11948934
000390 98 52 5d 3e 33 ad ba be 95 8b 9a 3e 72 2a 8a bd
       0.21613538 -0.36460266 0.30184618 -0.06746377
0003a0 9e 66 8e bc be ba 5b be b7 f8 de bd 33 dc e9 bd
       -0.017382916 -0.21457955 -0.10887282 -0.11418953
0003b0 e6 a7 ab 3d d1 c5 85 be a9 f3 0b be fc d0 96 3d
       0.083816335 -0.26127484 -0.13667168 0.07364079
0003c0 72 f1 c2 3b 9f 78 ad bd 61 6a 9b 3d 8f f1 54 3c
       0.0059491927 -0.08470272 0.075886495 0.012997045
0003d0 bf 62 ab 3c 49 bd 54 3d 0a ea 27 be 8f af f2 bd
       0.02092111 0.05193833 -0.16397873 -0.118498914
0003e0 ee 1b ac bd a7 14 10 3e 05 4d 8b be e3 3e 6e 3c
       -0.08403765 0.14070378 -0.272072 0.014541361
0003f0 43 3d 7e 3c fa 4f 7a bd 6d 81 c0 3b 94 a7 8d 3e
       0.015517536 -0.061111428 0.0058748038 0.27666914

P.mlps.0.layers.2.bias f4 [50]
000000 15 1e cb 3d 1c f6 e1 3c 8c 0b b8 3c 25 72 b4 bc
       0.09917847 0.027583174 0.022466443 -0.022027085
000010 72 e2 81 3b 98 ec e5 3b 8d ba 27 be 6a b3 7a 3c
       0.003963762 0.0070167296 -0.16379757 0.015301565
000020 ef fd 5a bd ef 42 94 3c 8d f2 27 3c 4f 95 e5 bc
       -0.053464826 0.018098323 0.0102507 -0.028025297
000030 6d 8e 06 3d 86 34 e7 3c 74 55 e5 3c 2e 4c 8d 3c
       0.03285067 0.028223287 0.027994849 0.01724824
000040 a9 d2 3c bd ac ee 9b bd 5f c9 7e 3c bc bd 22 3b
       -0.04609934 -0.076138824 0.01555094 0.0024832329
000050 c6 28 13 3e fe df c4 3a f1 db a6 bd 8b c3 43 3d
       0.14371023 0.0015020368 -0.08147419 0.047793906
000060 51 a1 d1 3c 89 e9 bb bc 2a 18 41 3d 68 d2 b3 3d
       0.025589617 -0.022938507 0.047142185 0.08780366
000070 b6 18 96 bd 28 8d 72 bb 6d ff 53 bc f5 c6 3f bd
       -0.07328932 -0.0037010405 -0.012939316 -0.0468206
000080 50 b5 2e bd 7a 2b 36 3d 33 48 f3 3c 06 fb 3f 3d
       -0.04265338 0.044475056 0.029697513 0.046870254
000090 bb 87 ac 3c 83 19 00 3d 43 14 ac bc da 28 8a 3c
       0.021060815 0.03127433 -0.021005755 0.016865183
0000a0 fe 3d 09 be b2 99 a6 bc fc 11 dc bc 04 7f df 3d
       -0.13402554 -0.02033696 -0.026864044 0.10912898
0000b0 59 d3 2c 3d 44 3a 84 bc 73 68 fe 3b ca 98 b7 bd
       0.042193744 -0.016141064 0.007763916 -0.08964689
0000c0 51 df 31 3d 37 eb c0 bb
       0.04342586 -0.005887415

P.mlps.0.layers.3.weight f4 [50, 50]
000000 85 34 b7 be c9 52 16 be 45 e3 27 3e 89 7e 01 be
       -0.35782257 -0.14680018 0.1639529 -0.12645926
000010 cd d7 57 3e 51 6d f0 3c b7 38 8a bc 9b f9 de 3c
       0.21078415 0.029349001 -0.016872747 0.02721863
000020 cf 0e 9a 3c 48 48 e0 bd f9 26 c0 3d bb 00 44 be
       0.01880589 -0.109512866 0.093824334 -0.19140904
000030 b9 58 81 3d 3b f4 85 be 18 3a 53 3d ae 14 87 3d
       0.06315751 -0.26162896 0.051569074 0.06595741
000040 68 28 87 3e d0 0d 7d 3d e0 4e b5 bd 03 a9 1f be
       0.26398015 0.06178075 -0.08852935 -0.15591817
000050 50 63 8d be a2 dd 43 3c 82 ce c4 bd a1 f7 cf be
       -0.27614832 0.011954697 -0.09609701 -0.40618613
000060 dd 77 0d bd 9c 7b 81 bc 01 f4 48 be 66 3c 14 be
       -0.03453814 -0.015806012 -0.1962433 -0.14476165
000070 b7 4a dd 3d 0c cb 2e bd 48 0b d1 bd 0a bb d4 bd
       0.10805266 -0.04267411 -0.1020723 -0.10387237
000080 fc 08 df 3b 32 3a 17 be 0e fa b5 bd ad 7d 13 3d
       0.006806491 -0.14768293 -0.08885585 0.036008526
000090 5b f5 26 be db 91 73 be 73 fd 16 3c 7c 71 04 3d
       -0.16304533 -0.23786108 0.0092157 0.03233479
0000a0 06 cc 09 be 3b 9a 11 3e 86 55 91 3e 44 5e 1f be
       -0.13456735 0.1421899 0.28385562 -0.15563303
0000b0 79 04 51 3e df 58 51 bd 05 3d 9c be 5e f8 b9 be
       0.20411862 -0.051110145 -0.30515304 -0.36322302
0000c0 fc 71 43 3e 20 a3 17 3e e7 31 68 be e5 4e df bc
       0.1908645 0.14808321 -0.22675286 -0.0272593
0000d0 9d 4b da ba 21 bb e7 3d 9a b1 31 be b7 23 8a 3e
       -0.0016654615 0.11314989 -0.17352906 0.26980373
0000e0 d4 93 81 3e ad 6f 57 3d 13 e6 23 be db 85 c7 3d
       0.25308096 0.052596737 -0.16005735 0.09742328
0000f0 cf e9 f9 bd 57 52 79 3c d1 d9 a0 3e a0 15 43 3d
       -0.122027986 0.015217385 0.3141618 0.047628045
000100 14 68 15 be 7d 75 b0 bd 89 1c 29 3e 61 b2 ac bd
       -0.14590484 -0.08616159 0.16514792 -0.084324606
000110 d0 b5 a2 3d 09 a5 29 3d 5f 3b cc bd 74 4b 5a 3b
       0.07944834 0.041417155 -0.09972262 0.0033309134
000120 cb d6 f1 3d 6a 05 2a bc 96 c0 24 bd 5b 61 02 3e
       0.11808547 -0.010377267 -0.040222727 0.1273245
000130 ac 34 dd bd 90 c2 77 3c a9 2f 94 3d 97 88 08 3d
       -0.10801062 0.015122071 0.07235653 0.033333387
000140 ba 98 41 3d 2f 9d ac bd bd 97 3c 3e 01 6b 95 3d
       0.047264792 -0.08428418 0.18417259 0.072958
000150 b5 af 74 3d 4e b4 88 3a 9c 9f 2e 3c 4c 1d 1b 3c
       0.05973788 0.0010429712 0.010658171 0.009467434
000160 a7 4a 23 be 5b e6 26 be 97 91 8d 3e f3 d3 fe 3d
       -0.15946446 -0.16298811 0.2765014 0.1244277
000170 3c e0 47 3e ff db a0 bd f0 2a ae bd 2c 8f 0e bd
       0.19519132 -0.07854461 -0.085042834 -0.034804508
000180 2f 80 32 bd 5b 89 86 be f8 9e 97 3d 5e 2d 5c 3c
       -0.043579277 -0.2627667 0.07403368 0.013438551
000190 8e a3 ad be 64 d7 3f be 8a af 13 3e 63 9c 7c 3d
       -0.33913845 -0.18734509 0.14422432 0.06167258
0001a0 75 fd f2 3d 31 e2 88 bd 8a 0e 6b 3d 60 00 1d 3e
       0.11864749 -0.066837676 0.057386912 0.15332174
0001b0 9c 81 3d 3e d9 9e 28 be 90 05 5a bd c1 21 e2 bc
       0.18506473 -0.16466846 -0.05322796 -0.027603986
0001c0 67 69 d5 3b c9 e3 6c be 08 0d 0e be ad 83 0a bd
       0.006512809 -0.23133768 -0.13872159 -0.033816982
0001d0 d6 fc 39 3e eb 1a 4b be 18 d7 64 be fa 4e 90 3d
       0.18162856 -0.19834487 -0.22347677 0.070463136
0001e0 93 59 f8 bd b2 70 8e bd 49 b2 2a bc 44 11 a3 3d
       -0.1212646 -0.06955089 -0.010418483 0.079622775
0001f0 62 5a 24 3e ff a2 f7 bc 43 9f 00 bb e0 56 10 bd
       0.16050103 -0.03022909 -0.0019626177 -0.0352391
000200 a1 4d 28 3e 88 11 9d bd 19 a0 c1 bd c6 dd 6a 3e
       0.16435863 -0.076693594 -0.09454364 0.22936162
000210 70 c9 ce bb 3a a4 00 3d 5a 82 a5 bd 1b 1d 9f bd
       -0.0063106343 0.03140662 -0.08081503 -0.07769223
000220 13 71 a4 bc c8 a6 9a bd b3 e3 4c 3e 4c 6a 93 3d
       -0.02007345 -0.07551342 0.20008735 0.07198009
000230 57 2b f8 bd 0b b9 22 3c 30 6a 33 3e 84 fe 74 3d
       -0.121176414 0.009931813 0.17520976 0.059813038
000240 2d ae aa bd 7e 62 bb bd b7 c9 e3 3d d7 9d 64 be
       -0.08334003 -0.09149645 0.111224584 -0.22325836
000250 24 57 a1 be a2 b4 ea 39 4d b1 25 3b 2e 88 2d 3d
       -0.31511796 0.0004476654 0.0025282681 0.0423662
000260 f0 2d 08 be 90 af dd 3d dc a8 81 be d5 09 8d 3d
       -0.13298774 0.108245015 -0.25324142 0.06886641
000270 95 27 90 bd 49 e3 ae bc 92 cf b0 3d 1e 2b b3 3c
       -0.070388 -0.021348612 0.08633341 0.021871146
000280 1b 8d fb 3d bc 0b ba 3d 91 32 ba 3d c6 11 81 3d
       0.12282773 0.090842694 0.09091676 0.06302218
000290 45 b1 a0 3d 4e 63 ca 3e f4 e9 93 be f1 d2 e0 3d
       0.078463115 0.39528888 -0.2888943 0.10977734
0002a0 01 10 e1 bd b3 85 aa bd a8 75 05 3e 07 0e c9 bd
       -0.10989381 -0.08326282 0.13033164 -0.09817129
0002b0 3f d9 18 be 8b c6 02 3e ec 8a a3 bd 33 7a 00 be
       -0.14926623 0.1277105 -0.079854816 -0.12546615
0002c0 ae a4 3a be 6e a5 12 be 7d 08 51 3e d4 85 c7 3d
       -0.18226883 -0.14320919 0.20413394 0.097423226
0002d0 e2 a3 25 be 83 ae 51 bd bd ad f6 3d e7 9c bb 3d
       -0.16175798 -0.051191818 0.12044857 0.09160786
0002e0 9d a6 89 3c 53 96 ed bd 17 02 ac 3e fc 31 03 be
       0.01680308 -0.11600938 0.33595344 -0.12812036
0002f0 64 a2 a8 bd 66 8d e5 bb 30 9c 2b be f0 de 3e 3e
       -0.082340986 -0.0070053814 -0.167588 0.18639731
000300 ad d9 c2 bd 04 52 3d 3e 71 46 a9 bd 53 1c 0f bc
       -0.095141746 0.18488318 -0.08265389 -0.00873478
000310 44 47 35 bd e4 f0 2b 3d 10 9f 60 be fc da 80 be
       -0.044257417 0.041977778 -0.21935678 -0.25167072
000320 4e da 33 bd f7 19 c3 bd f2 c0 7e 3e 5b e8 d7 bd
       -0.043909363 -0.09526437 0.2487829 -0.10542365
000330 70 ad 8d 3e de 0a 71 be a3 94 d6 3d 6b 7e 57 3e
       0.27671385 -0.23539302 0.10477569 0.21044318
000340 d4 c6 32 bd 1d 31 44 3c 71 6e e5 bd 85 05 77 3d
       -0.04364665 0.0119746 -0.11202706 0.060308
000350 ac c4 29 3d 05 58 2e bd 63 36 2e bd 27 66 db bd
       0.041447327 -0.04256441 -0.042532336 -0.107128434
000360 86 60 d0 bc 0f 35 93 3d 72 16 30 3d 93 da 09 3e
       -0.025436651 0.071878545 0.042990156 0.13462286
000370 7e 03 83 3e 6b 64 00 bd 63 fc bc bb 4d 83 25 bd
       0.25588602 -0.031345766 -0.0057673915 -0.04040842
000380 1e dc e5 bd ed fc 3e be c1 c2 58 3e 47 d4 22 3e
       -0.11223625 -0.18651171 0.21168043 0.1590129
000390 21 1a 77 3e 54 1a 45 bd dc 6e 9a be 7c dd 08 be
       0.24131061 -0.04812081 -0.30162704 -0.1336574
0003a0 82 47 89 bd 5a 78 2a 3e f1 5c 17 3e e2 57 8e be
       -0.06703092 0.16647473 0.14781548 -0.27801424
0003b0 18 6d cc bd 78 1d bb bd 22 b4 8a 3d 9e 8d 63 3d
       -0.099817455 -0.0913648 0.06772639 0.05555498
0003c0 5b 26 ef 3d b1 9d 97 bb 58 c1 22 3d 77 24 89 be
       0.116772376 -0.0046269526 0.03973517 -0.26785633
0003d0 8e 8c 57 be a6 b9 2e be 34 e9 fc 3d 32 ab 0f be
       -0.21049711 -0.17063007 0.123491675 -0.1403015
0003e0 1f 60 57 3e 3f b9 fc 3d 84 7e 24 3d c0 18 2e bd
       0.21032761 0.123400204 0.040159717 -0.042504072
0003f0 e9 45 81 3e e2 d3 f2 bd c6 e8 3f 3e b3 7c f8 3d
       0.2524865 -0.1185682 0.1874114 0.121331595

P.mlps.0.layers.3.bias f4 [50]
000000 aa 3c 15 bd 46 a0 3d bd b7 93 0a bd f6 47 91 bc
       -0.036434807 -0.046295427 -0.033832278 -0.017734509
000010 a3 a6 db 3c 08 54 75 bd 9d bf 2b bd 4e 44 38 3c
       0.026812857 -0.05989459 -0.041930784 0.011246754
000020 09 dc d8 bc 10 f5 84 3c c6 9a 82 3d 73 15 af 3c
       -0.026472108 0.016230136 0.06377177 0.021372532
000030 b5 96 1e 3d a7 f1 a7 3c 49 38 09 3d e8 92 3f 3d
       0.038717944 0.020500971 0.033500943 0.04677096
000040 a7 51 a4 bc e7 a2 2b bd 8c ed f5 3c ba f7 d9 3c
       -0.020058466 -0.041903403 0.030020498 0.026607383
000050 fa 68 3e bd 41 b2 07 bb 61 c4 31 3d 99 45 4f bc
       -0.046486832 -0.0020705613 0.043400172 -0.012650871
000060 12 6a d6 bc 04 d4 34 bd 2d b1 5d 3d c1 e5 64 bd
       -0.026173625 -0.044147506 0.054124046 -0.055883173
000070 3b f3 e1 3a 83 f8 e8 3b b3 81 55 3d 72 d4 da bc
       0.0017238626 0.007109703 0.052125644 -0.02671263
000080 8b 0b 32 3d 1e 9d 07 bd 87 cc 40 bd 9a 02 97 3d
       0.04346804 -0.033108823 -0.047070052 0.07373543
000090 a1 6f 96 3c f8 2a 0c be 99 4c 6e bd e5 f2 93 3c
       0.018363776 -0.13688266 -0.058178518 0.018060157
0000a0 05 50 83 bd 8b 3a 75 bc 1b fd 62 3c a1 e1 39 3d
       -0.06411747 -0.014967571 0.01385429 0.045381192
0000b0 da 4e 17 3c 0c c5 47 3d b4 40 24 bd 79 c7 f1 3d
       0.009235108 0.048771903 -0.04010077 0.118056245
0000c0 a6 ec 92 bd 6c 5a c5 bb
       -0.07174043 -0.006022742

P.mlps.0.layers.4.weight f4 [50, 50]
000000 d6 7d b2 be d3 ab 1d 3d f3 e2 e7 3d 78 c5 cc bd
       -0.3486163 0.038493942 0.11322584 -0.09998602
000010 d1 6e d8 bd dd f8 d8 be 16 fb a9 bd 66 bf 5a be
       -0.105680116 -0.42377368 -0.08299844 -0.21362075
000020 3d c2 61 3e ca 4b a1 3e 7f 50 57 3e 80 c3 13 bb
       0.22046752 0.31503135 0.210268 -0.0022546947
000030 4e db ac 3c 4b 42 b2 be 2d ea 3a be 30 7d 19 3d
       0.021100666 -0.34816203 -0.18253393 0.037472904
000040 63 cf 7c 3e fb ea db bc a7 90 33 3c 8e 26 9e 3e
       0.24688487 -0.026845446 0.010959781 0.3088879
000050 13 a7 df be 4d 02 b1 be bf 4d 4c be 28 81 92 be
       -0.43682155 -0.34572068 -0.19951533 -0.28614163
000060 8f 97 c0 bb ec 5a 03 3e c1 99 f4 3d 82 4e f5 be
       -0.005877442 0.12827653 0.11943389 -0.4791146
000070 83 4a 55 be d7 be ef be a2 a7 b9 3d 5a d4 52 3e
       -0.20829205 -0.46825287 0.090651765 0.20588818
000080 f7 12 18 be 30 6e 1a 3e c5 77 6d be 26 c9 61 3e
       -0.14850985 0.15081096 -0.2319022 0.22049388
000090 e5 9d 7a 3d eb 38 96 be 3c ac 7d bd 6d 5f 13 3f
       0.061185736 -0.293403 -0.061931834 0.57567483
0000a0 67 02 c9 be c6 b9 73 3e 5b ce a0 bd f5 9f bc 3d
       -0.39259645 0.23801336 -0.07851859 0.09210197
0000b0 f9 4d 4c be 3b 8c 4e bb 55 67 96 bd 30 be e2 ba
       -0.19951619 -0.003151669 -0.07343928 -0.0017299112
0000c0 e1 fe 0d 3d 82 f6 59 3e a9 80 84 3e e2 5e aa bd
       0.0346669 0.21285442 0.2587941 -0.08318879
0000d0 e6 fb 8d bd 71 d3 5a be e8 a7 fe 3d 21 1f 2a be
       -0.069328114 -0.21369721 0.12434369 -0.16613437
0000e0 03 81 e9 3d a3 78 4c 3e 36 98 28 3e e2 cc 9c 3c
       0.1140156 0.19967894 0.16464314 0.019140664
0000f0 f0 f1 11 3e 14 14 68 3e f4 82 c2 3c 29 83 f6 3e
       0.14252448 0.22663909 0.023744084 0.48146942
000100 e3 ca 38 be 73 ea da 3b fd 0c 49 3d b5 2b 84 bb
       -0.18046145 0.0066807806 0.049084652 -0.0040335306
000110 20 2e 4d 3d 8d 0e ae bd 30 9c 3e be 75 41 e5 bd
       0.050092816 -0.08498869 -0.18614268 -0.111941256
000120 82 b1 42 bd de 2f f6 bc 45 06 0d 3e b9 19 95 bd
       -0.047532566 -0.030052122 0.13771923 -0.07280297
000130 78 47 ba 3e 34 85 4f 3e 37 64 c9 bd 29 64 f7 3d
       0.3638265 0.20265657 -0.098335676 0.12079651
000140 b3 aa e5 3c 75 55 1f 3d c0 d6 28 be 28 71 95 be
       0.028035497 0.038899858 -0.1648817 -0.29187894
000150 b1 55 7a 3d 5e 71 20 bd bc de 43 3e 34 5b f5 3d
       0.061116878 -0.039170615 0.19127935 0.11980286
000160 9f 04 82 be ab 9d c7 bd 2e 51 8c bc 85 e0 ed bd
       -0.2539415 -0.0974687 -0.017128553 -0.11615089
000170 86 4e 0a bd 3e a3 f0 bd 7b 8b 8a bd a3 2c 5c bd
       -0.033766292 -0.11749886 -0.06764885 -0.053753506
000180 32 e6 47 3d eb af f6 3d 96 38 24 3e 4c f8 3d be
       0.048803516 0.120452724 0.16037211 -0.18551749
000190 25 60 33 3e 8e 13 58 3e 55 65 8f 3e 92 4e 2d 3e
       0.17517145 0.2110121 0.28006998 0.16924503
0001a0 af 7a 06 be 10 ef e9 3d ad 0a ab 3c ea 3d c4 3d
       -0.13132738 0.11422551 0.020879114 0.09582122
0001b0 8f a4 21 3e 0c 03 02 3e 93 20 45 be 7c 16 87 3d
       0.1578543 0.12696475 -0.19250707 0.065960854
0001c0 e3 6b de bd a7 e1 26 be bc a5 bb bd a6 a6 74 3d
       -0.108604215 -0.16297017 -0.09162471 0.05972924
0001d0 87 57 2d 3d 8b f3 2e 3e 1c 68 57 3e 7f 91 8b be
       0.0423198 0.17085092 0.21035808 -0.27259442
0001e0 47 f5 a3 3e 19 d1 9e bc 01 4c 55 be 08 03 7f bd
       0.3202307 -0.019386815 -0.20829774 -0.06225875
0001f0 87 b9 47 3d ee 79 2b 3e e2 54 7d bd 26 ee ba bd
       0.048760917 0.16745731 -0.06184853 -0.091274545
000200 3e 65 04 bd 9b 7b aa bc c4 21 c4 be 0e 2f e9 3d
       -0.032323115 -0.020810893 -0.3830701 0.11385928
000210 ec 21 ce 3c 86 52 8d bd 47 88 0d be dc fe d7 3d
       0.02516266 -0.06900506 -0.13821517 0.105466574
000220 3d af 56 bd 37 df cb 3d 19 1f 84 3e 46 22 d3 bc
       -0.052413214 0.09954684 0.25804976 -0.025773179
000230 b8 b5 19 3d 29 0b cc 3d 84 5d f4 bd d6 e7 59 be
       0.037526816 0.09963066 -0.11931899 -0.21279845
000240 ff b9 ca 3d 1b 90 02 bd 0e 6e ef 3d 7d 61 e8 bd
       0.09898757 -0.03187571 0.11690913 -0.113467194
000250 ca cf 48 be 28 1c 00 be ec e8 f3 bd e2 94 61 bd
       -0.19610515 -0.12510741 -0.11909661 -0.055073626
000260 d9 06 2a 3c fa 2a 2d 3e 46 c0 45 3d 02 ef 07 bf
       0.010377609 0.16910926 0.04827907 -0.5309907
000270 be 4c 00 be 69 b3 06 be 1b b2 31 be 38 4d e2 3e
       -0.12529275 -0.13154377 -0.17353098 0.44199538
000280 a8 9e b6 3e 69 c8 65 bd 37 b5 ce bd f4 e6 ac be
       0.3566792 -0.05609933 -0.10093158 -0.33769953
000290 81 6e 3e 3e 08 f3 9a 3e 63 1a 6a 3d c4 ad 7d be
       0.18596841 0.30263543 0.05715407 -0.24773318
0002a0 00 0d 71 be fe a2 b0 3e 62 0d 38 be 78 f5 57 3d
       -0.23540115 0.34499353 -0.17973855 0.05272433
0002b0 9f 15 a8 bd 98 fb 89 be 2b f4 29 3e 66 2d 54 3c
       -0.08207249 -0.26949763 0.16597049 0.012950277
0002c0 84 55 82 be ab 2a 10 bf 8a 97 e3 3c e6 68 ae bd
       -0.25455868 -0.56315106 0.02778222 -0.085161015
0002d0 17 06 18 be dd 37 0c 3e c0 50 cd bd 43 2c be bd
       -0.14846073 0.13693185 -0.100251675 -0.09285786
0002e0 49 9b 4d bd 12 fc 6d 3e 44 7e 61 be 87 41 2b be
       -0.05019692 0.23240688 -0.22020823 -0.16724215
0002f0 68 3a fb bd 48 42 ab 3e 0e 0c ea bd 79 52 8b 3e
       -0.122669995 0.33449006 -0.114280805 0.2721136
000300 bc f2 aa bd 67 71 fc bd 6b b5 d4 bd 50 ea 39 3d
       -0.08347079 -0.12326317 -0.10386165 0.045389473
000310 ef d7 75 bd f1 75 97 3e 62 be 70 be f4 f4 43 3e
       -0.060020383 0.2958217 -0.23510125 0.19136411
000320 35 77 68 bd 75 48 84 3d fc 86 9c 3e 99 8c 44 bd
       -0.05675431 0.064591326 0.30571735 -0.047985647
000330 31 a5 be be 4b c0 f6 bc ec 33 fe 3d 24 0b d6 ba
       -0.37235406 -0.03012099 0.12412247 -0.0016330224
000340 2c f1 d2 bb df b1 4b 3e 04 98 20 3e ac 21 0c 3e
       -0.0064374413 0.19892071 0.1568299 0.1368472
000350 bf 12 ee 3d 0b 90 96 be 2f 70 5d be 3f 20 82 bc
       0.11624669 -0.2940677 -0.21624826 -0.015884517
000360 ec c3 3f 3d 7b 8c bf be 2f 0e 37 3d 14 05 6c 3e
       0.046817705 -0.37411866 0.04469126 0.23048812
000370 c6 27 1e be 6e b4 43 3e 85 bc 5e bb 08 24 c1 bd
       -0.1544486 0.19111797 -0.0033986878 -0.094307005
000380 99 77 e8 3e e7 38 f7 bd f8 25 7a bb dd b0 d1 bd
       0.45403746 -0.120714 -0.0038169604 -0.10238812
000390 78 7f ab bc e0 bb cb bb f5 11 73 be 9f 75 8d 3c
       -0.020934805 -0.006217465 -0.23737319 0.017268
0003a0 79 bc ed bd 42 d6 6f 3d 5d 73 12 3e 5e 55 e6 bd
       -0.11608214 0.05855394 0.1430182 -0.11246751
0003b0 ba 95 38 3e 8a 4d 30 3e 30 49 8b 3d fe af d6 3d
       0.18025866 0.17217079 0.06801069 0.104827866
0003c0 87 02 ec 3d 6c 73 0d 3d 27 ad a5 3b f0 2a 29 bd
       0.115239196 0.034533903 0.0050560418 -0.041300714
0003d0 ce 04 63 3e 1c 7d 5f be e2 8b 47 be ad 38 8f bc
       0.22169802 -0.21825069 -0.19486955 -0.01748308
0003e0 6d 7c 29 be f9 1a a3 3c 4e ae 17 3e 08 79 b1 be
       -0.16551371 0.019910323 0.14812586 -0.34662652
0003f0 e8 81 19 39 50 44 45 be 08 d6 d2 3e b9 ca 6a 3e
       0.00014639611 -0.1926434 0.41178918 0.22928895

P.mlps.0.layers.4.bias f4 [50]
000000 ef a1 13 3c c3 3f 2d 3d 44 19 6b bd f2 56 b9 3c
       0.009010776 0.042297136 -0.057397142 0.022624467
000010 1c 78 d0 bc 94 bc 24 3b 46 06 8d bd 44 34 39 3d
       -0.025447898 0.0025136815 -0.06885962 0.04521586
000020 1f 9c 37 3d 90 74 74 3d f3 69 27 3d f1 e1 76 bd
       0.044826623 0.059681475 0.040872525 -0.06027407
000030 12 c3 68 bc 1c da 33 bd b6 98 c5 3c 36 48 b7 3a
       -0.014206665 -0.043909177 0.02412067 0.0013983313
000040 a3 82 46 bd c8 8a 2e bd 3c 1b 49 bd e0 20 28 bd
       -0.04846443 -0.04261282 -0.04909824 -0.041046977
000050 d4 a7 2f 3d b1 5c b6 bb 7a 33 1e 3d 41 41 71 bd
       0.042884663 -0.005565249 0.03862331 -0.05890012
000060 de b8 3a 3d 83 f8 72 3d 7d 92 43 3d 90 1f 7e bd
       0.04558646 0.05931903 0.047747124 -0.06204182
000070 78 eb 84 3d 62 26 7b bd b3 51 ad 3c ba a1 49 bd
       0.064902246 -0.0613159 0.021157121 -0.0492265
000080 20 5a 87 3d 0b 99 d6 3c df a6 6c 3a 94 e2 47 bd
       0.06608987 0.026196023 0.0009027551 -0.048800066
000090 b5 3c 4f 3d fe d6 3d 3c f7 26 56 3d 7a ab 54 3a
       0.050595004 0.011586903 0.052283254 0.000811271
0000a0 a8 42 27 3d 3f 46 61 bc 3d be 23 bd 65 69 3b 3d
       0.040835053 -0.013749658 -0.039976347 0.04575481
0000b0 20 c7 ec bc 04 ff 22 bd 40 b1 4a 3d 6a 37 a6 3c
       -0.028903544 -0.039793983 0.049485445 0.020290095
0000c0 20 d5 6b 3d 5b 40 4d bd
       0.0575763 -0.050110202

P.mlps.0.layers.5.weight f4 [1, 50]
000000 3a 8b 73 3e b3 25 da be a7 40 d8 3e f4 a5 9e 3e
       0.2378358 -0.42606887 0.42236826 0.30985987
000010 76 e7 87 3e f1 51 47 be 93 cb 77 3e da 2b f5 be
       0.26543778 -0.19464852 0.24198751 -0.4788502
000020 a6 39 d5 be a8 a5 c4 bd 01 71 39 3e 17 d2 8c 3e
       -0.41645545 -0.09601909 0.18109514 0.27504036
000030 6b d6 63 3e 2a b4 0c 3f 4c b1 b7 be c8 ac fe 3e
       0.22249763 0.5496241 -0.35877454 0.49741197
000040 a7 77 05 3f 12 89 ef 3e e0 ab c1 3e 6e f8 65 3e
       0.521357 0.46784264 0.37826443 0.2245805
000050 bb f6 0c bf 6e 35 bc be b9 65 14 bf 36 9f 5c 3e
       -0.5506398 -0.36759514 -0.57967716 0.21545109
000060 15 d8 32 bf e9 de 65 be ca 80 9f be d5 ae 40 3e
       -0.69860965 -0.22448315 -0.31152946 0.18816693
000070 15 95 61 be 22 29 95 3e 2f 23 08 bf 0a 53 0f 3f
       -0.22029527 0.29132944 -0.53178686 0.5598608
000080 42 35 ac be e7 65 32 be cb 60 6d 3e c7 08 68 3e
       -0.33634382 -0.17421685 0.23181455 0.22659598
000090 cc 53 cc be 64 c0 f7 3e cf f4 15 bf 8b a4 39 bf
       -0.39907682 0.4838897 -0.58576673 -0.725167
0000a0 7e 82 df be 85 76 71 3e 9b 17 8b 3e fa 7f df be
       -0.43654245 0.23580368 0.27166447 -0.43652326
0000b0 b1 f9 0b 3f 05 30 30 3e a3 c8 25 be 2c d2 d4 be
       0.54677874 0.17205818 -0.16189818 -0.41566598
0000c0 fa 51 64 be d6 78 6f 3e
       -0.22296897 0.23385939

P.mlps.1.layers.0.weight f4 [50, 1]
000000 4b a8 a6 3e f8 27 79 3e fb c6 41 3d 22 7d 70 bd
       0.32550272 0.24331653 0.047308903 -0.058713086
000010 26 7d 4c 3e 45 7e 45 3d 7a 16 85 3e 7a c0 87 bd
       0.19969615 0.048216123 0.2599371 -0.06628509
000020 55 11 d0 3d 7a ce a6 be 80 6c d4 be df 80 50 3d
       0.10159556 -0.32579404 -0.4148903 0.05090415
000030 61 cc 00 3d a4 9a fe 3d aa 69 8f 3e f8 d6 86 be
       0.03144491 0.12431839 0.28010303 -0.26335883
000040 06 89 ef bd 7a a4 d0 3e d2 39 bf 3e 25 c0 d3 3e
       -0.11696057 0.40750486 0.373488 0.41357532
000050 d5 9c c4 bc 2b 21 53 3d 81 30 3f 3d a5 10 81 bd
       -0.024000565 0.051545303 0.046677116 -0.06302003
000060 c6 74 e1 3d 96 c8 09 be 34 1e c6 bb f0 05 50 bd
       0.11008601 -0.13455424 -0.006046081 -0.050786912
000070 24 3b 82 bd 54 64 6a be 3c 83 0d bd 91 dd 76 3d
       -0.063589364 -0.22889835 -0.034548983 0.060269896
000080 7f a7 5d bd a1 54 92 be 19 8e 43 3d 70 f5 52 bd
       -0.054114815 -0.28580192 0.047742937 -0.0515036
000090 32 96 aa be 8f cd 5c bd f8 ef d5 be 0e 4e 46 be
       -0.33317715 -0.053906973 -0.41784644 -0.19365713
0000a0 fd 3a 78 3e 76 77 7f be c8 df a2 3d 0b 87 87 be
       0.24241252 -0.24947914 0.07952839 -0.26470217
0000b0 b7 95 4a 3d 1d 10 53 bd 73 67 e1 bc ed f4 56 3d
       0.049459185 -0.05152904 -0.027515149 0.052479673
0000c0 3c 4b 2e bd bb b2 d7 3c
       -0.042552218 0.026330343

P.mlps.1.layers.0.bias f4 [50]
000000 e4 9e 23 bb 70 ec 1d bd 6b 46 70 3c ac c4 81 bb
       -0.0024966532 -0.038555562 0.014665226 -0.0039602127
000010 e8 d9 43 bd dd 85 6a 3d b5 d6 22 bd 66 b2 05 bd
       -0.047815233 0.05725657 -0.03975554 -0.032640837
000020 fe 28 10 bb 50 b1 28 3d c6 0d b9 3d 4d 7f 82 3d
       -0.002199709 0.041184723 0.0903583 0.06371937
000030 25 d1 8e 3d cf 5b 16 bc f1 db 7d bd 3c 65 11 3d
       0.06973485 -0.009177162 -0.06197733 0.035496935
000040 31 86 15 3c 32 c4 aa bd c3 65 4c 3d 4e 1f 93 bd
       0.009126232 -0.083382025 0.049901735 -0.07183705
000050 31 ff 8f 3c f1 6c 27 3d 0b cd 8c 3d 11 d7 90 bd
       0.01757774 0.04087538 0.06875046 -0.07072271
000060 65 65 b6 3c 94 ea fe bc e3 28 0c bd 8e 6d 93 bd
       0.022265146 -0.031117715 -0.03421868 -0.0719863
000070 38 01 2e 3b 6e c7 4d 3d 24 ad c7 bd af 35 ea 3d
       0.002655102 0.05023902 -0.09749821 0.114360206
000080 db bc b8 bd 03 1c f4 3c fe 12 60 3d 7b b7 03 bd
       -0.09020396 0.029798513 0.054705612 -0.032157402
000090 e5 b7 96 bc 75 a8 2c bc 70 ef b2 3d da 50 24 3d
       -0.018398235 -0.01053821 0.08737075 0.04011617
0000a0 2a 3b 24 bd ac e9 9e 3b 13 70 ab bb fd 3b 8a bc
       -0.040095486 0.004849633 -0.005231866 -0.016874308
0000b0 10 d7 b5 3d 47 85 00 bd 47 05 53 b9 1b 55 4d 3d
       0.088789105 -0.031377103 -0.00020124494 0.05012999
0000c0 a4 d1 40 bd 7e 37 21 3d
       -0.04707493 0.039359562

P.mlps.1.layers.1.weight f4 [50, 50]
000000 0f e3 81 be 37 e8 ce be bf 46 26 3e b7 e7 21 3e
       -0.25368544 -0.4041154 0.16237925 0.15811048
000010 40 cc 8a bd 9e 0e c3 3b cd 46 65 be b0 e2 80 bd
       -0.06777239 0.0059526702 -0.2239029 -0.06293237
000020 0f d5 62 bd 42 0b da 3d 66 f5 c0 3d 7c ca 05 3d
       -0.05537897 0.106466785 0.09421806 0.032663807
000030 03 72 0d be 4b c2 e2 3d 64 e1 34 be e8 07 d3 3d
       -0.13813023 0.11072215 -0.17664105 0.10304242
000040 42 3f 92 3c 85 67 d2 bd c4 e5 88 be 06 69 1b 3e
       0.01785243 -0.10273651 -0.26737797 0.15176782
000050 56 41 7d bc 19 71 92 bd 90 ed 16 be d0 0f 09 be
       -0.015457472 -0.07150478 -0.1473906 -0.13384938
000060 a7 41 24 3c b9 b9 78 3b 9c b1 bb bc db 44 97 bd
       0.010025418 0.0037952496 -0.02291184 -0.0738618
000070 eb 34 e9 3d fc 72 33 3e e1 da a3 be 62 98 b7 bd
       0.113870464 0.17524332 -0.3200293 -0.089646116
000080 c5 2b 50 3d ea 6c 4f 3e e5 45 4b 3e b7 98 b2 3d
       0.050822992 0.20256391 0.19850881 0.08720534
000090 e5 d0 b1 bc bb 61 36 3e 33 27 ce 3c 62 73 9b 3e
       -0.021706054 0.17810719 0.025165176 0.30361468
0000a0 76 80 3d be f3 6d e4 3d 0d 58 35 be 1f a3 77 3e
       -0.18506035 0.11153784 -0.1770937 0.2418332
0000b0 e1 96 b9 bd 6d b9 df 3d 54 d5 23 bd cc bb 92 ba
       -0.09061981 0.10924039 -0.039998367 -0.0011194884
0000c0 f3 fb e7 3d 86 41 1a be 18 2e 6c be b1 7c 59 be
       0.113273524 -0.15064058 -0.23064458 -0.21238972
0000d0 76 9d 51 be fa b1 23 3e cb 88 86 be dc 2c 0a be
       -0.20470223 0.15985861 -0.2627624 -0.13493675
0000e0 52 59 7c be ab 31 6e 3e d8 08 24 be 9e 24 29 3d
       -0.24643448 0.23261134 -0.16018999 0.041294686
0000f0 34 47 ff bc 6b 61 f7 3d 16 ff 8c 3e 9e ec 72 bd
       -0.031161882 0.12079128 0.27538365 -0.059307687
000100 9b 84 45 bc 6a 10 57 3e 89 db 90 3d e4 8a 5a be
       -0.012055541 0.21002355 0.07073123 -0.21342045
000110 ef e4 c3 3b 31 87 d4 bd de 2e 50 be a3 f0 10 be
       0.0059782187 -0.10377348 -0.20330378 -0.14154296
000120 60 c0 18 3e 70 6f 28 3e 71 8e 89 3d 6b df 90 3e
       0.14917135 0.1644876 0.06716622 0.28295454
000130 4a 1f 9f bd df ce 51 3e 16 3f 22 bd c5 2e 30 bd
       -0.0776964 0.20489071 -0.039610945 -0.043013353
000140 41 45 58 bd 5e df b6 bd f3 81 97 3d e2 e0 f1 3e
       -0.05280042 -0.08929323 0.07397833 0.47241884
000150 47 fc 83 bd 01 fc 09 3e d7 ca df 3d 97 8d b2 3c
       -0.064446025 0.13475038 0.109273605 0.02179603
000160 39 5f 2a 3e 1f ab a7 3b 89 06 81 3e bd 76 63 3e
       0.16637887 0.005116835 0.25200298 0.22213264
000170 dd 13 a8 bc 7f 28 1c 3e 5a 96 cf bd 35 b9 f9 3c
       -0.020517284 0.15249823 -0.10136099 0.030483821
000180 4b 0e b2 3e 42 99 1f be f7 bb 6c bd 63 72 4f 3e
       0.3477653 -0.15585807 -0.057796445 0.20258479
000190 6f 01 ce 3d 8b d7 d7 3d 79 18 5c be d8 00 90 3d
       0.10058867 0.105391584 -0.2149371 0.07031411
0001a0 5a 65 85 3d d4 b6 9c be d8 d9 0c 3e d0 07 a3 3e
       0.06513472 -0.30608237 0.13754976 0.31841898
0001b0 cb f2 99 3e ab 94 c9 3d a6 1c 8f bd 5f 0d ab bd
       0.3006805 0.09842809 -0.06987886 -0.0835216
0001c0 45 5f 06 3d 50 0d 2a 3e 9e 5b f8 3d 25 ee e7 bd
       0.0328057 0.16606641 0.121268496 -0.11324719
0001d0 69 8e 55 3d 9d 08 50 be ed b7 11 be e0 2b 6c 3e
       0.052137766 -0.20315786 -0.14230318 0.23063612
0001e0 90 60 0d be 29 a2 a0 be 14 32 56 be 98 6c 3e 3d
       -0.13806367 -0.31373718 -0.20917541 0.04649028
0001f0 a4 c6 7e 3e 79 05 46 bc 15 31 63 3d 66 3e d1 3c
       0.24880463 -0.012086266 0.05546673 0.02554245
000200 12 fd b0 3d 1c 06 b6 bb a4 95 b1 3e 45 84 5f be
       0.08642019 -0.0055549275 0.3468448 -0.218278
000210 5f 32 ac 3e f5 0f 70 be a5 9f e7 be d6 41 89 3e
       0.3363218 -0.23443587 -0.45238987 0.2680804
000220 0e 04 85 be 9a ff ef 3d ce 69 59 3c c8 d9 3c 3c
       -0.25979656 0.11718674 0.013269855 0.0115265325
000230 de 35 09 3e 59 1d 6a bd c1 77 ef 3d ec e0 c6 be
       0.13399455 -0.057156894 0.11692763 -0.38843477
000240 68 14 93 be 23 61 38 3e b6 39 62 3e 4b 00 86 bd
       -0.28726506 0.18005805 0.22092327 -0.06543025
000250 94 28 bf 3d 7e 58 4f be 24 45 23 3e 09 82 dd 3a
       0.093339115 -0.20248601 0.15944344 0.0016899715
000260 63 4d b1 bb 90 81 01 bd e6 10 85 be 57 a5 a2 3e
       -0.0054108365 -0.0316177 -0.25989455 0.3176677
000270 79 d8 90 bc a5 7d 96 be 52 bf 18 be e1 eb 79 3e
       -0.017681347 -0.29392734 -0.14916733 0.24406387
000280 bc be ad bc 24 51 3b 3b 1e 8d 92 3e 98 f1 8e 3d
       -0.021209113 0.00285823 0.2862329 0.06979674
000290 24 94 1a bd 30 44 bd 3d cc eb ca bd 64 4d a7 3d
       -0.037738934 0.09241521 -0.09908256 0.08169058
0002a0 71 4e 20 3e 8d 43 bb be f2 92 08 be 82 03 b5 3c
       0.15654923 -0.36574975 -0.13337305 0.0220964
0002b0 23 d6 e7 3d e4 a0 7c 3d ec 2d 35 3d c6 5a a3 bb
       0.1132014 0.061676875 0.044233248 -0.0049851863
0002c0 55 c7 d4 bd c6 1e cb be ee 50 48 3d 5c 07 de 3d
       -0.10389582 -0.39671916 0.048905306 0.108412474
0002d0 68 be c5 3d 6e 38 01 3e 3f 75 31 be c0 fd 60 3d
       0.09655458 0.12619182 -0.17329882 0.054929495
0002e0 74 8e 78 3e 7e 55 9e be eb 9c 59 3d 3e 63 7f 3e
       0.24273092 -0.309246 0.053128164 0.24940202
0002f0 4a 7a 50 bb e7 81 2a 3e 05 92 7b bd a7 26 01 3e
       -0.0031811171 0.16651116 -0.061418552 0.12612401
000300 7a 27 49 bd 68 5b 7f 3d 96 ef 21 3e 18 b9 f5 bc
       -0.049109913 0.06234303 0.15814051 -0.029995486
000310 b0 ff 5b 3e a0 9f 8d 3e 72 38 cb be 66 f4 86 3d
       0.21484256 0.27660847 -0.39691502 0.06589584
000320 c5 1b fe bd 8d 42 aa 3e e1 a4 15 3e e8 03 f5 bd
       -0.1240764 0.332539 0.14613678 -0.11963636
000330 e5 d7 b3 3e 4b 52 c2 bb 1b bf 0a be dc 93 82 be
       0.35125652 -0.0059302202 -0.13549463 -0.25503433
000340 f3 32 8d 3e 7b 57 b4 be 4f fe 97 3d 02 62 33 3d
       0.27577934 -0.35222992 0.074215524 0.04379464
000350 a2 4a de bd 0a 1a 22 3c fa c0 8b 3e 31 b0 34 3d
       -0.10854079 0.0098939035 0.27295667 0.04411334
000360 fe 3f f5 bd f2 9e 80 3e ad 54 f7 3b 95 4c 88 bd
       -0.11975096 0.25121266 0.007547936 -0.06655232
000370 63 d5 f5 bd 88 26 7b be bf ed c1 bc d5 83 ec bd
       -0.12003591 -0.24526417 -0.023672936 -0.115485825
000380 cf 90 9d 3c 29 12 ae 3d 9a 5e c1 bd a6 04 f3 3c
       0.01923409 0.084995575 -0.09441872 0.029665302
000390 ec 6b 95 bd 3b a7 10 3d dc 8c ea bd 40 e0 34 bd
       -0.07295975 0.035315733 -0.11452648 -0.044159174
0003a0 3e 7a 54 be 2e 03 8d 3d 3e 18 89 3e 7c 31 16 be
       -0.20749757 0.06885372 0.26776308 -0.14667314
0003b0 07 15 7c bd 6c 2e 7b bc fe f8 d1 3d 90 e1 59 3e
       -0.06154349 -0.015330892 0.102525696 0.21277452
0003c0 94 38 03 3e 96 76 69 3d fb 6c 55 3d 35 d0 08 3e
       0.12814552 0.056997858 0.052105885 0.13360675
0003d0 c0 7a 51 be df db 4c 3d 87 e7 a7 bd 6e 7b 79 3e
       -0.20456982 0.050014373 -0.08198457 0.24363491
0003e0 d5 62 ac 3c 44 c8 23 be 72 ef c0 bc 19 49 8b be
       0.02104322 -0.15994364 -0.023551676 -0.27204207
0003f0 56 9b 4b 3e 20 d2 fa 3b a6 53 58 3e 23 7a ba bb
       0.19883475 0.0076544434 0.2112566 -0.0056908294
