output/Darcy_PINN_test/weight.pth (torch, 90653 bytes, 22 tensors)

nn.mlps.0.layers.0.weight f4 [50, 2]
-0.23267417 -0.28387395 0.1476816 0.22168607 -0.06355993 0.036233988 -0.2563589 0.13505423
-0.017036729 -0.24553075 0.06391443 0.01799874 0.2877262 -0.07503808 -0.17362389 -0.026077518
-0.3542697 -0.134551 0.06368466 -0.16014029 0.014273065 0.172627 -0.37546477 0.24073112
0.18595412 0.25043976 -0.0785879 -0.051532563 0.124665745 -0.35004082 0.18248475 -0.043817386
-0.053219557 0.07723877 -0.33745843 0.15464465 0.006085533 -0.16802776 0.014310551 -0.18755871
0.13791153 -0.09316826 -0.038121976 -0.2829403 -0.3036786 -0.0945759 -0.112962104 0.006436001
-0.045768846 -0.2562047 0.13216603 0.27647898 -0.27146813 -0.18918669 -0.20745173 0.26200938
-0.21307772 0.43717545 0.19059442 0.15080455 -0.2711985 -0.16322044 0.11888105 -0.1314278
-0.20066538 0.063797124 0.3252889 -0.024967484 0.3701991 0.32691067 -0.06717151 0.17598079
-0.025835741 -0.101422295 0.0016030875 -0.21150604 0.14464703 -0.17267175 0.11798432 0.18462712
-0.16713952 0.06091714 0.12282136 0.45475453 0.036453664 0.12151545 0.08916977 -0.20598364
0.08551009 0.18804823 0.30509442 -0.069416165 -0.22293879 0.070530675 -0.17468055 -0.044559084
0.1982855 -0.118715845 0.16395925 -0.19876713
00000000: 2342 6ebe ed57 91be d839 173e ac01 633e
00000010: b52b 82bd 176a 143d 7941 83be a84b 0a3e
00000020: 9c90 8bbc 6a6c 7bbe 92e5 823d 1872 933c
00000030: d950 933e 91ad 99bd 76ca 31be 85a0 d5bc
00000040: d762 b5be bdc7 09be 1a6d 823d d1fb 23be
00000050: 93d9 693c 22c5 303e eb3c c0be 3882 763e
00000060: c26a 3e3e a439 803e b1f2 a0bd cf13 53bd
00000070: c150 ff3d 8d38 b3be 48dd 3a3e dc79 33bd
00000080: c0fc 59bd 5c2f 9e3d 5ac7 acbe 2b5b 1e3e
00000090: 2769 c73b 780f 2cbe cd76 6a3c 640f 40be
000000a0: ae38 0d3e 00cf bebd ca25 1cbd 8ddd 90be
000000b0: c37b 9bbe 02b1 c1bd ad58 e7bd 17e5 d23b
000000c0: 1d78 3bbd 432d 83be 8856 073e a78e 8d3e
000000d0: dffd 8abe 28ba 41be 3a6e 54be 1826 863e
000000e0: 0c31 5abe 76d5 df3e 2f2b 433e 826c 1a3e
000000f0: 88da 8abe 4223 27be e877 f33d 0295 06be
00000100: 3a7b 4dbe 11a8 823d 448c a63e 9c88 ccbc
00000110: bd8a bd3e d660 a73e 3791 89bd 4f34 343e
00000120: 7aa5 d3bc 7eb6 cfbd b11e d23a 0a95 58be
00000130: 5a1e 143e ddd0 30be c3a1 f13d e40e 3d3e
00000140: 9f26 2bbe 4084 793d c489 fb3d 96d5 e83e
00000150: 7050 153d 18dd f83d a49e b63d 60ed 52be
00000160: ea1f af3d b78f 403e 5635 9c3e 102a 8ebd
00000170: 114a 64be 6372 903d 75df 32be 9683 36bd
00000180: 5b0b 4b3e 4b21 f3bd efe4 273e 9c89 4bbe

nn.mlps.0.layers.0.bias f4 [50]
-0.06523545 0.1939686 -0.11266756 -0.13812229 -0.1465757 0.072652794 0.08729852 -0.19207022
0.018595712 0.06562688 -0.13991551 -0.07449961 0.14150657 -0.053081013 0.064819746 0.01843844
-0.054070093 0.07596929 0.064932175 0.13099962 0.08399138 0.01547403 0.05238049 -0.08611006
-0.047468014 -0.03561222 0.016946886 -0.07097568 -0.095946625 0.13014597 -0.04763464 -0.06351742
-0.11046813 0.13560522 0.032327544 -0.064167835 -0.1363586 -0.11139083 -0.13733701 0.09213156
0.034136727 0.07750291 0.09012903 -0.08350317 -0.04145799 -0.026254082 0.12680243 -0.013573925
-0.036615532 -0.00015154661
00000000: 2a9a 85bd b49f 463e 40be e6bd ee6f 0dbe
00000010: f117 16be fdca 943d 91c9 b23d 0eae 44be
00000020: 0956 983c 6367 863d 0346 0fbe 4093 98bd
00000030: 19e7 103e 7a6b 59bd 37c0 843d 360c 973c
00000040: 9a78 5dbd ca95 9b3d 29fb 843d c424 063e
00000050: ac03 ac3d c986 7d3c ed8c 563d 795a b0bd
00000060: d26d 42bd 1fde 11bd 32d4 8a3c b35b 91bd
00000070: aa7f c4bd fc44 053e 8a1c 43bd 6c15 82bd
00000080: 1d3d e2bd 18dc 0a3e e369 043d 6d6a 83bd
00000090: 97a1 0bbe e020 e4bd 13a2 0cbe 79af bc3d
000000a0: f4d2 0b3d d8b9 9e3d 9295 b83d b603 abbd
000000b0: dacf 29bd cd12 d7bc 7fd8 013e 2b65 5ebc
000000c0: 2bfa 15bd 7ce8 1eb9

nn.mlps.0.layers.1.weight f4 [50, 50]
0.1030575 -0.12439336 0.017052032 -0.022869855 -0.2346861 -0.02230528 -0.22937955 -0.17388757
-0.20125057 0.102966234 -0.17263547 0.009612181 -0.10936399 -0.26538134 -0.16704208 0.07242227
-0.13957885 0.06726863 0.19822729 -0.21489553 -0.1178836 -0.072404385 -0.15390997 -0.101055965
-0.005693793 0.2327243 -0.016432552 -0.06981118 -0.0538167 0.023347607 0.12351075 0.14336942
0.04314354 0.23679245 -0.2425612 -0.16081615 0.08017556 -0.25457466 0.031522535 0.061594095
-0.05595073 0.21605968 0.042295683 -0.14086033 -0.25825316 0.019543197 0.010635127 -0.12448336
0.120557025 0.06338222 -0.107902244 -0.14029402 0.06047238 -0.0015362161 0.07314054 -0.1055276
-0.17783792 0.11581033 0.13592914 0.06618697 0.025052968 -0.001807646 -0.3741175 0.27742192
-0.14293168 -0.1600509 -0.054370526 0.04606771 -0.090871036 0.0064821625 -0.20721112 0.004870314
0.22002931 0.25115353 0.004696953 -0.17353597 0.081252985 -0.11907173 0.049731944 -0.25874197
-0.022730168 0.12688981 0.25131458 0.0028490205 -0.22623396 0.121863745 0.06854362 -0.03324816
-0.19336389 -0.12435871 -0.0022935588 -0.10788593 -0.024627978 -0.020117689 -0.07107997 0.06509867
0.18134102 0.521831 -0.18816246 -0.08733666 0.11212573 0.059833355 0.1563659 -0.08635086
-0.051977057 -0.26910833 0.14676009 0.06209946 -0.20509914 -0.17315368 0.13863502 0.21425314
0.032504853 0.054215178 0.078631654 0.1000059 0.08817138 -0.009251093 0.14268562 0.22705686
0.040515214 -0.06475623 0.0040938337 -0.0011940381 0.19937453 -0.065623894 0.16017331 -0.2866132
-0.1473328 0.118521795 0.050142746 -0.098107 0.10698963 -0.122555606 0.06261842 0.14063662
0.32441866 0.41213512 -0.24148874 -0.117405534 0.04711991 -0.07941624 -0.08525542 -0.15080951
0.18255824 -0.039802853 -0.03822905 -0.10375854 -0.05675034 -0.03545643 0.10798467 0.047776237
-0.18094467 0.19696641 0.041608363 0.17022279 0.3120388 -0.064999975 -0.09744045 -0.14547248
0.0663174 0.16793387 -0.10925603 0.19483255 0.15318604 -0.025540985 0.17078677 -0.094519354
0.0921756 0.088142015 0.09243978 -0.054206967 -0.051533062 0.18641785 -0.037270952 0.2495884
-0.053442247 0.2210423 0.08229861 0.04260494 0.20185407 0.087068394 0.24847358 0.0253434
-0.3156581 -0.155713 -0.052965 0.080042176 0.25793788 0.037965074 -0.24432676 0.033936843
-0.030494677 -0.07732951 0.19873734 0.14840323 -0.13839161 0.070808485 -0.17388792 -0.03170645
0.17833978 -0.15685125 -0.020934494 0.07947937 0.122278854 -0.06532369 0.10895953 -0.23156321
0.09524538 -0.019987317 -0.08091318 -0.08323825 -0.08248292 0.014591328 -0.045001566 0.104828335
0.017626548 0.15275896 0.10062711 -0.34220222 -0.1067229 -0.09614842 0.08684313 0.2728388
-0.18182215 -0.0148017015 0.30712274 0.23239619 0.2851246 -0.017779112 -0.09018272 0.16032444
0.3242745 -0.04207684 -0.27611452 0.028735805 -0.034358237 -0.037601456 0.22385594 -0.17536287
0.079064205 0.101333536 0.23441759 -0.1767115 0.08104316 -0.20620249 0.16602519 0.10862635
0.03214796 -0.0842422 0.020247297 -0.22256112 0.15320517 0.10269664 0.30861863 -0.30393755
00000000: d00f d33d f2c1 febd b4b0 8b3c 9059 bbbc
00000010: 8e51 70be 90b9 b6bc 79e2 6abe 950f 32be
00000020: a114 4ebe f6df d23d 5ac7 30be 697c 1d3c
00000030: 3afa dfbd 10e0 87be 140d 2bbe 2152 943d
00000040: c2ed 0ebe 23c4 893d 18fc 4a3e 930d 5cbe
00000050: f56c f1bd c048 94bd 939a 1dbe 6ef6 cebd
00000060: ff92 babb 474f 6e3e 8f9d 86bc 2af9 8ebd
00000070: e66e 5cbd 7b43 bf3c 34f3 fc3d 6fcf 123e
00000080: 48b7 303d b879 723e f761 78be fdac 24be
00000090: 1633 a43d 9c57 82be c61d 013d 174a 7c3d
000000a0: 982c 65bd c03e 5d3e 3d3e 2d3d b13d 10be
000000b0: c239 84be 0e19 a03c f53e 2e3c 22f1 febd
000000c0: 9ae6 f63d 8ace 813d dafb dcbd 3ca9 0fbe
000000d0: e3b1 773d dc5a c9ba b5ca 953d db1e d8bd
000000e0: 251b 36be f72d ed3d 0231 0b3e 098d 873d
000000f0: e23b cd3c 89ee ecba 548c bfbe 3f0a 8e3e
00000100: af5c 12be 62e4 23be a1b3 5ebd 7fb1 3c3d
00000110: 981a babd 5268 d43b 272f 54be 2897 9f3b
00000120: 5d4f 613e 3297 803e e6e8 993b 6ab3 31be
00000130: f767 a63d e1db f3bd b9b3 4b3d d479 84be
00000140: 9e34 babc 67ef 013e 4eac 803e a2b6 3a3b
00000150: e0a9 67be b393 f93d 9960 8c3d 392f 08bd
00000160: 2f01 46be c8af febd 884f 16bb 4cf3 dcbd
00000170: 9dc0 c9bc dacd a4bc 6092 91bd 7452 853d
00000180: 76b1 393e b796 053f a9ad 40be 90dd b2bd
00000190: 2da2 e53d d213 753d 621e 203e b8d8 b0bd
000001a0: e5e5 54bd 91c8 89be 4748 163e 015c 7e3d
000001b0: 8205 52be 334f 31be 57f6 0d3e 2d65 5b3e
000001c0: cf23 053d bc10 5e3d a209 a13d e5cf cc3d
000001d0: 3293 b43d e591 17bc 2e1c 123e 9881 683e
000001e0: 48f3 253d ea9e 84bd 9125 863b 4581 9cba
000001f0: d628 4c3e d265 86bd 7904 243e f7be 92be
00000200: 69de 16be 8ebb f23d 7b62 4d3d 53ec c8bd
00000210: 611d db3d 6ffe fabd 163e 803d 0c03 103e
00000220: 341a a63e 6003 d33e d348 77be 5072 f0bd
00000230: cf00 413d fba4 a2bd 659a aebd cf6d 1abe
00000240: 8cf0 3a3e 5108 23bd 1096 1cbd 5b7f d4bd
00000250: 0b73 68bd c33a 11bd 1127 dd3d 04b1 433d
00000260: 8f49 39be 90b1 493e 886d 2a3d e24e 2e3e
00000270: 8dc3 9f3e b51e 85bd dc8e c7bd bdf6 14be
00000280: 6bd1 873d dbf6 2b3e a0c1 dfbd 2f82 473e
00000290: cddc 1c3e 543b d1bc bae2 2e3e 5d93 c1bd
000002a0: 90c6 bc3d cd83 b43d 1151 bd3d 2008 5ebd
000002b0: 5514 53bd 52e4 3e3e 6da9 18bd 1a94 7f3e
000002c0: 42e6 5abd ea58 623e 2c8c a83d 8482 2e3d
000002d0: d5b2 4e3e ea50 b23d dc6f 7e3e f69c cf3c
000002e0: f09d a1be 3b73 1fbe d4f1 58bd 27ed a33d
000002f0: 6f10 843e 4481 1b3d cb30 7abe 5c01 0b3d
00000300: f9cf f9bc ef5e 9ebd cd81 4b3e 04f7 173e
00000310: 88b6 0dbe 0a04 913d ad0f 32be 9fde 01bd
00000320: b49e 363e 9d9d 20be d17e abbc 14c6 a23d
00000330: 566d fa3d 6dc8 85bd 2d26 df3d e81e 6dbe
00000340: 0310 c33d 71bc a3bc cfb5 a5bd d178 aabd
00000350: ceec a8bd 7710 6f3c 9053 38bd 3db0 d63d
00000360: 8d65 903c d86c 1c3e 9615 ce3d 2135 afbe
00000370: 8991 dabd 76e9 c4bd d0da b13d 87b1 8b3e
00000380: 962f 3abe d682 72bc 313f 9d3e 44f9 6d3e
00000390: dafb 913e 80a5 91bc b8b1 b8bd 172c 243e
000003a0: 4f07 a63e c458 2cbd e25e 8dbe 5a67 eb3c
000003b0: 39bb 0cbd fc03 1abd 7e3a 653e 5392 33be
000003c0: 6aec a13d f587 cf3d 2a0b 703e dcf3 34be
000003d0: f5f9 a53d bf26 53be 8202 2a3e 7e77 de3d
000003e0: 94ad 033d 2d87 acbd a9dd a53c 10e7 63be
000003f0: d1e1 1c3e 9e52 d23d 4303 9e3e b49d 9bbe

nn.mlps.0.layers.1.bias f4 [50]
0.13375986 -0.15525942 0.045473047 -0.06960546 0.039881557 -0.012172164 0.02847705 -0.0032234984
0.086307295 0.079180785 0.040915426 0.010727216 0.021193165 0.035975154 -0.036675975 -0.065660626
0.07416848 0.022243913 -0.045862764 -0.103453115 0.04469795 -0.03608248 -0.13287139 0.084030606
-0.04562322 0.020110184 -0.02248441 0.100949965 0.04064977 -0.03945835 -0.121759295 0.037397593
0.0019715196 -0.0389349 0.12779503 0.07330672 -0.049177695 -0.080201074 0.016483715 -0.07298829
0.032770578 0.060666762 0.03873844 0.0057645394 0.16045438 -0.05003601 0.16566235 -0.11282804
-0.16199505 0.06622263
00000000: 58f8 083e 53fc 1ebe f241 3a3d 4f8d 8ebd
00000010: d85a 233d c26d 47bc b448 e93c 5441 53bb
00000020: e1c1 b03d 8929 a23d ef96 273d 34c1 2f3c
00000030: 4a9d ad3c af5a 133d 8c39 16bd 1479 86bd
00000040: a5e5 973d de38 b63c 98da 3bbd 3adf d3bd
00000050: 3315 373d 39cb 13bd 700f 08be 3d18 ac3d
00000060: 6adf 3abd 1dbe a43c 3a31 b8bc dbbe ce3d
00000070: 6080 263d 149f 21bd f05c f9bd 382e 193d
00000080: 9c34 013b 347a 1fbd b3dc 023e d521 963d
00000090: 8d6e 49bd 7640 a4bd db08 873c e27a 95bd
000000a0: 713a 063d b67d 783d 33ac 1e3d 76e4 bc3b
000000b0: 274e 243e 8ff2 4cbd 64a3 293e 6312 e7bd
000000c0: 08e2 25be bb9f 873d

nn.mlps.0.layers.2.weight f4 [50, 50]
0.074920066 0.04154666 -0.055366963 0.13382736 -0.12082202 0.012073714 0.06352174 -0.0464596
0.16259752 0.08865349 -0.011216561 0.11454232 0.13728546 0.12960179 0.17601314 -0.0405133
-0.12966287 0.20444265 -0.11501573 0.0013509182 -0.108449504 0.14763412 0.12981977 0.061984267
-0.025856014 -0.06016988 0.21818301 -0.036081657 -0.15702814 -0.13197652 -0.075359486 -0.10722315
-0.26385805 -0.12137061 0.14644304 0.09534963 -0.03235839 0.06604177 0.20103832 0.07002451
0.16015747 -0.13337356 0.1369022 0.01996994 0.043912128 0.020037586 -0.17050955 -0.12843682
-0.28206322 0.002337794 -0.031039074 -0.06352473 -0.03172332 -0.2782176 0.07678537 -0.14556377
0.07167365 -0.0578302 0.23978917 -0.14130716 0.22429346 -0.19640212 -0.07579703 -0.100459695
0.29537678 0.028391598 -0.06401966 -0.0859865 -0.12959689 -0.18554322 -0.0075939535 -0.10563685
-0.030474732 0.09846057 -0.022185635 -0.22247663 -0.1217652 0.047396574 -0.14512824 0.06864867
-0.1894745 -0.068076216 0.07692772 0.09939817 0.037462443 0.102514476 -0.15321517 0.18158294
0.16436015 0.08202857 0.022283886 0.17733644 0.16071402 -0.48191807 -0.023221295 -0.13775288
0.198851 -0.016746528 -0.23925678 -0.2766474 -0.06730125 -0.22132358 -0.014810039 -0.3432364
0.30493888 -0.1357006 -0.012741552 -0.08900665 0.027363548 0.051328186 0.022523748 -0.5284268
-0.30560887 -0.026628138 0.13561188 -0.10092857 -0.025044233 -0.020026421 -0.14879735 0.12145316
0.0032386084 0.0055736704 -0.00068286114 -0.08555892 -0.13073 0.015642134 -0.19374181 0.097858764
-0.04555002 0.13328047 -0.21574531 -0.13212842 0.07141089 0.2311961 0.15605143 0.07295954
0.14314891 0.20140675 0.068556905 -0.03117433 -0.18021117 0.029019266 -0.16299507 0.081334084
0.2611168 0.24092686 -0.07178134 -0.0771717 -0.23203398 -0.10012701 0.022134611 0.06591166
0.2336411 0.060333252 0.4408091 0.27374655 -0.12685134 -0.0716069 -0.38350224 -0.27751243
-0.068727344 -0.0497071 0.30437994 0.034967512 -0.029112266 0.29094723 -0.051482745 0.13463081
-0.037938107 0.2517678 0.11969863 0.11906416 0.22252607 -0.2308744 0.31726557 0.12824519
0.16481085 -0.12315349 0.15405135 -0.09800007 0.29016548 0.28396672 -0.2955849 0.15442966
-0.11493237 0.01907063 0.33115393 0.079307295 0.113611385 0.24752212 0.23413308 -0.10150097
0.03142578 0.039945755 -0.29680228 0.23884656 -0.05132525 0.21965781 0.05066798 0.03520073
0.11189369 0.07435985 -0.05485188 -0.16765447 0.21716388 0.19402398 -0.3327785 0.30106238
-0.13704206 0.08324681 -0.37006536 0.10848941 -0.060116623 -0.26815814 -0.22121675 -0.015086067
-0.122426994 -0.058643326 0.059707716 0.06704613 -0.07728394 0.019650692 0.24362971 0.03842572
0.09431207 0.038367767 0.22172202 -0.04718877 0.12702651 -0.11289294 0.039974865 0.038228903
-0.043744974 -0.039640237 -0.1128895 -0.15382318 0.18253171 -0.116163395 -0.012697981 0.027942399
0.11218883 -0.12459547 0.2499252 0.12689118 -0.051034532 0.060659047 0.03894328 0.10992867
0.07262704 -0.04275053 0.22731063 0.13171512 -0.2327576 0.07197044 0.17285827 -0.08765298
00000000: b16f 993d d52c 2a3d 78c8 62bd 0a0a 093e
00000010: 8971 f7bd d4d0 453c b017 823d 6c4c 3ebd
00000020: f77f 263e f68f b53d abc5 37bc 2a95 ea3d
00000030: 8f94 0c3e 55b6 043e ca3c 343e 46f1 25bd
00000040: 58c6 04be 6a59 513e 5e8d ebbd 4b11 b13a
00000050: c61a debd 662d 173e 79ef 043e 37e3 7d3d
00000060: fecf d3bc b174 76bd 5e6b 5f3e 5cca 13bd
00000070: fccb 20be da24 07be 1356 9abd d097 dbbd
00000080: 6718 87be 2891 f8bd 2af5 153e ab46 c33d
00000090: 3b8a 04bd e840 873d fddc 4d3e 0369 8f3d
000000a0: 5200 243e 1493 08be 1730 0c3e 0098 a33c
000000b0: 34dd 333d dd25 a43c 0e9a 2ebe f184 03be
000000c0: 976a 90be ad35 193b a845 febc 4119 82bd
000000d0: 50f0 01bd 8a72 8ebe a641 9d3d ab0e 15be
000000e0: a2c9 923d 5cdf 6cbd 4b8b 753e d3b2 10be
000000f0: 2fad 653e a31d 49be 793b 9bbd d0bd cdbd
00000100: a03b 973e 7f95 e83c bd1c 83bd b119 b0bd
00000110: 0cb5 04be 0bff 3dbe b3d6 f8bb 2258 d8bd
00000120: 25a6 f9bc b2a5 c93d a6be b5bc ead0 63be
00000130: 0860 f9bd e922 423d 7f9c 14be ad97 8c3d
00000140: 9a05 42be 8b6b 8bbd 488c 9d3d 4591 cb3d
00000150: 3872 193d 1cf3 d13d 70e4 1cbe e1f0 393e
00000160: 074e 283e 98fe a73d b28c b63c af97 353e
00000170: 3792 243e f7bd f6be 963a bebc 170f 0dbe
00000180: 999f 4b3e 0430 89bc bbff 74be baa4 8dbe
00000190: 3dd5 89bd a6a2 62be cea5 72bc aebc afbe
000001a0: f320 9c3e 19f5 0abe f1c1 50bc 1e49 b6bd
000001b0: 8529 e03c 813d 523d b983 b83c fb46 07bf
000001c0: c478 9cbe 4123 dabc d7dd 0a3e a3b3 cebd
000001d0: 9029 cdbc 730e a4bc 555e 18be 6fbc f83d
000001e0: d53e 543b 56a3 b63b 0902 33ba 8439 afbd
000001f0: 16de 05be ef23 803c 4164 46be 2d6a c83d
00000200: a892 3abd ad7a 083e 57ec 5cbe ac4c 07be
00000210: df3f 923d acbe 6c3e f2cb 1f3e d06b 953d
00000220: a195 123e 923d 4e3e 9067 8c3d 4f61 ffbc
00000230: 4789 38be d0b9 ed3c 2ee8 26be 7c92 a63d
00000240: 1ab1 853e 88b5 763e 1802 93bd 320c 9ebd
00000250: 519a 6dbe 640f cdbd a553 b53c b1fc 863d
00000260: 9d3f 6f3e 0020 773d bbb1 e13e 8228 8c3e
00000270: 51e5 01be a3a6 92bd 685a c4be 1c16 8ebe
00000280: ecc0 8cbd ac99 4bbd b0d7 9b3e 183a 0f3d
00000290: d97c eebc 09f7 943e 92df 52bd a9dc 093e
000002a0: fd64 1bbd b6e7 803e 8e24 f53d e9d7 f33d
000002b0: e0dd 633e 576a 6cbe a270 a23e b552 033e
000002c0: 2dc4 283e e637 fcbd a3bf 1d3e 43b4 c8bd
000002d0: 9290 943e 1664 913e e756 97be cf22 1e3e
000002e0: aa61 ebbd 033a 9c3c 028d a93e dd6b a23d
000002f0: 16ad e83d 7076 7d3e 95c0 6f3e bedf cfbd
00000300: 52b8 003d 299e 233d 78f6 97be 3194 743e
00000310: 6d3a 52bd faed 603e 3a89 4f3d a42e 103d
00000320: 8528 e53d fa49 983d 5dac 60bd 9dad 2bbe
00000330: 3560 5e3e 39ae 463e f261 aabe d924 9a3e
00000340: c154 0cbe 4e7d aa3d 3579 bdbe b22f de3d
00000350: d93c 76bd 064c 89be a586 62be 8d2b 77bc
00000360: 01bb fabd fc33 70bd 1490 743d 7b4f 893d
00000370: 0b47 9ebd 7dfa a03c 117a 793e 4a64 1d3d
00000380: b026 c13d 8527 1d3d 190b 633e 0349 41bd
00000390: 3d13 023e 6a34 e7bd afbc 233d e995 1c3d
000003a0: ee2d 33bd cd5d 22bd 9c32 e7bd d383 1dbe
000003b0: 98e9 3a3e 13e7 edbd 310b 50bc 75e7 e43c
000003c0: 42c3 e53d e92b ffbd 64ec 7f3e c3ef 013e
000003d0: 9609 51bd 9f75 783d fd82 1f3d 4822 e13d
000003e0: 7cbd 943d 2e1b 2fbd 1ec4 683e 54e0 063e
000003f0: 0258 6ebe 3d65 933d c201 313e 6883 b3bd

nn.mlps.0.layers.2.bias f4 [50]
0.04511171 -0.023602901 0.13542502 -0.09390936 0.0077305855 -0.17658131 0.0449165 0.027104529
0.022116465 0.026096769 0.11157695 -0.04336106 -0.11386088 0.051123697 -0.024913127 0.03326054
-0.13893424 -0.03977914 -0.032171115 0.004633876 -0.020907713 0.025335763 0.048181538 -0.054992143
0.054654498 -0.040250674 -0.039394706 -0.077132255 0.009134614 -0.14950612 -0.0131142 0.050660297
-0.05069042 -0.13329034 -0.056680292 -0.037045784 0.072596245 -0.058926843 -0.03150017 -0.053904623
-0.056485534 0.06571531 0.101300694 0.05781483 0.122676775 0.07420093 0.002635914 -0.016527079
0.001293434 0.035108317
00000000: 0ec7 383d df5a c1bc dbac 0a3e 8d53 c0bd
00000010: da50 fd3b bbd1 34be 5dfa 373d 510a de3c
00000020: 972d b53c e4c8 d53c 7582 e43d 5e9b 31bd
00000030: e52f e9bd 1567 513d 9d16 ccbc 343c 083d
00000040: c744 0ebe 74ef 22bd dcc5 03bd c5d7 973b
00000050: a746 abbc f28c cf3c 015a 453d 713f 61bd
00000060: 65dd 5f3d e4dd 24bd 585c 21bd 84f7 9dbd
00000070: 59a9 153c 2218 19be f1dc 56bc 2c81 4f3d
00000080: c2a0 4fbd 437d 08be 9829 68bd 52bd 17bd
00000090: 57ad 943d 465d 71bd 5206 01bd 18cb 5cbd
000000a0: 605d 67bd c095 863d bd76 cf3d 3ecf 6c3d
000000b0: f63d fb3d a8f6 973d 4cbf 2c3b cc63 87bc
000000c0: 7188 a93a bdcd 0f3d

nn.mlps.0.layers.3.weight f4 [50, 50]
-0.24309286 0.026159301 -0.017972909 0.15735112 0.2623073 -0.21324521 -0.033779275 -0.12998818
0.03082464 -0.029465398 0.28771102 -0.18765192 -0.0003355812 0.14647214 -0.2057908 0.10225929
0.23808023 -0.013075533 0.01743813 -0.050718416 0.19797465 0.062411975 -0.15148117 -0.17076203
0.23604973 0.1549891 -0.14724572 -0.11345861 -0.090555914 -0.2679665 -0.04395874 0.16008927
-0.04002195 -0.021491732 -0.09738005 -0.10391877 -0.06560425 -0.07354439 -0.0030021425 0.029117668
0.14138603 0.19105968 -0.08800877 -0.025968377 0.14081196 -0.1955818 0.26453614 -0.028804084
0.024944872 0.27367187 -0.062436726 0.1706316 -0.10089463 0.18044686 -0.18280199 0.27502307
-0.02295741 0.09990291 -0.08225147 0.054209784 -0.30443558 0.0077482504 0.07356619 0.13112669
0.31424245 0.0827888 0.270593 -0.03650816 0.13365619 0.40873578 -0.24234305 0.13318288
0.018910667 -0.08093054 -0.34151712 -0.07148099 -0.122379586 0.17674693 0.23721266 0.12622754
0.356167 -0.08930407 -0.21574704 0.27768666 0.41680318 -0.050532773 0.13556336 -0.0307009
-0.13582064 -0.17106196 0.25155216 -0.07398672 -0.34216455 -0.045632623 -0.17743146 0.22889334
-0.15376808 -0.040641293 -0.10852391 0.043198254 -0.19459006 0.0123423645 0.17056754 -0.20422196
-0.2613579 -0.17009577 0.034688465 -0.011237391 -0.16880335 -0.3008704 0.25376204 -0.10781409
0.024253618 0.11286411 -0.17286308 -0.06325204 0.19772196 0.125409 -0.12326053 -0.28141204
0.075365156 -0.1785884 0.08791484 0.082205385 0.14944732 -0.090557694 -0.20911586 -0.20613271
0.08880645 -0.04470476 0.27716136 0.05157961 0.15783975 -0.2560468 0.04000733 0.062015403
0.016724247 -0.0664456 0.00956852 0.14077392 -0.20557098 0.09607745 0.31615567 0.055832144
0.12940466 0.07465421 0.3555973 0.17942874 0.34112567 -0.008176457 -0.3123806 -0.092293955
-0.043117635 0.22630931 0.12937813 -0.060580026 0.22549325 0.1653253 -0.025445778 0.23829667
-0.19191204 0.1522396 -0.032723866 0.14469115 -0.07059515 0.05400165 0.33036244 -0.19880497
0.33611062 0.37020442 0.02238311 0.20000236 -0.047616396 -0.048264604 -0.1804446 0.007543036
0.15562002 0.23000233 0.23630732 0.27007937 -0.19237359 -0.0005438292 0.055946972 0.34953
-0.40385368 0.22139366 0.045685846 -0.13237233 -0.30122837 -0.26034835 0.40333146 -0.07368736
-0.017882956 -0.15438516 -0.38190275 0.21105371 -0.19655316 -0.44910923 0.01219128 0.08750249
-0.10660861 -0.32144976 -0.18554802 0.31354633 0.19588076 0.06462161 0.02737134 0.1666329
0.03608314 -0.026160983 -0.23274791 0.11947846 0.08949778 -0.21961814 -0.021078791 0.081743635
0.036408946 -0.14438717 -0.20447913 0.43201897 -0.27265233 0.005618228 -0.15299912 0.088141896
-0.22175941 0.08874459 0.0122562675 0.08015164 0.20660613 0.1333769 -0.16210479 0.3074307
-0.07961455 0.23493646 -0.03214909 0.50737107 -0.03809829 -0.22649728 0.10357058 0.0601998
0.2935795 0.22413093 -0.16257082 -0.013989831 -0.2712017 -0.052118555 -0.0737927 -0.42134324
-0.30262473 0.07144591 0.07884126 0.17347561 -0.10859437 0.10060039 -0.33263707 0.10515396
00000000: 56ed 78be 084c d63c ec3b 93bc a720 213e
00000010: 244d 863e f45c 5abe 235c 0abd 9f1b 05be
00000020: f583 fc3c 6b61 f1bc dc4e 933e d327 40be
00000030: f2f0 afb9 cbfc 153e d3ba 52be 526d d13d
00000040: 4ecb 733e c33a 56bc 69da 8e3c 1dbe 4fbd
00000050: deb9 4a3e b3a3 7f3d e11d 1bbe 3edc 2ebe
00000060: 05b7 713e 76b5 1e3e 95c7 16be fd5c e8bd
00000070: 6175 b9bd e832 89be 140e 34bd 71ee 233e
00000080: 0eee 23bd 6e0f b0bc 316f c7bd 5dd3 d4bd
00000090: 855b 86bd 719e 96bd 98bf 44bb 2d88 ee3c
000000a0: 80c7 103e 26a5 433e f13d b4bd a2bb d4bc
000000b0: 0331 103e 9846 48be 4871 873e 8bf6 ebbc
000000c0: 3059 cc3c b81e 8c3e a7bd 7fbd 0dba 2e3e
000000d0: d8a1 cebd 10c7 383e 7230 3bbe d3cf 8c3e
000000e0: 2e11 bcbc e699 cc3d 7573 a8bd 140b 5e3d
000000f0: fbde 9bbe 09e5 fd3b dfa9 963d 1346 063e
00000100: 63e4 a03e 2d8d a93d 2a8b 8a3e 9589 15bd
00000110: 2bdd 083e d145 d13e c728 78be 1861 083e
00000120: 8bea 9a3c e9be a5bd 55db aebe a064 92bd
00000130: 26a2 fabd 26fd 343e e0e7 723e cb41 013e
00000140: 855b b63e 0de5 b6bd cbec 5cbe f22c 8e3e
00000150: 3a67 d53e 74fb 4ebd 1fd1 0a3e 7480 fbbc
00000160: 9114 0bbe de2a 2fbe 72cb 803e 5986 97bd
00000170: 3130 afbe 46e9 3abd 98b0 35be 0463 6a3e
00000180: 6175 1dbe 7c77 26bd c941 debd a7f0 303d
00000190: 9e42 47be a137 4a3c 42a9 2e3e 901f 51be
000001a0: b4d0 85be 962d 2ebe 7e15 0e3d 091d 38bc
000001b0: c9da 2cbe af0b 9abe 19ed 813e a2cd dcbd
000001c0: 86af c63c 4c25 e73d 0503 31be 498a 81bd
000001d0: a077 4a3e 386b 003e 0470 fcbd 3d15 90be
000001e0: 0c59 9a3d e1df 36be b20c b43d 4c5b a83d
000001f0: b808 193e 5076 b9bd 7822 56be 7414 53be
00000200: 28e0 b53d 571c 37bd 18e8 8d3e 2445 533d
00000210: bea0 213e 9118 83be bade 233d dd03 7e3d
00000220: 4a01 893c a114 88bd 48c5 1c3c 0a27 103e
00000230: 3381 52be 41c4 c43d 28df a13e 3fb0 643d
00000240: a882 043e 4ee4 983d d910 b63e 2bbc 373e
00000250: 06a8 ae3e 8cf6 05bc 5af0 9fbe 9d04 bdbd
00000260: 1e9c 30bd a1bd 673e b37b 043e c322 78bd
00000270: b4e7 663e 094b 293e aa73 d0bc 0b04 743e
00000280: 9784 44be b3e4 1b3e 7609 06bd eb29 143e
00000290: 3194 90bd d630 5d3d 4425 a93e 8893 4bbe
000002a0: b116 ac3e 6f8b bd3e c95c b73c 6bcd 4c3e
000002b0: 6909 43bd 1bb1 45bd 78c6 38be 922b f73b
000002c0: db5a 1f3e bb85 6b3e 8cfa 713e d847 8a3e
000002d0: 95fd 44be c38f 0eba a728 653d 99f5 b23e
000002e0: e9c5 cebe 05b5 623e 1521 3b3d 9d8c 07be
000002f0: 9b3a 9abe 614c 85be 7681 ce3e 66e9 96bd
00000300: 477f 92bc 2517 1ebe c288 c3be 771e 583e
00000310: 3b45 49be a5f1 e5be efbd 473c 8134 b33d
00000320: 9d55 dabd 1095 a4be 4d00 3ebe 2589 a03e
00000330: f794 483e 5658 843d dc39 e03c d1a1 2a3e
00000340: eacb 133d 8f4f d6bc 7855 6ebe 1fb1 f43d
00000350: 9d4a b73d 94e3 60be 6ead acbc 3569 a73d
00000360: 8c21 153d 3bda 13be fa62 51be 9731 dd3e
00000370: 1699 8bbe 1d19 b83b cdab 1cbe bd83 b43d
00000380: e614 63be b9bf b53d 83ce 483c 8b26 a43d
00000390: 8f90 533e f493 083e ccfe 25be 8f67 9d3e
000003a0: f40c a3bd 2f93 703e c4ae 03bd 12e3 013f
000003b0: f40c 1cbd e7ee 67be d01c d43d 1194 763d
000003c0: 0d50 963e 9482 653e f778 26be 9b35 65bc
000003d0: f3da 8abe 447a 55bd a120 97bd 4dba d7be
000003e0: a1f1 9abe 3c52 923d 8777 a13d 97a3 313e
000003f0: ba66 debd 9407 ce3d 684f aabe f65a d73d

nn.mlps.0.layers.3.bias f4 [50]
-0.024987502 -0.0018951739 0.16330521 -0.1523569 -0.057072002 0.049856678 -0.08302714 -0.11157631
-0.052034922 0.03478057 -0.02213424 -0.028446568 0.14965151 0.041138317 0.072681054 -0.06650614
0.10515868 0.08984493 0.049874593 0.032858245 0.07887835 0.032636616 -0.042427115 -0.024284706
0.025880223 -0.030254416 -0.042147055 0.025981935 -0.04177823 -0.022141429 0.06311669 -0.013829627
0.0052897683 0.033710387 0.045570686 -0.024122406 0.050752774 -0.055289563 0.042842455 -0.11416983
0.035396293 -0.036468357 0.09434885 -0.018682467 -0.11676924 -0.02198962 0.031087844 0.06434839
0.022662582 -0.12575974
00000000: 97b2 ccbc 7c67 f8ba 7b39 273e 7203 1cbe
00000010: 55c4 69bd 8436 4c3d 220a aabd 1f82 e4bd
00000020: 9222 55bd 1276 0e3d de52 b5bc c708 e9bc
00000030: 3f3e 193e a780 283d ced9 943d 5f34 88bd
00000040: 6f5d d73d 9e00 b83d 4d49 4c3d 5e96 063d
00000050: f98a a13d f9ad 053d 0ec8 2dbd b8f0 c6bc
00000060: c302 d43c 1cd8 f7bc 64a2 2cbd 11d8 d43c
00000070: a61f 2bbd f161 b5bc 5343 813d a995 62bc
00000080: cb55 ad3b e713 0a3d 54a8 3a3d 5a9c c5bc
00000090: 24e2 4f3d 4f77 62bd 927b 2f3d dfd1 e9bd
000000a0: b4fb 103d d85f 15bd f839 c13d f90b 99bc
000000b0: b624 efbd 9323 b4bc efab fe3c 17c9 833d
000000c0: e1a6 b93c 29c7 00be

nn.mlps.0.layers.4.weight f4 [50, 50]
0.0248894 -0.19794887 0.12034058 -0.32018167 -0.0018503849 0.25068945 0.07758164 -0.11698312
-0.08485846 0.07629659 -0.16208655 0.026052158 0.15161252 0.20594618 0.044735014 -0.09937387
0.041078724 0.11867572 0.1059998 0.026821893 0.20061345 0.061248302 -0.14455397 0.12652946
-0.13412729 -0.12198096 -0.04945034 -0.12554638 -0.23234858 -0.07100968 0.24940395 -0.07682811
0.14333642 -0.07239735 0.12223817 -0.10380344 0.10224361 0.11970386 0.36254558 -0.12865461
-0.106030054 -0.056828786 0.21135092 0.021483477 -0.1579766 0.012716466 0.0039786925 0.29899004
-0.22254023 -0.067079075 -0.026962427 -0.14179862 0.26689824 -0.48820347 -0.3517857 0.13838093
-0.25707778 0.047450256 0.10180178 0.04943992 -0.2588863 -0.16669582 -0.026633916 0.05988394
0.21482196 -0.13858785 0.2484199 0.011097404 -0.04599734 0.094957255 0.019159123 0.12245452
0.17228647 0.2587072 -0.033489905 0.05960241 0.0763733 -0.061829645 -0.090237744 0.183901
0.14629792 -0.14251594 -0.08974842 0.008252569 0.16001709 0.02334512 0.16453388 -0.12213021
-0.030567544 0.13189 -0.04094493 -0.11388885 0.03012597 0.189907 -0.023035875 -0.14273907
0.21068794 0.12497108 -0.04656356 0.074546486 -0.07903786 0.14554223 -0.026726276 -0.14202194
0.43982655 -0.31716913 0.15534799 0.3183538 0.34729326 0.02540071 0.12639843 0.17112024
-0.082356304 0.04333899 -0.21064019 0.15261197 0.13555805 -0.20926434 0.07391756 0.0714521
-0.085292414 -0.16535988 -0.15492508 0.03410324 -0.06017073 0.10275214 0.21394941 -0.11092013
-0.035677634 0.14323708 -0.24511924 -0.0068216547 -0.20569065 0.03384276 -0.39906555 0.13600938
-0.22208019 -0.037166886 0.020043781 0.050297115 -0.22333091 0.10014287 -0.0346678 -0.0015493998
0.14893031 -0.100651585 0.12492653 0.21411833 0.03676731 0.07815024 0.30417487 0.056213498
-0.061159533 -0.02655927 0.26881105 -0.08033374 0.26523912 0.2771914 0.2504259 0.02810943
0.26366326 -0.09491359 -0.47210813 -0.07048555 -0.2959257 0.029660175 0.06445555 -0.048760004
-0.13088971 -0.041976552 -0.1395371 0.0378689 -0.07139816 -0.076821536 0.18734694 0.03501261
-0.03748476 -0.07565006 -0.1487361 -0.0434657 -0.08554287 0.045187134 -0.27435395 -0.2927472
-0.0414845 -0.061869293 -0.08324648 -0.011573633 -0.21778545 0.005197312 -0.06769967 -0.021266649
-0.16410515 -0.29521856 0.30212334 -0.2643699 0.032280516 0.054122996 0.13595156 -0.06037867
-0.17628779 0.046947457 -0.2897114 0.18755904 0.09421929 0.0626148 0.09139565 0.27527803
0.15511766 -0.063364394 0.2869578 0.092324585 -0.21378697 -0.24035299 -0.11175228 0.21959946
-0.02021161 -0.07421648 -0.33284906 -0.045571666 0.18757719 -0.13916111 -0.103569046 -0.12479422
0.058594298 -0.033233322 0.060796883 -0.10265369 -0.023923872 0.10435137 -0.38879868 -0.055806804
0.12873271 -0.03175058 -0.13696587 0.17400146 -0.035927147 0.15009569 0.08551722 0.029032214
-0.022234987 -0.12672247 -0.19462734 -0.3040085 0.29975173 0.068477556 0.028972173 -0.2132379
-0.06773304 0.009770161 0.050672427 -0.35018763 0.031882755 -0.08063527 -0.054145254 -0.099420644
00000000: dbe4 cb3c 1cb3 4abe 1f75 f63d daee a3be
00000010: 9d88 f2ba 5e5a 803e 1fe3 9e3d d994 efbd
00000020: 46ca adbd 6341 9c3d 04fa 25be 566b d53c
00000030: 5040 1b3e 8ee3 523e 103c 373d 8784 cbbd
00000040: 2a42 283d 420c f33d 6c16 d93d 96b9 db3c
00000050: 9d6d 4d3e 80df 7a3d f505 14be f090 013e
00000060: aa58 09be 27d1 f9bd 718c 4abd 3b8f 00be
00000070: c9ec 6dbe 866d 91bd c063 7f3e 0e58 9dbd
00000080: c8c6 123e 1045 94bd 0158 fa3d e696 d4bd
00000090: 1965 d13d 4c27 f53d 939f b93e 09be 03be
000000a0: 4926 d9bd 4dc5 68bd 606c 583e 1efe af3c
000000b0: 9ec4 21be b958 503c b15f 823b 3915 993e
000000c0: 96e1 63be c160 89bd 4fe0 dcbc a833 11be
000000d0: e3a6 883e cef5 f9be 411d b4be bbb3 0d3e
000000e0: b39f 83be 335b 423d 747d d03d 8381 4a3d
000000f0: bf8c 84be 4fb2 2abe 5f2f dabc dd48 753d
00000100: 4afa 5b3e f9e9 0dbe c961 7e3e e3d1 353c
00000110: b567 3cbd f378 c23d 98f3 9c3c 6fc9 fa3d
00000120: dd6b 303e 4575 843e b62c 09bd a821 743d
00000130: 9b69 9c3d 1541 7dbd 91ce b8bd 8b50 3c3e
00000140: 1fcf 153e b3ef 11be 05ce b7bd c835 073c
00000150: 85db 233e 443e bf3c 927b 283e 671f fabd
00000160: c968 fabc 2c0e 073e dfb5 27bd 8f3e e9bd
00000170: bdca f63c fb76 423e bbb5 bcbc 312a 12be
00000180: 94be 573e d6f0 ff3d 6eb9 3ebd d4ab 983d
00000190: 9ade a1bd 0609 153e 10f1 dabc 336e 11be
000001a0: f230 e13e fe63 a2be 8b13 1f3e 45ff a23e
000001b0: 6cd0 b13e 2615 d03c 976e 013e 253a 2f3e
000001c0: 6caa a8bd 3a84 313d 10b2 57be 5046 1c3e
000001d0: bbcf 0a3e 6449 56be 1762 973d 7b55 923d
000001e0: caad aebd 1a54 29be aea4 1ebe d7af 0b3d
000001f0: 9575 76bd b76f d23d 8e15 5b3e 182a e3bd
00000200: b622 12bd beac 123e 8a00 7bbe 3088 dfbb
00000210: 92a0 52be b59e 0a3d 5252 ccbe 0b46 0b3e
00000220: fd68 63be 4e3c 18bd db32 a43c 5904 4e3d
00000230: dcb0 64be b417 cd3d d3ff 0dbd 3b15 cbba
00000240: 3081 183e 6b22 cebd 7bd9 ff3d d641 5b3e
00000250: 5299 163d 3c0d a03d cfbc 9b3e 2040 663d
00000260: 6b82 7abd d492 d9bc 9aa1 893e 0486 a4bd
00000270: 6ccd 873e 08ec 8d3e d337 803e bf45 e63c
00000280: dffe 863e 0e62 c2bd 28b8 f1be ba5a 90bd
00000290: 9383 97be e5f9 f23c 4501 843d 92b8 47bd
000002a0: f407 06be 9bef 2bbd d0e2 0ebe 6b1c 1b3d
000002b0: 3339 92bd 9c54 9dbd e0d7 3f3e 6269 0f3d
000002c0: 9f89 19bd 6bee 9abd 474e 18be 1709 32bd
000002d0: 1a31 afbd 2516 393d 1f78 8cbe f6e2 95be
000002e0: a7eb 29bd a86a 7dbd 217d aabd 569f 3dbc
000002f0: 2603 5fbe 374e aa3b 20a6 8abd 6537 aebc
00000300: 2e0b 28be e326 97be e9af 9a3e 7e5b 87be
00000310: 9338 043d 13b0 5d3d e336 0b3e a04f 77bd
00000320: c984 34be fa4b 403d 0d55 94be 7a0f 403e
00000330: 0bf6 c03d 303c 803d a42d bb3d 3ef1 8c3e
00000340: 2ad7 1e3e 31c5 81bd 22ec 923e ac14 bd3d
00000350: f9ea 5abe 181f 76be 61de e4bd aede 603e
00000360: d192 a5bc cffe 97bd 316b aabe 5ba9 3abd
00000370: 3c14 403e 4080 0ebe 021c d4bd 1d94 ffbd
00000380: 9300 703d aa1f 08bd 2706 793d 193c d2bd
00000390: fffb c3bc 2cb6 d53d 9f10 c7be ad95 64bd
000003a0: 82d2 033e e50c 02bd c840 0cbe 702d 323e
000003b0: 5828 13bd afb2 193e a723 af3d f7d4 ed3c
000003c0: 2626 b6bc 89c3 01be 644c 47be 01a7 9bbe
000003d0: 0f79 993e f63d 8c3d 0d57 ed3c 095b 5abe
000003e0: 9fb7 8abd 0613 203c e48d 4f3d cb4b b3be
000003f0: 7e97 023d 1b24 a5bd 6ac7 5dbd 0d9d cbbd

nn.mlps.0.layers.4.bias f4 [50]
0.012587623 -0.008306765 0.0060518864 0.01707915 0.00584092 -0.010343124 0.013916946 -0.013520645
0.011021949 -0.0067746392 -0.0101111755 0.036717154 0.012771558 0.028252063 0.006066398 -0.0021856895
0.022896864 0.013900483 -0.016560791 -0.0055452012 -0.0070596836 -0.011030393 0.011976897 0.011101283
0.044353683 -0.012842364 -0.012487619 -0.009106846 0.0076147015 0.02106162 0.044166 0.002047806
0.003929297 -0.00020612286 -0.009357107 0.0013236959 -0.0071346187 0.01072892 0.011762667 0.08713949
-0.007904237 -0.0051464373 0.006465754 0.015016814 0.010422081 -0.010339116 0.00017633081 -0.009819659
0.05284757 0.011976852
00000000: 513c 4e3c 1919 08bc e74e c63b 93e9 8b3c
00000010: 3065 bf3b 3576 29bc e703 643c b285 5dbc
00000020: 6895 343c cbfd ddbb 58a9 25bc ba64 163d
00000030: cc3f 513c df70 e73c a3c8 c63b c93d 0fbb
00000040: 3492 bb3c dabe 633c 7faa 87bc 85b4 b5bb
00000050: eb54 e7bb d2b8 34bc bf3a 443c 28e2 353c
00000060: 35ac 353d c768 52bc df98 4cbc e134 15bc
00000070: bf84 f93b 6b89 ac3c 68e7 343d 7c34 063b
00000080: 55c1 803b af22 58b9 8d4e 19bc dd7f ad3a
00000090: 85c9 e9bb 5ac8 2f3c 34b8 403c 3076 b23d
000000a0: c680 01bc 72a3 a8bb adde d33b 1509 763c
000000b0: 60c1 2a3c 6565 29bc 71e5 3839 a3e2 20bc
000000c0: b276 583d 8f3a 443c

nn.mlps.0.layers.5.weight f4 [1, 50]
-0.09449718 -0.2849214 0.10563144 0.44081336 0.28623274 -0.19072531 0.2376598 -0.2889625
0.22077248 -0.12986739 -0.3091533 0.0016199062 -0.063223116 -0.17606407 0.32605633 -0.39324215
-0.11872234 -0.15816061 0.025686463 -0.08983682 -0.14689587 -0.10694408 0.027993713 0.08293399
-0.100138046 0.0027302029 -0.10358974 -0.263653 0.077486746 0.09497324 -0.02499829 0.24664237
0.14886956 0.20435518 -0.33063522 -0.1777404 -0.08563955 0.17626002 0.15398167 -0.07820313
-0.41547203 -0.062856026 0.30025885 -0.12729403 0.15799433 -0.28232998 0.20224062 -0.12921269
-0.021625996 0.023655446
00000000: bd87 c1bd 38e1 91be 4c55 d83d 4ab2 e13e
00000010: 198d 923e 7f4d 43be 175d 733e e5f2 93be
00000020: 2e12 623e f5fb 04be 5749 9ebe 0853 d43a
00000030: 1f7b 81bd 244a 34be dbf0 a63e 0957 c9be
00000040: b324 f3bd dbf4 21be 6b6c d23c 5efc b7bd
00000050: df6b 16be 7f05 dbbd 1253 e53c 4cd9 a93d
00000060: 2d15 cdbd 34ed 323b dc26 d4bd 87fd 86be
00000070: 5fb1 9e3d 5481 c23d 37c9 ccbc d18f 7c3e
00000080: 4371 183e 7c42 513e 0549 a9be 9401 36be
00000090: ca63 afbd 827d 343e 5fad 1d3e f628 a0bd
000000a0: c0b8 d4be a9ba 80bd 87bb 993e 5e59 02be
000000b0: 44c9 213e 8e8d 90be 2a18 4f3e 5550 04be
000000c0: 0029 b1bc 11c9 c13c

nn.mlps.1.layers.0.weight f4 [50, 1]
-0.063734815 0.056622777 0.28247216 0.16300605 0.14982285 0.019887278 -0.07301652 0.008517253
0.2515837 0.022076739 0.3428256 0.056703694 0.014983235 0.28309405 -0.097460665 0.13034014
-0.088729426 -0.105381176 0.061637245 -0.005251351 -0.06841475 -0.50308055 0.2560415 -0.11810369
0.023136975 0.028410891 -0.048483178 -0.030771203 0.39749756 -0.075826354 0.2988532 -0.2961888
-0.10633883 -0.11143555 -0.03359749 -0.059786756 0.24020861 0.29803815 -0.1874245 0.25381103
0.028977163 -0.20243987 -0.17693837 -0.109613806 -0.19266853 -0.11578018 0.02400729 -0.23981163
0.23990294 -0.005219556
00000000: 6687 82bd 49ed 673d 31a0 903e 0feb 263e
00000010: 296b 193e a5ea a23c af89 95bd f38b 0b3c
00000020: 94cf 803e 47da b43c d686 af3e 2242 683d
00000030: 3e7c 753c b4f1 903e 7599 c7bd e377 053e
00000040: c6b7 b5bd 16d2 d7bd 5677 7c3d 8613 acbb
00000050: 081d 8cbd e3c9 00bf df17 833e 59e0 f1bd
00000060: c189 bd3c f5bd e83c 4c96 46bd e413 fcbc
00000070: cd84 cb3e d94a 9bbd 4903 993e 0fa6 97be
00000080: 2cc8 d9bd 5238 e4bd 869d 09bd f5e2 74bd
00000090: 3ff9 753e 7598 983e 35ec 3fbe 85f3 813e
000000a0: 8461 ed3c 664c 4fbe 552f 35be 347d e0bd
000000b0: e64a 45be 291e edbd f0aa c43c 2e91 75be
000000c0: 1ea9 753e cf08 abbb

nn.mlps.1.layers.0.bias f4 [50]
-0.10517507 0.08243118 0.06586612 0.039340686 -0.05057861 -0.09546242 0.07639735 -0.077823125
0.044360496 0.011465287 0.07314605 -0.08457615 0.051198732 0.03788366 -0.092477486 0.07972562
0.093410805 0.11841932 -0.035120163 0.06882276 -0.01711276 0.12025348 -0.077126734 -0.043323003
-0.077848315 -0.07465827 -0.061915357 0.071813546 -0.00018710077 0.009202425 0.040151026 0.007956055
0.121464126 -0.043759562 0.09125805 -0.112061724 0.079336084 -0.030897807 0.03195694 0.03762169
0.066712156 -0.07263021 -0.012652293 -0.03470236 -0.13334614 -0.03152562 0.115432516 -0.1244953
-0.087391205 -0.08411613
00000000: 0766 d7bd aed1 a83d d1e4 863d b323 213d
00000010: 842b 4fbd cd81 c3bd 3776 9c3d bb61 9fbd
00000020: 5ab3 353d e6d8 3b3c 99cd 953d 4336 adbd
00000030: c3b5 513d e62b 1b3d d664 bdbd 3047 a33d
00000040: 2a4e bf3d d485 f23d 29da 0fbd f2f2 8c3d
00000050: 0f30 8cbc 7547 f63d 9ff4 9dbd 7673 31bd
00000060: f06e 9fbd 6fe6 98bd f59a 7dbd fb12 933d
00000070: 7b30 44b9 c5c5 163c 6775 243d 1d5a 023c
00000080: 2fc2 f83d 3a3d 33bd 80e5 ba3d 9e80 e5bd
00000090: f57a a23d 661d fdbc 48e5 023d 3419 1a3d
000000a0: 62a0 883d 26bf 94bd 904b 4fbc 1024 0ebd
000000b0: e48b 08be 0221 01bd e267 ec3d 64f7 febd
000000c0: 29fa b2bd 1445 acbd

nn.mlps.1.layers.1.weight f4 [50, 50]
0.38391462 -0.20810302 0.082871 0.077726945 -0.051329393 -0.13719715 -0.09016608 0.15122841
0.04838057 -0.044085875 -0.13976313 -0.14330813 -0.19453706 0.07667752 0.18783647 -0.0234401
0.06470836 -0.055251654 -0.12500457 0.123636656 0.3219095 -0.23289211 0.07042447 0.1270861
0.007950476 0.07263159 0.053954035 0.13765985 -0.33976436 0.1788031 0.03147153 -0.11498034
-0.010445959 -0.035509314 0.13251337 0.24043705 -0.01975608 -0.05605902 0.15294424 -0.05285407
-0.1426876 -0.054213457 0.11547339 -0.15677735 -0.15384053 0.07726364 -0.04479236 0.1408909
0.04404593 0.06603977 -0.028146107 0.2071011 0.18729652 0.20917882 -0.07299174 -0.00032047502
0.12877756 0.1515866 0.038428895 -0.1763519 -0.02118324 -0.13697992 -0.104165494 -0.17852964
-0.025188033 -0.22229442 0.05078251 -0.08474427 0.0395469 0.06736741 0.1646747 0.48185351
0.19763702 0.07233156 -0.15395908 -0.13149828 -0.036579773 -0.0972316 -0.051265977 0.098386765
-0.058361035 0.030821528 -0.1547284 -0.08147136 0.1364117 0.051021084 -0.2742578 -0.120193586
-0.0063053593 0.13677792 0.033789277 0.22179233 0.117931955 -0.090219915 0.069946095 0.04571378
-0.15924868 -0.08410308 -0.33039635 0.069854364 -0.24624965 -0.2811099 0.24206689 0.15161294
0.15035705 -0.11469821 -0.2941074 0.048378795 0.037448008 0.09127917 0.07142452 0.04062492
0.08091199 0.0081219645 0.007500588 -0.045554295 -0.052501157 -0.05854857 -0.28632927 0.30469677
0.18485388 0.06745773 -0.1493816 -0.15978344 0.02786916 -0.053024996 0.019513743 -0.067327105
-0.08748951 -0.077227555 0.15353057 -0.0010411202 0.037216876 0.099340454 0.16198802 0.0019754474
0.10916315 0.062923655 0.13305268 -0.15330379 -0.051429313 0.005423934 -0.1643722 0.13854197
-0.19758415 -0.10365909 0.26130095 -0.14635618 0.17044179 -0.27993226 -0.21332087 -0.053681966
-0.07658248 0.058137357 -0.0264958 0.27275786 -0.22309601 0.09303145 -0.028525252 0.025785025
0.14069846 -0.011917318 0.16627881 -0.0893438 0.0060497397 0.18796277 -0.056529004 -0.18817578
0.1252605 0.04924354 -0.14665747 -0.11357751 0.21623026 0.09034786 0.14815949 0.24093409
-0.025575131 -0.04702196 0.012943254 0.19846669 0.026358148 -0.16697517 0.021960648 0.3267528
-0.0013398351 0.044390056 0.23760541 0.10110941 0.01810234 -0.024437025 0.40034616 0.07643449
0.017489627 -0.13284318 -0.3127877 0.10296933 0.32777384 -0.16637783 -0.02542243 0.104263514
-0.12334286 0.030759683 0.052525353 0.07946703 0.061311595 -0.13089937 -0.0044829817 0.38767374
0.05343808 0.097459726 0.037570834 0.02126069 0.10354106 0.17588072 0.005332452 0.006584993
-0.17174985 -0.15353033 -0.21546096 -0.1609253 -0.13191949 -0.30376807 -0.09605955 0.006574877
0.18249282 -0.046329286 0.09342014 0.23182991 0.09655872 0.010278519 0.2411344 -0.16783717
-0.13699485 -0.034032535 -0.1653123 -0.12116529 -0.14235458 0.13399048 0.025253488 0.11279275
0.05346575 0.06728476 0.004821419 -0.16769385 -0.21208906 0.064300306 0.20961797 0.029418249
0.070036076 -0.10857736 -0.21604711 -0.15185343 -0.05188135 0.058859408 -0.24986556 0.0634919
00000000: 7590 c43e f518 55be 45b8 a93d 4e2f 9f3d
00000010: c53e 52bd 697d 0cbe fea8 b8bd 9fdb 1a3e
00000020: b42a 463d 6493 34bd 111e 0fbe 5ebf 12be
00000030: b934 47be 1b09 9d3d 3458 403e 7405 c0bc
00000040: d185 843d 8f4f 62bd 3301 00be 3735 fd3d
00000050: 52d1 a43e 457b 6ebe b43a 903d dc22 023e
00000060: b742 023c dfbf 943d e8fe 5c3d b4f6 0c3e
00000070: 98f5 adbe 2918 373e 4be8 003d d07a ebbd
00000080: 8725 2bbc 3772 11bd 96b1 073e 2135 763e
00000090: 81d7 a1bc 259e 65bd 6a9d 1c3e 827d 58bd
000000a0: b31c 12be ee0e 5ebd 507d ec3d 3e8a 20be
000000b0: 5f88 1dbe 663c 9e3d 3278 37bd b445 103e
000000c0: 8169 343d dc3f 873d aa92 e6bc 5012 543e
000000d0: a9ca 3f3e f932 563e b27c 95bd 6e05 a8b9
000000e0: 44de 033e 8539 1b3e 9e67 1d3d 9895 34be
000000f0: 7988 adbc 7744 0cbe b854 d5bd 79d0 36be
00000100: 2257 cebc 26a1 63be 5201 503d 678e adbd
00000110: eefb 213d edf7 893d 7ca0 283e 81b5 f63e
00000120: 5c61 4a3e 9222 943d 73a7 1dbe 7ca7 06be
00000130: acd4 15bd 5c21 c7bd 46fc 51bd 007f c93d
00000140: fb0b 6fbd 6e7d fc3c 1f71 1ebe 75da a6bd
00000150: 82af 0b3e 7cfb 503d 856b 8cbe 0e28 f6bd
00000160: 309d cebb 830f 0c3e a066 0a3d 871d 633e
00000170: 4f86 f13d 38c5 b8bd e63f 8f3d 5f3e 3b3d
00000180: 1612 23be 3c3e acbd b629 a9be ce0f 8f3d
00000190: de28 7cbe a3ed 8fbe 62e0 773e 6c40 1b3e
000001a0: 33f7 193e e5e6 eabd 3f95 96be d828 463d
000001b0: 1563 193d 93f0 ba3d 0547 923d 5166 263d
000001c0: 2fb5 a53d fd11 053c 7ec7 f53b 2497 3abd
000001d0: 740b 57bd a0d0 6fbd c099 92be 3701 9c3e
000001e0: 564a 3d3e 4727 8a3d 7df7 18be 459e 23be
000001f0: dd4d e43c bd30 59bd 49db 9f3c cbe2 89bd
00000200: b32d b3bd 7b29 9ebd 1e37 1d3e 3276 88ba
00000210: b970 183d 0273 cb3d 30e0 253e 8276 013b
00000220: ee90 df3d 1ede 803d f63e 083e abfb 1cbe
00000230: 8ba7 52bd 42bb b13b 3051 28be f2dd 0d3e
00000240: 8053 4abe 384b d4bd 3dc9 853e 65de 15be
00000250: 4b88 2e3e 4853 8fbe c970 5abe 9fe1 5bbd
00000260: 46d7 9cbd 7021 6e3d b80d d9bc eba6 8b3e
00000270: 4873 64be 4687 be3d caad e9bc 1e3b d33c
00000280: 4213 103e db40 43bc fe44 2a3e e2f9 b6bd
00000290: e53c c63b 5079 403e f58a 67bd 27b1 40be
000002a0: 4a44 003e 98b3 493d 602d 16be 539b e8bd
000002b0: 776b 5d3e 4c08 b93d 1fb7 173e 6db7 763e
000002c0: f082 d1bc 199a 40bd f10f 543c da3a 4b3e
000002d0: 0bed d73c 8afb 2abe d1e6 b33c 254c a73e
000002e0: 689d afba 59d2 353d d54e 733e 7312 cf3d
000002f0: 5c4b 943c 2830 c8bc 2cfa cc3e b089 9c3d
00000300: 6846 8f3c 0b08 08be b625 a0be 96e1 d23d
00000310: f9d1 a73e f35e 2abe b342 d0bc 1c88 d53d
00000320: 2e9b fcbd bbfb fb3c d324 573d 9cbf a23d
00000330: de21 7b3d 7c0a 06be fae5 92bb 2c7d c63e
00000340: e3e1 5a3d f798 c73d e0e3 193d e62a ae3c
00000350: 560d d43d 131a 343e d9bb ae3b edc6 d73b
00000360: 31df 2fbe 0e37 1dbe cca1 5cbe 9ac9 24be
00000370: e715 07be 7d87 9bbe dfba c4bd 1172 d73b
00000380: 66df 3a3e c7c3 3dbd 0f53 bf3d d264 6d3e
00000390: 94c0 c53d 3c67 283c f0eb 763e 82dd 2bbe
000003a0: 6148 0cbe b365 0bbd a147 29be 8225 f8bd
000003b0: 66c5 11be cd34 093e 67e0 ce3c e3ff e63d
000003c0: e7fe 5a3d 98cc 893d fefc 9d3b f0b7 2bbe
000003d0: e02d 59be e1af 833d 18a6 563e 8afe f03c
000003e0: 136f 8f3d cf5d debd 743b 5dbe 777f 1bbe
000003f0: 8a81 54bd 9016 713d c2dc 7fbe 0b08 823d

nn.mlps.1.layers.1.bias f4 [50]
0.0038900513 0.05605008 -0.035131913 -0.0433323 -0.07926197 0.049736727 0.098580115 -0.08721891
0.039686278 0.09121647 -0.07089026 0.071729876 -0.06559398 0.07438422 -0.08387349 -0.062306046
-0.06750073 0.08240752 0.06303597 -0.077103496 -0.100199714 -0.041736543 -0.025634853 -0.08156998
-0.056355078 -0.013194021 -0.082116164 -0.04344529 -0.0063996483 -0.06378789 -0.1097663 -0.016839698
0.06679075 -0.068383425 0.081327416 -0.03290438 -0.029899491 -0.12941991 -0.07082866 0.072753444
0.040283043 -0.015367087 0.08133663 0.06522412 0.09123499 0.087056674 -0.033395953 -0.0030741526
0.0745254 0.06777862
00000000: 3bf0 7e3b c594 653d 7be6 0fbd 367d 31bd
00000010: 1a54 a2bd bdb8 4b3d 5fe4 c93d d49f b2bd
00000020: 148e 223d b3cf ba3d ea2e 91bd 1de7 923d
00000030: 2356 86bd c156 983d ddc5 abbd a034 7fbd
00000040: d33d 8abd 46c5 a83d 0119 813d 70e8 9dbd
00000050: 8235 cdbd f0f3 2abd 2f00 d2bc 290e a7bd
00000060: 95d4 66bd bc2b 58bc 852c a8bd b0f3 31bd
00000070: 24b4 d1bb 3aa3 82bd 27cd e0bd 68f3 89bc
00000080: 97c9 883d 9c0c 8cbd fd8e a63d bec6 06bd
00000090: c7ef f4bc a786 04be 9e0e 91bd c2ff 943d
000000a0: d5ff 243d 3cc6 7bbc d293 a63d 3994 853d
000000b0: 69d9 ba3d c54a b23d 32ca 08bd b977 49bb
000000c0: c6a0 983d 84cf 8a3d
