output/Darcy_PINN_test/weight.pth (torch, 90653 bytes, 22 tensors)

nn.mlps.0.layers.0.weight f4 [50, 2]
000000 98 36 85 be 64 92 a7 be 12 67 95 3d 55 5f 86 3e
       -0.26018214 -0.32728875 0.0729505 0.26244608
000010 9c 8e e2 bc 9a 43 70 3c 14 f5 11 be db 13 54 3e
       -0.027655892 0.014664555 -0.14253646 0.207107
000020 d6 da 35 bc 76 0e 8f be 20 4d 02 3e 5c 5a 9f 3d
       -0.011099538 -0.2794072 0.12724733 0.077809066
000030 ec ad b1 3e 38 a9 19 3c 67 da 9f bd d9 6d 0a bd
       0.34703004 0.009378724 -0.07805329 -0.033796165
000040 e6 30 98 be dc f8 9c bd 56 93 e9 3d 62 d3 cc bd
       -0.29724807 -0.07664654 0.11405055 -0.100012556
000050 b9 f0 30 3e a9 3d a3 3e 96 52 c5 be a4 77 2f 3e
       0.17279328 0.3188298 -0.3853957 0.17135483
000060 6f d8 48 3e 3e 6f 84 3e 5f c1 e4 bd e2 4b ad bd
       0.19613813 0.2586612 -0.11169695 -0.08461739
000070 3a 3f ee 3d bd df bd be 8b 53 f2 bd 8c f7 2d be
       0.11633153 -0.3708476 -0.11832341 -0.16988963
000080 a0 a3 9d bd ab 50 15 3d 12 1e 8a be 37 d2 62 3e
       -0.076972246 0.036453884 -0.26976067 0.22150503
000090 2a ee ad 3d 08 5e bf bd 4b ac 91 bd b6 13 88 be
       0.08492692 -0.09344107 -0.071129404 -0.26577538
0000a0 c9 60 43 3e 88 e1 74 bc cb 0b c1 3d be 7a 1b be
       0.1907989 -0.014946349 0.094260775 -0.15183541
0000b0 b2 47 8c be 86 42 64 bd 55 d6 12 be cf 19 43 bb
       -0.2739845 -0.055727504 -0.14339574 -0.0029770022
0000c0 fb db c3 bd 54 68 8c be 9b d4 d9 3d ca c5 75 3e
       -0.09563442 -0.27423346 0.106362544 0.24001232
0000d0 52 7f 5f be 16 28 07 be 41 16 56 be 0b 59 80 3e
       -0.21825913 -0.13198885 -0.20906927 0.25067934
0000e0 65 91 8f be 53 d7 a8 3e 76 87 29 3d 54 58 f6 3d
       -0.28040615 0.3297678 0.04138895 0.12028566
0000f0 8d 4d 8c be 41 06 34 be 53 a5 cc 3d 2a b7 28 be
       -0.27402917 -0.1758051 0.099924706 -0.16476122
000100 56 47 23 be df 32 8c 3d bf 6b a9 3e 24 36 5f 3a
       -0.15945181 0.068456404 0.33090016 0.00085148425
000110 91 dc 73 3e ea 70 63 3e 32 4e 1d be ff 65 91 3d
       0.23814608 0.22211042 -0.1536186 0.07099532
000120 e4 96 b0 3a 71 9e 83 bd 1f b0 45 bd 41 ff 8b be
       0.0013472703 -0.06426705 -0.048263665 -0.2734318
000130 7e e7 8f 3e 05 d0 6e bd f8 e7 1e 3e 9c c7 4a 3e
       0.28106302 -0.05830385 0.15518177 0.19802707
000140 3e 0d 3f 3e a1 5a 30 3e 71 cd 4f 3e 19 b9 00 3f
       0.18657395 0.17222072 0.20293213 0.50282437
000150 25 29 20 3d 90 ad 15 3e a2 60 a4 3d b5 54 7d be
       0.03910174 0.1461699 0.08026244 -0.24739344
000160 99 e5 58 bb 59 a1 20 3e be 10 74 3e 40 f7 f3 bd
       -0.0033095835 0.15686549 0.23834512 -0.119123936
000170 b2 f1 7c be 47 54 3a 3b 97 5c d5 bd 24 64 90 3c
       -0.24701574 0.002843158 -0.10418051 0.017625876
000180 6e aa 1d 3e f1 4c 18 be 82 1d 53 3e 53 d7 1d be
       0.15397045 -0.14873101 0.20616725 -0.15414171

nn.mlps.0.layers.0.bias f4 [50]
000000 22 4e 88 3d bc 0c f9 3b 0a e1 d3 3d f5 25 77 3d
       0.06655528 0.007600395 0.10345657 0.060338933
000010 c3 44 a4 bc d7 0d 15 3d 73 35 28 3d f5 62 10 bd
       -0.02005232 0.03639015 0.0410666 -0.035250623
000020 4a ee 91 bc 67 e3 a4 3c 2f 65 38 bc 24 82 16 3e
       -0.01781382 0.020127965 -0.011254593 0.14698082
000030 0a a0 4f 3c 9a b3 87 3d 15 5d 9c bd e4 08 28 be
       0.012672434 0.06626053 -0.076349415 -0.16409642
000040 e3 a9 c9 3d c1 f1 34 3d d5 4f 9e 3c 05 df 8b bd
       0.098468564 0.044175867 0.019325176 -0.06829647
000050 39 89 71 3d b4 00 6a 3c 31 b6 cd bc 38 84 c8 3d
       0.058968756 0.014282394 -0.02511129 0.09790844
000060 d0 85 65 3d f4 2b e1 3c 65 47 df bc a9 41 6a 3d
       0.056035817 0.027486779 -0.027255723 0.057191525
000070 07 60 8a bc 1e b1 a7 bd 12 7d bb 3c b9 35 4a 3c
       -0.016891493 -0.08188079 0.022886787 0.01234191
000080 87 73 6e 3d 0b 53 37 3c 2b c0 1a be b6 7f c4 bc
       0.058215644 0.011189233 -0.15112369 -0.023986679
000090 2c f2 f2 bd 9a 8d a3 bc bb be 95 3d 36 fa 8c bb
       -0.11862597 -0.019964982 0.073117696 -0.0043022884
0000a0 8a ab 86 3d 49 3d 4c 3d 31 af 8e bd df c4 02 bc
       0.06575687 0.049863134 -0.06967009 -0.007981508
0000b0 54 a6 a4 bc ce 04 9e bc 91 06 85 bd bd 3e b3 bc
       -0.020098843 -0.0192894 -0.06495393 -0.021880502
0000c0 d5 53 ca bd 9d 16 8e bd
       -0.09879271 -0.06937907

nn.mlps.0.layers.1.weight f4 [50, 50]
000000 83 72 cd 3d 51 7a 19 be 38 d6 f2 bb 93 ad ba bb
       0.10031607 -0.14988066 -0.007410791 -0.005696961
000010 53 70 52 be 6b 05 00 bd c9 18 6e be 7f ba ed bd
       -0.20550661 -0.031255167 -0.23251642 -0.11607837
000020 e3 35 47 be 45 63 b1 3d e5 56 19 be 5d dc 9d 39
       -0.1945415 0.08661512 -0.14974554 0.00030109557
000030 66 80 f5 bd c4 dd 90 be 98 72 47 be a6 6a ea 3b
       -0.11987381 -0.28294194 -0.19477308 0.0071538268
000040 27 25 35 be 85 97 74 3d f7 ab 07 3e 6f 77 64 be
       -0.17689954 0.059714813 0.13249193 -0.22311185
000050 88 2a fd bd 7d 2e 11 bd 00 44 17 be 3c 81 e8 bd
       -0.12361628 -0.035444725 -0.14772034 -0.113527745
000060 6d 60 45 bc 99 4b 61 3e 50 15 fe bb fd c3 a3 bd
       -0.0120469155 0.22001494 -0.0077540055 -0.07996366
000070 04 60 02 bd 0c 85 95 3c ec 4a f3 3d aa b0 aa 3d
       -0.03182985 0.018251918 0.118795246 0.08334477
000080 ba 28 11 3d c4 1a 6b 3e 98 42 75 be f2 95 19 be
       0.03543923 0.22959429 -0.23951185 -0.14998606
000090 9a f9 ff 3d 93 ff 77 be 96 63 38 3d 63 bc 5f 3d
       0.124987796 -0.24218588 0.045016848 0.05462302
0000a0 aa 49 ba bd 9a 2d 54 3e 4d 0c 53 3d aa 76 03 be
       -0.090960816 0.2072052 0.051525403 -0.12838235
0000b0 e6 20 83 be c3 f8 ff 3b 41 99 c7 3b be f2 99 bd
       -0.25611037 0.007811637 0.0060912673 -0.075170025
0000c0 67 f0 f9 3d d8 e6 9d 3d b9 21 48 be 31 da 05 bd
       0.12204056 0.077100456 -0.19544114 -0.032678787
0000d0 a4 d6 66 3d dd e3 b0 bc f6 4b e7 b9 7e b6 e8 bb
       0.05635704 -0.021593029 -0.0004411635 -0.007101833
0000e0 d4 a1 be bd 83 b6 d8 3b 18 22 48 3d aa 66 04 3e
       -0.0930821 0.006613554 0.04886064 0.12929788
0000f0 27 b6 8e 3d ef e9 2c bd 3c 25 88 be 90 47 5e 3e
       0.069683366 -0.042215284 -0.26590908 0.21706986
000100 1c d9 0b be 27 8a 1b be 9a 79 9f bd 96 18 d6 3c
       -0.1365704 -0.1518942 -0.077868655 0.02613477
000110 42 8b 0e bd 3b 09 93 bc a2 13 fc bd 4e e8 ec 3c
       -0.034800775 -0.017948737 -0.12308432 0.028919365
000120 b2 93 0d 3e 4f 59 44 3e d5 93 8b bd 9c 32 c5 bd
       0.13825873 0.19174694 -0.06815306 -0.096287936
000130 b5 85 8a b9 9f c1 10 be 33 bf 33 3c af 0b 3a be
       -0.0002642103 -0.1413636 0.010970878 -0.1816852
000140 c7 29 ce bd b2 46 03 3e 37 2e 5a 3e a5 61 b1 3d
       -0.10066562 0.12819937 0.21306692 0.08661202
000150 8b ca 20 be 15 2b 65 3d 3e 14 6e bd e8 e9 e5 bd
       -0.15702264 0.05594929 -0.058124773 -0.11226255
000160 bc 9b 0e be 42 16 8e bc 55 69 89 3c 0f 9f f0 b9
       -0.13926595 -0.017344598 0.016773859 -0.00045894875
000170 32 4b 3c 3d 46 3b 11 bd 84 99 5c bd 8c 02 e9 3d
       0.04597015 -0.03545692 -0.05385734 0.11377439
000180 62 ed de 3d f8 89 e5 3e 64 ad 4d be c4 83 72 bd
       0.10885121 0.44831824 -0.20085675 -0.059207693
000190 7a 12 bc 3d d5 aa d2 3d 72 5f ea 3d 28 e0 d7 bd
       0.091832116 0.1028649 0.11443986 -0.10540801
0001a0 fe be e8 bd 78 88 82 be fc 49 28 3e 67 e9 81 3d
       -0.11364554 -0.25494742 0.16434473 0.06343346
0001b0 02 01 64 be 2c 92 23 be 12 35 37 3e 84 f9 46 3e
       -0.2226601 -0.15973729 0.17891338 0.1943112
0001c0 7b 04 56 3d 10 86 24 3d e3 75 84 3d e8 77 02 3d
       0.052250367 0.040166914 0.064677976 0.031852633
0001d0 eb d1 8a 3d 76 7f ee bc 30 c5 05 3e 69 0e 33 3e
       0.0677832 -0.029113512 0.13063502 0.17485966
0001e0 ed 92 5c 3d 23 94 c8 bd c3 05 50 bc 60 45 94 bc
       0.053851057 -0.0979388 -0.012696686 -0.018099487
0001f0 b3 c3 1f 3e d5 a9 b1 bc 69 3b 12 3e 6d e4 9c be
       0.15601997 -0.021687428 0.14280476 -0.30643025
000200 f5 2a 25 be 29 21 21 3e 7d 13 02 3d 94 b1 01 be
       -0.16129668 0.15735306 0.031756867 -0.12665397
000210 01 43 bc 3d 22 1d d9 bd a0 ee a6 3d 48 15 03 3e
       0.091924675 -0.1060126 0.08150983 0.12801087
000220 29 3f 88 3e 71 18 b9 3e 62 41 65 be 50 0d a3 bd
       0.26610687 0.3615146 -0.22388223 -0.079615235
000230 72 7e 31 3c 67 9e 4f bd 59 a7 2b bd d0 42 8c be
       0.01083337 -0.050688174 -0.041907642 -0.27394724
000240 dd 1f 70 3e 44 4a b9 bc 65 ca 61 bd 4e 7e f4 bd
       0.23449655 -0.02261842 -0.05512466 -0.11938153
000250 36 d8 f2 bc b4 30 88 bc 67 b9 46 3e ca 8a c6 bb
       -0.029644113 -0.016624786 0.19406663 -0.0060590254
000260 94 12 fc 3d b0 6a 9e 3e 9b 81 94 3d 32 78 0b 3e
       0.12308231 0.3094077 0.07251283 0.1362007
000270 b2 41 8b 3e 49 0a cd bd d5 e4 47 bd eb 24 31 be
       0.2719856 -0.10011727 -0.048802216 -0.1729924
000280 0f 72 aa bc 21 c6 9a 3e 0a 36 19 be d8 84 b9 3e
       -0.02080634 0.30229285 -0.1496202 0.36234164
000290 2b 5b b3 3d 11 47 02 be 1d ab d8 3e 90 0d 2d 3c
       0.08757623 -0.12722422 0.4231805 0.010562316
0002a0 ad 4a e4 3d 3d 1c 03 3e 25 8a 6a 3d b1 9b 59 bd
       0.11147056 0.12803741 0.05726065 -0.053126995
0002b0 1e ca 3d bb d6 97 bb 3e 6d 15 93 3d 5d 33 55 3e
       -0.0028959583 0.3663928 0.07181821 0.20820375
0002c0 c1 35 f6 bb 66 c7 a6 3e bd 1c d8 3d 63 00 28 be
       -0.007513732 0.32574004 0.105523564 -0.16406398
0002d0 ce 3f 8f 3e 1e 5e 5e 3d 76 33 c8 3e b4 0a c6 bc
       0.27978367 0.054288976 0.39101762 -0.024175026
0002e0 1c 16 ea be bc b5 f7 bd e8 d8 2c be 61 8a 04 3e
       -0.45719993 -0.1209521 -0.16879618 0.12943412
0002f0 4d 09 5f 3e 70 eb cd bc a0 b9 12 be 02 e0 d4 3c
       0.21780892 -0.02513668 -0.14328623 0.025985721
000300 4f 90 6e be ae 0e 11 bc 21 e5 8d 3d 4f 70 94 3d
       -0.23297237 -0.008853598 0.069284685 0.07247984
000310 ea b3 c7 bd 42 e5 b9 3d 8d f8 b6 be dc 31 28 be
       -0.09751113 0.090769306 -0.35736504 -0.1642527
000320 a5 7d ec 3d ef b2 dd bd ef 44 3a 3d d1 4a 1a 3d
       0.11547402 -0.108251445 0.045475896 0.037669007
000330 05 07 90 3d d7 8c cc 3c d1 6e 5b 3e 33 b4 aa be
       0.07032589 0.024969501 0.21428992 -0.33340606
000340 83 90 c8 ba f8 49 a8 3d c6 f4 f6 bc 89 41 16 be
       -0.0015301857 0.082172334 -0.030146014 -0.14673437
000350 ed 10 59 3b ba b4 6c b9 4c f4 dd bd 23 93 a4 bd
       0.003312166 -0.0002257404 -0.108376116 -0.080358766
000360 b0 02 94 3c 03 59 b4 3d 17 be 5f 3e c9 44 cf be
       0.018067688 0.0880604 0.21849857 -0.40482166
000370 ea 57 2b bc 40 37 92 bd da e2 03 bc 8b df 6c 3e
       -0.010457972 -0.07139444 -0.008049691 0.2313215
000380 ab 87 43 be 53 8f 75 3d e6 61 5f 3e fe 56 30 3e
       -0.19094722 0.059951138 0.21814689 0.17220685
000390 70 2b 3b 3e 2c 78 57 bd 06 ac 29 be 70 63 f0 3d
       0.18278289 -0.05260484 -0.16569528 0.11737716
0003a0 5a 29 91 3e 77 6b 6e 3d 7a ce 73 be c4 6b 98 bd
       0.2835186 0.058207955 -0.23809233 -0.0744243
0003b0 02 43 29 be a7 39 b5 bd 33 cb a6 3e 6c f1 cf bd
       -0.16529468 -0.08848887 0.32576904 -0.101534694
0003c0 ee 9a f1 3d ce ba 3d 3e c5 30 4c 3e bd 5d 43 be
       0.117971286 0.18528292 0.19940479 -0.19078727
0003d0 db 25 3b 3d 2e 83 fe bd 28 4d 90 3d dd 41 2e 3b
       0.0456904 -0.12427364 0.070459664 0.002658955
0003e0 0d 00 84 3d 05 1e 04 bd 22 2e 7e bd 6d e9 ee bd
       0.06445322 -0.03225519 -0.062055714 -0.11665616
0003f0 55 f9 95 3d b8 79 e4 3c 4b 45 51 3e 7f 13 53 be
       0.07322947 0.027890071 0.2043659 -0.20612906

nn.mlps.0.layers.1.bias f4 [50]
000000 95 ca d2 3c 73 ae 25 bc 9b 7b ff bc da b3 1a 3e
       0.025731364 -0.010112393 -0.03118687 0.1510767
000010 33 67 4e 3d d5 fc bb bc 79 05 20 3d 0f 15 29 bd
       0.050391387 -0.022947708 0.03906772 -0.04127985
000020 97 41 f0 bd 40 ff f7 bc 6b d5 fb 3c fa 6d 98 bd
       -0.1173126 -0.03027308 0.030741414 -0.07442851
000030 c8 84 25 bd 80 94 da bc ea 03 b8 3c 50 a8 a1 bc
       -0.040409833 -0.026682138 0.022462804 -0.019733578
000040 bb 7c 38 3d e2 59 a2 bc 1d db 0c bd 82 46 c1 3d
       0.045040827 -0.01981825 -0.03438865 0.094372764
000050 0e 8e 15 3d 25 fb cd bc 7e 84 2c 3d 78 f5 c5 bc
       0.036512427 -0.02514417 0.042118542 -0.0241649
000060 90 e6 1a 3c ac 7c 82 bc 98 7e 1c 3d fa a9 79 bd
       0.009454384 -0.015928589 0.038206667 -0.060953118
000070 22 9f 5d bb 67 47 80 bd 35 38 01 3e d0 ba 95 3d
       -0.0033816774 -0.06263619 0.12619098 0.07311022
000080 53 73 95 3a 5e f9 89 3c f4 ca 9a 3c 3a 6c 93 bc
       0.0011402167 0.01684254 0.018895604 -0.017995942
000090 f7 3f 7c 3d 08 15 af 3b 82 50 d6 ba 1a c4 36 3d
       0.06158444 0.0053430833 -0.0016350897 0.04462061
0000a0 89 3a 01 bd 94 f9 0b bd 0a e3 05 3c f7 5b 03 3d
       -0.031549964 -0.034173563 0.008171806 0.032070126
0000b0 05 59 02 bc 39 18 4f 3d 7d f2 27 3d cb 9d 0b bd
       -0.007955794 0.05056021 0.04100274 -0.03408603
0000c0 eb f1 7c 3d 62 85 da 3c
       0.06175415 0.02667493

nn.mlps.0.layers.2.weight f4 [50, 50]
000000 77 a3 46 bd 0a 6e 85 3c 07 7b 3f 3d 15 5c a9 bc
       -0.048495736 0.016287822 0.046748187 -0.020673791
000010 5a 37 26 be e4 41 61 3c 18 e4 c4 3c 70 b2 66 3d
       -0.16232052 0.01374862 0.024034545 0.056322515
000020 c8 75 a2 3e 5f 47 70 3e ce e0 64 bc a1 c0 67 3e
       0.31730485 0.23464726 -0.013969613 0.22632076
000030 0f 7a 91 3e fd 7c 2d 3e 66 7b d4 3d 8b e2 07 bd
       0.28413436 0.1694221 0.10375099 -0.033175033
000040 6e 4f 1b be 41 12 3e 3e 67 81 f4 bd 7f 49 88 bc
       -0.15167019 0.18561651 -0.11938744 -0.016636608
000050 80 f1 18 be 01 80 21 3e 99 a4 aa bd e8 4c 63 3d
       -0.14935875 0.15771486 -0.08332176 0.055493265
000060 86 ce 16 bd f9 c4 72 bc ad a1 a9 3d 0d d2 36 3d
       -0.03681805 -0.01481747 0.0828279 0.044633914
000070 56 af b5 bd ee fc 38 3d 97 b8 12 be f6 ae 83 be
       -0.08871333 0.045163088 -0.14328228 -0.25719422
000080 a3 a7 6a be db 93 4f be d2 34 1b 3e 3d 9c d5 3d
       -0.22915511 -0.20271246 0.15156868 0.10430191
000090 0c 70 a2 bd 81 28 59 3d 50 bd e2 3d 7f 6e 71 bd
       -0.079315275 0.053017143 0.11071265 -0.058943268
0000a0 11 32 31 3e c5 d2 b0 3c 44 ce 9c bc 45 50 bf bd
       0.17304255 0.021584878 -0.019141324 -0.09341482
0000b0 ad 05 9e 3d 14 99 eb bd 12 fa 3e be b5 f9 c6 bd
       0.07715926 -0.11503807 -0.18650082 -0.097155966
0000c0 87 aa ab be 59 ac 48 3c c4 cc 34 3d 84 20 49 ba
       -0.3352854 0.012248122 0.044140592 -0.0007672387
0000d0 04 91 6e bd 2b c5 88 be 59 4d 02 3e 61 d7 6e bd
       -0.058243766 -0.26712927 0.12724818 -0.05831087
0000e0 42 7d af bc a5 2f da bd 9e c5 6e 3e 79 7d 37 be
       -0.021422032 -0.10653619 0.23317572 -0.17918958
0000f0 5f c3 43 3e 79 98 29 be 92 c2 e6 bd ff 18 f8 bd
       0.19117497 -0.1656207 -0.1126758 -0.121141426
000100 39 d7 ae 3e 22 d3 00 3e bd 3d cc bd 64 fc 04 bc
       0.34148577 0.12580541 -0.09972713 -0.008116815
000110 b0 a5 52 bd a8 ba 0c be 16 6c 0a bd 93 12 92 bd
       -0.051427543 -0.13743079 -0.033794485 -0.07132449
000120 c5 31 4b 3d 4d be f6 3c f1 6f f4 3b 99 3b d6 bd
       0.04960801 0.03012004 0.0074596335 -0.10460586
000130 59 41 38 3c b0 cf b0 3c 38 97 52 be 24 d1 58 bb
       0.011246049 0.021583408 -0.20565498 -0.0033083642
000140 7e 3c 21 be d8 a1 32 bd f5 71 6f 3c 14 fc 0f 3e
       -0.15745732 -0.043611377 0.014614572 0.14061004
000150 04 ad 75 bb ab 8a 0d 3e b0 87 f7 bd 11 49 52 3e
       -0.0037487159 0.13822429 -0.12086427 0.20535685
000160 5d 79 85 3e 31 ec 0a 3e a4 5b e7 3d 63 f1 06 3d
       0.26069155 0.13566662 0.11296776 0.032945048
000170 40 78 61 3e 4e 4f d5 be ed 88 9f bd 1d c5 99 bd
       0.22018528 -0.41662067 -0.077897884 -0.075082995
000180 2d 4d 21 3e dc 9e f5 3c 83 31 47 be ab 5b a9 be
       0.15752096 0.029982977 -0.19452481 -0.3307775
000190 62 a2 81 3d 86 54 69 be cf cb 8e bc 7c 81 d5 be
       0.063298 -0.2278615 -0.017431168 -0.4170035
0001a0 9a e5 c7 3e 61 56 cb bd a8 b1 b4 bd ac 79 44 bc
       0.3904236 -0.09928585 -0.08822948 -0.011991899
0001b0 55 57 a8 3c b8 54 20 3b 02 b6 94 3d ff 0f ea be
       0.020549456 0.0024464559 0.07261278 -0.4571533
0001c0 d1 a3 52 be bc dd 80 3b 66 91 2a 3e 29 69 14 3e
       -0.20570303 0.003932683 0.16657028 0.1449324
0001d0 2c 87 a0 3d 4b 56 33 3d 4b 24 b3 be 27 58 9e 3d
       0.07838282 0.043783467 -0.34988627 0.077316575
0001e0 22 92 1b 3e 54 e6 4c bd 63 26 53 3e 33 d3 21 3b
       0.15192464 -0.050024346 0.20620112 0.0024692535
0001f0 48 a1 53 be 98 2d d5 3d 5c 72 a7 bd 42 1b 3f 3d
       -0.20666993 0.10409087 -0.08176109 0.046656854
000200 18 26 88 bc 1a 67 6d 3d b3 e2 54 be 93 0d 5c bc
       -0.016619727 0.057959653 -0.20789604 -0.013430971
000210 f0 86 16 bd 93 63 30 3e 24 a3 13 3e 5e 61 63 3c
       -0.03674978 0.17225485 0.14417702 0.013878195
000220 1d ae 45 3e 6b f9 88 3d 48 d5 8f 3e e9 71 f5 bc
       0.193047 0.06688198 0.28092408 -0.029961543
000230 71 aa f4 bd df ee 1c be 66 f5 1f 3d 56 69 8f 3e
       -0.119465716 -0.15325497 0.03905239 0.28010052
000240 40 7c 3e 3e 61 b0 3f 3e fc 6b a0 bd ed 13 19 be
       0.18602085 0.18719627 -0.078330964 -0.14949007
000250 9b 64 0a be 11 8a 90 bd e8 8c 85 bd 6d 04 c9 bd
       -0.1351494 -0.07057584 -0.06521016 -0.09815297
000260 37 c1 87 3e d6 54 c1 3b a1 7d d3 3e 48 d2 b6 3d
       0.265146 0.005900006 0.41306785 0.08926827
000270 94 92 5e 3d c9 cb 1a be 4a 2a b0 be 83 8f 8a be
       0.054339007 -0.151168 -0.34407264 -0.27062616
000280 2c 94 cf 3d 37 4a 22 be ec 44 24 3e 64 9f 19 3e
       0.101356834 -0.15848623 0.16041917 0.15002209
000290 bd 45 95 bd 67 3f 92 3d 22 03 06 3d e6 b2 1a bd
       -0.07288692 0.07140999 0.03271783 -0.037768267
0002a0 4a f7 31 bd fb 6a 85 3d ff ce 46 3e 08 05 af 3c
       -0.043448724 0.065145455 0.194149 0.021364704
0002b0 78 3d 17 3e a9 fc e6 bd ba 86 3c 3e f5 8e 65 bd
       0.14769542 -0.1127866 0.18410769 -0.056044538
0002c0 69 a9 f9 3d 7f 50 39 3c f1 1d f7 3d 2c df 89 bd
       0.121905155 0.011310696 0.12066258 -0.0673202
0002d0 8d 16 39 3e 66 8b 9c 3e d6 79 03 be e1 9c 6d 3e
       0.18075009 0.30575103 -0.12839445 0.23204376
0002e0 dd f7 af 3d ad f6 a5 bd 61 34 4c 3e a9 99 f3 3c
       0.08592198 -0.0810369 0.19941856 0.029736357
0002f0 ca 65 20 3d d9 35 31 3e 23 65 53 3d e7 71 af 3c
       0.039159574 0.17305698 0.051610123 0.021416618
000300 a4 2f f5 3b 37 33 08 3c 83 28 00 be ea 6e 89 3e
       0.007482486 0.008312992 -0.12515454 0.26842433
000310 b3 8b f3 3d 8f 82 b8 3c a1 57 df bd f1 2e fc 3d
       0.1189188 0.022523193 -0.10905386 0.12313641
000320 34 2e 3a bc 38 46 ac ba 94 fe b1 ba a1 9b 92 be
       -0.011363555 -0.0013143485 -0.0013579899 -0.2863436
000330 15 d3 78 3d 90 9a b6 3d 30 c7 86 be 5b 48 b2 3e
       0.06074818 0.08916199 -0.26323843 0.34820828
000340 ed 62 51 bd 33 fc 1e 3e ab bd ab be 10 6a de 3d
       -0.051119734 0.15525894 -0.33543143 0.108600736
000350 29 9e 27 bc 49 c1 73 be 4f 73 8a be c6 00 ea bd
       -0.010230579 -0.23804201 -0.27041098 -0.11425929
000360 6f aa eb bd 65 e7 16 be 8e 43 83 3c 33 9a 7e bb
       -0.11507117 -0.14736708 0.016023424 -0.0038849234
000370 ad 29 ad bd f4 1e 7d 3a 8c e6 c5 3d fb 2f a3 3d
       -0.08455215 0.00096557965 0.09663114 0.07968136
000380 92 4b 79 3d 5b ee 57 bd c7 39 4f 3d 58 e2 b6 3c
       0.060863085 -0.052717548 0.05059221 0.022324726
000390 ca e6 29 3e 8f b9 e2 3c 9d da e6 bc 08 05 fa bd
       0.16591945 0.027676372 -0.028180415 -0.12207991
0003a0 88 da 08 3d b9 b8 a4 bd 32 a7 65 bd d2 d5 35 be
       0.033411533 -0.080430456 -0.056067653 -0.17757347
0003b0 b6 ca 01 3e 3a 68 0c be 73 13 12 be 47 62 5a bd
       0.12674984 -0.13711634 -0.14265232 -0.05331638
0003c0 ba e4 a3 3c d0 02 6d 3d 28 7a 0f 3e 5e ec 28 3a
       0.020006526 0.05786401 0.14011443 0.0006443913
0003d0 9f 88 2e 3d 38 4e 29 3d f9 78 a9 3d 61 99 87 3d
       0.04261076 0.04133436 0.08275027 0.066210516
0003e0 00 ff 90 bc 3b ff 69 3b 22 7c 55 3e 6e 7b f4 3c
       -0.017699718 0.0035705108 0.20848134 0.029844012
0003f0 49 83 71 be 38 01 58 be c2 cc 93 3d eb df 5d be
       -0.23585238 -0.21094215 0.07216789 -0.21667449

nn.mlps.0.layers.2.bias f4 [50]
000000 ca ee 85 bd 37 ac c0 3c ec 78 f3 bc 77 ca 7b 3d
       -0.06539686 0.023519618 -0.029720746 0.061472382
000010 2b d6 2c bd 0f ce 54 bc 03 f4 ef 3c 0e 25 25 bc
       -0.042196434 -0.012988581 0.029291159 -0.010079635
000020 f8 90 84 bc ed a8 de bd ef c2 0b 3d 56 96 1d 3d
       -0.016182408 -0.10872064 0.03412145 0.03847345
000030 63 e7 25 3d 77 e1 0a bd 0b 45 11 3d d1 77 02 bd
       0.04050387 -0.033906426 0.035466235 -0.031852547
000040 e3 7e 99 bc c6 c7 e3 3c 37 42 39 3d ce 35 fa 3d
       -0.018737262 0.02780522 0.045229163 0.12217294
000050 a1 8d 00 bd 73 af c7 bc 7e e2 2a 3d 2d 84 63 3d
       -0.031385068 -0.024375653 0.041719906 0.055545975
000060 56 63 0a bd 4c 53 af 3d 47 de c8 3c 88 36 b1 3b
       -0.03378614 0.085608095 0.024520053 0.005408112
000070 4c c7 2e bd c3 f4 2b bd ea 97 14 3d c3 1b 5b 3d
       -0.042670533 -0.04198147 0.03627769 0.053493273
000080 9a c3 e2 bc ed 8d ad bc 1b da 26 3d cc 97 73 3d
       -0.02768116 -0.02118584 0.040735345 0.059470937
000090 4e 67 14 bd d9 30 a4 3c 21 5a b5 3c a6 df c4 bd
       -0.03623133 0.020042824 0.022137703 -0.0961297
0000a0 17 96 2c 3d 21 5f 99 bd 13 39 28 bd 03 f5 f9 bc
       0.042135324 -0.074888475 -0.041070055 -0.030512339
0000b0 d6 20 1f 3d 3f 5e 0c bc 82 ce f8 3c 9c 86 fa 3c
       0.038849674 -0.008567392 0.030371908 0.030581765
0000c0 84 0e b9 3c 2b 83 1d bd
       0.02258993 -0.03845517

nn.mlps.0.layers.3.weight f4 [50, 50]
000000 f0 da 9e be 06 b2 aa 3d 37 79 07 be ba bc 84 3e
       -0.3102641 0.083347365 -0.13229834 0.25925237
000010 da 0c 27 3e bd 2b f9 bd 83 f6 32 bd c6 e7 3f be
       0.16313496 -0.121665455 -0.043692123 -0.18740758
000020 17 89 7c bd e4 6e 74 bc a6 7b 36 3e 4c 02 e8 bd
       -0.061654177 -0.0149190165 0.17820606 -0.11328563
000030 bb 66 c7 3d 6c dd 8d 3d 37 71 c9 bd 4f f3 78 3d
       0.09736391 0.069269985 -0.09836047 0.060778912
000040 c3 ac 87 3e 63 b8 87 3d 7c 05 ff 3d 27 72 ae 3d
       0.26498994 0.06626966 0.12452218 0.085178666
000050 1e e2 90 3d 4b 1a c4 bc cb 78 5b be 15 34 23 be
       0.070743784 -0.023938319 -0.21432798 -0.15937836
000060 73 46 fb 3d 1f e8 09 3e 14 7e 5b bd c8 9d ae bd
       0.122692965 0.13467453 -0.053587034 -0.08526188
000070 63 44 56 be 51 d5 8b be aa 30 67 3d da 6c 0d 3e
       -0.20924525 -0.27311185 0.056442894 0.13811055
000080 97 97 30 bd 8f f9 21 3c c6 1c 91 bc c3 57 9c bd
       -0.043113317 0.00988616 -0.017713916 -0.07633927
000090 94 a7 8d bd 36 dc c3 bd f1 3e 56 3d f8 62 51 3d
       -0.069167286 -0.09563486 0.05230612 0.051119775
0000a0 65 d7 2d 3e c5 4b d9 3d a1 a3 4c be da ef c0 bd
       0.16976698 0.10610155 -0.19984294 -0.09420748
0000b0 b7 49 47 3d ef e0 d1 bd f7 98 97 3e 37 63 8d bd
       0.048654284 -0.10247981 0.2960889 -0.06903689
0000c0 24 67 bc 3d 66 1f 85 3e 18 49 c3 bd 36 c1 fd 3d
       0.0919936 0.26000518 -0.09535426 0.12390368
0000d0 17 76 31 bd 0d 2b c1 3d e8 1d 10 be d8 7b f1 3d
       -0.04332551 0.094320394 -0.14073908 0.117911994
0000e0 28 bc e0 bc 64 ef ff 3d 26 07 bb 3b 3f 83 6e bd
       -0.02743347 0.12496832 0.0057076393 -0.058230635
0000f0 17 c8 24 be 36 03 05 bd 31 f5 f4 3b 80 39 54 3e
       -0.16091953 -0.032473765 0.007475518 0.2072506
000100 82 fc 59 3e 7e a0 93 3d 9f 5a 5c 3e a7 3d d2 bd
       0.2128773 0.07208346 0.21518944 -0.102656655
000110 71 61 31 3d 81 98 b4 3e e0 c8 a9 bd 37 68 3c 3e
       0.043305818 0.352726 -0.08290267 0.1839913
000120 d2 5c e9 3d c2 87 01 bd 7e 7e 4d be 4b ee 06 3c
       0.11394657 -0.03162361 -0.20067784 0.008235524
000130 e8 66 85 be d4 36 aa 3d 79 fb 8d 3e 99 84 12 3c
       -0.26055074 0.08311239 0.2773092 0.008942747
000140 b9 44 8d 3e 20 a6 bc bd a9 d3 36 be 9e 7a 16 3e
       0.27591494 -0.09211373 -0.1785418 0.14695212
000150 30 85 b7 3e 83 7e 3c bd 21 7d 0a 3e d4 74 4a bd
       0.35843801 -0.04601909 0.13524295 -0.049427822
000160 22 3b 3c be 56 c3 a2 be a2 20 7e 3e b2 cc e0 bd
       -0.18381932 -0.31789654 0.24817136 -0.109765425
000170 88 ad 5d be 1c 44 9d 3d ed e0 88 3d 0a 0f e6 3d
       -0.21648228 0.076790065 0.06683526 0.11233337
000180 88 02 85 bd 15 18 82 3d 9f 6f b5 bd 44 43 02 3d
       -0.064946234 0.063522495 -0.08859181 0.03180243
000190 8f 35 20 be 7e b9 d5 bd da eb f3 3d ba dd bd bd
       -0.15645431 -0.104357705 0.119102195 -0.092708066
0001a0 68 c5 1e be f1 da 83 bd 3f f2 56 3e 61 f7 d6 3d
       -0.15504992 -0.06438244 0.20990847 0.104964025
0001b0 0b d0 af bd c8 05 aa bd 83 cc 1b 3e 56 d6 20 be
       -0.08584603 -0.08301884 0.15214734 -0.15706763
0001c0 87 bf e0 bb c5 ea 3d 3e 61 38 6e bd 26 8d 40 3d
       -0.0068587693 0.18546589 -0.058159236 0.04700961
0001d0 60 7b 53 3e c2 55 6a 3d 2d 88 f1 bc a8 a0 2e be
       0.20652533 0.05721069 -0.029483879 -0.17053473
0001e0 0f dc 81 bd fc be 5c bd e8 ee b8 3d d5 b6 d1 bd
       -0.06340801 -0.053893074 0.09029943 -0.102399506
0001f0 ea 76 b9 3c 45 b6 30 bd c1 a1 b4 bd 22 2d 2a be
       0.02263971 -0.043142576 -0.088199146 -0.1661878
000200 10 e3 4e 3d fa 82 50 bc c4 48 47 3e 2d 0d 57 3e
       0.050509512 -0.01272654 0.19461352 0.2100112
000210 ad f1 44 bd 01 43 32 be 17 13 f4 3a 82 2c fb 3b
       -0.048082042 -0.17408372 0.0018621412 0.007665218
000220 a4 3d 21 be 6a a4 f4 bb e9 3f ba bd 1e fc 4d 3d
       -0.1574617 -0.0074658887 -0.09094221 0.050289266
000230 24 eb 87 be 17 0f f7 3d c0 dd 52 3e d5 55 22 be
       -0.26546586 0.12063425 0.20592403 -0.15853055
000240 e9 52 90 bc 7d c3 2a 3e 76 93 89 3e 60 dc fb 3d
       -0.01761766 0.16676135 0.26870316 0.122978926
000250 be 8f 70 3e b3 e4 23 3e 2f 8e 36 be 24 f4 93 3c
       0.23492333 0.1600521 -0.17827676 0.018060751
000260 bd 36 25 3e 40 a6 8f 3d 9b 3a 6f bd f4 ce 53 be
       0.16134162 0.070141315 -0.0584055 -0.20684415
000270 fb d1 4a 3e 8f 96 55 3c a7 4f 4b be 74 97 41 3e
       0.19806664 0.013036384 -0.19854604 0.18905431
000280 62 92 13 bd 32 1b 49 3e 68 c2 8a 3b 29 5f c7 3c
       -0.036028273 0.1963928 0.004234601 0.024337368
000290 4a ed ac bd 85 43 a2 bd a8 55 0c 3e 02 03 9c bd
       -0.08443697 -0.079230346 0.1370455 -0.07617761
0002a0 d6 33 81 3e 3e cf 3b 3e fc 3e 0c 3e 9d f5 94 3c
       0.2523486 0.18340775 0.13695902 0.018183524
0002b0 b3 cb 4e 3d 4f 59 56 bd cf 56 41 bd 1a f0 a7 3d
       0.05048723 -0.052331265 -0.047201928 0.082000926
0002c0 9f 44 bb 3c b7 93 4c 3d 56 c2 09 3e 17 ac 90 3d
       0.02285987 0.04994556 0.1345304 0.070640735
0002d0 64 49 d9 bc 20 e2 c4 bd 10 10 04 3e 32 87 22 3e
       -0.026524253 -0.096134424 0.12896752 0.15871885
0002e0 6b f6 a0 be 6f d8 4c 3c 90 a6 ae 3d 0f 55 a9 3d
       -0.31438002 0.012502774 0.08527863 0.08268177
0002f0 60 7a 3c be 8b f9 17 be 7b 9a 3e 3e 43 cb 36 3e
       -0.18406057 -0.14841287 0.18613617 0.17850976
000300 40 1c b3 3d 5e d4 60 bd d7 1d 84 be 89 0a 65 3e
       0.08745623 -0.05489003 -0.25804016 0.223673
000310 37 7b 88 ba 08 2e 82 be a0 aa 3c 3e 07 3d 3e 3d
       -0.0010412697 -0.25425744 0.18424463 0.04644492
000320 b2 eb 2f bd 30 3f a5 be 37 b3 c0 bc 60 f2 25 3e
       -0.042949386 -0.3227477 -0.023522956 0.1620574
000330 b4 5d 0f 3e 5f 11 16 be 94 10 16 bd 13 6a 04 3e
       0.14000589 -0.14655064 -0.036636904 0.12931089
000340 e6 a3 2c 3d 68 d5 1a be 6d 37 ca bd 58 13 80 3d
       0.042148493 -0.1512047 -0.09873853 0.062536895
000350 04 e5 9f 3c cc 66 3c be 2e a7 d1 bd d4 50 b2 3c
       0.019518383 -0.18398589 -0.10236965 0.021767057
000360 c2 95 ea bd 6d fa 2a be 63 83 ad be 03 5d b9 3e
       -0.11454345 -0.16697092 -0.33889303 0.36203775
000370 2b 32 d0 bd 9b 39 0d bd 8b 18 1b bd bf e7 1d 3e
       -0.10165819 -0.034478765 -0.037865203 0.15420435
000380 f1 00 21 bd 52 37 3b 3e b2 20 44 be 4d 20 55 bd
       -0.03930754 0.18282822 -0.19153097 -0.052032758
000390 f5 a6 24 3e da 26 54 bd dc 40 0d be 7e bd 81 3e
       0.16079314 -0.051794864 -0.13794273 0.25339884
0003a0 fa c8 c0 3b 81 13 91 3d 68 4c ad bd cb ba e6 3e
       0.0058833333 0.07083798 -0.08461839 0.45064387
0003b0 f0 ee 1c bb 37 19 2f be 4b 7b e0 3d 1f 4e 1b 3c
       -0.0023946129 -0.17099462 0.10961016 0.009479075
0003c0 a3 ee 76 3e 19 bb a0 3e 11 fd bf bb 8c 11 f2 3d
       0.2411447 0.31392744 -0.0058590253 0.11819753
0003d0 00 3c 40 bd 6b 39 1e be cc 02 be 3d 58 20 8b be
       -0.04693222 -0.1545159 0.09277877 -0.27173114
0003e0 67 df 53 be 21 af f9 3c 3f b5 0b 3e 81 37 c1 3d
       -0.2069069 0.030479016 0.13643359 0.09434415
0003f0 2f cf fb 3c 83 7d 52 3d 11 cd 5e be 0a e5 47 3d
       0.030738441 0.05138923 -0.21757914 0.048802413

nn.mlps.0.layers.3.bias f4 [50]
000000 7c 6d 15 3d b6 36 a5 bc 79 7d 0d 3d e4 d7 29 bc
       0.036481366 -0.02016769 0.03454349 -0.010366414
000010 e6 8a b5 3c 62 0f 16 bd e4 ff b9 3b 84 da 3b 3c
       0.022160958 -0.036635764 0.0056762565 0.011465672
000020 cf 13 14 3d 3c 89 04 bd 01 68 f4 bc 3f e8 06 3d
       0.036151703 -0.03235744 -0.02983475 0.03293633
000030 59 33 f5 3d 7d 3c 12 bd 2e 8d 0d 3d 50 b3 e5 bc
       0.119726844 -0.035702217 0.034558468 -0.028039604
000040 df e9 34 bd 97 aa 0d bd 4b 6d 39 bd 65 52 33 bd
       -0.04416835 -0.034586515 -0.045270246 -0.04377975
000050 49 39 1c 3d 4d d6 0e bd 68 d3 22 3d e1 3f 09 3d
       0.03814057 -0.034872342 0.039752394 0.033508185
000060 4d b0 12 bd 89 ee c8 3c bf 7f 04 3d ad cd b0 bc
       -0.035812665 0.024527805 0.03234839 -0.021582449
000070 93 3e 2d 3d 79 c8 14 3d 1c fb 1f bd 9a 06 0f 3d
       0.042296004 0.036323998 -0.039057836 0.034918405
000080 15 95 6d bc 47 5a 23 bd d2 91 10 bd 0e 78 0b 3d
       -0.014500876 -0.039881017 -0.035295315 0.03405004
000090 0c 3c 52 3c 26 54 1a 3d 63 05 34 bd 84 b9 13 3d
       0.012831699 0.037677906 -0.04395045 0.036065593
0000a0 e2 94 21 bd 5e 36 19 3d 64 c6 01 3a 5d 03 f8 3c
       -0.039448626 0.037405364 0.0004950522 0.030275041
0000b0 ab 51 28 3d b7 13 0c 3d 4b 69 c6 bc 4a e3 2a bd
       0.04109351 0.03419849 -0.02422013 -0.041720666
0000c0 3a 94 d9 bc 46 ec 0e 3d
       -0.026559938 0.034893297

nn.mlps.0.layers.4.weight f4 [50, 50]
000000 9a 26 38 3e ca 0d 13 bd 09 09 05 3e 49 79 59 be
       0.17983475 -0.035901822 0.12991728 -0.21237673
000010 a6 08 de 3d af b9 b6 3d 73 d1 5c 3e 31 b7 1f 3e
       0.10841493 0.08922135 0.21564274 0.15597226
000020 5e ac af 3d 84 ba c2 bc a0 69 47 3e f1 ac 02 3e
       0.08577798 -0.023770578 0.19473886 0.12761284
000030 db f6 31 bd 9e 70 cc bb 44 89 19 bc 75 73 1e bd
       -0.04344831 -0.006239011 -0.009371106 -0.038684327
000040 28 43 32 bd 0e 3e d3 bd 83 7d 49 3e 0e 8e b8 3d
       -0.043521076 -0.1031457 0.19676785 0.0901147
000050 82 1f 45 3e 03 d8 04 be 30 ac e6 bd e4 7d 84 3d
       0.192503 -0.12973027 -0.11263311 0.06469324
000060 2f c1 fc bd f6 17 70 be 00 85 28 bc 06 8e 04 bd
       -0.12341534 -0.2344664 -0.010285616 -0.032362007
000070 61 85 39 be 25 ec 37 3d 04 58 76 3d b5 f8 04 be
       -0.18117286 0.04490294 0.060142532 -0.12985499
000080 53 ae 06 bd b4 33 3f be fc 03 f2 bd dc 6a 43 bd
       -0.032881092 -0.18672067 -0.11817166 -0.04770933
000090 3f c7 00 3e 69 d2 a3 3e d0 28 82 3e 57 8e be 3b
       0.12576006 0.31996468 0.25421762 0.005815308
0000a0 79 a1 24 be 61 70 07 3d fc 80 4b 3e a1 1a 48 bd
       -0.16077222 0.033066157 0.19873422 -0.04885352
0000b0 4f 6b b4 3d cf d5 20 3d e9 b1 d4 bd 58 cd 0e 3e
       0.0880953 0.039266404 -0.10385496 0.1394552
0000c0 12 be 87 be 98 43 d7 3d a2 66 d1 3d d1 22 0e 3c
       -0.265122 0.10510939 0.10224654 0.008675293
0000d0 4c 68 64 3e f4 21 cd be ee 40 57 be 47 a3 8b 3c
       0.22305411 -0.40064967 -0.21020862 0.01704563
0000e0 0e 27 31 be 6f a9 7b 3e 70 14 72 3e 0b 3a ff bc
       -0.17300054 0.24576353 0.23640609 -0.031155607
0000f0 81 87 2f bd 51 de c3 bd ad 0d fd bd 80 f5 e0 bd
       -0.042853836 -0.09563888 -0.12356124 -0.109843254
000100 81 57 27 3e 9c 93 99 bd 41 98 33 3e 86 e7 1d be
       0.16341974 -0.074988574 0.17538549 -0.1542035
000110 08 12 8b bd ac c9 ef 3d 28 92 79 bb 76 1d a4 bc
       -0.067905486 0.11708388 -0.00380815 -0.02003358
000120 1f 14 6d 3e b0 1d 4c 3e 08 4a 0a bd be 05 5c 3d
       0.23152207 0.199332 -0.033762008 0.053716414
000130 ef b1 01 3e 34 61 11 bd 68 3d ae bc 96 0e 98 3e
       0.12665533 -0.03549309 -0.021269515 0.29698628
000140 7b 4a 4f 3b 1a b3 51 be 93 96 4f be d6 ad be bd
       0.0031630087 -0.20478478 -0.20272283 -0.093105
000150 0e 17 81 bc f5 cc a5 3d 59 f7 2a 3e 47 82 c5 3c
       -0.015758064 0.08095733 0.16695918 0.024109973
000160 48 18 fe bd c7 73 7a 3e 58 76 d7 bd f5 ea 50 bd
       -0.12406975 0.24458228 -0.10520619 -0.051005322
000170 5c 34 1a bc 91 1c c9 3d 02 fc 2c 3e de bb c3 bd
       -0.0094118975 0.09819902 0.16893008 -0.09557317
000180 ef 69 0c 3e 7b 15 54 bc 1b 23 c9 bd 65 b7 37 3e
       0.13712285 -0.0129445745 -0.09821149 0.17941053
000190 2b dd 64 be 7b 32 da bc 8b 6c e5 3b 5d e9 77 be
       -0.22349994 -0.0266354 0.0070014647 -0.24210115
0001a0 e5 fd 93 3e 3b 03 2d be 8b ae 89 3d e3 e4 c1 3d
       0.28904644 -0.16895764 0.067227446 0.09467485
0001b0 58 c0 36 3e f0 df e9 3d 39 52 05 be f9 af c8 3d
       0.17846811 0.11419666 -0.13019647 0.09799189
0001c0 10 44 7b bc 66 53 80 3e 45 16 23 be 4b a1 a0 3d
       -0.015336052 0.25063628 -0.15926464 0.07843264
0001d0 af b1 71 3e 0b 56 a0 bc ad 0f e2 3d 84 b6 37 3d
       0.23602937 -0.019572278 0.11038146 0.044851795
0001e0 cb 3a 69 bd c4 10 0c ba 47 d9 64 be b6 8b c2 3d
       -0.056940835 -0.00053430744 -0.2234851 0.09499304
0001f0 5a f9 81 bd 50 40 0a 3e c3 47 22 3e 76 8e 25 be
       -0.06346388 0.13501096 0.15847687 -0.16167626
000200 a6 8d d8 bd 9a 6c ac 3c 32 67 81 bd 6b ad 7d 3d
       -0.10573892 0.021047879 -0.06318511 0.061932962
000210 3f a5 8f bd c7 2a 18 3e c7 6a 44 be eb 72 a0 3d
       -0.0701394 0.14860068 -0.19181357 0.07834419
000220 11 73 6b be 5c 7a 60 be 04 4a 01 3e a0 1d a4 bd
       -0.22993113 -0.21921676 0.12625891 -0.08013463
000230 4f 22 25 be ef 07 f4 3b d4 ec 00 3c 38 c6 c2 3d
       -0.16126369 0.007447235 0.007868964 0.095104635
000240 08 ec 92 bd b3 ba 19 be 5f dc 4f 3e d0 4f c2 3e
       -0.07173926 -0.15012626 0.20298909 0.37951517
000250 3d 11 99 3d f7 39 70 bd 59 f7 44 3e 15 58 8d bd
       0.07473991 -0.05864903 0.1923498 -0.06901566
000260 1b 2b 5b bb 6d ec b5 bd 26 60 1c 3e 7b 0c ad 3c
       -0.003344244 -0.08882985 0.15271053 0.021124115
000270 04 12 51 3e a3 ee 0b 3e 26 40 20 3e 7e 16 d8 3d
       0.20417029 0.13665251 0.1564947 0.10551165
000280 bc c9 bc 3d 5c a3 2a be d9 48 cc be 02 dc 3b 3d
       0.09218165 -0.16663879 -0.39899328 0.045864113
000290 d2 9f 81 be 5d 9d 71 bc 88 77 0e 3e 32 37 9e 3d
       -0.25317246 -0.014746991 0.13912785 0.077253714
0002a0 84 59 ad bd 87 1b 0c bd ac b5 de bd 57 7f 1e 3e
       -0.084643394 -0.03420594 -0.10874495 0.15478264
0002b0 b0 98 1b be b7 bd 73 bd 92 60 52 3e 06 63 5f 3b
       -0.15194964 -0.059507098 0.20544651 0.0034086122
0002c0 b9 1b 99 bd 5a 40 86 bd 2a b9 69 be 75 00 1c be
       -0.07475991 -0.06555243 -0.2282454 -0.1523455
0002d0 84 f2 80 bc 4f c1 a7 3d 65 5a 38 be 58 91 54 be
       -0.01574064 0.081911676 -0.18003233 -0.20758569
0002e0 43 b8 b0 3d 33 83 f1 bd 1e 98 76 bd a5 3e f7 bd
       0.08628895 -0.117926024 -0.060203664 -0.12072495
0002f0 e0 b2 08 be e0 e4 c7 bd 0f 30 4c 3b 24 25 97 bd
       -0.13349485 -0.09760451 0.0031156575 -0.07380131
000300 ec 5a 04 be e6 80 72 be 77 30 25 3e 84 34 a5 be
       -0.12925309 -0.23681983 0.16131769 -0.3226663
000310 da 69 d1 3d f1 70 2c 3e 6f e2 55 3e 95 67 18 be
       0.10225268 0.16839959 0.20887159 -0.14883263
000320 c7 9e 9d be 42 fd cb bd 0b cb 85 be fd 4e d4 3d
       -0.307852 -0.099604145 -0.26131472 0.10366628
000330 40 b2 13 bd e9 22 3b 3e 58 02 e0 3b f9 c2 93 3d
       -0.036058664 0.18275036 0.006836217 0.072149225
000340 20 72 9f 3c 53 27 aa 3c e6 82 51 3d a3 84 77 3c
       0.019463599 0.020770704 0.051150225 0.015107307
000350 1b 03 d8 bd 58 11 9a bd 02 07 88 bd 07 80 28 3e
       -0.10547467 -0.07522839 -0.06641962 0.16455089
000360 ec 38 4f 3d 14 61 bb 3d 84 84 b7 be 5d 94 84 bd
       0.050591394 0.091493756 -0.3584329 -0.064736106
000370 06 45 4d 3e 19 6a 97 3b 5d b2 28 be 9b 5c 99 bd
       0.20045862 0.004620802 -0.1647429 -0.07488366
000380 ea 09 8a 3d ff a4 8f bc c5 2a 98 3c 45 5b 05 be
       0.06740172 -0.017534731 0.018575082 -0.13023098
000390 bd 1f c2 bd b1 e8 2b bc ba ef 80 be 36 e1 06 bb
       -0.0947871 -0.01049249 -0.25182897 -0.0020581014
0003a0 b0 f1 7a 3e a0 83 91 3d 8c b7 23 3d 9a 32 e2 3d
       0.24506259 0.071051836 0.039969966 0.11044808
0003b0 5b 49 37 bd 43 0c c3 3b 2b 30 38 3e ea 1a aa bd
       -0.04474769 0.0059523894 0.17987125 -0.08305915
0003c0 87 00 43 3d 46 e6 43 be a6 2f 28 be bc 65 61 be
       0.047607925 -0.19130811 -0.16424426 -0.22011465
0003d0 03 6b d7 3d 33 4d 93 3c 12 70 e3 3d c0 c6 a3 bd
       0.10518458 0.017981147 0.1110536 -0.07996893
0003e0 0e e9 e0 bb 19 fe ce bd 8e 6e 36 3e f2 49 5c be
       -0.00686372 -0.10107059 0.17815611 -0.21512583
0003f0 e1 0f a1 3c 3b 07 a9 bb ab 17 7d 3d 32 7f 63 be
       0.019660892 -0.0051583326 0.06179015 -0.2221649

nn.mlps.0.layers.4.bias f4 [50]
000000 f4 ed 11 3d f2 d1 0a 3d da 75 28 bd 6c c9 0b bd
       0.03562732 0.033891626 -0.041128017 -0.034127638
000010 83 4c 0d bd 85 51 0c 3d d7 f9 28 bd 05 93 e0 3c
       -0.034496795 0.03425743 -0.04125389 0.027413854
000020 ae e2 04 bd 82 4c 13 3d 1b 1f 16 3d cb ad 29 bd
       -0.03244274 0.035961635 0.03665076 -0.041425508
000030 23 73 22 bd 4f d2 5e 3d 7e 94 2a bd 8e 53 07 3d
       -0.039660584 0.054399785 -0.04164552 0.03303867
000040 eb ff 2a 3d fb 91 85 3d 30 c2 28 3d bd 7b 08 3d
       0.04174797 0.06521984 0.041200817 0.03332113
000050 33 dc 1b 3d 29 0c 19 3d 9f df 17 bd 83 b5 17 bd
       0.038051795 0.037365112 -0.037078496 -0.037038337
000060 53 e2 2e 3d 11 8a 38 3d 7c 6a 19 3d 69 31 09 3d
       0.04269631 0.045053545 0.037455067 0.033494387
000070 43 ac 1b bd 59 c6 0a bd d0 40 33 bd f6 d5 16 bd
       -0.03800608 -0.033880565 -0.043762982 -0.036825143
000080 e4 c3 0c bd f2 45 29 bd e8 06 14 3d 75 0f 37 3d
       -0.034366503 -0.04132647 0.0361394 0.044692475
000090 f4 70 ee 3c 01 d0 28 bd ec 71 0d bd 2d 0b 4f bd
       0.029106595 -0.041213993 -0.034532472 -0.050547767
0000a0 02 48 12 3d 7f b4 0a 3d 4e 4a 23 bd 28 f2 8a 3c
       0.035713203 0.03386354 -0.039865784 0.016961172
0000b0 4f a9 29 bd d8 53 16 3d c7 c9 13 bd b2 ce 08 3d
       -0.04142123 0.036701053 -0.0360811 0.033400245
0000c0 8c 36 8d bd 74 1b 24 bd
       -0.068951696 -0.040065244

nn.mlps.0.layers.5.weight f4 [1, 50]
000000 3c 95 84 be 84 48 cb be df 02 95 3e 2f ba e7 3e
       -0.25895107 -0.39703763 0.29103753 0.45259234
000010 89 32 83 3e e5 b3 9d be 97 85 ac 3e 3e 46 94 be
       0.25624493 -0.3080131 0.3369567 -0.2895984
000020 fd ec a6 3e 74 26 99 be 98 12 9c be 5b 54 15 3e
       0.32602683 -0.2991215 -0.30482936 0.1458296
000030 ea ef 44 3e 99 89 52 be b6 2a 8b 3e 65 2d ed be
       0.19232145 -0.20560302 0.27181023 -0.46323696
000040 80 db 25 be ac d2 48 3e 6f 7c 0c be 63 14 94 be
       -0.16197014 0.19611615 -0.13719343 -0.28921804
000050 24 aa 99 be 8e 5d 62 be 50 e4 2a 3e 49 92 5b 3e
       -0.3001262 -0.22106001 0.16688657 0.21442522
000060 1a 56 4a be 9c 88 85 be d5 92 28 be d6 df c9 be
       -0.19759408 -0.26080787 -0.16462262 -0.39428586
000070 01 90 d3 3e 45 43 22 3e 05 fe 3d 3e 05 97 55 3e
       0.41320804 0.15845974 0.18553932 0.2085839
000080 3f 35 b0 3e f8 5d 40 3e 3f 14 e7 be 88 b7 37 be
       0.34415624 0.18785846 -0.45132634 -0.17941105
000090 4b fa 93 be 1c b8 81 3d 37 da 8b 3e 41 1a f2 3d
       -0.28901896 0.06333944 0.27314922 0.11821414
0000a0 2e c1 c4 be ba f9 69 be 5d 0b dd 3e 1d ba c0 3d
       -0.38428634 -0.2284917 0.43172732 0.09410498
0000b0 7c 9d 84 3e d2 92 c1 be 57 8d b7 3e 37 37 55 be
       0.259014 -0.37807328 0.3585002 -0.20821844
0000c0 13 71 03 3e 3f 6a 6c 3e
       0.12836103 0.23087405

nn.mlps.1.layers.0.weight f4 [50, 1]
000000 19 16 ab bd 31 3f 26 3e 54 f2 8c 3e a1 d8 6e 3e
       -0.08353824 0.16235043 0.27528632 0.23324825
000010 56 42 9a 3d a6 8d 6c bd 46 a5 a8 bc 85 20 54 bd
       0.07532184 -0.057752274 -0.020586621 -0.051788826
000020 59 3f c6 3e 44 4d 71 3d bc af c3 3e c0 c1 b9 bc
       0.38720205 0.058911577 0.38220012 -0.022675395
000030 63 4e 8d 3d 07 c6 b1 3e 6f 48 0b be c4 25 09 3e
       0.06899717 0.34721395 -0.1360185 0.13393313
000040 e3 47 85 bc 37 1d 87 bc 72 45 93 3c 7e 4e 55 3d
       -0.01626963 -0.016493423 0.01797745 0.05207681
000050 45 f0 80 bd 7b bc e2 be 0d 18 6b 3e 73 c7 2e be
       -0.06295828 -0.44284424 0.22958393 -0.17068271
000060 1d 49 47 bd b6 fb 15 bd 54 48 9c bd e9 d5 43 3d
       -0.04865371 -0.036617003 -0.07630983 0.047811422
000070 f6 49 ce 3e 6f 90 24 bd c7 46 c6 3e d3 e4 95 be
       0.40290803 -0.040176805 0.38725874 -0.29276142
000080 cc 33 3b bd ce 36 44 be 7e 8d 18 3d eb 3f bc bd
       -0.045703694 -0.19161531 0.037244312 -0.09191879
000090 d2 2a 90 3e 0c 47 a5 3e 56 6e 6c be 8b 60 9b 3e
       0.2815767 0.32280767 -0.23088965 0.30347094
0000a0 37 94 65 3d fa 8e 9d be b4 21 74 be 66 80 55 be
       0.05604955 -0.30773145 -0.23840982 -0.20849761
0000b0 6a b9 2f be d0 6b 3a be be b4 89 3d 31 20 72 be
       -0.17160574 -0.1820519 0.06723927 -0.23645093
0000c0 67 a8 60 3e a2 ab 6f bd
       0.2193924 -0.05851329

nn.mlps.1.layers.0.bias f4 [50]
000000 1c f6 d4 bc d7 6d 20 3c 71 2e 9e 3c b3 79 a8 bc
       -0.02599626 0.009791813 0.019309254 -0.020565843
000010 c9 8d 77 bc 4d 1f e2 bc 33 1a b5 3c a3 e3 c1 bc
       -0.015109488 -0.027602816 0.02210722 -0.023668116
000020 94 f4 98 ba 07 e4 b5 bc 4d fc ac 3c 92 9a d1 bc
       -0.001166957 -0.022203458 0.0211164 -0.0255864
000030 62 df 7e ba 40 1c 9c bc 47 25 b7 bc 50 8b bf 3c
       -0.00097226177 -0.01905644 -0.022356642 0.023381859
000040 48 29 bc 3c b7 6d ba 3c 71 86 bb 3c 17 7f d0 3c
       0.022968903 0.022757394 0.022891255 0.025451226
000050 2b 9c 88 3c 45 1e bb 3c a3 70 bf bc 94 69 84 3c
       0.01667603 0.022841582 -0.023369139 0.016163625
000060 24 13 d9 bc 8a 56 c6 bc bb b7 bc bc cd 9a c7 3c
       -0.026498385 -0.024211187 -0.023036828 0.024365807
000070 92 fd c1 bc ec a0 dd bc 83 91 98 bc 33 1a a8 bc
       -0.023680482 -0.027054273 -0.018624073 -0.020520305
000080 65 0b b6 3c 3d e4 7d 3c 00 c1 c7 3c 35 1a c6 bc
       0.02222223 0.015496311 0.024384022 -0.024182418
000090 3a c7 b6 3c 37 b5 3d bc 4b 60 bf 3c 0d ca 8b bc
       0.022311796 -0.0115788495 0.023361346 -0.017064119
0000a0 6d be f3 3c 9b 1d a3 bc b6 17 b6 3c 8b 2b bf 3c
       0.029753888 -0.019911578 0.022228103 0.023336193
0000b0 8e 9b bd bc 13 6e ab 3c f0 0b c6 3c 9b cb b8 bc
       -0.023145463 0.02092651 0.024175614 -0.022558024
0000c0 b8 8a c4 bc f4 a3 c4 bc
       -0.023991928 -0.02400396

nn.mlps.1.layers.1.weight f4 [50, 50]
000000 c6 fc 95 3e 9a b7 d7 bd d1 52 20 3e 45 23 1c 3e
       0.29294413 -0.10533066 0.15656592 0.1524783
000010 7f 51 89 bc d1 23 81 be 0a ff c6 bd ef 2e 22 3d
       -0.016762493 -0.25222638 -0.097166136 0.03959554
000020 0e 61 f8 3d bb 3b 18 3d 18 4a 8e bd a1 b4 24 be
       0.12127887 0.03716634 -0.06947726 -0.1608453
000030 64 55 ed bd 80 41 17 3e c0 d3 ce 3d ee b0 68 3d
       -0.115885526 0.1477108 0.10098982 0.05680936
000040 2f b1 6b 3d 86 fb 82 bd db 43 74 be 0b ea 6b 3e
       0.057542022 -0.063956305 -0.2385401 0.23038499
000050 8a 9a 7c 3e d7 18 91 be 0b 17 f2 3d 1c b5 56 3d
       0.24668327 -0.28339264 0.11820801 0.052418813
000060 27 e0 96 bd 18 69 f9 3c 6e 06 93 bc 01 6c 2d 3e
       -0.073669724 0.03044562 -0.017947402 0.16935731
000070 d2 2f 8c be fc b7 58 3e c8 ef d0 3d 32 6a 29 be
       -0.27380234 0.21163934 0.10201985 -0.16544417
000080 b0 c5 94 bc 3b f4 e4 bd 8f a8 3f 3e 25 ac 15 3e
       -0.018160671 -0.11179396 0.18716644 0.14616449
000090 86 10 66 3d fd 0c ab bb ce 64 ad 3d 46 5a 9c 3c
       0.0561681 -0.005220054 0.084664926 0.019086014
0000a0 19 c1 05 bd e7 ca 08 be 55 b6 29 3d 50 9c 6f be
       -0.032654855 -0.13358651 0.04143365 -0.23399472
0000b0 bd 31 6d be 1a 17 56 3a 0c 8b 8a 3d 70 b3 81 3d
       -0.23163505 0.00081668945 0.06764802 0.06333053
0000c0 e3 28 b6 3d 97 0b 5f bd 6b af 85 bd ac 3c 7c 3e
       0.08894517 -0.054454412 -0.06527599 0.2463252
0000d0 69 13 6d 3e d5 72 86 3e 8e 65 94 bc 66 79 92 3d
       0.23151936 0.26259485 -0.018114831 0.07152061
0000e0 76 ce 9f 3d 3f ca 77 3e 9e f5 9e 3d cd 39 16 be
       0.07803051 0.24198245 0.077616915 -0.14670487
0000f0 aa 4f 79 3c b4 19 99 bd fc 6d 96 bd f3 c4 0d be
       0.015216747 -0.074756056 -0.073451966 -0.13844661
000100 f6 77 99 bd 8e e7 2a be a5 9e 3b 3a 90 65 08 be
       -0.07493584 -0.16689894 0.0007157124 -0.13319993
000110 d3 18 76 3d 22 12 e7 bc 90 86 ff 3d 0e 13 e2 3e
       0.060082268 -0.028206889 0.12476838 0.44155163
000120 b7 7c 86 3e 59 ca 76 3c 9b ae 87 bc 8e 68 d0 ba
       0.26267025 0.015062892 -0.01656275 -0.00159003
000130 66 ae a8 bd 66 88 59 be 3a dc 77 bc 6b f0 08 3d
       -0.08236389 -0.21243438 -0.01512819 0.033432405
000140 7c e9 ad bc 64 70 ef bc b8 d1 53 be 80 4e 0d be
       -0.021229498 -0.029228397 -0.2068547 -0.13799477
000150 76 78 aa bb 13 83 69 3c ab c3 67 be 99 b9 7c bd
       -0.0052023483 0.014252442 -0.22633235 -0.061700437
000160 ce 16 82 bd 04 ae 3a 3e 89 8a 1c 3d 4a 1a 31 3e
       -0.06352006 0.18230444 0.038218055 0.17295185
000170 ba 57 81 3d 2e 56 15 be c5 09 4a 3c ad 83 2e bc
       0.06315561 -0.14583656 0.012331431 -0.010651511
000180 10 31 17 be 7a c1 09 be c9 aa 86 be 3f f0 bb 3d
       -0.1476481 -0.13452712 -0.26302174 0.09176683
000190 e8 cc 65 be b8 3b 90 be 61 d1 41 3e be e3 e9 3d
       -0.22441447 -0.28170562 0.18927528 0.114203915
0001a0 c0 81 0d 3e 78 91 8f bd 7a 68 93 be 43 45 be 3d
       0.13819027 -0.07010168 -0.28790647 0.092905544
0001b0 c4 71 d7 bc ef a8 8f 3d 4d 24 bc 3b e6 81 aa bd
       -0.026299365 0.070146434 0.005741632 -0.083255574
0001c0 72 fc 89 3d ef 11 5d bd da 3c 8d 3c f8 4d 74 bd
       0.06737603 -0.05397218 0.01724093 -0.05964467
0001d0 08 67 e0 bc 3b 88 e1 bc c1 ae d9 bd ee 02 89 3e
       -0.02739288 -0.02753078 -0.10629035 0.26760048
0001e0 a6 bf 5b 3e 52 5f 07 3e 7b c7 30 be 6d 40 11 be
       0.21459827 0.13219956 -0.17263596 -0.14184733
0001f0 bd 78 a4 bb a8 a2 10 be b7 25 19 3d df 2a 0e 3d
       -0.005019276 -0.14124548 0.037389483 0.034708854
000200 2d 7f 1f be ac c6 34 be c7 bd b1 3d bf 43 0a 3d
       -0.15575857 -0.17653912 0.08678775 0.033756014
000210 4c d4 fe 3c 3f fa ef 3d 2c d5 5d 3e 64 bb a2 3c
       0.03110709 0.117176525 0.2166335 0.019864745
000220 31 f1 7a 3d b4 66 b6 3c 5c 2e 28 3e 50 be 53 be
       0.061265174 0.02226577 0.16423935 -0.20678067
000230 92 79 b8 bd f9 60 51 3d 1e fd 04 be 71 c2 25 3e
       -0.09007563 0.05111787 -0.12987182 0.16187455
000240 6b 56 37 be 20 f4 a8 bd 4a cc 6d 3e e0 66 d7 bd
       -0.1790406 -0.08249688 0.23222461 -0.10517669
000250 b6 f6 1d 3e bb 98 7b be 84 ba 51 be 2a f2 89 bd
       0.15426144 -0.24569981 -0.20481306 -0.06735642
000260 98 00 0d be 57 92 b0 3a 47 36 63 bd 93 f3 70 3e
       -0.13769758 0.0013471347 -0.055471685 0.23530416
000270 48 c9 4a be 3d 70 87 3d 2c c5 bf bd 7b 27 80 3b
       -0.19803345 0.06613205 -0.093637794 0.0039109564
000280 9e b7 95 3d 92 0d b1 bd d5 a6 18 3e e2 69 20 be
       0.07310413 -0.086451665 0.14907391 -0.15665391
000290 bb 71 fd 3c 39 76 1f 3e 2c 6b f3 bc 36 a1 2a be
       0.03093802 0.15572442 -0.02971419 -0.1666306
0002a0 16 76 41 3e e9 e1 91 3d c5 62 f8 bd d4 13 2f bd
       0.18892702 0.07123167 -0.12128214 -0.04274352
0002b0 22 9d 27 3e b7 cb 09 3e bb 1b 26 bc de 4a f1 3d
       0.16368535 0.13456617 -0.010138447 0.11781858
0002c0 a8 04 21 bc 12 65 b1 3d 0c 58 6e bd 28 d4 9c 3d
       -0.00982777 0.08661856 -0.058189437 0.07657653
0002d0 66 dd 2d bd 1e ba e6 bd f4 50 15 3d 9b 9f bd 3e
       -0.04244747 -0.11265968 0.036454156 0.37035832
0002e0 95 dd 09 3e d0 60 5e 3d 2e 91 37 3e 0f 5e 35 3d
       0.13463433 0.054291546 0.17926475 0.044279154
0002f0 df de 94 3d 62 16 b4 bd 0c 35 da 3e 19 ac 05 3e
       0.07269072 -0.08793332 0.42618597 0.13053931
000300 36 a4 95 3d ed 1d ac bd 59 87 8b be 14 88 1a 3e
       0.073067114 -0.084041454 -0.272517 0.15090972
000310 25 66 ac 3e 8e 31 e1 bd e5 6a 98 bd cf 25 9d 3d
       0.3367168 -0.1099578 -0.074422635 0.07673227
000320 36 6a b8 bd ed 85 36 3b 7d 54 a8 3c 2c 95 44 3d
       -0.09004633 0.0027850822 0.0205481 0.047993824
000330 e8 56 81 3c a0 e3 37 be 38 35 46 3d 14 55 a0 3e
       0.01578851 -0.17957926 0.048390597 0.3131491
000340 6d 97 b5 3c c1 7f 84 3d f2 31 b2 3b c8 85 36 bd
       0.022166932 0.064696796 0.005438083 -0.044561177
000350 7b 9a 8c 3d ef e3 13 3e 25 14 1c 3d a7 b7 e0 bc
       0.06865402 0.14442419 0.03810515 -0.027431322
000360 7e 94 f3 bd 2e 2d ce bd fb cb 48 be 80 84 68 bd
       -0.11893557 -0.10067211 -0.19609062 -0.056766987
000370 f0 fc c7 bd 74 6b 88 be b0 ed 0a be be 4c 22 3d
       -0.09765041 -0.2664448 -0.13567233 0.03962397
000380 3b 85 be 3d fd 1e fd bd 7b fc 05 3e e1 45 9a 3e
       0.093027554 -0.12359426 0.13084595 0.30131438
000390 87 1e 83 3d d2 12 9d 3d 43 b4 56 3e cd 97 02 be
       0.06402307 0.07669605 0.20967202 -0.1275322
0003a0 ce 1e a8 bd e3 ef b8 ba 99 e1 9f bd 55 be b6 bd
       -0.082090005 -0.0014109578 -0.07806701 -0.08923022
0003b0 e9 32 32 be e9 26 c1 3d 38 47 70 3d 28 43 a6 3d
       -0.17402233 0.0943125 0.05866167 0.08118278
0003c0 db 15 e8 3c 23 9d c9 3d 96 b7 15 3d ab 70 0b be
       0.028330734 0.098444246 0.036552034 -0.13617198
0003d0 f9 10 37 be 54 f6 c4 3d b5 9f 3d 3e d3 a7 79 3d
       -0.17877568 0.09617296 0.18517955 0.060951065
0003e0 42 6c ef 3c e4 d6 d4 bd 01 aa 0d be ca e4 76 be
       0.029226426 -0.1039255 -0.13834383 -0.24110714
0003f0 4c 3a b4 bd 46 80 9b 3c fe 59 7f be 89 f3 25 3e
       -0.08800182 0.018982064 -0.24936673 0.16206183
