output/ODE_UQPINN/weight.pth (torch, 113797 bytes, 29 tensors)

P.layers.0.weight f4 [50, 2]
00000000: be1e 0dbe 213a 4a3e 85c0 b33e b040 803d
00000010: 5636 3ebe d5cc 543c 9fc3 7fbd bd2f b43d
00000020: ca42 8c3c f53d 583e a572 5a3e 7ee0 d63d
00000030: 9bc9 ae3e 2173 5abd b463 e7bd 9a34 843e
00000040: 2a88 cebe 62ad 04bd e638 64be c807 833c
00000050: 45a4 da3d cbd3 d43d a550 43be b0a9 cebc
00000060: 9d68 0dbe 3d09 273e 5cde 53be 464d dabb
00000070: 21ea 893e c7a0 063c 76b0 023a 6558 dd3d
00000080: 1b36 d33d 2209 af3d ffd0 50be 7c87 94bd
00000090: fa57 d5bd 93c1 8f3e d09e 46be cb52 483d
000000a0: 3633 c43e f76f b3bc adc6 703d 533f 9cbb
000000b0: 4cdc 0d3e 381e ba3c 4b42 1abe 5170 8dbc
000000c0: 958c c5be 1291 ee3d 833f f5be fec3 a6bc
000000d0: bbf4 16bd cf12 d8bd 6e7a a4be b084 5f3d
000000e0: cf7f 5cbc aee2 95bd 9542 0c3e ab6a dcbc
000000f0: 048d 5abd 115e 96bd c5c2 87be 9e80 37ba
00000100: 1998 a73e d276 763c 173b 0d3e 98fe 24bc
00000110: 5877 a63d aa7f e13c ef47 9e3e df5d b6bd
00000120: e6a7 bbbd 3770 d63c 2750 cbbd 4d73 55be
00000130: 07e8 873e fd65 093d e004 a9bd 2047 723e
00000140: 2b42 a2bd 581b 453c 3410 183d 1dbf 6ebe
00000150: c7ff 673c 2c31 9abd 7ef2 413e 43ce 993c
00000160: 147c 1bbe 5b49 753e 86f6 12be 89be b03b
00000170: 0656 01be 0e2a cebd 0419 2cbe 749e c83d
00000180: c35b b5be 768a f1bc 3ccb 523c 43fc 8e3d
-0.13781258 0.19748737 0.35107818 0.06262338 -0.18575415 0.012988289 -0.06244242 0.08798168
0.017121691 0.21117385 0.21332796 0.10492037 0.34138188 -0.05333245 -0.11298314 0.25821382
-0.4033826 -0.032391913 -0.2228733 0.015994921 0.10675863 0.10391959 -0.19073732 -0.025227398
-0.13809438 0.16312118 -0.20690292 -0.0066620437 0.2693644 0.008217043 0.0004985401 0.108078755
0.10313054 0.08546664 -0.20392226 -0.07252404 -0.10417171 0.28077373 -0.1939652 0.048907083
0.3832032 -0.021903975 0.058783222 -0.004768291 0.13853568 0.022719488 -0.15064351 -0.01726547
-0.38583818 0.11648764 -0.47900018 -0.020357128 -0.036854487 -0.105504625 -0.32124656 0.0545699
-0.013458206 -0.07318626 0.13697274 -0.026906332 -0.05335714 -0.073421605 -0.26515785 -0.00070000615
0.3273323 0.015042977 0.13792072 -0.0100704655 0.08128232 0.027526695 0.30914256 -0.08904623
-0.091628835 0.026176555 -0.09927397 -0.20844765 0.2654421 0.03354453 -0.08252883 0.23659945
-0.07922777 0.012030445 0.037124828 -0.23315091 0.014160103 -0.0752891 0.1894016 0.018775111
-0.15184051 0.23953764 -0.14351854 0.0053938073 -0.12630472 -0.10066615 -0.16806418 0.097958475
-0.3542157 -0.029484969 0.012865838 0.06981709

P.layers.0.bias f4 [50]
00000000: 721a d4bb 1556 b53d ffa8 c73c 8de4 a53c
00000010: dc5d 243b 8442 cb3b 7e3d 583d 93b2 493d
00000020: 4066 16bd 0da8 163d fe45 423d eb01 873c
00000030: 05cf 80bc 334b 083d 5cfb a2bb ee5c c4bd
00000040: fc7a aa3c c25b 883c b016 163c a2ba 333c
00000050: 790e 87bc e050 6f3d b9c1 36bc 625d 333c
00000060: 7dff 543d e314 043d 5e70 1abe bb96 633d
00000070: c10d d4bd 994b 0d3d f2c1 fdbc bcf7 94bc
00000080: f3fc fdbb 1611 153c a835 32bd f1bd 2bbd
00000090: 0fc9 17bb 86d5 863e d72d 393d 7254 8ebb
000000a0: 19c7 71ba 53a0 e6bd 844a 2c3d d6db 1cbd
000000b0: 7f4c ddbc 5fa7 b33b 8880 583d a2ce 0bbd
000000c0: 68b2 02be 2866 6b3c
-0.006472879 0.088543095 0.024372576 0.020250583 0.0025080359 0.0062029976 0.05279302 0.049242567
-0.036718607 0.03678136 0.04743003 0.016480407 -0.015723715 0.03327484 -0.004973812 -0.095880374
0.020810597 0.016645316 0.009160683 0.01096979 -0.016486393 0.058426738 -0.0111545855 0.010947557
0.052001465 0.03224648 -0.15081927 0.05556367 -0.10354186 0.034495924 -0.03097627 -0.018184535
-0.007751101 0.009098312 -0.0435082 -0.04192919 -0.0023160612 0.2633478 0.045209732 -0.0043435628
-0.0009223088 -0.11261048 0.04206325 -0.03829559 -0.027014015 0.0054825987 0.052856952 -0.034132607
-0.12763369 0.014367618

P.layers.1.weight f4 [50, 50]
00000000: ada5 60be 0483 12be 8096 ee3c 357e c83c
00000010: eaa4 07bd 4d79 1dbe dbe8 363d e722 66be
00000020: 0497 1c3e c609 dc3b 4948 813c 8abe 13bb
00000030: 65b1 293e 6f84 abbd ab55 1dbe c6f6 633b
00000040: c6ca 593e aa6a 673e e6fa be3c 4f72 783e
00000050: 4bd8 823d 7dce 3b3d d6ac 283e d91d 203c
00000060: a4c8 0dbe f848 52bc 9761 ae3d 4148 663d
00000070: 7325 383e d6f9 1dbe 6546 cc3d aeef b63d
00000080: 77ef dabc c54e 1d3d ecec 5a3e 332f 093e
00000090: 4db2 5d3e 0b6b 35bc 3f19 48be 6e2f 513d
000000a0: e64e 983d 421e c4bd da6d 4ebe 23ce 35bd
000000b0: f0ce 153d e4b0 813b 0a15 2ebd 2ae4 873e
000000c0: 946e 2ebd d1cb 72be 6419 a4bc 29fb 50be
000000d0: e87e e93d 43d1 513e 2e51 88be 9ae1 c3bd
000000e0: dac1 12be 2481 333e ccb0 a33b b0f6 4a3e
000000f0: 51a5 213d d727 593e fe8f 82bc 9c6b 553e
00000100: 756c 0cbc b7b7 fa3c 054e 973c 3c3f d53d
00000110: 3ad5 e8bc 665f 6e3e 149d 82ba d5a8 f8bc
00000120: 5d72 c03d 461c 4c3d a0c1 133e 1905 6f3e
00000130: a3bb dbbc 85b3 09ba e7ac c83c 0e8a 65be
00000140: 4a2e c83c d057 003e ee8c 22be e777 c9bd
00000150: c352 f3bd 2a7d f23c 70e1 c43c 52b6 9d3e
00000160: 9081 6ebe ac6e c43c 7510 eb3d 826c 11be
00000170: d4b3 f8bd 1a13 d4be bf62 853e b4c0 403e
00000180: 5f6f 583e 6761 47bc b0ec 98bd 9175 bd3c
00000190: 9df7 943d 693b 80be 2d92 d73c 55a0 243e
000001a0: bc63 81bc 43f9 ef3d 5d61 aabd d8c9 c9bc
000001b0: dc34 36bd 7ea1 95be 4063 0cbe e336 71bd
000001c0: 5da2 45be 961f 62be 1f99 293e d700 3f3e
000001d0: ef6c 23be a65f 08be 419e 693c a397 bcbc
000001e0: 0078 063e 79b1 5cbe ba50 2ebe 8c3f b1bd
000001f0: eb06 78bc 12b3 923d 6134 0b3e 851d 343e
00000200: 9c3f e9bd 5d67 19bc de99 873e 3efd 143e
00000210: c5e3 93bd 2efe 9ebe 2b84 093e 9687 0d3d
00000220: 20eb e0bd 61e2 e1bd 7fab 23bc 98f2 8ebd
00000230: 688b 773e a38b 9f3c ac56 7bbc 64d4 613e
00000240: f124 533d a51a 0e3c 69b7 b93d a516 fd3d
00000250: 8ad4 063d d6d7 723d 7894 933e 47e0 463e
00000260: 25ea 343e ccd2 32bd fd2b 563d e159 87be
00000270: 8ea2 583e b786 11be ff90 d83d d3be a6bd
00000280: 42e8 28be 7ce0 653d eaac f33d 7997 243e
00000290: e669 a1bc 4d45 5b3e c28c febd 9df6 a23c
000002a0: e4a6 333e a847 9cbc 13e2 7e3c f6f7 5abe
000002b0: 8340 0bbe 0d20 c13d 05ae d9bd d4cd eb3d
000002c0: 637e 363d 6e58 6fbd 5811 983e 361e 65bd
000002d0: ad1f 363d 4cd8 193e 9850 d4bc 80d4 4abc
000002e0: 1878 a7bc 7eea 33be e9ec 9f3d 172f 77be
000002f0: 1e03 50bd d478 26bd 91cb d7bd eaa4 c93d
00000300: b770 ce3d c7cd 4c3d d89a 08bd cd61 9fbd
00000310: da05 093e 2ff6 cdbb 1d56 7abe 711d 4bbe
00000320: b962 b9bd 046c 1a3e a867 60bd 7d52 f2bd
00000330: 77e5 083d a980 57be 6dcb 2c3d e88f c2bd
00000340: 8ce7 a23d 575c 9ebd 8bd9 b93d a9e3 ec3d
00000350: 666e 3dbd aad6 f53c cca0 b03b 5496 2ebe
00000360: dfde b33d 9d14 30bd 7520 173e f31b f83d
00000370: c95f 7abe 113e d6bd 6b51 99bd 39f9 3ebd
00000380: e0ba 133d 4ca0 86bd 5099 633d 5fc2 643e
00000390: bf04 73be 7df2 eb3c cac3 05be ff6e e7bd
000003a0: 53cd 033e 9a6c 8c3b e475 78be 9110 383b
000003b0: 3fcf d9bd 9683 cc3d ab25 14bc aa67 1a3c
000003c0: 1d53 2b3e 9c26 50be c12c 843d 4407 1ebe
000003d0: 6b52 12bd 052a 903d a768 b23e 4de6 063e
000003e0: b2c7 7f3d 56ac 05bd 53f4 e0bd d78f ba3d
000003f0: 94c4 92bd 641d 32be 2bc7 7ebd b16e 443d
-0.219382 -0.14307791 0.029124498 0.024474243 -0.03311626 -0.15378304 0.044655662 -0.22474252
0.15291983 0.0067150323 0.015781539 -0.002254399 0.16571577 -0.08374869 -0.15364711 0.003478454
0.21268758 0.22599283 0.023312997 0.24262355 0.06388911 0.04585122 0.16472182 0.009772741
-0.1384607 -0.01283478 0.085147075 0.05622125 0.17983036 -0.15427336 0.09974364 0.08932434
-0.026725514 0.0384052 0.21379441 0.13396911 0.21650048 -0.011072884 -0.1954088 0.051070623
0.07436924 -0.09576084 -0.20159093 -0.04438604 0.036574304 0.0039578546 -0.042500533 0.26541263
-0.042585924 -0.23710562 -0.020031638 -0.2040831 0.114011586 0.20489983 -0.26624435 -0.095645145
-0.14331761 0.17529732 0.004995441 0.19820666 0.0394643 0.21206604 -0.015937801 0.20841831
-0.00857078 0.03060518 0.01846982 0.104124516 -0.028421987 0.23278579 -0.0009965026 -0.030353943
0.09396813 0.04983165 0.14429331 0.23341788 -0.02682287 -0.0005252886 0.024496509 -0.22415945
0.024436135 0.12533498 -0.15874073 -0.09837323 -0.1188102 0.029600699 0.024033278 0.30803162
-0.23291612 0.023978554 0.11477748 -0.14201549 -0.121436745 -0.41420823 0.260519 0.1882351
0.21136235 -0.012169219 -0.074670196 0.02312735 0.07273791 -0.25045326 0.02631482 0.16076787
-0.015794627 0.11717465 -0.08319352 -0.02463238 -0.044484004 -0.2922477 -0.13709736 -0.058890235
-0.19300218 -0.22082362 0.16562317 0.18652664 -0.15959524 -0.13317737 0.014258922 -0.023021525
0.13131714 -0.21552075 -0.17022982 -0.08654699 -0.015138368 0.07163061 0.135942 0.17589386
-0.11389086 -0.009363023 0.2648458 0.14549729 -0.07221178 -0.310533 0.13429324 0.034553133
-0.109823465 -0.110295065 -0.009989618 -0.06979865 0.24174273 0.019475764 -0.015340488 0.22053677
0.051548902 0.008673345 0.09068186 0.12357835 0.032917537 0.05928787 0.2882421 0.19421493
0.17667444 -0.043658063 0.052288044 -0.2643576 0.2115576 -0.14211546 0.10574531 -0.081418656
-0.1649485 0.056122288 0.11898215 0.16073407 -0.019703817 0.21413155 -0.12429191 0.019892985
0.17544132 -0.019077137 0.01555683 -0.21383652 -0.13598828 0.09429941 -0.10628895 0.11513868
0.044554126 -0.058433942 0.29700732 -0.055937015 0.044463802 0.15023917 -0.025917336 -0.0123797655
-0.020443007 -0.1756992 0.07808859 -0.24139057 -0.050784223 -0.040642574 -0.10536874 0.09845908
0.100800924 0.050000932 -0.033350796 -0.07782326 0.13381138 -0.006285451 -0.24446912 -0.1983545
-0.09052033 0.15080267 -0.054786354 -0.1183214 0.03342196 -0.21045174 0.04218619 -0.09500104
0.0795432 -0.07732456 0.09074696 0.1156686 -0.046247862 0.030009586 0.005390262 -0.17049533
0.08782744 -0.04298841 0.14758475 0.12114706 -0.24450602 -0.10461057 -0.07486232 -0.046624396
0.03606689 -0.06573543 0.055566132 0.22339772 -0.23732279 0.02880215 -0.13062969 -0.11300468
0.12871294 0.0042854073 -0.24263722 0.0028086046 -0.10635232 0.099860355 -0.009042184 0.0094241295
0.16730924 -0.20327228 0.06453849 -0.15432459 -0.03572313 0.070392646 0.34845468 0.1317379
0.062446304 -0.032635055 -0.10984101 0.091094665 -0.071664006 -0.17394024 -0.06220166 0.047957126

P.layers.1.bias f4 [50]
00000000: 5480 eebc f66c 003e 4646 81bd 61b4 34be
00000010: 8685 c63d b8d9 9bbc 7d62 e7bc 3426 ae3c
00000020: a454 073d 12d8 93bc ba4a 5b3b 4737 5abd
00000030: 74f6 ca3d 7433 59bc dec5 aa3b 0b18 bdbd
00000040: e08b 2f3c 0ded 363d a20a d53b 9912 c639
00000050: f453 9c3c 0de0 473c 20f3 f1bc 32b5 27bd
00000060: c50d a3bd 6d9e 203c b833 803c e92a 9cbd
00000070: 6c38 d13c 038b 14be 3f2a c7bc 75d1 c3bb
00000080: fff9 a8bb 71a4 08bc dacb 423c 0d42 babc
00000090: 88c2 53bd 740e 193e b8be 64bb b7bd d6ba
000000a0: 5acd 023e ac17 cc3c b2eb 49bd 845e ab3c
000000b0: a9bd 13bd 4f5e 62bd 7b52 cdbc c825 d1bc
000000c0: c04b 193b fbb5 b8bc
-0.029113926 0.12541565 -0.06312232 -0.17646934 0.09693436 -0.019024715 -0.028245205 0.021258451
0.033039704 -0.018047366 0.0033461289 -0.053275373 0.099102885 -0.013256896 0.005211576 -0.092331015
0.010714501 0.044659663 0.0065015117 0.0003777936 0.019083 0.012199414 -0.029534876 -0.040944286
-0.07961611 0.009803397 0.015649661 -0.07625372 0.0255396 -0.14506154 -0.024312137 -0.005975897
-0.005156755 -0.008339987 0.011889422 -0.022736574 -0.05169919 0.1494692 -0.0034903716 -0.0016383444
0.12773648 0.024913631 -0.049297042 0.020919092 -0.036069546 -0.05526572 -0.025063744 -0.02553071
0.0023391098 -0.022547713

P.layers.2.weight f4 [50, 50]
00000000: 010c 9abc e6f2 483d 66bd 373c 91dd 1c3e
00000010: 8bcf 0cbe 4629 61be aee5 19be 37ee edbc
00000020: 968b 2c3e 0e93 863d 7b7c 33be 7c26 903c
00000030: 4515 0ebc 88d5 1fbe 07dc a8be 798e d6bd
00000040: 283e 413d 69bf 39be d9e4 6dbd 59d0 05bd
00000050: 60d6 d2bd cfcd 00bd 92b7 a6bc 4b31 70bd
00000060: fa39 bf3e 4426 f9be 31cc a8be e5d5 69be
00000070: 5621 093d 9d4e b63d 2e8f d8bd f60f 0e3d
00000080: 182d 5fbc cca3 ec3c fb33 033e ad95 18bc
00000090: a8a8 923d ec6d 863d 03f4 d03d 59b2 97ba
000000a0: 657c 573d 4680 58bd b06b 08be 1635 52bd
000000b0: 95de b8bd 4217 203e 4b82 74bc e4ed 813e
000000c0: 2b0b 983d 182c 30be 35f6 173e 9932 54bc
000000d0: 01a6 203d a337 f03c b82d bebe d4cb 873e
000000e0: 8a0b 05be 5ec0 a9bc 555c 93be c46b 25be
000000f0: 1d9f 543e f647 ee3b 1daa 613d 295c 3a3e
00000100: a6cd a33d 6266 623d 341c 8a3b 5d76 bebd
00000110: b54c a43d a29e b4bd ca19 013e e9d9 9a3d
00000120: aa53 9cbd b541 5bbd 70ba 553e 2a1f ea3d
00000130: 62ee ff3d 8ae0 823d 1f59 0d3e b86c a03d
00000140: 5638 9b3c 641f 10be 79d7 0abe 4a51 513d
00000150: fcfc 1ebe 656c 1b3e 41f3 503e 8b91 9abc
00000160: 0d70 933d 3640 953d 6d58 b13c 3658 a93e
00000170: ceef 933e 0acd d3bd 731b 0ebe c5b4 d1bd
00000180: 1270 ec3d fdae 12be 5974 1dbd 7d09 a2bd
00000190: 4db3 a4bd 1838 563d 38f0 bcbd 5128 363e
000001a0: 8836 9a3d 40db 853d adf0 4e3d aae6 c63d
000001b0: 62df 38bc 7930 d63d 6f75 f63c b90a c43d
000001c0: c7ff 1cbe a11d 56bd f921 973e d799 a1bc
000001d0: ce23 863e 9ea5 54be 843b 7d3d c0eb 6abd
000001e0: bfbe 7c3e 645b 143e a71b f63a 7f6f 293e
000001f0: fee2 0abd e709 4d3d 4d38 123e df19 703d
00000200: 999e 453e 5bba 5dbe df75 efbd cd2e 0f3d
00000210: f1b7 d33d 565a 0d3d a05d 603e 92c4 a4bd
00000220: 59df d13c 9321 533d 175b 433d d585 143d
00000230: a10a 53bb 4ab3 e93c a643 3a3d 2de3 92bd
00000240: 448e a0bd 41f9 e93d 7a5c a4be a920 423d
00000250: 0ecf 5abe 3242 f6bc 878f 173e 4292 8b3e
00000260: 67ad 9d3d f34b e6bd bd8e 173d db87 733e
00000270: 99f2 03be b129 3fbe c87b c43d 0c42 e5bc
00000280: 2a4e 91be fbe4 7e3e 04b7 f23d 67af 1cbe
00000290: 2722 e83d 62cd e7bd a1fc 75bd 0732 79be
000002a0: 45f7 1bbd 2aad 9fbd 4d95 37bd fe26 58bd
000002b0: a20e d13c 7806 7c3e c5b5 97bd 2bd7 323e
000002c0: f534 983e 433b 263e f59d 173d 9329 87bb
000002d0: f626 84be eb00 c23c 5f25 f5bb 8dd6 953d
000002e0: 4f1c 163d 6422 163d 868b bb3c a981 8c3e
000002f0: 4972 e8bd 4b7e dfbd 3a78 623e 9e9a 2c3d
00000300: 8366 903e 5c38 a33d cd8b b83a 09b6 efbc
00000310: 04d0 8cbe 3747 1c3c 97aa 9a3b 95da c8ba
00000320: e878 14be 0c3c dd3d 49e7 dcbc df9c 8dbc
00000330: 6640 2b3d 2c62 643e e2c5 09be 210e 9ebd
00000340: 64b4 443d b00c 423d 26ce ba3e 8b6e 2c3e
00000350: b654 7f3c 20ef 093e fc35 9a3b fa61 b33e
00000360: fe51 a03b ef4a e2bc 4db3 16be 86e7 24be
00000370: 53c7 543d cb28 b43d 1887 1cbe 875c d43d
00000380: c671 34be 16f1 9d3d 03ed 763e f3ad 173e
00000390: a905 243d 33bd bdbd 708e 8d3d a165 d03d
000003a0: 9cf2 fa3d 2d86 99bd d808 6bbd 48da 14be
000003b0: 0d03 e3bd 97d5 9a3d de23 efbd e58b 343d
000003c0: 87a6 493c 316b 55be bda9 53be 1b16 e23d
000003d0: 7c5c 12bd 3f12 05be 089e 033e 5f9f dabd
000003e0: 981c b2bd 054c 5dbe 7f90 373d b36f 7abe
000003f0: 7a4f 2a3d b2db 193b 08cf f8bb 3474 a5be
-0.018804552 0.04905977 0.01121459 0.15318896 -0.13751046 -0.21988401 -0.15029022 -0.029044254
0.16850123 0.06571017 -0.17527954 0.017596476 -0.008672063 -0.156088 -0.32980368 -0.10476393
0.047178417 -0.18139423 -0.058079574 -0.0326694 -0.10294795 -0.031446274 -0.020351205 -0.05864076
0.3734892 -0.48662007 -0.32968286 -0.228355 0.033479057 0.08901713 -0.10574184 0.03468319
-0.013621591 0.028886698 0.12812798 -0.009313029 0.07161075 0.06563935 0.102027915 -0.0011573537
0.052608866 -0.052856706 -0.1332233 -0.051320158 -0.09026829 0.15633872 -0.014923642 0.2537681
0.07424005 -0.1720432 0.14840014 -0.012951517 0.039220814 0.029323405 -0.37144256 0.26522696
-0.12992683 -0.02072161 -0.2878138 -0.1615439 0.20763822 0.007271762 0.055093873 0.18199219
0.07998209 0.05527342 0.004214788 -0.0929992 0.08022443 -0.08819319 0.12607494 0.07561094
-0.07633145 -0.05352946 0.20871902 0.11431725 0.1249664 0.06390484 0.13803528 0.078332365
0.018947762 -0.14074475 -0.13558759 0.051102914 -0.15526193 0.15178068 0.20405294 -0.018868228
0.07199106 0.07287638 0.02164861 0.33075112 0.28893894 -0.103418425 -0.13877659 -0.10239557
0.11544813 -0.14324565 -0.038441036 -0.07911966 -0.080420114 0.05229959 -0.092255056 0.17788817
0.07529932 0.06535959 0.050522495 0.097119644 -0.011283727 0.10458464 0.030085294 0.09572358
-0.15331946 -0.05227435 0.29518107 -0.019726677 0.26199192 -0.20766303 0.061824337 -0.057353735
0.24682139 0.14487988 0.0018776552 0.16546439 -0.033907883 0.05005827 0.1427929 0.058618423
0.19298781 -0.2165312 -0.11692404 0.034956742 0.103378184 0.03450998 0.21910715 -0.08045305
0.025619196 0.05154569 0.047694292 0.036260445 -0.003220238 0.028527874 0.04547467 -0.071722366
-0.07839635 0.114244945 -0.32101804 0.04739443 -0.21368048 -0.030060861 0.14800845 0.27260023
0.076990895 -0.11244955 0.03700136 0.23782293 -0.12885512 -0.18668248 0.09593922 -0.027985595
-0.28379947 0.24892037 0.11851314 -0.15301286 0.11334639 -0.113184705 -0.06005538 -0.2433549
-0.03807761 -0.077967 -0.04482012 -0.05277156 0.025519673 0.24611843 -0.07407717 0.17464893
0.29727903 0.16233544 0.037015874 -0.004124829 -0.25810975 0.023682078 -0.0074812616 0.07316313
0.03664809 0.03665389 0.022893678 0.27442673 -0.11349923 -0.1091276 0.22116175 0.042139642
0.2820321 0.07969734 0.001407975 -0.029261606 -0.27502453 0.009538463 0.004720043 -0.0015323932
-0.14499247 0.10802469 -0.026965754 -0.017286716 0.041809462 0.22303075 -0.13454393 -0.077175386
0.048023596 0.04737538 0.36485404 0.16839044 0.0155841615 0.13470125 0.0047061425 0.35035688
0.0048925867 -0.027623622 -0.14716835 -0.16103944 0.051947903 0.08796843 -0.15285909 0.10369211
-0.17621526 0.07711999 0.2411385 0.1481245 0.04004446 -0.092646025 0.069119334 0.10175634
0.12253305 -0.07496295 -0.05738148 -0.14536393 -0.11084566 0.0756027 -0.11676763 0.044078726
0.01230777 -0.20841672 -0.20670219 0.110393725 -0.03573273 -0.12995242 0.12853253 -0.10674929
-0.0869686 -0.2161103 0.044815537 -0.24456672 0.0415797 0.0023476896 -0.0075930394 -0.32315218

P.layers.2.bias f4 [50]
00000000: f916 b3bc 5799 61bb b781 e23c de4e 33bc
00000010: 6d37 9e3c f7ba 43bc b322 e03b 1a70 1c3d
00000020: 010a 10bd 742a 75bd cf3a 80bc 6028 4ebd
00000030: 1609 47bb 178a 1abb 09ab 493e 6be5 8abd
00000040: b013 0fbc 3303 1b3d c7c6 fbbd f296 2f3d
00000050: df27 583c 6a50 023d a364 9fbb dde2 70bc
00000060: 6c3e bb3c 437f a03c 3a67 be3c cb8b 45bc
00000070: 703a 23bb 682a 32bc 11bf 843c a0e2 afbb
00000080: ff0f 0a3c 9325 33bc 9121 adbd 3fd4 25bc
00000090: 66d3 70bb 0402 803d e356 febc 3dbb 7e3b
000000a0: b328 e03b 3ecb 1dbd bff2 d2bc cc0a 863c
000000b0: 2db5 30bd f256 62bc 232c 18bd 972c 82be
000000c0: 74bb ae3d 855e 573c
-0.02186154 -0.0034423673 0.027649743 -0.010944096 0.019313538 -0.011946431 0.006840074 0.038192846
-0.03516579 -0.05985494 -0.015653042 -0.050331473 -0.0030370406 -0.0023580843 0.19694151 -0.06782039
-0.008732721 0.037844848 -0.12293773 0.042868562 0.0131931 0.03181497 -0.0048642918 -0.014702526
0.022856914 0.019591933 0.023242582 -0.012057255 -0.0024906658 -0.010874368 0.016204389 -0.005367592
0.008426665 -0.010934251 -0.08453668 -0.010121404 -0.0036747097 0.062503844 -0.03104729 0.0038868927
0.006840789 -0.038523905 -0.025750516 0.01636257 -0.043141533 -0.013814675 -0.037151467 -0.25424644
0.085318476 0.013145094

P.layers.3.weight f4 [50, 50]
00000000: f8ba 87bd 2e97 da3c c351 293e 2428 b23b
00000010: 66d7 f2bd 105c 4bbd 3ad8 cebb 91b4 d7bd
00000020: 3de7 60bd da8f a1bd 4075 43be 6433 79bc
00000030: 6286 02bd 8ea9 7bbe 66c8 a7bd 0087 743d
00000040: 4616 193c 215b d73d fb58 72bd 1d0d be3b
00000050: deaf 95bc f09e 8abe fb96 8dbd fcf3 dabd
00000060: 4c45 a5be 6a38 6e3d b42c 6fbd 318c dbbd
00000070: 32a1 85be 9ce0 52bd 2bdc 30bc c4dd 943e
00000080: 358e 54be f2be adbe 92db 3c3e 2cc0 3a3e
00000090: 1700 303e 19b5 16be 3b4c 5f3e c77d 81be
000000a0: 0bd4 903d f8a5 a03d 834d e4bc fdfb 25be
000000b0: d143 663e dd2f 583c 1f32 77be 3603 9f3d
000000c0: 7d40 123e 8585 1e3e f4f2 b5bd d1bc c33b
000000d0: 92ac 263e 6d75 583b 3c46 6cbd 2189 cf3d
000000e0: dbd3 97bd 3fe0 8a3d c832 93be cf5b 733c
000000f0: e0cd 6f3d 7d8b 81bd 7449 f13d 12d6 0c3c
00000100: 0c1e a2be 3376 f33d e318 9cbc 279e f9bd
00000110: 3af3 84bd 52d7 a63e 4d1d 853e 9f98 aa3e
00000120: 5322 743c a606 373e c490 273e 7643 ccbd
00000130: 685c 8b3d 7241 3c3e b0c9 5f3e dc04 753e
00000140: 5632 053d 5135 0bbd 707d b4bd fd18 c63b
00000150: 8d13 08be 7ffa 40be 07de 01be 3098 da3d
00000160: eb4e e9bd d8bb 4abe 6961 babc 3588 94bd
00000170: c00c 963c ed4e 35be b79b 90be 7693 27be
00000180: b8fa d63d 9ff4 9c3d e829 0dbd 7817 1bbe
00000190: b97b 86bd 0452 d43c 65f5 48bb 7f50 0e3e
000001a0: cb8f 383d e390 c3bd 9e5a eabd c857 2bbe
000001b0: a0ef 7c3d 9976 143e bb03 f0bd 3c54 4f3c
000001c0: 2584 9e3d 47f7 c3bd 6b77 c43d db6b babd
000001d0: 3c15 84be fddd 52be 9459 dd3d 1105 f7bd
000001e0: d055 5dbe dbb0 103e 192d b23b eaed b13d
000001f0: 95c6 3a3d 6ac7 a93d 42f9 8ebe 5cd3 39bd
00000200: 409f c7bb 6104 c43c 47f0 c23d d909 b1bd
00000210: 4c23 eebc 5dde 2a3d cbd7 7bbd 294b 763d
00000220: c4d5 0fbe b59c dfbd 2c80 453e fb79 6dbc
00000230: 9a43 943e 8f8f 013e 0b25 18bd 0e7b 223e
00000240: f210 1bbe 23f5 79bd aac1 813d 804a 8a3d
00000250: adb2 093e 96fd 82be fbce 903d 8848 6b3d
00000260: 0590 483d 2b23 d7bc fb2b 05bb 7c9b 1cbe
00000270: 0c5e 5bbd 04fb 32be 8537 f33d a573 76be
00000280: d551 33be 8655 1c3e c6ef 873d 7910 563e
00000290: 3dcc 93bd fd69 26be 423b 12be 311b b23d
000002a0: 8654 913e 1081 66bd 3e10 adbd 8689 473c
000002b0: 9ee2 853d 3c85 603d b18b 0b3d e711 2f3e
000002c0: 46f8 01bd 07c9 b13d ad28 6abd 21ad adbb
000002d0: 0a80 fe3d 50c5 213d bf60 943d d80c 813c
000002e0: b7ee a4bd b27a 3ebd fa04 913d 84ba 7dbd
000002f0: 20cc 9bbd c899 d43d dd9d 093e ea31 d23d
00000300: 4c0e 67bd d282 c13d 7a64 0e3d 53be 633e
00000310: 614c 6cbe 97b5 d3bd 527f 3c3b 7eb8 003c
00000320: 6e57 343e ad2f 9fbd ec93 a1bc 78d4 0c3e
00000330: b500 a73e 7a35 e33d ecde 993d 5e17 f53c
00000340: 3d58 b4be 52e2 a83c 610d 113e 1701 83be
00000350: 8408 103e ed05 4c3e 230f b6bd 4038 08be
00000360: 57e7 8c3e e2b0 783e 3164 20bd 3da7 a93d
00000370: a6a0 953e 8505 6cbe 99fd d6bc 2b65 eebc
00000380: e452 39be 2267 84be 5289 f6bc 4193 0fbe
00000390: 16bc 703d 94ec 3e3e 2812 99be 9884 2a3e
000003a0: 6c6f 183e 7f88 2abe 090c 3e3e c7c1 5a3d
000003b0: 5222 d93c 3151 8e3d 8b94 2a3d ca8a debd
000003c0: 92f5 603e 6812 66bd 800b e13d da7c 9dbe
000003d0: 65bc 223d ae7f 623b 8ab4 613e 2189 a13d
000003e0: 87cc 683d 2d41 5f3e fffa e8bc da99 1bbe
000003f0: c8ca 2c3e faae 513e d4fa a6bd e698 013d
-0.06627458 0.026683416 0.16535096 0.005436914 -0.1185749 -0.049648345 -0.0063123973 -0.10532487
-0.054908026 -0.07888766 -0.19087696 -0.015210006 -0.03186644 -0.24576399 -0.0819252 0.05969906
0.009343689 0.10515428 -0.05916689 0.005799903 -0.018272337 -0.27074385 -0.06913563 -0.106910676
-0.32279432 0.05815927 -0.05839224 -0.10720099 -0.26099545 -0.051483735 -0.01079468 0.29075444
-0.20757373 -0.33934742 0.18443134 0.1823737 0.17187534 -0.14717521 0.21806423 -0.25291273
0.07071694 0.07844156 -0.027868992 -0.16209407 0.22486807 0.013195005 -0.24140213 0.07764284
0.14282413 0.15480621 -0.0888423 0.0059734364 0.16276768 0.0033028976 -0.05768417 0.10133577
-0.07413455 0.06781053 -0.2874968 0.014853432 0.058545947 -0.063254334 0.11781588 0.00859596
-0.3166355 0.11887779 -0.019054836 -0.12188368 -0.06491704 0.3258615 0.25998917 0.33319566
0.014900762 0.1787363 0.16363817 -0.09973805 0.068047345 0.1838434 0.21854281 0.23927635
0.032518707 -0.033986393 -0.08812988 0.0060454593 -0.13288708 -0.18845557 -0.12682353 0.10673559
-0.113920055 -0.19798219 -0.022751527 -0.07252542 0.018316627 -0.17705889 -0.282438 -0.16364846
0.104970396 0.07663845 -0.034463793 -0.15145671 -0.06566567 0.025918014 -0.0030663845 0.13897894
0.045059007 -0.09549119 -0.11443065 -0.16732705 0.06175196 0.14498366 -0.117194615 0.01265436
0.07740048 -0.09568649 0.0959309 -0.09102603 -0.2579745 -0.20592494 0.10808101 -0.12061513
-0.21614766 0.14129965 0.005437505 0.08687957 0.04559954 0.08289988 -0.27924544 -0.045367584
-0.006091982 0.02392787 0.095184855 -0.086444564 -0.029069565 0.04171597 -0.061485093 0.060130272
-0.14046389 -0.10918561 0.19287175 -0.014494414 0.28957826 0.1265242 -0.037144702 0.15867254
-0.15143183 -0.061024796 0.063357666 0.06752491 0.13447066 -0.25584096 0.070707284 0.057442218
0.048965473 -0.026261887 -0.0020320404 -0.15293688 -0.053556487 -0.17478567 0.11875824 -0.24067552
-0.17511685 0.15267 0.0663753 0.20904721 -0.0721669 -0.16251369 -0.14280418 0.086965926
0.283848 -0.056275427 -0.084503636 0.012178784 0.065373644 0.054814562 0.034068767 0.17096673
-0.031730913 0.08680921 -0.057167698 -0.0053001796 0.12426765 0.039494812 0.07245015 0.015753195
-0.08053344 -0.04650373 0.07081027 -0.061945453 -0.07607293 0.10380894 0.13439126 0.102634266
-0.05641012 0.0944878 0.03476379 0.22240572 -0.23076011 -0.1033737 0.0028762412 0.007856486
0.17611477 -0.07772765 -0.019723855 0.13752925 0.32617727 0.11094184 0.07513222 0.029918369
-0.3522357 0.02061573 0.1416526 -0.2558677 0.14065748 0.19924136 -0.08889606 -0.13302708
0.27520248 0.24286225 -0.03915805 0.08283851 0.29224128 -0.2304898 -0.026243972 -0.029100975
-0.18098027 -0.25859934 -0.030094776 -0.14021017 0.058773123 0.18644935 -0.29896665 0.16652143
0.14886254 -0.16653632 0.18559279 0.053407457 0.026505623 0.0694908 0.041645568 -0.10866316
0.21968678 -0.056169897 0.109885216 -0.30759317 0.03973045 0.0034560966 0.22041526 0.078874834
0.056835677 0.21802206 -0.028439997 -0.15195408 0.1687423 0.20476905 -0.081533104 0.031639956

P.layers.3.bias f4 [50]
00000000: 9e96 27bd 603c f73d 4e32 72bd 5668 33bd
00000010: f8ef 5ebc 1199 7abc b2e1 3fbd e53c 51bc
00000020: 018f 0a3e 6f62 b73d 73f9 a2bc d6bd efbc
00000030: 6b5d aa3d 93fe ce3c b8b6 c13d 5728 793c
00000040: 1309 493d b43f d0bd c57f da3c 91a6 f93c
00000050: e5d7 a73b 52de 893a 766f 933b 39d6 ca3b
00000060: b915 043d 829c 62bd 83a8 03be cbaf 913d
00000070: 5770 453d b4e2 07bd 8f40 803d c21f 083e
00000080: 1cd6 463c 2abe 5f3d ea28 693d 4c87 27bd
00000090: d252 03bd ee41 a5bb 7ee7 d8bc 5c63 9ebc
000000a0: 9510 3bbd eb23 563c 0ee3 5a3c 88f2 c53c
000000b0: f517 8dbd fce1 b13b c9ee c53c 45d2 63bc
000000c0: ccd2 f6bc 106a 643c
-0.040915124 0.120720625 -0.059130006 -0.043800674 -0.013607018 -0.015295283 -0.0468461 -0.012770866
0.13531114 0.089543216 -0.019894337 -0.029265326 0.08318599 0.025267875 0.09458679 0.015207372
0.04908092 -0.101684004 0.026672253 0.030474933 0.005122172 0.0010518527 0.004499371 0.006190088
0.03224728 -0.05532504 -0.12857251 0.07113608 0.04820284 -0.033175185 0.062623136 0.13293365
0.012136009 0.054624714 0.056923784 -0.040900514 -0.032061405 -0.00504326 -0.026477572 -0.019334488
-0.04567011 0.013070087 0.013359798 0.0241635 -0.06889335 0.0054285508 0.024161713 -0.013905113
-0.030129813 0.013941303

P.layers.4.weight f4 [50, 50]
00000000: 22ce 0e3d b7ba e2bd ef81 d83d 889a 5a3e
00000010: 545c 89be a520 05be b456 13be 2c57 70bc
00000020: fbc5 1f3e 121c 19bd 269f a83d 34ae 893e
00000030: a702 5b3d 6695 e6bd 7716 1abe 1d2e ad3d
00000040: 6466 bc3d 5302 95bd 064e 2a3e f661 2e3e
00000050: 9391 d9ba c3d5 ac3e c6cd 21be 46d4 c03d
00000060: f182 60bd c1df a63d 9ba1 a83e 0f55 1cbc
00000070: f750 b03d be77 243e d97a 25be 6208 5bbe
00000080: d708 173e 5a16 043e 9929 963d fb38 4c3e
00000090: 8837 00bd 7fc4 45be 3334 113e ee94 743e
000000a0: 7a78 34be 522b efbd a65f bdbd 6c1f 09bd
000000b0: 3536 483e 90b5 5f3d 8d4f 1c3d ef1a 993e
000000c0: 7f40 c5bd 3eb9 99be 32fa 863e cbcb 16be
000000d0: 5365 593e e407 903d 7a7a 643d b313 82bd
000000e0: f5dd 58bd 600d eabd f2b2 8c3b 3f5f 98bd
000000f0: 320c 123e cab4 93bc 416a 133e 0b20 5e3e
00000100: 25cb f9bd 155a 6f3e 9fc0 fbbd cc9b 803d
00000110: 7b66 5ebc e866 11be c3df 6d3e 1cc3 dc3d
00000120: e42b 4dbc de94 5cbe cc65 323e 47a5 febd
00000130: b990 253e b394 04be 3fc5 8a3d 0823 d73d
00000140: e292 c1bd e087 7bbd 9256 babd 0fc8 7b3e
00000150: 73b3 fcbd 148f e5bd c733 4abd c42f 2cbd
00000160: cbce 3a3d 3618 853d 2fd2 c1bd 1b8e 6c3d
00000170: febe 2e3e b72f 273e 13d2 f0bb 93eb 223e
00000180: fe59 39be 222d 04be 993a 663d 1d4e fe3d
00000190: 3fa0 45bd 0ca9 a2bd 8339 01bd f358 113e
000001a0: 139b de3d d014 47bd 6333 683d 0709 cabd
000001b0: 5b2e 303e d1f0 1a3e 1348 fa3c 135e e33d
000001c0: 08fd 57be dbcc 8d3d fa83 b8bd 0dfc d33d
000001d0: 7936 423d 8a3c 203e ef5b 023d 38b0 0fbd
000001e0: 6e4a 27be 4441 6c3e 288f 1d3d d010 e5bd
000001f0: b90a a63e d565 89bd 1329 f9bd f8bc 73bd
00000200: e3db d03d f2aa 083d b66a 1dbe c690 6ebd
00000210: efe3 0f3d 23ac 07be e732 49bd 25e5 1a3d
00000220: 0a41 95bd 2751 19bc 332d 8dbe 05dd a73c
00000230: a91c 443d 6995 62bd 8494 25bd 7e42 c13c
00000240: 2b1f c9bd 5a5e 42be 58a9 bcbd 9de0 44be
00000250: 0081 0e3e 8c10 bf3b 784a 6e3e de89 cabc
00000260: 4888 2bbc f8d7 b6bd 03d1 c43d a7f6 3a3e
00000270: 6f17 edbd 7ad5 783d 72c2 57be 7f5d 003d
00000280: e5c8 f1bc 38df 233e 9a44 143e 9a98 03be
00000290: 3216 c4bc 4782 253e 4ad3 5d3d 969d f53d
000002a0: 9415 1f3d 6c17 1f3e f491 6c3d 2300 9d3d
000002b0: 1f7c 97bc a685 843e 80dc 55be b646 873d
000002c0: 5b42 b5bc b773 c73e f05c 9b3e 5d2b bcbd
000002d0: 17cb d4bd 4c1b dbbd ccc7 40bd 222c 7ebd
000002e0: c554 8cbe fde9 2abe 9a01 2ebe 5801 323c
000002f0: 1065 83be 12c9 9abd 04cc bf3c b236 31be
00000300: fb05 7bbe d2de 8fbe 0625 933d 5215 08b8
00000310: 7162 593e a8c5 453d daa4 8f3e d808 883c
00000320: 14f7 62bd 32ff c13e 64aa 5e3d f10b 57bd
00000330: 8146 343d 0dd7 3e3d 13b6 9e3c 66e4 193e
00000340: d24b 57be 73ef 3d3e a1fa 2d3e 1f87 4e3d
00000350: fde0 553d 3043 1e3e 8e68 dcbd 44c7 4c3e
00000360: 04c9 0c3e 890d 17be 43c1 443e a48f 323d
00000370: a257 50be 60d7 94bd f11e 35bd 0bd9 873e
00000380: 7649 31be ddce 22bd 1fe0 9d3b 42cb b9be
00000390: 138c e33e c09e 223e 0511 163d 5e46 8bbd
000003a0: 2946 acbd 9839 04be 9dfa 983e 1559 0a3d
000003b0: 2d32 ce3d 3d26 5bbe 4d9e 6dbd c7dc 02be
000003c0: fcb0 43be d6b4 9b3c 7a19 1abe a8e0 80be
000003d0: b2fa 413c f05d 20be c043 d43d 7fef 8d3d
000003e0: 33ab 5ebd 0997 fa3c 863e b3be 05f1 353e
000003f0: 7a06 583e 8d6a ae3e 6e18 51be b1c9 003c
0.034864552 -0.11070769 0.10571658 0.21348011 -0.26828253 -0.13000734 -0.14388543 -0.014669221
0.15602867 -0.037380286 0.0823348 0.2689072 0.053469326 -0.11258964 -0.15047632 0.08456061
0.09199217 -0.07275834 0.16631326 0.17029557 -0.0016599171 0.33756837 -0.15801153 0.09415488
-0.054812375 0.081481464 0.32935795 -0.009541764 0.08609193 0.16061303 -0.16160144 -0.21389917
0.14749466 0.12899151 0.07332153 0.19943611 -0.03130296 -0.19313239 0.14180069 0.23884937
-0.17624083 -0.116781846 -0.09246759 -0.03347723 0.19551928 0.05461651 0.038161803 0.2990336
-0.09631442 -0.3002414 0.2636276 -0.14726178 0.21230058 0.07032755 0.055780865 -0.063514136
-0.05294605 -0.11428332 0.004293793 -0.07440042 0.14262465 -0.018030543 0.14396001 0.21691911
-0.1219695 0.23374207 -0.12292599 0.06279716 -0.013574238 -0.14199412 0.2322989 0.10779402
-0.012522671 -0.21541163 0.17421645 -0.12433868 0.16168489 -0.12947349 0.06775903 0.105047286
-0.09451844 -0.061408877 -0.09098543 0.24588035 -0.12338915 -0.112089306 -0.049365785 -0.04203774
0.04560737 0.064987585 -0.094639175 0.05775271 0.17065045 0.16326796 -0.0073492615 0.15910177
-0.18100736 -0.12907842 0.056208227 0.12417243 -0.048248526 -0.079423994 -0.031548988 0.14194088
0.10869422 -0.048603833 0.05668963 -0.09865003 0.17205183 0.15130927 0.030551946 0.111019276
-0.21092618 0.06923839 -0.090095475 0.10350809 0.04741523 0.15648094 0.031825956 -0.035080165
-0.16336986 0.23071772 0.038466603 -0.11184847 0.32430056 -0.06708876 -0.121660374 -0.059506387
0.1019819 0.03336615 -0.15372738 -0.058243535 0.035129484 -0.13249259 -0.04912081 0.037816186
-0.07287796 -0.009357727 -0.27573547 0.020491133 0.047878895 -0.05531827 -0.04042484 0.023591276
-0.09820398 -0.18981305 -0.09211987 -0.19226308 0.13916397 0.00583083 0.23270595 -0.024723943
-0.010469504 -0.089279115 0.09610178 0.18258153 -0.11576735 0.060750462 -0.21070269 0.031339165
-0.02951474 0.1600312 0.14479294 -0.12851182 -0.023936365 0.16162978 0.05415658 0.11992948
0.038838938 0.15536278 0.05775638 0.07666042 -0.018491803 0.25883216 -0.20884895 0.06605284
-0.022126367 0.3895547 0.30344343 -0.091879584 -0.10390299 -0.10698566 -0.04706554 -0.062053807
-0.27408424 -0.16690822 -0.16992798 0.010864578 -0.25663042 -0.07557882 0.023412712 -0.17306021
-0.24514 -0.28099686 0.07184796 -3.2444783e-05 0.21228959 0.048284203 0.2805546 0.01660578
-0.055411413 0.3789001 0.054361716 -0.052501623 0.04401255 0.046591807 0.01937393 0.15028533
-0.21025017 0.18548374 0.16990139 0.05042183 0.05221652 0.15455317 -0.1076213 0.19997889
0.13748556 -0.14751257 0.19214348 0.043594018 -0.2034593 -0.07267642 -0.04421896 0.26532778
-0.1731318 -0.03974806 0.004817977 -0.36287886 0.44442806 0.15880871 0.036637325 -0.06800531
-0.084118195 -0.12912595 0.29878703 0.03377636 0.10068164 -0.21401305 -0.058012296 -0.12779532
-0.19110483 0.019007128 -0.15048781 -0.251714 0.011839556 -0.15660834 0.10364485 0.06930446
-0.054362487 0.030589597 -0.3500864 0.17767723 0.2109622 0.34065667 -0.20419475 0.007860587

P.layers.4.bias f4 [50]
00000000: 7ba2 77bb 8e7a efbd 6795 f5ba f109 6d3c
00000010: bfe1 97bc b34d 1c3a 982d 27bd 5440 7e3b
00000020: aaf7 95bc 94b7 8e3c 49c8 8ebd 6d00 873b
00000030: 4a9e 95bc c79b 1cbc d55a 2bbd 0152 36bb
00000040: 923d 00bc 0213 5a3d f60b 573a 38da 0c3d
00000050: 64e7 843d 0bdb 323d 5fdb 6ebb c828 86bc
00000060: a0cf aabc 4486 f038 b46f 383c f805 4e3d
00000070: a6dc d03c 8cbe d037 7e1e b03c 7cdb 413c
00000080: 18bb b63b edd4 163b 28a7 9ebd f955 c9bc
00000090: 0573 683c 036c d2bd 81ca ac3d ba74 343d
000000a0: c685 363b c845 c2bc 65a6 3f3c 61ec ff3c
000000b0: 1fd7 86bc ce1d b33c 9785 26bb a39d a5bc
000000c0: 9f4b 8abb 8ec6 003d
-0.0037786055 -0.11693297 -0.0018736542 0.014467702 -0.018540261 0.0005962506 -0.040814966 0.0038795667
-0.018306572 0.017421521 -0.06971795 0.004119924 -0.018263955 -0.009558625 -0.04183467 -0.0027819874
-0.0078271795 0.053240784 0.00082033814 0.034387797 0.06489447 0.043665927 -0.0036446673 -0.016376868
-0.020850956 0.00011469101 0.011257101 0.05029866 0.025495838 2.4884263e-05 0.021498915 0.011832114
0.0055765025 0.0023015097 -0.07746726 -0.024577128 0.014187579 -0.10274508 0.08437062 0.04405663
0.0027850731 -0.023714915 0.011697386 0.031240644 -0.01646 0.021864798 -0.0025409216 -0.020216769
-0.0042204405 0.031439357

P.layers.5.weight f4 [1, 50]
00000000: b113 1a3f 18ec ccba 7fda cebc 054e 6e3e
00000010: 7d54 9abd bbd5 ad3e d837 40be 85ea 7d3e
00000020: f9bd 3c3e 7c1d 6fbe b308 803e 7f65 28be
00000030: 3299 f33d 5655 4e3d e4e8 6b3c 09f8 a03d
00000040: 9396 df3c 8f8b b1be 92ab bfbe a338 e7bc
00000050: 4309 e43e bbd1 23be 26cf 4cbd 2a44 f13d
00000060: e665 5c3d 9938 b93e f741 9dbd 36bd ac3e
00000070: b4dd 26bd 5abb 04be 8609 093e a32b 36be
00000080: 73b9 83bd 23ca 57be e921 a63d f72c dbbe
00000090: e2ac ccbe 3618 33ba 00d0 8abc adb4 423e
000000a0: d24f 65be 1f91 733d 8c6c a7bd dbd9 503e
000000b0: e0d5 e73d d27c 87bd 19ae 63bd 25e6 6a3d
000000c0: 88a3 32bd 578e e73d
0.60186297 -0.0015634326 -0.025250671 0.2327195 -0.07535646 0.33952126 -0.18771303 0.24796493
0.18431844 -0.23351091 0.25006637 -0.16444968 0.11894454 0.05037435 0.014398787 0.07859809
0.02729348 -0.34676787 -0.37435585 -0.028225249 0.44538316 -0.15997975 -0.05000224 0.117805794
0.053808115 0.36175993 -0.076785974 0.33738106 -0.040738776 -0.12962094 0.13382539 -0.17790084
-0.06431856 -0.21073203 0.081119366 -0.42807743 -0.3997565 -0.0006831916 -0.016944885 0.19014235
-0.2239373 0.05946457 -0.081750005 0.20395605 0.1132009 -0.066156045 -0.055585954 0.05734839
-0.043612987 0.11306446

Q.layers.0.weight f4 [50, 2]
00000000: eeba 533d 62ed a4bd a8ec 97bd a283 b9be
00000010: 6c63 0ebd dcf8 a0bd e53c 89bc b6fa 0d3d
00000020: cad0 68be 110c cdbd 6a53 063f 2afc 183f
00000030: 0789 82be 4f61 0c3e 7245 73be a174 4dbd
00000040: 4c85 a03e 7afc bb3e 8227 02be ba05 f93d
00000050: 4c54 64be e1cc 8a3d e8ca b0be 9434 f33c
00000060: ef85 2e3d df5d a4be 5829 d33c f279 1f3f
00000070: 0c1f 71be 056f 8abe 42f5 a2bd 9515 893e
00000080: 3bf0 a73d fc15 bbbe c21e b83d 4cda c73e
00000090: 2a1e 333e d5fa f53e b867 b8bb c508 e33d
000000a0: fbe0 513e a673 22bd fda1 4ebe f5c4 433e
000000b0: 2801 993d 78bb 753e cca7 72bd 0441 773e
000000c0: ca5d c9be b0cd f43d cb86 a73d e6ec 033e
000000d0: ed2c 78bd a94c 10bf f4b2 6ebd 8945 f8bd
000000e0: a944 9a3e 03a2 adbe 4d26 eabd 8718 c03e
000000f0: 8cab 07be 5e00 913e 0e03 48be 03e0 6c3e
00000100: 84dc bd3c cd29 b43e e537 ffbd 11b9 803e
00000110: 821a 04be b3ab a93e 1092 89bd ee87 b5be
00000120: fc54 66bd 243a 66be 88fe b13d 4c54 0c3f
00000130: 8f7a 393d 9307 00be 1686 87bd dc85 213f
00000140: 563a 41be b3c9 abbe 9f5c 4b3d fbd6 95be
00000150: 7e56 593e bad0 acbe 331b 133e dece 1ebc
00000160: be10 053e 5971 36be 79a1 b13d 583d ba3e
00000170: 4443 ab3e 4bf7 b73e de77 893e 0a87 c83e
00000180: 5544 4a3e d59b 17be cd09 b63d b693 8dbe
0.051691942 -0.0805309 -0.074181855 -0.3623324 -0.034762785 -0.07859966 -0.01675267 0.034662925
-0.22735897 -0.10012067 0.5247103 0.5975977 -0.2549517 0.13708995 -0.2375696 -0.050160054
0.31351697 0.36716062 -0.12710384 0.121592954 -0.22297782 0.06777359 -0.34529805 0.029688157
0.042608198 -0.32102868 0.02577655 0.6229545 -0.23547 -0.27037826 -0.079569355 0.26774278
0.08200117 -0.3654021 0.089902416 0.39033735 0.17491975 0.48042932 -0.0056275986 0.11085657
0.2049598 -0.039661072 -0.20178981 0.19118102 0.07470924 0.23997295 -0.059242055 0.24145895
-0.39329368 0.11953294 0.081800066 0.12883338 -0.06058972 -0.56366974 -0.05827613 -0.12122638
0.3013051 -0.33912668 -0.114330865 0.37518713 -0.13249034 0.28320593 -0.19532415 0.23132329
0.02317644 0.3518814 -0.12461833 0.25141194 -0.12900737 0.3313881 -0.06717312 -0.3545527
-0.05623339 -0.22483116 0.08691126 0.54816127 0.045282897 -0.1250289 -0.06617372 0.6309488
-0.1886991 -0.33552322 0.049648877 -0.2926558 0.212244 -0.33752996 0.14365844 -0.009692876
0.12994668 -0.17816676 0.086733766 0.36374927 0.33449757 0.35930857 0.26849264 0.39165527
0.19752629 -0.14805539 0.08888588 -0.27651757

Q.layers.0.bias f4 [50]
00000000: f9eb 003e d56f d6bd ea78 973d 4cb2 233e
00000010: 20c2 babd 7b04 db3d 3de0 733d 237e 13ba
00000020: c835 163e d4f1 e4bd 1748 3a3d 6030 4cbe
00000030: 7d54 a8bc 7823 d03d c98f a93c 519e 86bd
00000040: 82af a63d d9ea 893d 58c4 ee3c e330 fbbd
00000050: 2a62 353d 4c42 f33d a3a0 723c 4ba1 66bd
00000060: 87df 9abd 4ac8 973d 0dd1 15bd 0d99 f9bb
00000070: ee2c 3dbd c777 2fbd f9b7 2b3d 1239 b1bc
00000080: fb49 1d3d fb6e 77bb 23b6 203d b992 4cbd
00000090: 58ee 27bd be0b 393d 0109 863d 4bbc 413d
000000a0: 5745 49bd e819 b4bc 9891 8c3d ec0c 0e3e
000000b0: 5c3f 92bd 8b0a ab3c 07a4 323d 59ab 503c
000000c0: 3357 c53d 5d72 e63c
0.12590016 -0.10470549 0.073961094 0.15985984 -0.09119058 0.10694214 0.059540022 -0.0005626401
0.14668953 -0.111789376 0.045478906 -0.19940329 -0.0205481 0.10163015 0.020698445 -0.06573165
0.08138944 0.06734247 0.029146358 -0.12265184 0.04428307 0.118778795 0.014808807 -0.056306165
-0.07562166 0.07411249 -0.03657632 -0.007617122 -0.046185426 -0.042838838 0.041923497 -0.021633659
0.03840063 -0.0037755358 0.0392362 -0.049944613 -0.040998787 0.045177214 0.06544686 0.04729871
-0.049138393 -0.02198501 0.06863707 0.13872117 -0.07140991 0.02087905 0.04361346 0.012736165
0.096357726 0.028130705

Q.layers.1.weight f4 [50, 50]
00000000: 8526 56be 7309 883d 00ed f03e 1959 3cbe
00000010: 2cfb 123d b108 3ebe cc44 923e 0dbc 333e
00000020: 7855 e8b9 76ec 893d 9146 d8bc 3682 a4bd
00000030: 603e 65bd 63ac b9bd 8bfb a73d 6231 943e
00000040: a1b2 0c3d 372a 0a3e cc95 293d c8b3 363d
00000050: 4a88 f73d e703 373e c79d babe 18fc e0bd
00000060: 6ffe 8ebe 9636 4dbe 4bc2 f8bc e259 0a3e
00000070: c5af 8f3a 7a57 4ebd 7ac7 20bc 8aa1 183e
00000080: 122c b03d eade 483d 24b0 913d f103 c73d
00000090: a3e7 5a3d 32be 34be 6984 45be ee26 24bd
000000a0: f718 0d3d 80a8 c0bd 72e3 0f3e a441 07bd
000000b0: da7d 183b ce18 adbe d8de 10bd 5f2a 46be
000000c0: c730 193d a59c 723d 870f 023e 5b79 1c3e
000000d0: 3c75 a83d 6e50 8abd a0cc b0bd 6814 483d
000000e0: bc77 50be 15cc 6e3d df75 3fbd 8d67 e1bd
000000f0: 25ca 9fbd dd24 f83c e1ab 843d 0177 563e
00000100: a413 a0bd 796f 0abe 5c0a a9bd 9e44 8abd
00000110: 3004 ac3d b57e adbd 1b35 bfbd f624 183d
00000120: 9dc5 a3be ca00 28bd 1695 22bd 10cc 7e3d
00000130: c338 813e 3f99 abbc e5ab 50bd 68e3 13bc
00000140: b5c9 54be 0fc5 d1bd aa97 20bd 926b ef39
00000150: c8aa 92bc f1e1 423e 5a06 773e 5c58 d7bd
00000160: 5d6a cfbd e1e4 adbb 6f3d f13c 9623 d13c
00000170: a51a 96bd 3418 38be 8d70 5a3d 51fc 5f3c
00000180: 8593 3cbe a225 87bd 7cca 30be 0506 d9bc
00000190: 0a1b 8f3e efed ca3c 0d7b 4b3d 346f 5bbd
000001a0: 5c40 6b3d 29c1 543e ced5 8dbd 2c36 cdbb
000001b0: 5eb1 2a3e c1e8 833d 52fc 7ebe 62e9 5cbe
000001c0: 99ed 52be 0d04 113e c46f 053e 89c3 e93d
000001d0: 08b2 093d a2aa 14be 2a89 d83c b841 73be
000001e0: 158b a2bd cc49 203e c87c 08be 8f1b 673d
000001f0: 10d3 2abe 2087 723e bda3 f83d c9da b9bd
00000200: 4b37 573d b0f1 d63d db61 033d d24c ac3d
00000210: 0411 42bb 38cd bd3d 6788 003e 0590 aabd
00000220: e1a1 40be 5216 be3d ad34 babc b874 96bc
00000230: 63b3 493c 6497 ffbd 14a5 b7bd 1a57 0f3e
00000240: ad9d 35be 5310 7c3d d375 8cbd 04b3 c23d
00000250: 9c9b 9dbd 29a4 4e3e ef31 3fbe 00d3 d73d
00000260: 98b7 92bd 4707 e2bd 1b6a 6e3d 74c8 5abe
00000270: 0198 7ebe 509f 9b3c f7d5 903e 2d04 57bc
00000280: da36 cd3d 500c 4abe 3e4f 93be 30c4 11be
00000290: ffa4 1e3d 28a1 88bd d773 32be 6ebb a7be
000002a0: 9fa9 ddbc 9719 0cbd 9a62 8f3e a4a2 6a3c
000002b0: 9b98 75be 3677 923d 330e d8bd f29e 043e
000002c0: 9372 1bbd 36db 39bd 2013 6c3e 49f4 103e
000002d0: dcbf f4bd 82de 8fbe 62bf 87be cd23 3dbe
000002e0: 4325 993d 9c88 293e 85c8 9dbd 1ce3 b2bc
000002f0: d2ac 4cbe 40f0 32bd f349 b63d 870a e03d
00000300: b206 abbd 2ce7 ecbb f71b adbd a9ce 8cbe
00000310: 9204 07be 4491 523d 9163 a2be d48a edbd
00000320: 4efb ea3d ad70 f7be 79df f03c c4e0 8a3e
00000330: 1cae d53b 33e7 03bc 520d 2c3e d9a7 94bd
00000340: ba51 3dbc 8a6c 583c 8c39 003e 91ba 0fbe
00000350: 7af7 d6bc 47c4 f73c 4a18 69be 2fc8 8f3d
00000360: e3ca 88bd 52b1 e73b 7bf6 3d3e 3e7d 02be
00000370: e777 ad3c 061e ffbd 2baa 30bd c22d 1f3e
00000380: 33cb 683e fc08 32bd 244b c83d 2c64 64be
00000390: b8ed 03be d883 dabc 06fd 253c 5a0f 9c3d
000003a0: efcc 803d e0d6 debd 3c24 91bb 7ec4 82bd
000003b0: 8dcb 0cbe 6f21 0fbe 39c0 603e b7d5 023e
000003c0: 3130 a83e ae25 bbbd 0785 a23e 53d0 4d3e
000003d0: 39a9 b93c 04df d43d e482 923d ed8e b13d
000003e0: 05d3 fe3d b072 41bd 17a2 cd3d 30b5 cebd
000003f0: 4113 083d 9c28 64be bdff c93d 7e84 b43c
-0.20913132 0.06642427 0.47055817 -0.18393363 0.035884067 -0.18558003 0.28568113 0.17552204
-0.00044314167 0.067345545 -0.026400836 -0.08032648 -0.05596769 -0.09066083 0.08202275 0.28943926
0.03435004 0.13492666 0.041402623 0.044605047 0.12086542 0.17872582 -0.364485 -0.10985583
-0.27928492 -0.20040354 -0.030366084 0.1351085 0.0010962418 -0.050376393 -0.009813184 0.14905372
0.08602156 0.049040712 0.07113674 0.09717549 0.053443562 -0.17650679 -0.19288792 -0.04007619
0.034447636 -0.09407139 0.14051607 -0.033021584 0.0023268373 -0.33807987 -0.03536877 -0.19352101
0.037400033 0.05923142 0.12701236 0.15280668 0.08225486 -0.06753622 -0.08632779 0.048847586
-0.20358175 0.058300097 -0.04674327 -0.11006079 -0.07802228 0.030291015 0.06478096 0.20943834
-0.07816246 -0.13519086 -0.08253929 -0.06751369 0.08399236 -0.08471433 -0.09336301 0.037144624
-0.31986704 -0.041016378 -0.03969296 0.062206328 0.25238618 -0.020947097 -0.05094518 -0.009026386
-0.2078007 -0.10242664 -0.039207138 0.00045665778 -0.0179037 0.19031502 0.24123517 -0.105149
-0.10127709 -0.0053068255 0.02944824 0.025529664 -0.07329301 -0.17977983 0.053329993 0.013670997
-0.18415649 -0.06598975 -0.17264742 -0.026492128 0.27950317 0.024771659 0.049677897 -0.05357285
0.057434425 0.2077681 -0.06925546 -0.0062625613 0.16669223 0.06440879 -0.2490094 -0.21573403
-0.20598449 0.14161702 0.13030916 0.114142485 0.03361705 -0.14518216 0.026432592 -0.23755538
-0.07936684 0.15653151 -0.1332885 0.056422766 -0.16682076 0.23684359 0.121406056 -0.09074933
0.052542966 0.10495317 0.032075744 0.0841309 -0.0029612193 0.09267658 0.12552033 -0.08328251
-0.18811752 0.09281601 -0.022730196 -0.018366203 0.0123108355 -0.12480047 -0.08967033 0.1399807
-0.1773593 0.061539005 -0.06858411 0.09506801 -0.07695696 0.2017981 -0.18671392 0.10538292
-0.07163924 -0.11036544 0.05820666 -0.2136553 -0.24862672 0.018996865 0.28288242 -0.013123554
0.10020228 -0.1973126 -0.28771394 -0.14234996 0.03873157 -0.06671363 -0.17427002 -0.32760185
-0.02705842 -0.034204092 0.28004915 0.014321003 -0.23983996 0.07151644 -0.10549583 0.12951258
-0.037951063 -0.04537507 0.2305417 0.14155687 -0.11950657 -0.28099447 -0.265132 -0.18470688
0.0747781 0.16556019 -0.07704262 -0.02183681 -0.199878 -0.04368615 0.089008234 0.10939508
-0.083508864 -0.0072297063 -0.084525995 -0.2750142 -0.13185337 0.051408067 -0.31716588 -0.11598745
0.11473714 -0.48328152 0.029403435 0.27124608 0.0065209996 -0.008050728 0.16801956 -0.07258577
-0.01155513 0.0132094715 0.12521952 -0.14036013 -0.026241053 0.03024496 -0.22763172 0.07020604
-0.066793226 0.007070699 0.18551056 -0.12743089 0.021175338 -0.124568984 -0.043131035 0.15544799
0.22733764 -0.0434656 0.09779957 -0.22303838 -0.12883651 -0.026674196 0.010131126 0.076201156
0.06289088 -0.10880828 -0.0044293683 -0.06385134 -0.13749523 -0.13977598 0.21948327 0.12776838
0.32849267 -0.09138046 0.31742117 0.20099 0.0226637 0.10394099 0.07153872 0.08669839
0.124425925 -0.047228515 0.10040682 -0.100931525 0.033221487 -0.22281116 0.09863231 0.022035833

Q.layers.1.bias f4 [50]
00000000: fa45 d53c d5a6 12bd b0da cf3d 9fb1 aabd
00000010: a7b5 c83d 283d 963c b3b6 c5bd 0811 4abd
00000020: 9b2e 423d 687b 9e3e ec2b d83b 31d7 f23d
00000030: 3937 f9bd be64 5e3d d7ed a53b 83be 57bd
00000040: 9280 9b3d b889 d5bd 761a 703c ea4e 2b3b
00000050: e911 2c3d e91f 90bb f5e9 03bd 06fd a0bd
00000060: 9bcd dabc 98c1 04be dcd5 8c3d 8249 09bd
00000070: f24c a8bc ece7 a13d 75ed 68bd dbd3 aebd
00000080: 78a2 c8bc f319 29be 75f1 e23d bd0f f3bd
00000090: 841c 0ebd c3b5 b4bb 0511 bd3c 5fb2 a5bd
000000a0: 48bb 3d3e e472 bcbd 5f69 d7bc a305 093d
000000b0: 33d2 4c3c e6e9 203d 37d6 a8bc 9be8 413b
000000c0: 70d1 00be b397 a5ba
0.026034344 -0.035803635 0.10149133 -0.0833466 0.098002724 0.018339708 -0.09653988 -0.04933265
0.047407728 0.30953526 0.006597033 0.11857451 -0.12168736 0.054295294 0.005063753 -0.05267192
0.07592882 -0.104266584 0.014654746 0.0026139566 0.042009268 -0.0043983352 -0.03220554 -0.078607604
-0.026709368 -0.12964475 0.06876728 -0.03351737 -0.020544503 0.07905564 -0.05686708 -0.08536502
-0.024491534 -0.16513805 0.110812105 -0.11868236 -0.034695163 -0.0055148317 0.023079405 -0.08090662
0.18528473 -0.09201601 -0.026295362 0.03345264 0.012501287 0.039285563 -0.020609958 0.0029588107
-0.12579894 -0.0012633711
