output/ODE/ODE.pth (torch, 113797 bytes, 29 tensors)

P.layers.0.weight f4 [50, 2]
-0.14448483 0.113961846 0.3466494 0.13658549 -0.22179776 0.015026019 -0.07646551 0.086719684
-0.032388326 0.1760501 0.18307732 0.086495176 0.34919596 -0.015849568 -0.064222135 0.25486612
-0.42400715 -0.04362062 -0.24629363 0.034910947 0.06351775 0.11694823 -0.16646649 -0.026867937
-0.13339302 0.1344528 -0.20217186 -0.005769454 0.27753952 -0.009822309 0.096108004 0.13754188
0.038920313 0.057860732 -0.2565025 -0.018831255 -0.119091034 0.2585142 -0.22888045 0.073595054
0.3883534 0.02146395 0.08616895 0.026117882 0.13813087 0.02236894 -0.16502829 -0.018537348
-0.3912701 0.062177725 -0.5047928 -0.03608412 -0.07925767 -0.121571854 -0.36483425 0.03422692
0.00469144 -0.056717146 0.15290904 -0.011323106 -0.076764755 -0.061390057 -0.2616617 0.0015377492
0.33952966 -0.010278502 0.13836296 0.0014222845 0.1076674 0.028824791 0.31481576 -0.08951134
-0.05255236 0.045303695 -0.018427875 -0.1984239 0.28821188 0.068264894 -0.06562906 0.23968302
-0.11203551 0.0056946543 0.16480552 -0.09190908 -0.016630279 -0.045581397 0.19337262 0.025937317
-0.10927509 0.27023205 -0.13475306 0.0022369276 -0.16074567 -0.1543656 -0.19793656 0.21174382
-0.3893327 0.005874635 0.043570496 0.048014466
00000000: d5f3 13be d464 e93d 087c b13e 11dd 0b3e
00000010: f41e 63be b12f 763c f399 9cbd 179a b13d
00000020: 9fa9 04bd 7a46 343e 9f78 3b3e 6224 b13d
00000030: d0c9 b23e f4d6 81bc e586 83bd d07d 823e
00000040: 7717 d9be 89ab 32bd 6634 7cbe c8fe 0e3d
00000050: 9815 823d 8e82 ef3d 3176 2abe 261a dcbc
00000060: 2e98 08be ffad 093e 2406 4fbe b00d bdbb
00000070: a919 8e3e c0ed 20bc 46d4 c43d c7d7 0c3e
00000080: e86a 1f3d 60ff 6c3d 4c54 83be 0144 9abc
00000090: 00e6 f3bd f95b 843e a35f 6abe 01b9 963d
000000a0: 42d6 c63e 2ad5 af3c 5979 b03d 2bf5 d53c
000000b0: 2e72 0d3e 113f b73c 2dfd 28be a3db 97bc
000000c0: 8e54 c8be 12ae 7e3d 1a3a 01bf f1cc 13bd
000000d0: d851 a2bd aafa f8bd 8ecb babe 8731 0c3d
000000e0: a7ba 993b 3d50 68bd 3094 1c3e 8c84 39bc
000000f0: d736 9dbd 2474 7bbd 86f8 85be 4d8e c93a
00000100: d5d6 ad3e 2967 28bc 05af 0d3e f36b ba3a
00000110: ba80 dc3d f821 ec3c 882f a13e b951 b7bd
00000120: 2541 57bd 5e90 393d 0ef6 96bc a32f 4bbe
00000130: 8290 933e 77ce 8b3d 8768 86bd 776f 753e
00000140: e072 e5bd 399a ba3b c7c2 283e d43a bcbd
00000150: 393c 88bc 8fb3 3abd 7903 463e 7f7a d43c
00000160: 9ecb dfbd db5b 8a3e b5fc 09be 6b99 123b
00000170: 839a 24be 0412 1ebe e2af 4abe 5fd3 583e
00000180: 9e56 c7be 0380 c03b fa76 323d d1aa 443d

P.layers.0.bias f4 [50]
0.06398084 -0.015117628 -0.023911532 0.055949967 0.06912013 0.03651853 0.012817886 0.1256228
-0.07954966 -0.03730304 -0.051992387 0.0005675643 0.061131723 -0.07202626 0.0084617855 0.12096571
0.011702585 0.06549413 0.03659204 -0.059642147 -0.00044566067 -0.0039329953 0.0016385366 -0.0003249214
-0.00076566444 -0.023775594 0.11734171 -0.12719275 -0.0332391 0.035140168 0.08916963 0.026191022
-0.027979355 -0.022444261 0.11061542 0.060646504 -0.11097804 -0.06280449 0.023229994 -0.088635884
0.06863107 0.026325634 0.06925637 0.084796876 -0.073853046 0.05169305 -0.024167052 -0.011392123
0.102296785 -0.03435556
00000000: 6308 833d edaf 77bc 1ee2 c3bc cb2b 653d
00000010: db8e 8d3d 7494 153d 1c02 523c 43a3 003e
00000020: efea a2bd 13cb 18bd f8f5 54bd 98c8 143a
00000030: 4265 7a3d 8182 93bd 4da3 0a3c dfbc f73d
00000040: 33bc 3f3c c921 863d 89e1 153d 534b 74bd
00000050: 90a7 e9b9 5be0 80bb 2ac4 d63a 365a aab9
00000060: dfb6 48ba 09c5 c2bc da50 f03d d13e 02be
00000070: b925 08bd 23ef 0f3d 919e b63d 8e8e d63c
00000080: f634 e5bc 07dd b7bc 568a e23d 7868 783d
00000090: 7448 e3bd a49f 80bd d44c be3c bb86 b5bd
000000a0: 728e 8c3d dba8 d73c 49d6 8d3d fca9 ad3d
000000b0: 4440 97bd 17bc 533d fbf9 c5bc 07a6 3abc
000000c0: fa80 d13d 6ab8 0cbd

P.layers.1.weight f4 [50, 50]
-0.21426895 -0.15047602 0.036951687 0.032535367 -0.04629408 -0.16080071 0.025705457 -0.23311089
0.168162 0.014428296 0.005495714 0.009514432 0.16837557 -0.07671584 -0.1699985 -0.0090202205
0.2083821 0.24451333 0.021699017 0.24145997 0.054595746 0.044105645 0.15460044 0.02444921
-0.12022055 -0.0019684588 0.09658098 0.06825681 0.18845777 -0.15261574 0.12770171 0.10770484
-0.04937762 0.025110226 0.21829829 0.12300169 0.18958542 0.016207479 -0.20051818 0.049023047
0.08100895 -0.09575021 -0.16486011 -0.051278535 0.030679317 0.025316514 -0.032121036 0.2603079
-0.019765375 -0.2808437 -0.0521637 -0.15725592 0.06467844 0.14823215 -0.2541101 -0.051856134
-0.09307721 0.194 -0.043710936 0.14847909 0.078176916 0.15613672 -0.053064764 0.15792395
0.042941518 0.03625327 0.063354634 0.05743605 -0.021816952 0.19076061 0.046979666 -0.004900299
0.14721994 -0.0054138186 0.10521036 0.17965259 -0.051620428 -0.040610317 0.03884285 -0.17724541
-0.02225382 0.07392053 -0.10433148 -0.0376592 -0.08484112 0.07333688 0.0045125107 0.27732265
-0.18673207 0.012166812 0.05863715 -0.13305351 -0.11081554 -0.36684605 0.2683672 0.12169839
0.1653769 -0.048510607 -0.12790321 0.052238032 0.109298095 -0.27043864 0.052816827 0.18917449
0.009508987 0.10550346 -0.112857886 0.025081955 -0.017063443 -0.26405734 -0.1444357 -0.0428925
-0.16111378 -0.20133853 0.1402718 0.170557 -0.1656342 -0.10785227 0.052858535 0.004462077
0.10879508 -0.21289502 -0.18429227 -0.070343934 0.023695795 0.101467244 0.112629876 0.20785289
-0.16809782 -0.03202035 0.27209455 0.16652443 -0.102068506 -0.33309987 0.13099949 0.0019322995
-0.094023354 -0.07340735 -0.02610638 -0.037166543 0.26912633 -0.03742271 -0.031199835 0.20480661
0.0920033 0.03586871 0.10933725 0.15359609 0.06620896 0.06281831 0.2901965 0.1832157
0.20004141 0.004211415 0.09021265 -0.3028283 0.22646469 -0.11534089 0.09669255 -0.057959653
-0.16666639 0.0766025 0.11704986 0.19370005 -0.02658822 0.10418305 -0.12347801 0.01844052
0.17343149 -0.0018601203 0.026605662 -0.15232773 -0.1585937 0.1175353 -0.112238094 0.115033776
-0.043371778 -0.05574897 0.16382743 -0.053192887 0.02391872 0.13350533 -0.022130433 -0.029300792
-0.07125944 -0.19457048 0.09770354 -0.09649197 -0.054746173 -0.03810798 -0.09773648 -0.060268182
0.1391012 0.017754061 -0.079975784 -0.057328884 0.16791676 -0.026112903 -0.27342743 -0.16015187
-0.0758632 0.14865735 -0.053610902 -0.120984964 0.08060356 -0.21128887 0.0367772 -0.0606565
0.08392495 -0.07771281 0.105055 0.11299301 -0.03736875 0.03144961 0.0035449166 -0.12532265
0.090808384 -0.04240104 0.1741847 0.11916125 -0.247351 -0.11646432 -0.07366055 -0.050835323
0.041985903 -0.06259334 0.04631142 0.22705887 -0.24472152 0.023191087 -0.14605175 -0.11050032
0.12750505 0.0023353084 -0.24091326 0.0021074456 -0.10033405 0.08135381 -0.0066052973 0.04008878
0.16946325 -0.23639742 0.012976844 -0.15470001 -0.0037101142 0.06819093 0.33307615 0.1303454
0.06598033 0.014634307 -0.15238541 0.11487154 -0.10509102 -0.21170966 -0.07438067 0.06897863
00000000: 5269 5bbe 6316 1abe a75a 173d ce43 053d
00000010: dc9e 3dbd f1a8 24be 4094 d23c 9fb4 6ebe
00000020: a932 2c3e a964 6c3c 6415 b43b 6ce2 1b3c
00000030: a56a 2c3e 321d 9dbd 1614 2ebe 8cc9 13bc
00000040: 1e62 553e b461 7a3e 23c2 b13c 4841 773e
00000050: ca9f 5f3d 1fa8 343d 944f 1e3e b649 c83c
00000060: 3136 f6bd 4201 01bb 40cc c53d 3aca 8b3d
00000070: 13fb 403e 4d47 1cbe 3dc4 023e 5b94 dc3d
00000080: 3040 4abd f6b3 cd3c 9689 5f3e 4fe8 fb3d
00000090: ae22 423e 8cc5 843c a354 4dbe 64cc 483d
000000a0: 05e8 a53d b018 c4bd 17d1 28be 7109 52bd
000000b0: 3153 fb3c 9464 cf3c 5991 03bd 1447 853e
000000c0: ffea a1bc bfca 8fbe 9ba9 55bd b207 21be
000000d0: 2176 843d 2bca 173e b81a 82be 1967 54bd
000000e0: 449f bebd f0a7 463e 3d0a 33bd e70a 183e
000000f0: 381b a03d 4ee2 1f3e 705a 59bd d1b6 213e
00000100: 72e3 2f3d 4f7e 143d 13c0 813d 1042 6b3d
00000110: 77b9 b2bc c056 433e c06d 403d b092 a0bb
00000120: d3c0 163e 6766 b1bb 8778 d73d d9f6 373e
00000130: f16f 53bd 0157 26bd ae19 1f3d d27f 35be
00000140: a54d b6bc a663 973d beab d5bd 8940 1abd
00000150: 2ec1 adbd a531 963d afdd 933b 3cfd 8d3e
00000160: b136 3fbe 4f57 473c 822d 703d 2e3f 08be
00000170: 42f3 e2bd 3fd3 bbbe 6d67 893e 013d f93d
00000180: 9058 293e 0fb3 46bd 0ff9 02be 8cf7 553d
00000190: aed7 df3d ef76 8abe 7556 583d f5b6 413e
000001a0: 95cb 1b3c 3312 d83d 0922 e7bd ac78 cd3c
000001b0: a2c8 8bbc 8632 87be f4e6 13be 0cb0 2fbd
000001c0: 03fb 24be b02b 4ebe 69a3 0f3e 7fa6 2e3e
000001d0: 039c 29be a7e1 dcbd 3182 583d 9d36 923b
000001e0: f4cf de3d 2701 5abe 1db7 3cbe 7b10 90bd
000001f0: af1d c23c 0fce cf3d 7eaa e63d 63d7 543e
00000200: d621 2cbe c527 03bd fa4f 8b3e 6185 2a3e
00000210: 4b09 d1bd 118c aabe bb24 063e 3645 fd3a
00000220: 518f c0bd 9856 96bd 0cdd d5bc f23b 18bd
00000230: edca 893e 8e48 19bd cc96 ffbc d3b8 513e
00000240: 3a6c bc3d 12eb 123d 35ec df3d 4b48 1d3e
00000250: 9098 873d e3a6 803d a394 943e e59c 3b3e
00000260: a8d7 4c3e e9ff 893b 69c1 b83d 500c 9bbe
00000270: 5ce6 673e d837 ecbd be06 c63d 1a67 6dbd
00000280: 98aa 2abe c6e1 9c3d d6b7 ef3d 4e59 463e
00000290: 8acf d9bc ec5d d53d 0ae2 fcbd 9310 973c
000002a0: 0698 313e 48cf f3ba 1ef4 d93c cdfb 1bbe
000002b0: 6366 22be 59b6 f03d 16dd e5bd d496 eb3d
000002c0: 9ba6 31bd 0859 64bd 61c2 273e c9e0 59bd
000002d0: 31f1 c33c 9fb5 083e e24a b5bc 3708 f0bc
000002e0: 78f0 91bd 7c3d 47be cb18 c83d 959d c5bd
000002f0: 863d 60bd 1d17 1cbd 102a c8bd c5db 76bd
00000300: 8c70 0e3e f770 913c 58ca a3bd b1d1 6abd
00000310: 5ff2 2b3e baea d5bc aefe 8bbe dafe 23be
00000320: 2a5e 9bbd a239 183e 1b97 5bbd f7c6 f7bd
00000330: 7b13 a53d 1c5c 58be b0a3 163d f372 78bd
00000340: d8e0 ab3d e527 9fbd 1327 d73d e168 e73d
00000350: f90f 19bd 4ed1 003d d551 683b 9554 00be
00000360: bff9 b93d b7ac 2dbd 795d 323e d00a f43d
00000370: 9549 7dbe d884 eebd 58db 96bd b338 50bd
00000380: 69f9 2b3d f030 80bd 0bb1 3d3d 1f82 683e
00000390: 4798 7abe 3cfb bd3c 978e 15be fe4d e2bd
000003a0: af90 023e f90b 193b f7b1 76be 121d 0a3b
000003b0: f07b cdbd d49c a63d 4071 d8bb 2234 243d
000003c0: c687 2d3e 2a12 72be d49c 543c ae69 1ebe
000003d0: 6325 73bb b0a7 8b3d f588 aa3e 4479 053e
000003e0: b220 873d bbc4 6f3c ec0a 1cbe c541 eb3d
000003f0: f639 d7bd 6bca 58be e554 98bd ab44 8d3d

P.layers.1.bias f4 [50]
0.00197143 -0.04854473 0.008505288 0.03197223 -0.019211452 -0.057349633 -0.01933934 0.0890235
-0.018438902 0.07212089 -0.07054393 0.0035128244 -0.0143380705 -0.06168322 -0.011389135 0.06478206
0.038441017 -0.0041833967 0.04897974 0.055031437 0.015901577 -0.053676024 -0.020629207 0.10159408
0.013066875 0.0021644095 0.0071920883 -0.0153049845 0.009133422 0.054171022 -0.10502106 0.050766353
-0.06521779 0.03586337 -0.047741175 0.082869366 0.06603939 0.04499515 0.04004982 0.0046853847
-0.07200387 0.11880119 0.023440683 -0.09077412 -0.062533766 0.078510635 -0.03691704 -0.10227694
-0.008050045 -0.04628358
00000000: 1b33 013b d7d6 46bd c359 0b3c 50f5 023d
00000010: 5661 9dbc 73e7 6abd 896d 9ebc f451 b63d
00000020: 2e0d 97bc 1eb4 933d 5679 90bd 6a37 663b
00000030: 3aea 6abc 8ba7 7cbd 7f99 3abc 75ac 843d
00000040: 5474 1d3d e014 89bb fb9e 483d a568 613d
00000050: 0644 823c 64db 5bbd 95fe a8bc 8f10 d03d
00000060: 7216 563c c4d8 0d3b 9cab eb3b c2c1 7abc
00000070: 59a4 153c 6fe2 5d3d 4815 d7bd 61f0 4f3d
00000080: e890 85bd 78e5 123d 408c 43bd 6ab7 a93d
00000090: a93f 873d d64c 383d 480b 243d db87 993b
000000a0: c476 93bd 0a4e f33d ad06 c03c c8e7 b9bd
000000b0: b411 80bd 2fca a03d 5236 17bd 9376 d1bd
000000c0: 56e4 03bc da93 3dbd

P.layers.2.weight f4 [50, 50]
-0.031737078 0.02001899 0.007890769 0.17813577 -0.11622706 -0.18408257 -0.20882536 -0.036523487
0.11809964 0.031963527 -0.1579184 0.023560034 -0.032135863 -0.14867099 -0.27074087 -0.15112376
0.11451798 -0.15442064 -0.14146858 0.03029643 -0.02484974 -0.011016623 -0.002087678 -0.023337511
0.40944865 -0.42125192 -0.37126496 -0.25918818 0.04892835 0.099192746 -0.0900467 0.01457188
-0.020792218 0.017641578 0.09717276 -0.013249373 0.047769446 0.032090265 0.08351746 0.030194582
0.019970506 -0.03458526 -0.16089685 -0.083698235 -0.104550354 0.13048168 -0.07302679 0.297937
0.08084606 -0.16389765 0.14277859 -0.01675416 0.02532765 0.037866827 -0.3811865 0.27608413
-0.1292437 -0.025100155 -0.3024912 -0.17636861 0.21799357 0.0050521307 0.053654328 0.3083504
0.07973721 0.056397185 0.016660875 -0.092339896 0.09185714 -0.03846165 0.12785403 0.08417869
-0.08769667 -0.07616222 0.20766482 0.12997442 0.11177661 0.0444705 0.15956284 0.08252981
0.007635709 -0.14961144 -0.13262416 0.05371746 -0.15583043 0.12577082 0.19126087 -0.021136427
0.06977785 0.07506029 0.0152512435 0.29854462 0.28399304 -0.09136563 -0.13750097 -0.10697042
0.11171554 -0.16805054 -0.031808775 -0.06882399 -0.09716704 0.036693 -0.09409842 0.19656557
0.06406133 0.10722691 0.038568772 0.1023347 -0.058980893 0.10815622 0.057224333 0.13234855
-0.18716449 -0.13062198 0.29309595 -0.026165428 0.27597758 -0.19139306 0.09232754 -0.07756208
0.26512927 0.1370847 0.01408684 0.20021223 -0.00507917 0.054040827 0.10094817 0.025605181
0.20407629 -0.18350394 -0.13510823 0.0076335557 0.0895985 0.05633014 0.22203021 -0.06387151
0.0064094313 0.022426296 0.033638664 0.032005463 -0.041268528 0.035081826 0.016290072 -0.09655317
-0.083382845 0.093389 -0.33737984 0.042404696 -0.19240662 -0.030013684 0.15907976 0.33243003
0.116239026 -0.100011095 0.104819424 0.20132719 -0.23214957 -0.29924986 0.15174544 -0.11338519
-0.30455667 0.28201208 0.16327927 -0.06613229 0.11596043 -0.1440653 -0.02365101 -0.25751728
0.022649407 -0.09299437 0.015380964 -0.014013866 0.0014229314 0.14534867 -0.13835874 0.23890719
0.35043502 0.17655556 0.016080493 -0.052442666 -0.17971776 0.020978633 0.13608947 -0.017369067
0.06497357 -0.06002438 0.0058010183 0.32954317 -0.10939316 -0.084701136 0.28337234 -0.060414255
0.3136558 0.22055002 0.00032797037 -0.042526133 -0.29721993 0.027548647 -0.026258783 0.05780228
-0.146814 0.13383058 -0.030931879 -0.00861123 0.05701972 0.2495648 -0.14227483 -0.11958213
0.03420295 0.0513654 0.37900764 0.17469162 0.011257158 0.17182527 -0.00045777645 0.33967578
-0.0069308933 -0.033667948 -0.12500171 -0.19958718 0.055258125 0.102607735 -0.12482571 0.063062474
-0.18913874 0.074759096 0.23185553 0.14725254 0.031071443 -0.08288452 0.09330222 0.08909993
0.14339557 -0.089676276 -0.044803347 -0.15836573 -0.11029461 0.07695517 -0.10143207 0.029617961
0.01329266 -0.25975853 -0.2219861 0.14146264 -0.02579299 -0.13759182 0.13467601 -0.09427062
-0.094581194 -0.20341444 0.034959666 -0.22364931 0.038820643 -0.03509236 -0.009844559 -0.32617867
00000000: bdfe 01bd ddfe a33c 4948 013c 3969 363e
00000010: 7408 eebd 2480 3cbe 51d6 55be a799 15bd
00000020: 39de f13d 30ec 023d 5cb5 21be f900 c13c
00000030: e5a0 03bd 353d 18be 8c9e 8abe 30c0 1abe
00000040: 6788 ea3d 7220 1ebe 24dd 10be 3830 f83c
00000050: af91 cbbc 117f 34bc 6dd1 08bb 4f2e bfbc
00000060: 41a3 d13e 55ae d7be 7116 bebe 50b4 84be
00000070: 1869 483d 9125 cb3d 676a b8bd e5be 6e3c
00000080: 7154 aabc 1285 903c 8302 c73d e613 59bc
00000090: e5a9 433d 1571 033d 340b ab3d a15a f73c
000000a0: 3099 a33c 46a9 0dbd 25c2 24be fb69 abbd
000000b0: 7f1e d6bd fd9c 053e 128f 95bd 338b 983e
000000c0: 9e92 a53d c9d4 27be 8d34 123e 0540 89bc
000000d0: ef7b cf3c 3f1a 1b3d e02a c3be e65a 8d3e
000000e0: 7658 04be d79e cdbc 20e0 9abe f999 34be
000000f0: b539 5f3e 588c a53b a4c4 5b3d 1be0 9d3e
00000100: 434d a33d bc00 673d 637c 883c b31c bdbd
00000110: 991f bc3d f789 1dbd 2bec 023e e165 ac3d
00000120: 509a b3bd f0fa 9bbd 16a6 543e 0418 053e
00000130: 23eb e43d b326 363d 7164 233e 6405 a93d
00000140: f834 fa3b be33 19be a1ce 07be d706 5c3d
00000150: 0392 1fbe 11ca 003e e4d9 433e 4d26 adbc
00000160: b0e7 8e3d 36b9 993d 5ae0 793c d7da 983e
00000170: 8967 913e e71d bbbd 0ecd 0cbe 4f13 dbbd
00000180: 1ecb e43d 7115 2cbe eb49 02bd 98f3 8cbd
00000190: 83ff c6bd 664b 163d acb6 c0bd 7c48 493e
000001a0: 9632 833d c899 db3d 4afa 1d3d db94 d13d
000001b0: f395 71bd 0281 dd3d 1064 6a3d 6186 073e
000001c0: 0ca8 3fbe c5c1 05be ac10 963e e158 d6bc
000001d0: ef4c 8d3e 8bfc 43be 3916 bd3d ded8 9ebd
000001e0: 06bf 873e ee5f 0c3e 7dcc 663c 6f04 4d3e
000001f0: 2b6f a6bb ea59 5d3d eabd ce3d f5c1 d13c
00000200: 60f9 503e 75e8 3bbe d059 0abe e822 fa3b
00000210: 6b7f b73d 6fba 663d e35b 633e 11cf 82bd
00000220: 3506 d23b 5ab7 b73c b2c8 093d 2918 033d
00000230: 3009 29bd f6b1 0f3d c272 853c abbd c5bd
00000240: a0c4 aabd bb42 bf3d 0dbd acbe 8cb0 2d3d
00000250: 3e06 45be 42df f5bc cee5 223e 4534 aa3e
00000260: ba0e ee3d 9ed2 ccbd 91ab d63d b728 4e3e
00000270: 9eb8 6dbe 4737 99be 2863 1b3e 7f36 e8bd
00000280: daee 9bbe e363 903e ae32 273e 5e70 87bd
00000290: a97c ed3d db85 13be c3bf c1bc 4ed9 83be
000002a0: 408b b93c d573 bebd 7000 7c3c 6a9a 65bc
000002b0: a881 ba3a 48d6 143e eaad 0dbe 16a4 743e
000002c0: 386c b33e fbca 343e 3dbb 833c 1fce 56bd
000002d0: ef07 38be 62db ab3c 0a5b 0b3e 9349 8ebc
000002e0: dd10 853d 20dc 75bd 7816 be3b e2b9 a83e
000002f0: 8509 e0bd ca77 adbd 2e16 913e f074 77bd
00000300: 7e97 a03e ddd7 613e 70f3 ab39 e22f 2ebd
00000310: 362d 98be b3ad e13c a91c d7bc 15c2 6c3d
00000320: 6956 16be e20a 093e da64 fdbc 1e16 0dbc
00000330: 838d 693d ea8d 7f3e 7eb0 11be 7ae7 f4bd
00000340: 6418 0c3d 8764 523d 4a0d c23e 5ce2 323e
00000350: f16f 383c f7f2 2f3e b701 f0b9 fce9 ad3e
00000360: 8c1c e3bb 67e7 09bd 7300 00be 9560 4cbe
00000370: 5856 623d 0124 d23d 9fa4 ffbd e626 813d
00000380: 96ad 41be 4c1b 993d 896b 6d3e 5fc9 163e
00000390: 8a89 fe3c 5cbf a9bd 3c15 bf3d 067a b63d
000003a0: 4ad6 123e 32a8 b7bd b783 37bd a02a 22be
000003b0: 24e2 e1bd ac9a 9d3d 9ebb cfbd 5ea1 f23c
000003c0: 75c9 593c 12ff 84be 5350 63be 95db 103e
000003d0: d24b d3bc dfe4 0cbe 82e8 093e f410 c1bd
000003e0: c9b3 c1bd e04b 50be de31 0f3d 5304 65be
000003f0: 6502 1f3d 02bd 0fbd 134b 21bc e400 a7be

P.layers.2.bias f4 [50]
0.01874979 0.013593533 0.047453567 -0.07158418 -0.04551703 0.055253442 0.03044689 0.110034555
0.013698641 0.122318745 0.071212545 0.05576145 -0.0063680676 -0.031970765 0.04195309 0.08675156
0.021104913 -0.048080735 0.011205809 0.0020085787 -0.05728123 -0.035140894 0.022999493 -0.025866661
-0.051467072 0.028083283 -0.023614146 -0.02404413 -0.005829965 0.026321525 -0.025381276 -0.017797291
-0.09358681 0.054008164 -0.05497621 0.003352808 -0.022594683 -0.00013198568 0.016943889 0.027369373
-0.063530385 -0.054609776 -0.013320586 -0.049377613 0.09129454 0.023047538 -0.01762172 0.08224735
0.0155275 0.027252872
00000000: 2999 993c 69b7 5e3c ac5e 423d ba9a 92bd
00000010: 1170 3abd 6f51 623d c26b f93c cc59 e13d
00000020: 4470 603c 4082 fa3d e2d7 913d 1e66 643d
00000030: 39ab d0bb c7f3 02bd 01d7 2b3d cdaa b13d
00000040: 36e4 ac3c 4ef0 44bd 9298 373c 5ca2 033b
00000050: b99f 6abd e6ef 0fbd 6f69 bc3c 52e6 d3bc
00000060: 23cf 52bd ea0e e63c 7472 c1bc 32f8 c4bc
00000070: 4b09 bfbb 3da0 d73c 65ec cfbc a0cb 91bc
00000080: 71aa bfbd aa37 5d3d bc2e 61bd c9ba 5b3b
00000090: 7c18 b9bc a365 0ab9 e9cd 8a3c bc35 e03c
000000a0: 381c 82bd 80ae 5fbd 963e 5abc 2e40 4abd
000000b0: a2f8 ba3d 31ce bc3c 6d5b 90bc 4c71 a83d
000000c0: 0e67 7e3c 6a41 df3c

P.layers.3.weight f4 [50, 50]
-0.078885995 0.030015545 0.16721988 0.008170913 -0.16087957 -0.027614469 0.005747704 -0.2062187
-0.07718403 -0.07365812 -0.108642176 -0.020064298 -0.03160905 -0.24477878 -0.035650857 0.039504126
-0.020198664 0.092086256 -0.07320166 -0.027280383 -0.0088433325 -0.28909403 -0.07176819 -0.1195758
-0.34227145 0.05390831 -0.067077756 -0.09015513 -0.25770196 -0.021687297 -0.028762331 0.31722873
-0.19926202 -0.38127416 0.16817948 0.2016489 0.17213866 -0.14142992 0.20694882 -0.29390472
0.07586031 0.08776369 -0.027467595 -0.15507747 0.2185416 -0.059201498 -0.23641059 0.09517672
0.12322851 0.1615765 -0.173599 0.023987357 0.26388255 0.013397785 -0.028185958 0.1353495
-0.071684964 0.107107095 -0.102983885 0.015071726 -0.09369968 -0.03897639 0.100121096 -0.014603232
-0.3631877 0.12816377 -0.091432795 -0.17622732 0.032568954 0.39274526 0.190471 0.3210253
0.022710184 0.27399665 0.1832713 -0.045385916 0.10934094 0.17762254 0.12099103 0.16220763
0.12134545 -0.20815426 -0.071784 -0.00052643515 -0.08767865 -0.21627097 -0.16766839 0.015226481
-0.107974924 -0.13377225 -0.03628175 -0.069888785 0.042254712 -0.14920457 -0.23412122 -0.12840453
0.04194979 0.070232 0.011382772 -0.109370664 0.018280754 -0.019306598 -0.15801287 0.16634315
0.015847579 -0.07381609 -0.078075066 -0.17706378 0.012540074 0.115120456 -0.10883861 0.045061693
0.10607367 -0.009963656 0.13461797 -0.070985936 -0.18792021 -0.14454508 0.026414879 -0.21216859
-0.15981773 0.13465337 -0.020370686 -0.0131816 -0.008555354 0.057119124 -0.29141834 -0.06679729
-0.0040098135 0.051360626 0.030740434 0.0565417 -0.005131777 -0.004576317 -0.027832069 0.08977231
-0.05607007 -0.008948342 0.21402948 -0.080433495 0.27430654 0.121815 -0.0033070252 0.09061562
-0.21687263 -0.13923456 0.14793946 0.047722224 0.08639252 -0.3369051 0.08679383 0.0176637
-0.053736478 -0.0004038858 0.024094475 -0.15810439 -0.071251065 -0.12055799 0.116996735 -0.28197053
-0.22522782 0.16977943 0.105140775 0.21900381 -0.045710724 -0.1625168 -0.14011075 0.1487553
0.2408793 -0.09843935 -0.08764658 0.032137215 0.08400058 0.023909664 0.029736735 0.18476953
-0.016593885 0.060508218 -0.01672711 -0.018867053 0.10654918 0.08785872 0.10616692 -0.0024896213
-0.05125147 -0.016910842 0.07602006 -0.017223079 -0.08798627 0.10245602 0.11032717 0.07825179
-0.027972601 0.07721356 0.010514434 0.22470959 -0.21469283 -0.15876779 0.0018123689 -0.026052596
0.15936163 -0.052667033 -0.027967345 0.12151943 0.32195267 0.13484022 0.058199562 -0.10068934
-0.32892472 0.045338523 0.18174356 -0.25578958 0.10936681 0.1640765 -0.10239213 -0.16158015
0.24641535 0.22312145 -0.024581848 0.06245419 0.28367928 -0.24407142 -0.026829295 -0.0049173865
-0.1873206 -0.27355084 -0.03417392 -0.13779618 0.04402748 0.18159284 -0.29218248 0.131317
0.1372337 -0.1718223 0.15684947 0.03147572 0.013204717 0.04048898 0.034584656 -0.11345865
0.26206458 -0.029989893 0.08646657 -0.28201267 0.015321852 -0.057707123 0.21818344 0.09650199
0.043029156 0.23562083 -0.06316345 -0.18332228 0.23788804 0.2104899 -0.06111217 0.048450485
00000000: fb8e a1bd 29e3 f53c b03b 2b3e 4bdf 053c
00000010: 9dbd 24be bd37 e2bc 3c57 bc3b ff2a 53be
00000020: a912 9ebd 12da 96bd ca7f debd e25d a4bc
00000030: 7e78 01bd 4aa7 7abe a206 12bd 14cf 213d
00000040: ab77 a5bc b897 bc3d c0ea 95bd 1c7b dfbc
00000050: a0e3 10bc 2204 94be 33fb 92bd 28e4 f4bd
00000060: 343e afbe f6ce 5c3d 1060 89bd 41a3 b8bd
00000070: 83f1 83be 8fa9 b1bc fb9e ebbc ce6b a23e
00000080: 580b 4cbe 5e36 c3be 3e37 2c3e 0d7d 4e3e
00000090: 1e45 303e 01d3 10be 64ea 533e ae7a 96be
000000a0: a65c 9b3d 73bd b33d b903 e1bc a1cc 1ebe
000000b0: 5fc9 5f3e 457d 72bd 9e15 72be 03ec c23d
000000c0: 3b5f fc3d 4f74 253e f0c3 31be 2281 c43c
000000d0: 9d1b 873e 6282 5b3c 3de6 e6bc 0f99 0a3e
000000e0: 91cf 92bd f75a db3d 37e9 d2bd 67ef 763c
000000f0: 9ee5 bfbd b5a5 1fbd 4a0c cd3d 6542 6fbc
00000100: bdf3 b9be 5d3d 033e 1e41 bbbd ef74 34be
00000110: 0667 053d e815 c93e d40a 433e 6e5d a43e
00000120: b50a ba3c 4a49 8c3e 79ab 3b3e 95e6 39bd
00000130: 25ee df3d afe2 353e 25ca f73d c219 263e
00000140: f783 f83d 6426 55be 7d03 93bd 7700 0aba
00000150: dd90 b3bd 2376 5dbe 43b1 2bbe 7d78 793c
00000160: f521 ddbd 98fb 08be 2c9c 14bd da21 8fbd
00000170: 4713 2d3d 15c9 18be 79bd 6fbe 7a7c 03be
00000180: 8bd3 2b3d cbd5 8f3d ce7e 3a3c bafd dfbd
00000190: 85c1 953c df28 9ebc 20ce 21be dc55 2a3e
000001a0: c8d2 813c e42c 97bd d2e5 9fbd 3550 35be
000001b0: e274 4d3c 46c4 eb3d c7e6 debd 9c92 383d
000001c0: 273d d93d 9a3e 23bc 4bd9 093e 1361 91bd
000001d0: 286e 40be a003 14be 0464 d83c b942 59be
000001e0: 42a7 23be 93e2 093e 6de0 a6bc a3f7 57bc
000001f0: c12b 0cbc bef5 693d c934 95be 05cd 88bd
00000200: c164 83bb 855f 523d 5dd3 fb3c 4598 673d
00000210: 7728 a8bb eef4 95bb 1400 e4bc 8bda b73d
00000220: bba9 65bd 119c 12bc 8b2a 5b3e 51ba a4bd
00000230: e871 8c3e 257a f93d adba 58bb af94 b93d
00000240: dc13 5ebe 8193 0ebe 717d 173e 6178 433d
00000250: 90ee b03d d37e acbe f7c0 b13d 77b3 903c
00000260: c81a 5cbd a2c0 d3b9 c761 c53c 1ee6 21be
00000270: 14ec 91bd 1ce7 f6bd fc9b ef3d 715e 90be
00000280: 1fa2 66be a9da 2d3e 0c54 d73d 8942 603e
00000290: 2b3b 3bbd ce6a 26be 3179 0fbe 4f53 183e
000002a0: 10a9 763e 929a c9bd 0d80 b3bd 50a2 033d
000002b0: 7f08 ac3d 33de c33c 749a f33c 3934 3d3e
000002c0: e6ef 87bc 77d7 773d 4b07 89bc 148f 9abc
000002d0: 7536 da3d 46ef b33d 0b6e d93d ea28 23bb
000002e0: 10ed 51bd 9b88 8abc 68b0 9b3d 6a17 8dbc
000002f0: 2532 b4bd 76d4 d13d 36f3 e13d 7942 a03d
00000300: cc26 e5bc 2522 9e3d bc44 2c3c 451a 663e
00000310: 70d8 5bbe 0694 22be 028d ed3a 416c d5bc
00000320: b22f 233e 63b9 57bd c61b e5bc 2edf f83d
00000330: fbd6 a43e 8e13 0a3e aa62 6e3d 3636 cebd
00000340: d268 a8be e3b4 393d fc1a 3a3e daf6 82be
00000350: b5fb df3d ac03 283e f7b2 d1bd 4475 25be
00000360: 4e54 7c3e f379 643e df5f c9bc f7cf 7f3d
00000370: 693e 913e dced 79be 1cc9 dbbc 0722 a1bb
00000380: f9d0 3fbe db0e 8cbe f4f9 0bbd 711a 0dbe
00000390: 2956 343d 79f3 393e f198 95be f777 063e
000003a0: fe86 0c3e 2ff2 2fbe 269d 203e afec 003d
000003b0: 9958 583c c6d7 253d a4a8 0d3d 025d e8bd
000003c0: 542d 863e 5dad f5bc 6315 b13d f763 90be
000003d0: 8108 7b3c 4e5e 6cbd 7b6b 5f3e d6a2 c53d
000003e0: 573f 303d 9646 713e d75b 81bd d6b8 3bbe
000003f0: ec98 733e aa8a 573e c150 7abd 0474 463d

P.layers.3.bias f4 [50]
-0.009638012 -0.0077088745 -0.05757787 -0.017526457 -0.018996183 -0.01407758 -0.009048351 0.0035270723
0.044792354 -0.09198291 -0.0012057876 -0.017948592 -0.04499776 0.054009847 0.01231656 -0.0111671435
-0.040826656 -0.022233663 0.0023333519 -0.014946918 -0.035088968 0.010989095 0.032497298 -0.013735573
-0.073661774 0.11661235 0.077629276 -0.051656827 -0.028345145 0.11138977 0.041801136 0.04375267
0.031394135 0.026543811 0.004980209 0.029156342 0.030616896 -0.03763707 0.012724847 0.042723116
0.015551797 0.036738634 0.021944337 0.019001687 0.007433415 -0.004703733 0.038347755 0.08344877
-0.037042815 -0.01386855
00000000: c1e8 1dbc ba9a fcbb c6d6 6bbd a593 8fbc
00000010: e29d 9bbc a6a5 66bc 893f 14bc 7426 673b
00000020: 3078 373d 8961 bcbd 850b 9eba ed08 93bc
00000030: 924f 38bd 6e39 5d3d 66cb 493c 65f6 36bc
00000040: da39 27bd 5f23 b6bc 26eb 183b ebe3 74bc
00000050: 73b9 0fbd 9b0b 343c e31b 053d 2b0b 61bc
00000060: fcdb 96bd 75d2 ee3d 19fc 9e3d 1c96 53bd
00000070: 1434 e8bc 5220 e43d ab37 2b3d 0036 333d
00000080: 2397 003d 6872 d93c 0531 a33b 48d9 ee3c
00000090: 49d0 fa3c 5429 1abd e07b 503c 6ffe 2e3d
000000a0: f7cc 7e3c 407b 163d 9cc4 b33c 6da9 9b3c
000000b0: 0194 f33b c621 9abb 8912 1d3d 30e7 aa3d
000000c0: 35ba 17bd ea38 63bc

P.layers.4.weight f4 [50, 50]
0.045492083 -0.16105288 0.06210967 0.15163405 -0.21143465 -0.2257481 -0.113128334 0.006185589
0.14693087 -0.037499428 -0.015758924 0.35509208 0.07575161 -0.020659236 -0.25380898 0.027369667
0.128555 -0.081283465 0.15609701 0.12901752 -0.030155262 0.27865762 -0.12253998 0.083063945
-0.11322804 0.11690673 0.31837195 -0.045791734 0.046354465 0.17822236 -0.09386121 -0.2562976
0.12112917 0.051845767 0.03559017 0.17631486 -0.07354035 -0.25742674 0.14942917 0.29494205
-0.16729993 -0.12604685 -0.0898778 -0.08476056 0.17702861 0.08048997 0.053367667 0.23264681
-0.07820173 -0.35800543 0.18456559 -0.20153287 0.2092953 0.01474106 0.043670032 -0.18793185
-0.06098137 -0.10962967 0.020458676 0.023647612 0.18406042 0.11751756 0.18345666 0.19022366
-0.17157096 0.21197648 -0.073533475 0.053057805 -0.004661883 -0.160415 0.2592408 0.095283926
-0.019768797 -0.21478069 0.117548816 -0.102387026 0.13216324 -0.15052764 0.060099196 0.03241066
-0.11193178 -0.12044485 -0.11746787 0.18538049 -0.13889967 -0.0770786 -0.13355109 -0.07272847
0.044266358 0.14648376 -0.1241266 0.0631765 0.17958784 0.14593247 -0.018311607 0.17600518
-0.1488812 -0.08551451 0.06831086 0.017737007 0.007034958 -0.04412107 -0.08662488 0.167711
0.124074765 0.006462581 0.060779687 -0.0850275 0.1621402 0.12160759 0.030369949 0.04159169
-0.26485085 0.040047605 -0.042269405 0.097870834 -0.03980528 0.13593008 0.017926434 -0.042449005
-0.15961513 0.24397807 0.023482205 -0.13247597 0.37786046 -0.056731787 -0.074994445 -0.055520743
0.0920615 0.045955237 -0.13578919 0.0014567097 0.07508299 -0.104281135 -0.04875485 0.050756153
-0.06971069 0.014179787 -0.2818606 -0.012481673 0.063059136 -0.08481797 -0.07337491 0.029036595
-0.13107859 -0.18483771 -0.12322447 -0.19561501 0.14779353 0.020043928 0.19151862 -0.09896226
0.09249227 -0.10862487 0.08982883 0.10917311 -0.10908218 0.07785242 -0.22368984 0.058158632
-0.03243322 0.27522644 0.20251413 -0.24548435 -0.19630168 0.15744662 0.12656893 0.14456281
0.08929011 0.13457167 0.07023321 0.026624946 -0.009289559 0.24564092 -0.29740712 0.032523114
-0.08213826 0.39334688 0.3226194 -0.23827074 -0.13547209 -0.24478884 -0.18266618 -0.12343589
-0.29826292 -0.2097848 -0.19264118 0.0039173327 -0.23358515 -0.040540375 -0.030404713 -0.1835597
-0.21810709 -0.33078232 0.07908353 0.028859636 0.19742407 0.062127303 0.29883412 -0.036448542
-0.08603032 0.40468097 0.02083419 0.077453256 0.069203146 0.1374408 0.02279979 0.1420979
-0.19781628 0.15719894 0.15458521 -0.12161363 0.0061492743 0.06992138 -0.0058627725 0.20509818
0.069154814 -0.16054413 0.16315947 0.0419877 -0.17092218 -0.0351426 -0.022851009 0.26366046
-0.0493507 -0.05483009 0.0416721 -0.35509345 0.45158276 0.22626965 0.0386227 0.0028614046
-0.06491184 -0.08342474 0.31867817 0.082928896 0.120114364 -0.16787973 -0.060002513 -0.2055435
-0.1821018 0.007341927 -0.1759097 -0.24819186 0.0006638079 -0.16614252 0.06641618 0.02847957
-0.06267648 0.058474597 -0.32176596 0.22078833 0.17812644 0.34641537 -0.17212895 0.06023158
00000000: e855 3a3d 0ceb 24be b666 7e3d f545 1b3e
00000010: 5382 58be 832a 67be d4af e7bd 7bb0 ca3b
00000020: 0c75 163e 0099 19bd dc18 81bc a1ce b53e
00000030: a923 9b3d 8f3d a9bc 40f3 81be 5a36 e03c
00000040: eca3 033e f277 a6bd e5d7 1f3e 2b1d 043e
00000050: 2b08 f7bc 36ac 8e3e 3ef6 fabd 6e1d aa3d
00000060: 1ae4 e7bd cc6c ef3d a601 a33e 1d90 3bbd
00000070: 2ede 3d3d ec7f 363e 4e3a c0bd 7039 83be
00000080: 9212 f83d 3a5c 543d 00c7 113d e28b 343e
00000090: 539c 96bd 70cd 83be f603 193e a502 973e
000000a0: ac50 2bbe 6d12 01be da11 b8bd f296 adbd
000000b0: fd46 353e edd7 a43d 0e98 5a3d f73a 6e3e
000000c0: 3b28 a0bd 7d4c b7be c3fe 3c3e a25e 4ebe
000000d0: 8251 563e 7d84 713c 59df 323d 3571 40be
000000e0: 9ac7 79bd 8585 e0bd f498 a73c a3b8 c13c
000000f0: 567a 3c3e 0cad f03d 10dc 3b3e fec9 423e
00000100: 4cb0 2fbe 5d10 593e b898 96bd 2453 593d
00000110: b6c2 98bb d443 24be 36bb 843e 3824 c33d
00000120: 2cf2 a1bc 78ef 5bbe 6fbd f03d 4ab0 d1bd
00000130: cd55 073e eb23 1abe 932a 763d 0ac1 043d
00000140: 7d3c e5bd caab f6bd ff92 f0bd 62d4 3d3e
00000150: b73b 0ebe 63db 9dbd 9ec1 08be aaf2 94bd
00000160: a450 353d d7ff 153e 1636 febd ae62 813d
00000170: e0e5 373e 526f 153e 3902 96bc b43a 343e
00000180: 5074 18be 3b22 afbd 90e6 8b3d 334d 913c
00000190: 8185 e63b 4cb8 34bd 6368 b1bd 6fbc 2b3e
000001a0: e91a fe3d 0fc4 d33b 1ff4 783d e622 aebd
000001b0: 1508 263e 660d f93d 66ca f83c 0c5c 2a3d
000001c0: 889a 87be f508 243d af22 2dbd 8170 c83d
000001d0: dc0a 23bd 4131 0b3e 75da 923c 02df 2dbd
000001e0: 2672 23be 63d5 793e c15d c03c c8a7 07be
000001f0: ed76 c13e 975f 68bd b096 99bd b869 63bd
00000200: bd8a bc3d 8f3b 3c3d 520c 0bbe 11ef be3a
00000210: 1cc5 993d 5991 d5bd 2ab3 47bd afe5 4f3d
00000220: 7ac4 8ebd 5652 683c 0850 90be ee7f 4cbc
00000230: 2625 813d 0bb5 adbd 9645 96bd 27de ed3c
00000240: 7739 06be 1946 3dbe 1c5d fcbd 4d4f 48be
00000250: 3057 173e 2a33 a43c 751d 443e baac cabd
00000260: 966c bd3d b776 debd 2df8 b73d 2796 df3d
00000270: 7a66 dfbd 1771 9f3d f30e 65be bf37 6e3d
00000280: b2d8 04bd 7bea 8c3e dd5f 4f3e 4060 7bbe
00000290: 4f03 49be b039 213e 499b 013e 4608 143e
000002a0: bcdd b63d 28cd 093e 6ed6 8f3d 8f1c da3c
000002b0: 3c33 18bc 4b89 7b3e bf45 98be f536 053d
000002c0: 1b38 a8bd c364 c93e 5f2e a53e 3ffd 73be
000002d0: 32b9 0abe eda9 7abe d80c 3bbe f5cb fcbd
000002e0: ebb5 98be d4d1 56be bb43 45be f85c 803b
000002f0: f230 6fbe aa0d 26bd 4e13 f9bc 13f7 3bbe
00000300: 7757 5fbe 4d5c a9be 8cf6 a13d 0b6b ec3c
00000310: 8929 4a3e 3379 7e3d c900 993e 114b 15bd
00000320: aa30 b0bd 5832 cf3e 77ac aa3c d09f 9e3d
00000330: 61ba 8d3d 48bd 0c3e a0c6 ba3c 1d82 113e
00000340: 5a90 4abe c2f8 203e 964b 1e3e 9110 f9bd
00000350: da7f c93b f132 8f3d 801c c0bb 4205 523e
00000360: 0aa1 8d3d ae65 24be 4713 273e 4bfb 2b3d
00000370: 3906 2fbe b0f1 0fbd 0a32 bbbc 81fe 863e
00000380: f623 4abd 8495 60bd 5db0 2a3d cfce b5be
00000390: db35 e73e 3bb3 673e d632 1e3d 6786 3b3b
000003a0: 80f0 84bd 97da aabd c929 a33e a0d6 a93d
000003b0: 85fe f53d aae8 2bbe 32c5 75bd ff79 52be
000003c0: e578 3abe 8c94 f03b ac21 34be 0226 7ebe
000003d0: 6503 2e3a 4421 2abe 3505 883d fd4d e93c
000003e0: 875c 80bd 0f83 6f3d 82be a4be 5616 623e
000003f0: c766 363e 5b5d b13e 9242 30be 64b5 763d

P.layers.4.bias f4 [50]
0.028600767 -0.009147773 0.001116548 -0.051647414 -0.009602422 -0.032967154 -0.0022707672 0.0153806135
0.018706266 -0.0064478773 0.007634679 0.0064858757 -0.0050407164 -0.011745935 0.00944484 -0.04501218
0.011885548 0.014714436 0.012885267 -0.00044888948 0.010054313 -0.07063268 -0.007136076 -0.0015206127
-0.01488931 -0.03858599 0.050722938 -0.05919599 0.007569485 0.011173948 -0.00956459 0.015457654
-0.01945758 0.0016443743 -0.044949036 -0.0026952045 0.0018512218 0.03354729 0.01782265 -0.0034923977
0.0014098679 -0.003969302 -0.011243288 0.007091957 -0.0042816047 -0.003980954 0.011556497 0.009388467
0.010276534 0.03304468
00000000: 284c ea3c 8ae0 15bc 2259 923a 3d8c 53bd
00000010: 7a53 1dbc 9108 07bd 27d1 14bb f8fe 7b3c
00000020: e23d 993c b748 d3bb 542c fa3b 7887 d43b
00000030: 982c a5bb 0672 40bc 88be 1a3c b15e 38bd
00000040: 9abb 423c d114 713c ba1c 533c ed58 ebb9
00000050: d8ba 243c dea7 90bd bfd5 e9bb 4c4f c7ba
00000060: 4bf2 73bc 580c 1ebd dbc2 4f3d 7f77 72bd
00000070: 7109 f83b ef12 373c ccb4 1cbc 1a42 7d3c
00000080: 8165 9fbc 0c88 d73a 7b1c 38bd 07a2 30bb
00000090: b2a4 f23a e268 093d ce00 923c b6e0 64bb
000000a0: 51cb b83a eb10 82bb c535 38bc a663 e83b
000000b0: b44c 8cbb aa72 82bb 7657 3d3c 16d2 193c
000000c0: e85e 283c dc59 073d

P.layers.5.weight f4 [1, 50]
0.5961877 -0.00012887818 -0.037398025 0.2843092 -0.098211065 0.31924552 -0.05180318 0.255109
0.15204252 -0.24190876 0.25924549 -0.18084353 0.11453898 0.041395802 -0.08809102 0.07127115
0.00538799 -0.35295174 -0.38967884 -0.07437852 0.46478945 -0.22149695 -0.040238593 0.11593239
0.08103151 0.31927535 0.041450642 0.3385088 -0.0683161 -0.10535076 0.054212507 -0.16922925
0.008552462 -0.2296858 0.05428796 -0.4237792 -0.419436 0.05625157 -0.030257089 0.23927486
-0.26245308 0.07447146 -0.06867088 0.16380401 0.13386595 -0.062471803 -0.12131501 0.059531227
-0.028060982 0.116424985
00000000: c29f 183f 7923 07b9 ac2e 19bd fa90 913e
00000010: e222 c9bd 2674 a33e 922f 54bd a69d 823e
00000020: 09b1 1b3e eeb6 77be d3bb 843e 0c2f 39be
00000030: 6a93 ea3d a58e 293d 1169 b4bd 9cf6 913d
00000040: bc8d b03b 17b6 b4be fc83 c7be c453 98bd
00000050: e2f8 ed3e 19d0 62be 39d1 24bd f66d ed3d
00000060: d9f3 a53d 0f78 a33e 26c8 293d 0751 ad3e
00000070: 50e9 8bbd 24c2 d7bd ef0d 5e3d 6f4a 2dbe
00000080: a01f 0c3c c132 6bbe 0d5d 5e3d 96f9 d8be
00000090: 51c0 d6be 0c68 663d b7dd f7bc 7804 753e
000000a0: 4060 86be 7e84 983d 51a3 8cbd 3dbc 273e
000000b0: 2814 093e 6fe2 7fbd 0174 f8bd 04d7 733d
000000c0: 25e0 e5bc 3970 ee3d

Q.layers.0.weight f4 [50, 2]
-0.05058097 0.18363515 -0.062305138 -0.4769331 -0.02526803 0.28692636 -0.009989535 0.27979904
-0.25500304 -0.37465942 0.51319796 0.73350155 -0.27218485 0.25837743 -0.23440859 -0.13964462
0.2909426 0.5939023 -0.11967121 -0.18809322 -0.25279894 0.23627101 -0.25293675 0.08334951
0.046525758 -0.4543929 0.017966203 0.75669515 -0.22640663 -0.39714196 -0.08553881 -0.16057871
0.0064477893 -0.45512483 0.07455301 0.49796173 0.179863 0.605731 -0.0103562465 0.084471755
0.21633147 -0.17602243 -0.22866262 0.4112419 0.06316401 0.3558053 0.010388209 0.07606953
-0.4542546 0.16295913 0.011192409 0.1935973 -0.04231851 -0.6519734 0.018717088 -0.28247887
0.30153632 -0.5016482 -0.10932283 0.5009325 -0.14071693 0.40805706 -0.2330021 0.21103077
0.022855809 0.4689127 0.029630227 0.09765524 -0.14159065 0.4597702 -0.054055303 -0.4721049
0.011795064 -0.25490603 0.079170644 0.6738992 0.0044080154 -0.20230499 -0.06992285 0.7894032
-0.0616489 -0.18503046 -0.028629066 -0.39638394 0.21680266 -0.47629052 0.0039034616 -0.2735372
0.15364169 -0.3182068 0.079825476 0.4836468 0.21294175 0.27101964 0.2699321 0.51635116
0.22843218 -0.32991108 0.089994 -0.35744724
00000000: fe2d 4fbd da0a 3c3e ac33 7fbd 9330 f4be
00000010: e6fe cebc 03e8 923e 26ab 23bc d241 8f3e
00000020: c28f 82be 5cd3 bfbe f160 033f c2c6 3b3f
00000030: d05b 8bbe 0c4a 843e ce08 70be 00ff 0ebe
00000040: 6ef6 943e fb09 183f 2e16 f5bd 829b 40be
00000050: dd6e 81be 07f1 713e ed80 81be 26b3 aa3d
00000060: cb91 3e3d 30a6 e8be dc2d 933c c6b6 413f
00000070: 24d7 67be 3156 cbbe f92e afbd bf6e 24be
00000080: fa47 d33b 1f06 e9be 40af 983d d7f4 fe3e
00000090: 022e 383e 3011 1b3f 3fad 29bc 87ff ac3d
000000a0: ff85 5d3e 393f 34be 8926 6abe 4c8e d23e
000000b0: 225c 813d 1d2c b63e 4e33 2a3c 57ca 9b3d
000000c0: 0f94 e8be c2de 263e 5e60 373c 5f3e 463e
000000d0: 2d56 2dbd bbe7 26bf 9454 993c 12a1 90be
000000e0: f862 9a3e 046c 00bf a6e4 dfbd 1d3d 003f
000000f0: 1918 10be dbec d03e 1a98 6ebe 7318 583e
00000100: 1b3c bb3c 5315 f03e 17bb f23c 78ff c73d
00000110: 24fd 10be 0067 eb3e 1869 5dbd bcb7 f1be
00000120: 1640 413c 0b83 82be 3824 a23d a884 2c3f
00000130: 1d71 903b 0a29 4fbe b633 8fbd 5416 4a3f
00000140: 8f83 7cbd a078 3dbe 8187 eabc d6f2 cabe
00000150: 8401 5e3e 5adc f3be 38d1 7f3b 110d 8cbe
00000160: 3f54 1d3e 00ec a2be 8a7b a33d 8ea0 f73e
00000170: 670d 5a3e 16c3 8a3e 8a34 8a3e 972f 043f
00000180: 20ea 693e 1bea a8be c64e b83d 5303 b7be

Q.layers.0.bias f4 [50]
-0.062380947 0.04550954 0.011121155 0.00064015854 0.16682652 -0.094309844 0.08938676 0.13493985
-0.20599847 0.1297637 -0.004941919 0.37131324 -0.03884164 -0.014219079 0.098250866 0.09459215
-0.19830085 -0.0731768 -0.063130975 -0.016740296 -0.039725292 0.007538384 -0.076530606 -0.0038723426
0.11539723 -0.044810012 -0.0009002465 0.024322655 -0.011563648 0.029585212 0.016717577 0.11508428
-0.032126024 0.057662062 0.024959086 0.024237392 -0.057265494 -0.052892737 -0.018244041 0.029327344
0.06126427 0.08209924 -0.11895238 0.09452114 -0.009296802 -0.04395662 -0.19402885 -0.078334324
-0.025668288 -0.028682657
00000000: 2a83 7fbd 3668 3a3d 8135 363c 50d0 273a
00000010: 92d4 2a3e 8525 c1bd 6810 b73d ac2d 0a3e
00000020: 43f1 52be c6e0 043e d2ef a1bb c51c be3e
00000030: 6918 1fbd 24f7 68bc c037 c93d 87b9 c13d
00000040: 610f 4bbe b8dd 95bd d04a 81bd f222 89bc
00000050: fdb6 22bd 8c04 f73b 14bc 9cbd 21c7 7dbb
00000060: 6255 ec3d b48a 37bd 85fe 6bba 4e40 c73c
00000070: 7475 3dbc b05c f23c 4df3 883c 4fb1 eb3d
00000080: 9496 03bd 0e2f 6c3d ff76 cc3c 7f8d c63c
00000090: 398f 6abd 0ea6 58bd 8774 95bc e63f f03c
000000a0: 3ef0 7a3d a523 a83d 4e9d f3bd 4d94 c13d
000000b0: 9d51 18bc db0b 34bd 80af 46be bf6d a0bd
000000c0: 4d46 d2bc e4f7 eabc

Q.layers.1.weight f4 [50, 50]
-0.17920971 0.047607735 0.41631892 -0.1837967 -0.012890401 -0.14621785 0.24049029 0.13243805
0.040314294 0.023194743 -0.07470099 -0.12345418 0.0015904933 -0.1175207 0.038976654 0.24171239
0.10693828 0.15970968 0.06843189 -0.0074461126 0.16611633 0.13210903 -0.3340595 -0.13563329
-0.32267818 -0.18895866 -0.052966475 0.11085706 0.042266946 -0.093544655 -0.04971751 0.10484879
0.12337211 0.0027519271 0.03142598 0.07686671 0.072786964 -0.15341263 -0.11683157 -0.10746307
0.011857324 -0.05847682 0.17901734 0.045762774 0.048287928 -0.31427935 0.0021567808 -0.15484996
0.07915769 0.092887186 0.13562596 0.1457952 0.091436654 -0.0859447 -0.10006663 0.053742137
-0.20618075 0.057378236 -0.035471823 -0.116351515 -0.08460988 0.01726257 0.04500292 0.2855472
-0.08678329 -0.11388273 -0.048746537 -0.061117392 0.08053293 -0.113662876 -0.08359223 0.050236374
-0.31442684 -0.028706642 -0.04477274 0.070887014 0.24741475 -0.02668102 -0.06017036 0.010925159
-0.18798962 -0.10170076 -0.009364414 0.05064083 0.0054678577 0.19191095 0.24744707 -0.101621345
-0.0018914463 0.003365573 0.029016363 0.014380617 -0.08351067 -0.119149156 0.050460033 0.009628383
-0.17654432 -0.061230704 -0.16839783 -0.05046662 0.29296735 0.01656123 0.060681067 -0.13102804
0.08833101 0.18774173 -0.044001743 0.0159495 0.14461043 0.08138939 -0.21580489 -0.18859799
-0.20996818 0.21493766 0.15399744 0.124684855 -0.031152098 -0.14640617 0.024078926 -0.24536556
-0.10653493 0.17031941 -0.14045605 0.08013138 -0.1410579 0.22001217 0.09075258 -0.09538447
0.0326655 0.11727017 0.049827706 0.11143352 0.03908665 0.1056485 0.14090513 -0.096465826
-0.2383453 0.10898193 -0.11073224 -0.0028495206 0.006035588 -0.12037976 -0.109965175 0.10016854
-0.20257126 0.06812623 -0.082494706 0.07696984 -0.10488776 0.18373317 -0.17631122 0.11231575
-0.06424638 -0.08179438 0.046568803 -0.210628 -0.24754128 0.021462869 0.29096472 -0.01939539
0.09681397 -0.2048357 -0.2940623 -0.15721616 0.03645664 -0.05785061 -0.14109129 -0.336264
-0.03884224 -0.08246062 0.2875165 0.029513901 -0.24221236 0.08166593 -0.108079314 0.12419717
-0.0120464675 -0.044383522 0.22085474 0.1514988 -0.10014917 -0.28115648 -0.28036523 -0.17113319
0.09572732 0.18209392 -0.04518235 -0.042292926 -0.10836944 -0.052307896 0.10614589 0.10077431
-0.09201594 0.037310418 -0.09156314 -0.29241043 -0.13031359 0.052716985 -0.3133803 -0.13497953
0.10709253 -0.4821088 0.014576853 0.24949609 0.039550185 -0.030175809 0.18743947 -0.055483807
-0.037559737 0.04142047 0.15036121 -0.114284895 -0.04680804 0.07533696 -0.20755848 0.099486396
-0.12768051 0.0048620026 0.18536204 -0.07112607 -0.0064911186 -0.11829693 -0.05056624 0.16974294
0.25062606 -0.04413838 0.07488208 -0.23602505 -0.1434596 -0.007616199 0.020087486 0.099986814
0.08762592 -0.121517874 0.0041492647 -0.07291084 -0.12929493 -0.12597491 0.11803472 0.167493
0.32269433 -0.05632524 0.2991947 0.11737585 0.007406516 0.11228475 0.05581388 0.06819389
0.097318076 -0.06278126 0.06839315 -0.0917964 0.034372248 -0.21902105 0.13367254 -0.011114696
00000000: c082 37be 5400 433d c127 d53e 3435 3cbe
00000010: 4332 53bc 22ba 15be 1643 763e d79d 073e
00000020: 9a20 253d e702 be3c d5fc 98bd 8cd5 fcbd
00000030: 1978 d03a b1ae f0bd fca5 1f3d 7483 773e
00000040: 7502 db3d ef8a 233e 0526 8c3d 85fe f3bb
00000050: 661a 2a3e 9747 073e d909 abbe 74e3 0abe
00000060: 1336 a5be 617e 41be 60f3 58bd 0709 e33d
00000070: 1b20 2d3d 5794 bfbd 96a4 4bbd f6ba d63d
00000080: 84aa fc3d ad59 343b 87b8 003d 4b6c 9d3d
00000090: 5511 953d 3318 1dbe 6445 efbd 9915 dcbd
000000a0: 3945 423c 6485 6fbd 5250 373e bf71 3b3d
000000b0: 90c9 453d 39e9 a0be c758 0d3b fd90 1ebe
000000c0: 6d1d a23d a33b be3d 88e1 0a3e 564b 153e
000000d0: 2443 bb3d c603 b0bd bcef ccbd b720 5c3d
000000e0: 0c21 53be 7105 6b3d e74a 11bd b449 eebd
000000f0: f247 adbd 3c6a 8d3c fb54 383d 3e33 923e
00000100: 70bb b1bd 593b e9bd 73aa 47bd 3b56 7abd
00000110: 73ee a43d 15c8 e8bd 6732 abbd a8c4 4d3d
00000120: 8efc a0be 312a ebbc 9f63 37bd 362d 913d
00000130: 4b5a 7d3e 2892 dabc 3275 76bd 70ff 323c
00000140: 5a80 40be 7d48 d0bd 336d 19bc c26c 4f3d
00000150: b72b b33b 4e84 443e c462 7d3e da1e d0bd
00000160: 68ea f7ba f290 5c3b b9b3 ed3c ae9c 6b3c
00000170: a407 abbd 7904 f4bd 2eaf 4e3d 5ec0 1d3c
00000180: 09c8 34be 0ccd 7abd 7b70 2cbe 16b6 4ebd
00000190: d1ff 953e 6bab 873c b68c 783d 372c 06be
000001a0: e3e6 b43d 5e3f 403e 2c3b 34bd 87a8 823c
000001b0: c214 143e 7baf a63d f5fb 5cbe d51f 41be
000001c0: e601 57be 9e18 5c3e 81b1 1d3e c65a ff3d
000001d0: af32 ffbc 80eb 15be 2b41 c53c 1c41 7bbe
000001e0: fc2e dabd 3668 2e3e b6d3 0fbe ec1b a43d
000001f0: 7b71 10be df4a 613e 7ddc b93d ef58 c3bd
00000200: 42cc 053d 582b f03d 2318 4c3d 4237 e43d
00000210: 5319 203d 3e5e d83d 6f49 103e e08f c5bd
00000220: ca10 74be eb31 df3d 96c7 e2bd 06bf 3abb
00000230: 2fc6 c53b aa89 f6bd 6c35 e1bd 2a25 cd3d
00000240: d76e 4fbe c485 8b3d fcf2 a8bd 5da2 9d3d
00000250: 65cf d6bd 8c24 3c3e ee8a 34be cd05 e63d
00000260: 9b93 83bd d083 a7bd eebe 3e3d deae 57be
00000270: 767b 7dbe e6d2 af3c 54f9 943e 15e3 9ebc
00000280: 6746 c63d 73c0 51be 558f 96be 46fd 20be
00000290: 8f53 153d c3f4 6cbd 3c7a 10be cc2a acbe
000002a0: 0a19 1fbd 1de1 a8bd 5d35 933e 23c7 f13c
000002b0: 8406 78be 7840 a73d b058 ddbd 165b fe3d
000002c0: 8c5e 45bc 7fcb 35bd bf27 623e 8022 1b3e
000002d0: 021b cdbd bef3 8fbe 088c 8fbe 8a3d 2fbe
000002e0: af0c c43d d476 3a3e 2111 39bd 593b 2dbd
000002f0: ccf0 ddbd ce40 56bd 0463 d93d c362 ce3d
00000300: da72 bcbd cfd2 183d 7585 bbbd d2b6 95be
00000310: ed70 05be c4ed 573d 6273 a0be 1338 0abe
00000320: 5453 db3d f7d6 f6be c1d3 6e3c e77b 7f3e
00000330: 60ff 213d 4233 f7bc 22f0 3f3e fd42 63bd
00000340: 3dd8 19bd 83a8 293d 4af8 193e 330e eabd
00000350: cab9 3fbd 444a 9a3d 368a 54be 86bf cb3d
00000360: aebe 02be 6f51 9f3b 8ccf 3d3e 8caa 91bd
00000370: 73b3 d4bb a945 f2bd 8c1e 4fbd 18d1 2d3e
00000380: 0f52 803e 72ca 34bd c75b 993d 8db0 71be
00000390: 13e7 12be 4f91 f9bb 838e a43c e3c5 cc3d
000003a0: 3875 b33d 5dde f8bd 8ef6 873b 4752 95bd
000003b0: e465 04be 91ff 00be 30bc f13d 4983 2b3e
000003c0: 3138 a53e 4bb5 66bd 0c30 993e c062 f03d
000003d0: 5cb2 f23b 8cf5 e53d 189d 643d 3da9 8b3d
000003e0: b34e c73d 7693 80bd b511 8c3d c0ff bbbd
000003f0: eac9 0c3d 0e47 60be 74e1 083e 6a1a 36bc

Q.layers.1.bias f4 [50]
-0.0038595803 -0.022477504 -0.0324018 -0.010973207 -0.018186336 0.053725068 0.004703625 -0.02514891
-0.012919765 -0.016112344 0.0015444868 0.034262378 0.011307655 0.04991546 -0.0926181 -0.029551541
-0.018134192 0.027147662 -0.016172668 -0.033682134 0.006587956 0.00043115366 -0.015132657 0.012170825
-0.011709193 0.00622703 0.037440374 -0.03735692 -0.011988055 0.09744535 -0.015899 0.019352775
0.045363255 0.010995431 -0.0059420615 -0.046328038 0.09184123 -0.038406275 0.07762967 0.028368901
-0.043575395 0.0017578085 0.025015129 -0.007893665 -0.03729736 -0.09422676 0.0033906014 -0.021022107
-0.046628375 -6.8958325e-05
00000000: 03f1 7cbb be22 b8bc c0b7 04bd f7c8 33bc
00000010: 83fb 94bc d10e 5c3d de20 9a3b 1605 cebc
00000020: 6cad 53bc 09fe 83bc 6170 ca3a b556 0c3d
00000030: be43 393c 2774 4c3d 8fae bdbd 1316 f2bc
00000040: 288e 94bc c664 de3c 8b7c 84bc 47f6 09bd
00000050: c8df d73b 770c e239 f7ee 77bc 2468 473c
00000060: ead7 3fbc 1d0c cc3b 145b 193d 9203 19bd
00000070: 8c69 44bc 6d91 c73d 9f3e 82bc b689 9e3c
00000080: d2ce 393d 2e26 343c a0b5 c2bb 78c2 3dbd
00000090: 4117 bc3d e64f 1dbd 4efc 9e3d e665 e83c
000000a0: 1d7c 32bd 4466 e63a 87ec cc3c 6e54 01bc
000000b0: 1ec5 18bd f6f9 c0bd da34 5e3b 8e36 acbc
000000c0: 65fd 3ebd b89d 90b8
